saved_models/amazon-photo_SAGE_s6.pt (torch, 200301 bytes, 10 tensors)

convs.0.lin_l.weight f4 [32, 755]
00000000: 559b 4b3d 5c77 943d 1045 363d 8aee d5bb
00000010: 30e4 c83c 1528 933d fca7 823d 75c2 833d
00000020: c66b c33d 61fc 8f3d 69a7 be3d e5c8 333d
00000030: 0c6f 923c 27ca 633d 2aa3 8ebd 8d9a a33d
00000040: 5267 9bbc 0094 8a3d 08c0 903d 047f 533d
00000050: 2386 bd3d 8902 e63c 03bc a93c 9276 54bc
00000060: a75f ab3c 2a25 043d c3fb 853d d2b6 b23d
00000070: 8411 ee3c f570 8b3c 1718 8f3d 1b8c 4c3d
00000080: 3fb1 433c 375e 0f3c 3fcb 943c 6813 133e
00000090: 22d2 a53d d3dc 813d db49 2f3d 3ca0 583d
000000a0: 1dc5 9e3d 65a4 6ebd 7c52 9cbe 8e91 033c
000000b0: 84f9 9dbc 14e6 dc3d a697 bf3d 9641 ea3c
000000c0: c190 f83c 7930 933d dbfb 593c e15d e13d
000000d0: f22e 4f3d dc34 8e3d 7c39 853d 913c fbbe
000000e0: 41c9 a03d 2e2e 893c f7fd aa3b 1632 063d
000000f0: 46b3 943d 1202 cb3d 7aab 8b3c da1a 3d3d
00000100: fa26 ea3d 73e9 1f3c 37cd 043c e76c 373d
00000110: 3473 b23c 74d6 06be a2ff 7abe f555 873d
00000120: 0668 973d cde6 653d cde7 0a3d 1c56 c03d
00000130: 5d03 b03d c04d e43c 4bdf 7d3d f912 893d
00000140: 855e b03d 878f a13d 69bc a83d 3c1d 7a3d
00000150: a1c3 f4bc 1ee9 3a3d 13ee b3be e71f aabd
00000160: b15b d53b be64 81be 2cb2 513d 1b58 643d
00000170: f83d 87be a3ed b43d 1156 9dbe 336e 233d
00000180: e58b 743d 73e2 b33c d1bc 2d3d 9ae9 863d
00000190: bb51 823c dc84 dd3c 7599 83be e3f3 343d
000001a0: eb35 333b 06ff c8bb 358f 433d 138f 17bd
000001b0: 3323 13bf da98 85ba 7fb9 653d 28a4 0bbf
000001c0: 71ab 84bd 7e02 ba3d 10df a2be dfd4 d63c
000001d0: 6742 8a3d 7795 803d 6a29 6f3d a592 943d
000001e0: b341 593d 0b71 393d c99d 743d 4ecf 153d
000001f0: fa6e bebc ea45 75be 286f 1e3d 7f52 453d
00000200: 1e73 8dbd 86f0 ed3c 7dc0 503d 69c2 953d
00000210: 7987 bf3d d6f0 393d ab54 163d 9408 c43d
00000220: 864c 943d 932c 8c3c ba33 b93c 4eae b03d
00000230: 6cf3 943d 0b85 2e3c 4d9e 8d3c 5b40 0b3d
00000240: b26e f43c e1be a5be 4c38 903d 2679 1b3d
00000250: ae31 06bd 7154 c53d 024e cdbd 2a82 87bd
00000260: f689 80be 8c4b 183d 2144 f33c 2830 cd3c
00000270: 2307 813d 16af 6a3d 60f3 da3d f54f 4e3d
00000280: d260 f83c ec53 943d 47a5 2b3c 3ed1 aa3d
00000290: 21ce b43c ca81 c33d a987 953c 36a6 593d
000002a0: 2fd6 8d3d 3445 e6be 8e61 0e3d 2750 09bd
000002b0: 8abe ddbb e97c fe3c 1649 ba3d acff 433c
000002c0: 4d41 1b3d d61f d5bc 4037 3d3d a9d4 84be
000002d0: 2d4d 0e3d 2a1c 8c3d 4e53 b33d 7817 5a3d
000002e0: 8b01 883d 21de 033d ae4a 08bc 9060 4e3d
000002f0: f72d be3d cb25 8d3d 9692 c23d e93d 3c3d
00000300: a2f3 623c 2455 433d 006e 2339 3c8a cc3c
00000310: 359f 863c a9e6 0cbd 0dc7 483d 2419 913d
00000320: 81f4 56bc fed7 8e3d abc1 873c bedd 823d
00000330: 8498 323d 5648 963d c989 0d3d a333 613d
00000340: ccd4 a73d d370 ad3c f3ad 2b3d 89e0 963d
00000350: 947e 833d e116 803c 191c 823d acd2 9d3a
00000360: 4705 c83d ea9b 793d 370f a23d 30c3 b3bc
00000370: 64bf 293d e55e 053d 19b6 6c3b e14e f43b
00000380: 3506 3e3d 4bf4 8d3d 7f72 303d f948 8f3d
00000390: da40 203c 0aa9 793d bcf0 a53c d80a da3d
000003a0: f52f 893d 8e68 183d 8f86 a63c 4132 133d
000003b0: b5f6 903c df2c caba b3f2 1e3d 8e95 01bf
000003c0: 6c5e 803d c898 ed3c 881d 303d 5287 c23d
000003d0: 05ae a63c b380 d53c ca13 853d f7cb 593d
000003e0: 94a9 d9be 85ca 2dbf 2cef ee3d 4cda 523c
000003f0: 4486 8f3d a957 acbc 84ea 7b3d 2d1e 963d
0.049708683 0.072493285 0.044499457 -0.00652868 0.02452287 0.071853794 0.06379697 0.06433574
0.095420405 0.07030559 0.09309275 0.04389276 0.017875217 0.05561271 -0.06964715 0.079884626
-0.018970165 0.0676651 0.07067877 0.051634803 0.092541 0.02807738 0.020719534 -0.0129677225
0.020919634 0.032262005 0.0654216 0.087262765 0.029061086 0.017021636 0.06987017 0.049938302
0.011944114 0.00875049 0.018163322 0.14362872 0.0809672 0.06340947 0.042795043 0.052887186
0.0775244 -0.058262248 -0.3053168 0.008030308 -0.019284017 0.107860714 0.093550965 0.028595727
0.030342462 0.0718698 0.013304676 0.11004234 0.05058188 0.06943676 0.06505105 -0.49069646
0.07850886 0.016745653 0.0052182632 0.03276261 0.07260756 0.09912504 0.01704954 0.046168186
0.114332154 0.0097602485 0.008105568 0.04478159 0.021783449 -0.13167745 -0.24511579 0.06608192
0.07392888 0.056128312 0.03391247 0.09391424 0.085943915 0.027869105 0.061980527 0.06693072
0.08611778 0.07888704 0.082390614 0.061063036 -0.02987844 0.045632474 -0.35142574 -0.08306866
0.0065111746 -0.25272173 0.05119531 0.055748086 -0.26414466 0.08834388 -0.30729726 0.039900016
0.059703726 0.021958565 0.042416397 0.06587525 0.015908113 0.027040891 -0.25703016 0.0441779
0.002734537 -0.006133917 0.047743995 -0.03700168 -0.57475585 -0.0010192648 0.056085106 -0.5454736
-0.06478012 0.090825066 -0.31810808 0.026224552 0.067509465 0.06278508 0.058389105 0.07254533
0.05304117 0.04527382 0.05972079 0.036574654 -0.023246277 -0.23952451 0.038680226 0.048174378
-0.069067225 0.029045355 0.05096482 0.073124714 0.09352011 0.045395695 0.03670184 0.09571949
0.07241158 0.017111098 0.022607673 0.08626996 0.072729915 0.010651837 0.017287398 0.03399692
0.02983794 -0.32372192 0.07041988 0.037957333 -0.032762222 0.096352465 -0.100246444 -0.06616624
-0.25105256 0.037181422 0.029695572 0.025047377 0.06300189 0.05729588 0.10690951 0.05036922
0.030319605 0.07242569 0.010476417 0.08340691 0.022070946 0.0954624 0.018253164 0.053137027
0.06925618 -0.44974673 0.034761004 -0.033523705 -0.006767099 0.031065421 0.09095971 0.011962812
0.037904073 -0.026016157 0.04619527 -0.25943497 0.03474157 0.06841309 0.087561235 0.053245038
0.06640919 0.03219426 -0.008318586 0.050385058 0.09286111 0.06891974 0.09500615 0.04595748
0.013852032 0.04768862 0.0001558587 0.024968259 0.016433338 -0.034399662 0.049017955 0.07084873
-0.013119818 0.06974791 0.01657184 0.0638995 0.04360248 0.07338016 0.03455523 0.054980885
0.08194885 0.021171963 0.041913938 0.073670454 0.06420627 0.01563591 0.063530155 0.0012040935
0.097666316 0.060939707 0.07913058 -0.021943659 0.04144229 0.0325612 0.003611928 0.007455692
0.04639264 0.06931361 0.043077942 0.0699634 0.009781087 0.060952224 0.020256393 0.106465995
0.066986 0.037209086 0.020327834 0.035936598 0.017695764 -0.001542475 0.038805675 -0.5061883
0.062680095 0.029003516 0.042996913 0.094984666 0.02034665 0.026062345 0.06497915 0.05317303
-0.4251219 -0.67887145 0.11666712 0.012869429 0.07008031 -0.021037893 0.06150295 0.07329974

convs.0.lin_l.bias f4 [32]
00000000: 89a3 bbbd 03c0 1b3e 94c9 243e c681 203e
00000010: 7b55 1a3e 3122 f63d 4369 243e b5b7 aabd
00000020: 1467 35bd 2696 603c 8f24 d53e 3001 fa3d
00000030: 916f 5abd 8f10 bcbd f277 54bd 5d22 923d
00000040: 4802 a43d b3a9 bdbd 10d4 32be 45d2 a7bd
00000050: 47ba dd3d c2b2 45be 374b 023e 7a15 63bd
00000060: 2428 1b3e f90c 44bd dcf3 47bd dcb2 5d3d
00000070: b0cb 1a3d 78cb c6bd f316 cf3d b9c5 8d3e
-0.09162051 0.15209965 0.16092521 0.15674505 0.1507167 0.1201824 0.16055779 -0.083358206
-0.044287756 0.013707673 0.41629454 0.12207258 -0.053329054 -0.09182846 -0.0518722 0.071354605
0.080082476 -0.09260883 -0.17463708 -0.081944026 0.10826545 -0.19306472 0.12724005 -0.055440404
0.15152031 -0.047863934 -0.048816547 0.05412565 0.037791908 -0.09706777 0.10111799 0.27689913

convs.0.lin_r.weight f4 [32, 755]
00000000: ee3c e2bd d633 8ebd 7470 58bd 1c56 b3bc
00000010: 1bc5 61bd aa01 12bd 5f82 abba 4c5b 593d
00000020: ab20 343d 5035 05bd 77bb 71bc 97aa 81bd
00000030: 3c15 63bd 17a5 35bd b199 85bd 4473 00bd
00000040: 76a8 3fbd b554 84bc 6c4a c13c 6177 b3bc
00000050: c45a c9bc b0c5 89bd 67f3 26bd 2ff3 4dbd
00000060: f04a 8ebd 1efe f9bc 1d18 d9bd 1662 4c3d
00000070: e180 85bd a73f babd 09b2 aebd da28 4bbd
00000080: a2ed 8dbd 203d 8ebc a0c6 c8bd 91c8 883c
00000090: ee3f a83d 0508 7fbd 817b bdbc d3f2 efbc
000000a0: 44f1 2d3e d0ba 14bc 3284 633c e712 93bc
000000b0: a9bf babd 9ba3 f83c 7b44 1cbd 5a55 90bd
000000c0: 02e5 c8bd 1856 b23d 7640 5bbd d06b 2d3e
000000d0: 1a02 633b a277 a8bc 6c65 06bd ad95 f6bd
000000e0: b921 1ebd 58a2 2bbd 9ce2 8abc 0136 62bd
000000f0: 818b e3bc 35da 6cbc eb82 9fbc b48e f8bc
00000100: 435a 10bd 2d9a 89bd 08de 2cbd 2fba 193b
00000110: eec9 35bd ce6a 51bd 9b88 81bd b6f3 843c
00000120: feca 0ebd 821c 89bd a957 bbbc 9e2f 55bd
00000130: 7a51 103e 39f0 4cbb 07e7 afbd 3258 78bd
00000140: 166b 4dbd 3c1b 61bd 28bd d23a d714 193d
00000150: b7e9 57bd 9904 85bd 0d66 febd 3640 86bd
00000160: e826 12bd 08c3 02be 40ed 90bc cd77 e3bc
00000170: 3ef9 80bd bd80 6abd 25f5 2fbd 0d3b b7bc
00000180: 11b6 a0bc 50bb 97bd 0a53 43bd 0af5 20bd
00000190: 5b5a 77bc 2949 39bd 6476 3abe c46d 0abd
000001a0: 8e5d 4fbd 765e 4fbd 0529 93bd 9a86 20bd
000001b0: 21e9 85bd 0433 8abd 2039 7fbd 2987 06bd
000001c0: 487b 87bc 766b a2bc ff49 bdbc 081c cabd
000001d0: 075e 26bd fc38 9cbc 9515 fabc 4d04 8fbc
000001e0: 7433 17bd 8095 ebbc 61d5 34bd 4ec6 91bd
000001f0: 782f 28bd 013a 3bbd 31af 9bbd 5383 5b3c
00000200: 2eaf 63bd 3ae1 5dbd 6582 68bc 394e 0dbd
00000210: 6c7a 253d 8f6c 483b 1650 51bd 53be 43bd
00000220: 6c5a 8dba 85cf 60bd 206c 3dbd 330f 48bd
00000230: 4b10 36bd 0efa b0bc 6d97 c1bd 16c1 b8bc
00000240: 052e 20bd 6862 bdbc 1424 1fbd 9fd4 26bd
00000250: 382a 0ebe 65ef 9cbd e1e9 bebd 50d9 6ebd
00000260: cd94 88bd 12be 67bd 18c7 5cbd 2f91 7cbd
00000270: 561b 58bd 046c abbd abcc cabd 3353 29bd
00000280: 6aa9 53bd 70e6 e8bb b77e 31bd feec 4c3c
00000290: de61 de3b 5e3c 1dbd 93df 84bd 1769 9abd
000002a0: 1dcf 1abd 225b 9ebd 220a dbbd 4f9a 3abd
000002b0: e7ee e6bb 3c18 81bd f79e 12bd 944f 8a3c
000002c0: 668f e6bc 7f9c f2bd 543c 8cbd 44d2 6cbd
000002d0: 9a3f 35bd 1e78 84bd 48d1 41bc aa0e 21bd
000002e0: 0a3d 9dbd 55cd 5dbd ec5c a6bd 1100 91bd
000002f0: d283 a03b 8193 9abd 94ec 43bd cfdd aabd
00000300: 51ca 85bd 0120 01bd 918a 56bd 3e0e 813c
00000310: 3f48 95bd f310 1bbd eccf 06bd f44a 4e3f
00000320: 085e 7cbd 9099 99bd 338d 89bd 291e d5bd
00000330: bd51 d7bd df3f d1bc 929a 6bbd 7c81 24bd
00000340: eb58 93bd 6a95 48bd 4b17 7dbd fa0f 63bc
00000350: d588 a1bc 4753 c1bd b838 a7bc d34f 73bd
00000360: 50ea 373f d4b0 f5bc 256f 69bd 1c12 a2bd
00000370: 5c0d 30bd eb2d 73bb a253 5bbc 7c19 a7bb
00000380: fc3f a9bd 0b14 bdbd f3d5 64bd 8c80 8dbd
00000390: 5149 10bd c459 3bbd 4e40 c0bd 2b87 7ebc
000003a0: 303d 4fbd 6258 44bb 2830 b3bd c031 abbc
000003b0: 72b7 a3bc f6a6 cabd cb42 0d3d 87a2 9abd
000003c0: d567 8abd a135 e9bc 38b6 84bd 2124 19bd
000003d0: 6518 9fbd 81a5 0abd 7a69 b23c cadb 053c
000003e0: 3aba 7f3a a680 44bd edef 1d3e 7060 60bd
000003f0: e879 28bd b564 00be bddb 16bd 8076 33bd
-0.11046778 -0.06943481 -0.05284162 -0.021891646 -0.055119615 -0.03564612 -0.0013085118 0.053065583
0.043976467 -0.032521546 -0.014754168 -0.063313656 -0.055440173 -0.044346895 -0.06523455 -0.031359926
-0.046791516 -0.016153673 0.023595057 -0.02190751 -0.024579413 -0.06727159 -0.04075947 -0.050280746
-0.06947887 -0.03051668 -0.10600302 0.04989823 -0.06518722 -0.09094172 -0.08530051 -0.049599506
-0.069300905 -0.017363131 -0.0980351 0.0166972 0.082153186 -0.062263507 -0.02313018 -0.029290592
0.16986567 -0.009077743 0.013886498 -0.01795335 -0.091185875 0.03035145 -0.038151246 -0.070475295
-0.09809305 0.08707827 -0.05352827 0.16935658 0.0034638704 -0.020564858 -0.032811567 -0.12040267
-0.03860638 -0.04190287 -0.016953759 -0.055227283 -0.027776482 -0.0144563215 -0.019471606 -0.030341484
-0.03524233 -0.0671886 -0.042203933 0.0023456921 -0.04438203 -0.051127248 -0.063248836 0.016229492
-0.034861557 -0.066948906 -0.022868948 -0.052047364 0.14093581 -0.0031271114 -0.08588987 -0.060630985
-0.050150953 -0.054957613 0.0016078101 0.03737339 -0.052713122 -0.064950176 -0.124218084 -0.06555216
-0.035681635 -0.12769711 -0.017691255 -0.027767086 -0.06297539 -0.05725168 -0.042958397 -0.022367025
-0.019618066 -0.07408774 -0.047686614 -0.039296187 -0.015097226 -0.045235787 -0.18209225 -0.033796087
-0.05062633 -0.050627194 -0.07185558 -0.039190866 -0.065386064 -0.06748012 -0.062310338 -0.032843743
-0.016538277 -0.019826632 -0.023106573 -0.09868628 -0.040617015 -0.019070141 -0.03052787 -0.017458105
-0.036914304 -0.02875781 -0.044148806 -0.07117902 -0.041060895 -0.045709614 -0.076017745 0.013398009
-0.055586986 -0.05416987 -0.014191245 -0.034498427 0.040399954 0.0030582284 -0.051101767 -0.04778893
-0.0010784394 -0.054885406 -0.046245694 -0.04884262 -0.044449132 -0.02160361 -0.0945271 -0.022553008
-0.039106388 -0.023118213 -0.038852766 -0.040730115 -0.13883293 -0.076628484 -0.093219526 -0.058312714
-0.066690065 -0.05657775 -0.053900808 -0.061661895 -0.052760445 -0.08370212 -0.099023186 -0.04133911
-0.051675238 -0.0071075484 -0.043333735 0.012507675 0.006786569 -0.03838765 -0.06487956 -0.075395755
-0.037795175 -0.07732226 -0.10695292 -0.045557316 -0.0070475223 -0.063034505 -0.035796132 0.016883649
-0.02814455 -0.118462555 -0.06847444 -0.057817712 -0.04425011 -0.06468223 -0.011829682 -0.039320625
-0.07677658 -0.054150898 -0.08123192 -0.07080091 0.0048985267 -0.075476654 -0.04783304 -0.08343088
-0.065327294 -0.031524662 -0.05237824 0.015753862 -0.072891705 -0.03785796 -0.032913134 0.8058312
-0.061613113 -0.07499993 -0.06716385 -0.10406143 -0.10513637 -0.025543151 -0.057520457 -0.04016255
-0.07194694 -0.048970617 -0.061789792 -0.01385879 -0.019718567 -0.09439712 -0.020412788 -0.0594023
0.7184191 -0.029991545 -0.05699076 -0.0791361 -0.04298149 -0.0037106227 -0.013386639 -0.0050994735
-0.08264157 -0.092323385 -0.0558681 -0.06909284 -0.03522617 -0.045739904 -0.09387265 -0.015535156
-0.050595462 -0.0029959907 -0.087494195 -0.020897746 -0.019984934 -0.098951265 0.034487527 -0.07550531
-0.06758086 -0.028467955 -0.06480068 -0.03738797 -0.07768325 -0.033849243 0.02177881 0.008170078
0.0009755228 -0.04797425 0.15423556 -0.05477947 -0.041131884 -0.12538417 -0.036830653 -0.043814182

convs.1.lin_l.weight f4 [9, 32]
00000000: 1d81 e8bd 19b9 a2be bcb5 a7be 6fe2 afbe
00000010: 6cab 90be f394 eebd 72f5 85be 15dd bfbd
00000020: 51b8 8cbe dcc9 25be fea7 cfbd 2eae 82be
00000030: d9fd 0fbe 8f0b afbd f38d 90be 6aa8 57bd
00000040: 957a 6bbd a9e4 7ebc d3f9 01be e6ef eebd
00000050: 7d61 f63b 9dd7 77be bb4e 11be 93e5 b2bd
00000060: c485 97be b862 483b 3b2b f43d 6473 98be
00000070: c263 0abe 4b1d 05be 8182 e7bd 7c18 21be
00000080: 7478 d4bd ece9 afbd 2fd7 1bbe e90c 61be
00000090: 5a0f a2be 3ab4 16be fdda 9abe 2e57 b6bd
000000a0: fa60 87be 983a 42be 40a0 1b3d c7fa 8cbe
000000b0: 7a3b 263d 95dc a4bd 05a7 ccbd 2a60 88be
000000c0: d654 78be 1356 cebc d983 17be 5020 573d
000000d0: 0e9e 87be 09ae 35be 6179 2bbe c769 223d
000000e0: fe24 50be 076c d8bc 76c3 a0bd f109 87be
000000f0: 77e8 4e3d 04e1 71be 53b2 05be b969 15be
00000100: cc76 0dbe 131b c03d fb7f 773d 1dd2 d1be
00000110: 1242 b8be bb31 d43d 7ce9 c8bc 8068 e33d
00000120: 694d 9dbd 7ad0 fabd 22b9 703d 8005 af3c
00000130: 2e1a 03bd 2dce 0a3d d12e 87be 4f12 d93c
00000140: f753 783d 75d0 89bc b692 89be e7f8 ef3c
00000150: d5bf 2fbe b79e 96bd c90e 52bd 158e 0dbe
00000160: 16f7 cfbd e2e4 1dbe 5a07 813e a6de d93c
00000170: 0acb 123d 26cf efbd 3372 3d3e c64e bb3d
00000180: fe42 fe3d dd6e 9f3e 9520 8a3e 0105 b03e
00000190: ec04 473e b935 923e c4d4 803e 6a30 c0bc
000001a0: 1deb 2139 e518 1e3d 9cdb 083e 4626 003e
000001b0: 3bae 5d3c 5603 8f3a f3a3 963d ef09 0f3e
000001c0: 3540 143d c277 c53d 7c87 d2bd 3f2b 373d
000001d0: a680 053d adf4 083e 8252 973e 2980 04bc
000001e0: 805e 4e3e 9904 973c 8714 f03c 1097 a93e
000001f0: 0206 9b3b bb7b bebc 6ed6 0b3e d8fb 6b3e
00000200: 55f0 0cbe 5498 11bd d93f a5be df07 97be
00000210: f13f 18bd 1b04 95be b6dc c439 e994 85bd
00000220: ab1d 2ebe 3fe7 04be f321 8ebe 5eed 80be
00000230: 5a70 793c 1a9a 2fbe c086 9fbe a639 5bbe
00000240: be47 9ebd ab28 8cbd 96d3 a4be 3ce5 61be
00000250: e0cc 22be 5f46 1e3c f062 5abe a808 b5bc
00000260: d00b 8ebe 9f3c 7cbe ac7c 65be 7e26 39bd
00000270: d790 92bd b694 e03b 3958 abbe 9cfc 57be
00000280: c2da 9abd fa20 7cbc bf48 babd e3b1 62be
00000290: 8c0c e1bd cd97 84bd e99c b6be 31aa 32be
000002a0: 5d11 f8bd 0a26 d4bd 8530 88be b617 b2be
000002b0: 2a66 a5bd 7260 263d 4586 d2bd 2d08 d3bd
000002c0: 8b9c 67be a8c7 68bd a29d 91be 5449 46bd
000002d0: f165 20be ff86 adbe a8c7 09be af59 22bd
000002e0: cc03 8ebd fef5 1b3d 8258 28be 0452 63be
000002f0: 14de 42be 3342 c1bd 3263 68be 2221 54be
00000300: df04 71be 6ab5 8ebe f94e 4abe fc95 70be
00000310: 60f9 89be 8025 65bd 886a b9bd 7f91 afbd
00000320: 5f07 733c 54ca 99be 516e 98be fc08 9dbd
00000330: d1f9 67be 3854 8abe 6c11 66bc f5e2 8fbe
00000340: fe06 f7bd 4eef 4ebb ecb8 89bc 6ea2 623d
00000350: c5cd 58be 953e adbd 6c89 b8bd a0c3 bbbd
00000360: 84a9 fdbd 028c 603c 4363 8dbe 8d8a a0be
00000370: 2427 26be add0 34be 7b5d 88be 8b6b a8be
00000380: ae3a 0dbe 0bb1 e1bc baa8 e4bd 84f0 b0be
00000390: 2d38 31be ffb3 a9be cf93 1cbe 9ed7 37be
000003a0: 985e c8bc 1cdc 98be 8789 c0bc dd49 66be
000003b0: 0365 2fbe 9cd6 183c 7e8d 613c 51c8 e6bd
000003c0: 1ba1 92bc aab0 3fbe a7eb 96be 279d 91bd
000003d0: 752e 70be 5fba 02be 9999 18bc f465 99be
000003e0: 0b56 b5be b67e 163d 913f afbe e021 0ebd
000003f0: bdda 63bc 5faa 7ebe 7da9 5fbd d76b 5fbe
-0.113527514 -0.31781843 -0.3275584 -0.34352443 -0.28255785 -0.116495036 -0.26163822 -0.0936834
-0.27484372 -0.16190284 -0.10139464 -0.25523514 -0.14061679 -0.085471265 -0.282333 -0.052650847
-0.05748995 -0.0155574465 -0.12692957 -0.11666851 0.0075189457 -0.24203344 -0.1419019 -0.08735194
-0.29594243 0.003057642 0.11922308 -0.29775536 -0.13514617 -0.12999456 -0.113041885 -0.15731996
-0.10374537 -0.08589539 -0.15218805 -0.21977581 -0.31652337 -0.14717188 -0.302452 -0.08903347
-0.26441175 -0.18967664 0.037994623 -0.27535078 0.040584065 -0.08049885 -0.09992794 -0.26635867
-0.24251112 -0.025187528 -0.1479639 0.05252105 -0.26487774 -0.1774217 -0.16745521 0.03965166
-0.20326611 -0.026418699 -0.07849781 -0.26374772 0.050514665 -0.23620993 -0.13056307 -0.14591111
-0.13814849 0.09380164 0.060424786 -0.40980616 -0.35987908 0.10361048 -0.024525397 0.11103916
-0.076807804 -0.12246795 0.058770306 0.021364927 -0.03200739 0.03388803 -0.26402906 0.026497988
0.06062695 -0.016823033 -0.26869744 0.02929349 -0.17163022 -0.07354491 -0.05128363 -0.13823731
-0.1015455 -0.15419343 0.2520092 0.026595425 0.035838164 -0.11709432 0.18500595 0.09145884
0.124151215 0.3113927 0.26977983 0.34378818 0.19435471 0.28556612 0.25162327 -0.023460586
0.00015441743 0.03859796 0.13365024 0.125146 0.013530309 0.0010911028 0.073554896 0.13968633
0.036194045 0.096419826 -0.10279748 0.044718977 0.03259339 0.13374586 0.29555136 -0.008087196
0.20153236 0.01843481 0.029306663 0.33123064 0.004730941 -0.023252359 0.13656017 0.2304529
-0.13763554 -0.035545662 -0.32275274 -0.29498193 -0.037170354 -0.29104695 0.00037548476 -0.06522543
-0.17003505 -0.12978838 -0.27760276 -0.25181097 0.015224541 -0.17148629 -0.31157494 -0.2140871
-0.077285275 -0.06843694 -0.32192677 -0.22060102 -0.15898466 0.009660332 -0.21326804 -0.022098854
-0.27743387 -0.246325 -0.2241084 -0.045202725 -0.07156532 0.006853665 -0.33465746 -0.21092457
-0.07561256 -0.015388722 -0.090959065 -0.22138171 -0.10988721 -0.06474266 -0.35666588 -0.17447735
-0.12112687 -0.10358818 -0.26599517 -0.34783715 -0.08076127 0.04061932 -0.10279516 -0.10304294
-0.2261831 -0.056831032 -0.28440577 -0.048409775 -0.15663888 -0.33892056 -0.13455069 -0.03963631
-0.06934318 0.038076393 -0.16440013 -0.22199255 -0.19030029 -0.094364546 -0.2269409 -0.20715764
-0.23537014 -0.27872783 -0.19756688 -0.23494714 -0.2694807 -0.055943966 -0.09053522 -0.08572673
0.0148333 -0.30037177 -0.29771665 -0.07667729 -0.22653891 -0.2701738 -0.01404224 -0.28102842
-0.120618805 -0.0031575742 -0.01681181 0.055330686 -0.21172245 -0.08459202 -0.09010586 -0.09168172
-0.12385848 0.013705255 -0.27614793 -0.31355706 -0.16225868 -0.17657728 -0.2663382 -0.3289455
-0.13791916 -0.027550241 -0.111649945 -0.345585 -0.17306586 -0.3314514 -0.1529076 -0.17953345
-0.024459168 -0.2985543 -0.023503078 -0.22489114 -0.17128377 0.009328511 0.0137666445 -0.11268676
-0.017899087 -0.18719736 -0.29476663 -0.071100526 -0.23455222 -0.12766407 -0.009313964 -0.29960597
-0.35417208 0.036741935 -0.34228185 -0.034700274 -0.013907132 -0.24869679 -0.054604996 -0.21818481

convs.1.lin_l.bias f4 [9]
00000000: 109f edbc f80f 24be 65b7 25bd edf7 283e
00000010: b9d3 03be 2316 13be cde7 9ebd b706 abbe
00000020: e834 82be
-0.029006511 -0.16021717 -0.0404581 0.16500826 -0.12873735 -0.14363913 -0.07759056 -0.3340356
-0.2543099

convs.1.lin_r.weight f4 [9, 32]
00000000: 06d3 04be 9fde ddbc c06f c1bd fdc1 9abd
00000010: 5c2f 2abe a90c 56bd 8e0a 47be 9efb 18bd
00000020: ff39 16be 492a cbbd 07e3 0e3d f178 17be
00000030: 99ca ab3c 1357 813b d584 25bd 413a 263d
00000040: b4d1 50be 3d04 9abe 7cb6 97be a06c eabc
00000050: c679 dfbd 3f53 78be 2b16 5ebe 601e 81bd
00000060: 0e55 f4bd 7687 cdbd f780 4c3d 9cd4 e2bd
00000070: 1570 af3c 5428 c53d 27f6 6ebe d071 80bd
00000080: 5d38 993a 7635 51be 8c1f 4b3d b82c 853d
00000090: 3618 9fbe 1d7f 98be d83a 85be 08d0 95bd
000000a0: b470 18be efab 50be 0cf2 32be 7dea 81be
000000b0: 5e82 7bbd cdb1 86bd 4e33 06be 7ee9 2cbe
000000c0: 4a5a 03be 5037 ebba 0b49 b2be 15f5 6dbe
000000d0: eb60 98be 7a29 b7bd 4e19 40be 92d7 80bc
000000e0: 445f 8abe 588a 0dbd fe8a 72be 5bee 5ebe
000000f0: 2e26 f7bb dc36 c4bd d792 efbd b061 95bc
00000100: e77a 29bd 2d62 5fbd 0761 3fbd fc6f 03bf
00000110: b1d9 85bd dd21 26be f1b4 97be a77b 303e
00000120: f046 93bd 8c74 ec3d c753 a3bd cee3 893d
00000130: 0782 873d 9d39 e43d 068f 873c 6ad9 c93d
00000140: 5022 1b3e 84ff 473e a6a1 253c f99d 283e
00000150: f57f babc 2d89 b7be 8f11 6cbd ca9a 83bc
00000160: f98b 3a3d 0c0a 3b3e 9328 eb3e 7325 1cbe
00000170: f798 43bd a997 693e 946b 8b3e 4b31 21bd
00000180: 3af2 c53d 4bc0 983e 3fb8 fc3d 4e43 303f
00000190: 8466 8e3e 0cd4 bf3d 43d0 013e fd9a 3cbd
000001a0: 045c 883b 2d44 903d 1fdf 853e ffbf 153e
000001b0: e42e 493d 6a1e 24be 8d11 473d af61 0c3e
000001c0: 6b2a 133e 416b 2ebd 1432 bbbd ff86 013e
000001d0: 0d40 933d 3f2c 4ebe 2f7b 90bc afe7 893c
000001e0: 075d a83e 1448 a1bd ccba 9f3d 4772 333e
000001f0: 29a5 60bd 53a7 6fbc 4c1f 52be 3d24 023e
00000200: 2173 78bc d3ac e8bc e44f 033c c730 3dbe
00000210: df96 6ebe 33fe 64be 7df0 95be 5e08 bdbc
00000220: 82cb 72bd 1b02 4bbe a7b3 72be 3ab0 d8bd
00000230: f80f a3be 8bd9 94be 47e2 6bbd 193b 9bbd
00000240: 4653 14be 4757 83be 0235 dcbd 7962 16be
00000250: 8cd6 5abe 83a5 ae3d c288 6d3c e00a d1bd
00000260: 133d 51bd 5d36 9e3c 81f5 58bd 927d 72bd
00000270: f914 233d de3d 9dbd 385d 9cbe c1d6 1bbe
00000280: cb95 99bd 8543 0bbe 81a6 27bd 00f7 49be
00000290: 5b05 a0bd 58b7 5dbe 9cec a5be 4af2 adbe
000002a0: a43d 18be 915c b8be e6ce e5bc 0cbb 64be
000002b0: b6a5 5cbe 66eb 5fbe abf7 41be 0ec4 12be
000002c0: f308 8abe cb33 b3bd f9f8 75be 2a59 5fbe
000002d0: 58b9 6bbe d418 83be 5680 6dbd 383d 4fbe
000002e0: 8278 61be 6d73 96be 3fb6 a5be 3019 94be
000002f0: 61ed 26be 3c89 34be a313 f3bd 3c81 c0bd
00000300: 4804 a2bd bae2 77be 0186 88be d19d 2fbd
00000310: 43bb 9cbe 6739 33be ab2d a7be c644 9ebe
00000320: 8f6d 6dbe eb77 69be c27a 7dbe 7873 9dbe
00000330: d054 99be 468f 7bbd e6e0 963c 7461 d43c
00000340: 344a 3fbe 1223 bbbc 2d2f f8bc cfac 79bd
00000350: 6641 25be 7e92 0ebe 70c5 523c 455f 82bd
00000360: 06e0 13be 48bc 94ba 6ce5 16be 9e15 b13c
00000370: 9327 58be 7984 28be bb4e 97bd d4d8 97bc
00000380: 5b3b e1bd 72f9 aabe 7009 68be c24c 9bbe
00000390: d922 3cbb e1b2 2abe 8b11 33be 7378 cabd
000003a0: 69a9 0ebe fd34 6bbe 19d3 9cbe 5d5c ddbd
000003b0: ef69 3fbd a0b6 d6bd b9ac 89be 0195 5bbd
000003c0: 1a47 663c d057 973b 3529 aebd d85d a2be
000003d0: 1f3b 41be 9001 9ebd f2c9 a3be 1550 88be
000003e0: 1e8f d6bc 9fd6 3ebe 8384 c9be 1efe 06be
000003f0: 5014 73be 63e5 b9be 23dd 4abd b018 9bbe
-0.12971124 -0.027083693 -0.09445143 -0.075565316 -0.16619629 -0.052258167 -0.1943762 -0.037349336
-0.14670561 -0.09920175 0.03488448 -0.14792229 0.02097063 0.0039471476 -0.04040988 0.0405829
-0.20392495 -0.3008136 -0.29631412 -0.02861625 -0.10911898 -0.24250506 -0.21688144 -0.06304622
-0.119302854 -0.10035603 0.049927678 -0.11075708 0.02141575 0.096268326 -0.23336087 -0.06271708
0.0011689771 -0.2043055 0.049590632 0.0650267 -0.3107316 -0.2978448 -0.26021457 -0.073150694
-0.14886743 -0.20378087 -0.17475146 -0.25374213 -0.061403625 -0.065768816 -0.13105509 -0.16885945
-0.12827411 -0.0017945562 -0.34821352 -0.23238023 -0.29761443 -0.08943458 -0.18759653 -0.015727792
-0.27025807 -0.034555763 -0.23685834 -0.21770613 -0.007542393 -0.09580776 -0.11697929 -0.018235058
-0.041376974 -0.054536987 -0.04672339 -0.5134275 -0.06535662 -0.16223855 -0.29630235 0.1723467
-0.07191265 0.11545667 -0.07974964 0.067329034 0.066165976 0.11143801 0.016547691 0.098559216
0.15149808 0.19531065 0.010109341 0.16466512 -0.022766093 -0.35846844 -0.057633933 -0.01606502
0.045543645 0.18265551 0.45929393 -0.1524866 -0.0477533 0.2281176 0.27230513 -0.03935365
0.09665342 0.29834208 0.1233983 0.688527 0.27812588 0.093666166 0.12677102 -0.046046246
0.0041613597 0.070442535 0.2614679 0.14624022 0.049116984 -0.16027227 0.048600722 0.13709138
0.1437165 -0.042582754 -0.09140411 0.12649153 0.07189951 -0.20134066 -0.017636864 0.016834108
0.32883474 -0.07875076 0.077993006 0.17524062 -0.05484501 -0.014627296 -0.20519751 0.12709136
-0.015164168 -0.028402722 0.008014653 -0.18475638 -0.2329974 -0.22362594 -0.2928504 -0.023075279
-0.05927611 -0.19825022 -0.23701344 -0.105804875 -0.3184812 -0.29072222 -0.05758884 -0.07579631
-0.14484891 -0.25652525 -0.10752298 -0.14686002 -0.21370906 0.085276626 0.014497938 -0.10207152
-0.051083636 0.019313032 -0.052968506 -0.059201784 0.039814923 -0.07677816 -0.3053987 -0.15218641
-0.07499274 -0.13599975 -0.040930275 -0.1972313 -0.078135215 -0.21651971 -0.3240708 -0.33973914
-0.14867264 -0.36008123 -0.028052758 -0.22336978 -0.21547589 -0.21867141 -0.18942134 -0.14332601
-0.26959953 -0.08750113 -0.24020757 -0.21811357 -0.23019922 -0.2560488 -0.05798372 -0.20238197
-0.22018626 -0.29384938 -0.32365605 -0.28925467 -0.1630149 -0.17630476 -0.1186898 -0.093996495
-0.07910973 -0.24207583 -0.26664737 -0.042875115 -0.3061162 -0.17502366 -0.3265203 -0.30911845
-0.23186325 -0.22799651 -0.2475386 -0.30752158 -0.2994752 -0.061415933 0.018417787 0.025925376
-0.1868065 -0.022843871 -0.030295933 -0.06095582 -0.16138229 -0.1392307 0.012864456 -0.063658275
-0.14440927 -0.0011347616 -0.14735955 0.021616753 -0.21108846 -0.16456784 -0.073880635 -0.018536009
-0.10997649 -0.33393437 -0.2265985 -0.30332 -0.0028707294 -0.166698 -0.17487161 -0.09886255
-0.13931812 -0.22969432 -0.30629805 -0.108086325 -0.046731886 -0.10484052 -0.2688959 -0.053608898
0.014055038 0.0046186224 -0.08503953 -0.31712222 -0.18870209 -0.07715142 -0.3199001 -0.26623598
-0.02619129 -0.18636559 -0.3935891 -0.13182876 -0.23738217 -0.3630782 -0.0495273 -0.30292273

bns.0.weight f4 [32]
00000000: 4081 823f 40d1 953f 95bf 923f 178d 0940
00000010: f752 ac3f 6bbb 9b3f ed3f 943f fdf2 693f
00000020: 129b 5c3f 9c93 823f b4be 8f3f 7cae 943f
00000030: 9c84 623f d5c6 713f c346 623f 4eac 8e3f
00000040: c100 763f aed2 6a3f a730 0a40 32ec 783f
00000050: 1265 703f 5550 d23f e584 873f 0b98 5c3f
00000060: 1646 973f a6d7 6c3f 9d55 a43f 1281 973f
00000070: 409b 613f 4159 643f 65ea cc3f 8629 963f
1.0195694 1.1704483 1.1464716 2.1492364 1.3462819 1.216657 1.1582009 0.91386396
0.8617412 1.0201297 1.1230073 1.1615748 0.88483596 0.9444402 0.88389224 1.1146333
0.960949 0.9172772 2.1592195 0.97235405 0.9390422 1.6430765 1.0587431 0.861695
1.1818264 0.92516553 1.2838627 1.1836264 0.8812752 0.8919869 1.6009032 1.1731422

bns.0.bias f4 [32]
00000000: f710 0e3d ef2b 523e eefe 2a3e 6df2 623f
00000010: 4529 c13e 6dab 8e3e 80ce 1d3e 3d99 e5bd
00000020: ae1a b1bd 7fdf b83d d0f1 393e 7678 283e
00000030: 5782 f8bd 6529 0abe ed08 5d3b 6105 ad3d
00000040: db4a 4a3d a66b ecbd 1c26 903e b421 6cbc
00000050: 2d7b 113e a21c 023c ceba d73b fe90 e0bd
00000060: 2539 633e 27bf 06be b64e 893e 62bb 513e
00000070: cd29 f6bd db0a 08be 4d41 033e 7ef8 543e
0.034684148 0.20524572 0.1669881 0.8865116 0.377268 0.27865162 0.15410805 -0.112108685
-0.08647667 0.090270035 0.1815865 0.16452202 -0.12134235 -0.13492353 0.0033727244 0.084482916
0.049387794 -0.1154397 0.28154075 -0.014412332 0.14207144 0.007941397 0.006583548 -0.10965155
0.22189768 -0.13158856 0.26817864 0.20481637 -0.120196916 -0.13285391 0.12817879 0.20797917

bns.0.running_mean f4 [32]
00000000: 9c2d 31bf 499f 3241 ae6e c740 f6ea 23c0
00000010: fa3f fd3f 54fc 4841 fc87 a041 1dcb c3c1
00000020: fe90 cf40 6806 573f 20c1 ddbf a649 0241
00000030: 1d76 debe f0ac eb40 f725 b240 34f7 95c0
00000040: fc44 303e ead9 8141 e245 a03f aae7 8fbe
00000050: 5448 2140 0e6a 99be bbd6 2841 9b01 d740
00000060: 2948 3341 8c8e e340 e592 d5c1 e05c a241
00000070: 4310 3b41 a2b7 cfc1 bc29 35bf 2736 0b41
-0.6921022 11.163888 6.2322607 -2.5612159 1.9785149 12.561604 20.066399 -24.474176
6.4864492 0.8399415 -1.7324562 8.142981 -0.43449488 7.3648605 5.5671344 -4.686426
0.17213815 16.231403 1.2521327 -0.28106433 2.5200396 -0.29963726 10.552424 6.718946
11.205117 7.1111507 -26.696726 20.29535 11.69147 -25.964664 -0.70766807 8.700721

bns.0.running_var f4 [32]
00000000: 8a66 9b42 e4ac ca42 d497 0f43 76e8 8b40
00000010: bd2b a640 03e3 c142 2cc1 3943 2f24 0743
00000020: d07b 1a43 82df f842 ed37 ec42 b954 fa42
00000030: 69df 0443 bcdb 7742 442e 2143 efcd 8442
00000040: bd03 1043 bd4d e642 5915 2a40 dbdf f242
00000050: 6d98 1a43 fc2c 2e40 6c7c 4643 1814 1943
00000060: 0f65 be42 58bb e042 9627 2343 4db6 2043
00000070: 36c9 0043 5a26 1243 3507 8740 0232 0743
77.70027 101.33768 143.59308 4.3721266 5.192839 96.94338 185.75458 135.14134
154.48364 124.43654 118.10923 125.165474 132.8727 61.964584 161.18073 66.402214
144.0146 115.15183 2.657553 121.43722 154.59541 2.7214956 198.48602 153.07849
95.19738 112.365906 163.15463 160.71211 128.78598 146.14981 4.21963 135.19534
