saved_models/amazon-photo_GAT_s9.pt (torch, 399538 bytes, 14 tensors)

bns.0.weight f4 [128]
000000 33 f0 7d 3f f9 ae 7c 3f 25 1a 7e 3f a4 e5 78 3f
       0.9919464 0.9870449 0.99258643 0.97225404
000010 2d 90 82 3f a2 c4 85 3f dd 25 87 3f 1b 55 86 3f
       1.0200249 1.0450633 1.055843 1.0494722
000020 46 82 81 3f 32 e8 7a 3f f8 83 7c 3f 6d b3 83 3f
       1.0117881 0.9801055 0.9863887 1.0289131
000030 c4 e5 7b 3f 2d 52 86 3f bb 0f 80 3f b7 b5 7d 3f
       0.9839747 1.0493828 1.00048 0.991054
000040 de 34 82 3f 59 6a 81 3f 01 c5 81 3f c2 1b 84 3f
       1.0172384 1.011058 1.0138246 1.0320971
000050 94 39 88 3f 75 84 7c 3f 4d 9e 88 3f 28 e7 82 3f
       1.0642571 0.98639613 1.067331 1.0226793
000060 65 20 84 3f a9 a6 7a 3f e6 7a 86 3f f4 0b 7e 3f
       1.0322386 0.97910553 1.0506256 0.9923699
000070 15 ce 7b 3f 00 9f 80 3f 37 a8 83 3f 56 1e 80 3f
       0.9836133 1.0048523 1.028571 1.0009258
000080 c0 58 7a 3f 0b f2 83 3f e2 2c 8c 3f 9a 36 80 3f
       0.9779167 1.0308241 1.0951197 1.0016663
000090 74 9e 88 3f 20 a7 7c 3f 71 b7 85 3f ef 15 83 3f
       1.0673356 0.9869251 1.0446607 1.0241069
0000a0 74 85 83 3f c7 32 7d 3f 12 75 7d 3f 66 6a 87 3f
       1.0275102 0.98905605 0.9900676 1.0579345
0000b0 c6 09 84 3f 0d cd 88 3f cc cd 83 3f b1 7d 82 3f
       1.0315483 1.0687577 1.0297179 1.0194608
0000c0 82 f0 79 3f 50 10 8b 3f 02 1f 79 3f 73 5b 83 3f
       0.9763261 1.0864353 0.9731294 1.0262283
0000d0 01 14 8b 3f 27 bc 7a 3f 38 7d 87 3f 66 63 83 3f
       1.086548 0.9794335 1.0585089 1.0264709
0000e0 64 6b 7b 3f c2 ca 82 3f 06 5a 84 3f 6d 76 84 3f
       0.9821074 1.0218127 1.0339973 1.0348641
0000f0 6c 87 85 3f 21 eb 84 3f 9b a9 90 3f af 9a 85 3f
       1.0431952 1.0384256 1.130176 1.0437831
000100 e9 81 83 3f fd 9a 83 3f 73 5a 8c 3f 75 42 7d 3f
       1.027402 1.0281674 1.0965103 0.9892953
000110 15 0e 80 3f 0e 5d 8c 3f f3 fa 8c 3f f6 7c 8a 3f
       1.0004297 1.0965898 1.1014084 1.0819385
000120 4f 38 82 3f ba 96 86 3f 07 9a 88 3f 6f 05 86 3f
       1.0173434 1.0514748 1.0672005 1.0470408
000130 59 9d 85 3f 36 c7 82 3f 9a e8 85 3f e0 6e 7e 3f
       1.0438644 1.0217044 1.0461609 0.9938793
000140 8c f5 8b 3f 84 99 90 3f 4e c9 82 3f 0e 92 8b 3f
       1.093431 1.1296849 1.0217683 1.0903947
000150 60 20 79 3f 8b 6a 87 3f ad 02 88 3f 5c 6f 7b 3f
       0.97315025 1.0579389 1.0625817 0.98216796
000160 f0 8a 8a 3f 73 10 7c 3f be f4 8c 3f 1e 7f 8c 3f
       1.082365 0.984626 1.1012189 1.0976293
000170 cd 87 79 3f 85 89 89 3f 49 d1 86 3f 57 9b 85 3f
       0.9747284 1.0745093 1.0532619 1.0438031
000180 88 18 89 3f 04 e8 79 3f 79 6e 84 3f 98 c1 81 3f
       1.0710611 0.9761965 1.0346214 1.0137205
000190 1a 73 88 3f 17 e4 86 3f e1 66 7e 3f e2 21 7c 3f
       1.0660126 1.0538357 0.9937573 0.984892
0001a0 51 50 88 3f 22 0d 7a 3f dc ec 7f 3f df 18 80 3f
       1.0649511 0.9767629 0.99970794 1.000759
0001b0 8b 46 7a 3f 9f 7e 7e 3f 00 d5 83 3f df 64 83 3f
       0.9776389 0.9941196 1.0299377 1.0265158
0001c0 27 38 81 3f 9c ff 83 3f 37 ac 83 3f 61 e6 82 3f
       1.0095261 1.0312381 1.0286931 1.0226556
0001d0 94 36 7c 3f ed 3b 7d 3f 2e 06 87 3f 63 e7 84 3f
       0.9852078 0.98919564 1.0548761 1.0383114
0001e0 c7 ac 85 3f 68 5b 7b 3f 7b fb 80 3f 82 bb 82 3f
       1.0443352 0.9818635 1.0076746 1.0213473
0001f0 72 90 88 3f 2a 31 86 3f 3e 21 7b 3f bb 01 7c 3f
       1.0669081 1.0483754 0.980976 0.9844014

bns.0.bias f4 [128]
000000 75 5f f6 bc fd 3f 12 bd 46 cc 14 bd ec 2e e6 bc
       -0.030074814 -0.035705555 -0.036327623 -0.028098546
000010 5d de fc bc 22 dc a6 bc 60 9b 45 3d a1 19 c3 3c
       -0.03086775 -0.02036864 0.04824388 0.023815932
000020 10 7c 17 bd 24 fd 05 bd 87 b3 c4 bc 86 d5 3f 3d
       -0.03698355 -0.032712117 -0.024011387 0.04683449
000030 21 3f e4 bc 7a 10 37 3d 67 fe 23 bd 2b 02 17 bd
       -0.027862133 0.044693448 -0.04003754 -0.036867302
000040 b3 6e 02 3d 50 8f bd 3c 97 28 32 3d 44 64 a4 bc
       0.031843852 0.023139626 0.04349574 -0.020067342
000050 cc f4 47 3d 99 05 11 bc 81 b0 8b 3d dc 87 19 bb
       0.04881744 -0.008851432 0.06820775 -0.0023426926
000060 cf 9f ae 3c 40 47 ed bc 1c e8 27 3d a9 06 11 bd
       0.021316437 -0.028964639 0.04099284 -0.035406742
000070 c6 59 0f bd 01 00 04 bd 79 68 21 3d cb be 0c bd
       -0.034997724 -0.032226566 0.039406274 -0.03436164
000080 db fe 11 bd 7a 2f 1c bd 0d 19 fb bc be 51 ec bc
       -0.03564344 -0.038131215 -0.030651594 -0.028847571
000090 e1 94 81 3d 47 16 2c bd fc d9 1d bc 05 19 31 3d
       0.063272245 -0.042013433 -0.009634491 0.04323675
0000a0 aa 87 2b 3d 7a f9 3b bd 30 1f 19 bc 8f 59 1b 3d
       0.041877426 -0.045892216 -0.009345815 0.037927207
0000b0 da c3 28 3d 60 34 24 3d 12 ff 08 3d f5 5c 17 3d
       0.041202404 0.04008901 0.03344638 0.036953885
0000c0 95 b6 09 bd b9 68 34 3d f6 2a 10 bd 64 9f 5e 3d
       -0.03362139 0.044045184 -0.03519722 0.054351225
0000d0 06 8b 22 bc ab f5 1e bd 93 91 04 3d 96 6b 2f 3d
       -0.009920841 -0.038808506 0.032365393 0.04282721
0000e0 8c 8d 37 bd ff 4c 2e 3d 03 27 37 3d d5 62 1f 3d
       -0.044812724 0.042553898 0.04471494 0.038912613
0000f0 57 19 4f 3d 1e 6b 50 3d ad e7 c2 3d 7b c8 35 3d
       0.050561275 0.050883405 0.09516845 0.044380646
000100 db cc 08 3d 33 43 1a 3d a3 ae 28 3d 83 38 16 bd
       0.03339849 0.037661742 0.04118217 -0.036674988
000110 83 1b 25 bd f8 4d d1 bc 4d 4a b9 3c 4c ff 83 3d
       -0.04030944 -0.025549874 0.022618437 0.064451784
000120 41 17 29 bc a4 51 0b 3d 1c 7d 42 3d 96 e3 4a 3d
       -0.010320486 0.034013405 0.047482595 0.04953345
000130 9b 9a 1c 3d 1b 0b dc bc 0d 8c 14 3d c2 bb d7 bc
       0.03823338 -0.026860764 0.036266375 -0.026334647
000140 8b 1f 5b 3d 96 b9 89 3d 8d db f2 bc 8f 2c 22 3d
       0.05349688 0.06724851 -0.029645706 0.039593276
000150 4d 07 10 bd b4 dc 4e 3d fb f0 30 3d 03 50 2b bd
       -0.035163213 0.050503448 0.043198567 -0.041824352
000160 d8 59 93 3d a0 23 1f bd fd d7 32 3d 1c 7b 31 3d
       0.07194871 -0.038852334 0.043663014 0.043330297
000170 6d e5 11 bd 35 50 05 3d 1c 16 28 3d 75 b5 08 3d
       -0.035619188 0.032547195 0.04103671 0.033376176
000180 b7 9e 48 3d e1 6f 18 bd 9e 6c 19 3d 8e 71 46 3d
       0.048979487 -0.03721607 0.0374571 0.048448138
000190 54 f1 40 3d 07 1a 0d 3d 36 17 15 bd 69 a7 15 bd
       0.04710515 0.03444865 -0.03639909 -0.036536608
0001a0 5e 38 9a 3d 85 19 c3 bc 82 c2 12 bd bc 88 14 3c
       0.075302824 -0.02381588 -0.03583003 0.009065803
0001b0 0a 1f 0f bd b7 b5 f0 bc b1 bd 12 3d bd 91 35 3d
       -0.03494171 -0.029383523 0.035825435 0.04432844
0001c0 6d e4 14 bd f9 02 24 3d 00 83 21 3d a7 bc 44 3d
       -0.036350656 0.040041897 0.039431572 0.048031475
0001d0 23 6d 15 bd 6c 9f 15 bd ad e5 ab ba db a3 30 3d
       -0.036481034 -0.03652899 -0.0013114713 0.043125015
0001e0 83 d8 22 3d c4 ce 07 bd 70 6e 0b 3d 25 6c 14 3d
       0.039757263 -0.03315617 0.03404087 0.036235947
0001f0 81 cc 5f 3d 4d 83 20 3d db 43 23 bd 6a 34 1d bd
       0.05463839 0.03918772 -0.039859634 -0.038380064

bns.0.running_mean f4 [128]
000000 e2 61 a8 3f 73 6a 63 3f d7 dc cb 3f ee 18 a4 3f
       1.3154871 0.88834304 1.592677 1.2820108
000010 a7 a1 4f 40 12 9e 41 bd db 85 dc bf b1 0c ef bd
       3.2442415 -0.04726989 -1.722835 -0.116723426
000020 3e f8 23 40 70 1b 6e 3e 5b f3 35 40 aa 0e de 3f
       2.5620265 0.23252654 2.8429782 1.7348225
000030 86 88 ef 3e 7a 1c 35 c0 74 43 07 3d cd 6b dd 3f
       0.46783847 -2.829863 0.033023313 1.7298523
000040 1c b2 c0 3e c3 66 6b bf 86 11 bc 3f 12 9b 60 3f
       0.37635887 -0.91953677 1.4692848 0.8773662
000050 8a cc 3a c0 ce e2 9c be 2f c4 07 c0 ca 98 18 40
       -2.918734 -0.30641788 -2.121349 2.3843255
000060 0a 56 f4 bf 6a e7 a8 3e ad 07 19 c0 8a 88 cd 3f
       -1.9088757 0.32989055 -2.3910935 1.6057293
000070 e2 89 c3 3f 84 a7 1e 40 87 9b 27 40 bb b8 ba 3f
       1.5276453 2.4789743 2.6188676 1.4587625
000080 65 87 99 3f e5 d0 5b bf d3 81 7a be ed 2f 1a 3e
       1.1994444 -0.8586562 -0.24463587 0.15057345
000090 ba 3e 34 be c7 6c 44 bf f7 1b fb be be f8 aa bf
       -0.17602053 -0.7672848 -0.49044773 -1.335716
0000a0 4f 25 da bf 38 ed 08 3f 47 75 c0 3f dc e7 aa 3e
       -1.7042636 0.5348697 1.503579 0.3338002
0000b0 0a 12 1c c0 a3 75 3f be cc 81 6f 3f b4 30 a7 3d
       -2.438601 -0.18697219 0.9355743 0.08163586
0000c0 08 ac fc 3f bc 5b ef 3d a9 46 6b 3f 6b a1 08 40
       1.974 0.11687419 0.91904694 2.1348522
0000d0 03 30 e6 3c e6 06 cd 3f 5d f4 15 3f ae 4b 92 bf
       0.028099066 1.601773 0.58575994 -1.1429346
0000e0 75 18 d7 3f 75 97 f2 3f 3c 84 ea bf 91 6a 42 3d
       1.6804339 1.8952471 -1.8321605 0.04746491
0000f0 45 e9 f0 be a0 91 fc bd 54 33 d0 3e 2c c3 02 bc
       -0.4705297 -0.12332463 0.4066416 -0.007981103
000100 c3 3a a3 be 06 b2 b1 3e f2 b3 42 be 74 ab 60 3f
       -0.3188077 0.34706134 -0.19013956 0.87761617
000110 a5 fc 7f 3e a4 e2 da bd e5 25 2e bb 8b 8f 0d bf
       0.2499872 -0.106877595 -0.002657288 -0.55297154
000120 c3 7a a4 bd d2 df 52 be 53 e5 18 bf fd 95 83 bf
       -0.080312274 -0.20593193 -0.5972492 -1.0280148
000130 8e 0e 81 3f e7 5d 3a be 49 f1 47 be cf 26 6f bf
       1.0082567 -0.18199883 -0.19525637 -0.9341859
000140 e4 91 b6 bf 15 05 22 bf 27 05 20 40 77 a6 ca 3b
       -1.4263272 -0.63289005 2.5003145 0.006184395
000150 f4 63 bd bf 20 7f c9 bf 45 64 36 be a9 99 ac 3e
       -1.4796128 -1.574192 -0.17811687 0.33710983
000160 d0 ea d5 bf 20 67 de 3d e9 1a 07 be 3f 11 e5 bc
       -1.6712284 0.10859513 -0.13193859 -0.027962325
000170 52 3b ca 3f a5 37 87 bc 0e 8a de be 8d 7f 67 bf
       1.5799353 -0.016506026 -0.43464702 -0.90429
000180 c4 aa 15 c0 38 ce 73 bf d0 72 9c be ca cd f4 bf
       -2.3385477 -0.9523654 -0.30556345 -1.9125302
000190 3e a6 bc 3e 7f 47 60 3f 44 60 8a be 83 0d 4d bf
       0.36845583 0.87609094 -0.2702657 -0.8009874
0001a0 8d f8 d9 be 13 2b 83 40 96 45 1a be f4 f1 da bf
       -0.42572442 4.099008 -0.15065607 -1.7105088
0001b0 63 d7 c4 be 82 81 8e be 98 5b 7b 3e 43 ca 7f 3f
       -0.38445577 -0.27833182 0.24546659 0.99918
0001c0 18 6a 34 40 66 97 69 bf 15 35 32 40 e5 d4 b8 bf
       2.8189754 -0.9124664 2.7844899 -1.443997
0001d0 c6 1b 91 bf 0f ba 53 3e 0f 76 d2 bf 96 f0 90 3f
       -1.1336601 0.20676444 -1.6442279 1.1323421
0001e0 54 dd ac 3f b6 e1 92 be b4 18 0c 40 7d b7 27 bc
       1.3505044 -0.2868783 2.1890078 -0.010236618
0001f0 5a f9 90 3e 50 ac b7 bc 0f b0 fd 3e 92 a6 8c be
       0.2831524 -0.022421032 0.49548385 -0.27470833

bns.0.running_var f4 [128]
000000 14 68 45 3f 19 1a f4 3e cd 97 24 3f e8 2b c5 3e
       0.77111936 0.4767616 0.6429413 0.3851006
000010 fe 1b 0e 40 4b 29 2d 3d 8c df 5c 3f 15 cb 20 3d
       2.2204585 0.04227571 0.86278605 0.039256174
000020 a6 69 b6 3f 4d 64 37 3d 9d 54 f1 3f 1f 2a 37 3f
       1.4250991 0.04477339 1.8853947 0.71548647
000030 9a 9a 19 3e 53 70 e4 3f 34 d3 34 3d da b0 63 3f
       0.15000382 1.7846779 0.04414673 0.8894173
000040 cc 0f d6 3d a3 7c c9 3e da bf b2 3e fc 0d 94 3e
       0.10452232 0.39352903 0.34911996 0.2891692
000050 7f 2f 02 40 03 0d 5f 3d 45 8c cd 3f 18 6f b2 3f
       2.034149 0.05445577 1.6058432 1.3940153
000060 a1 39 38 3f 26 f3 87 3d 5c bb b2 3f c6 cd ff 3e
       0.71962935 0.06638174 1.3963428 0.4996168
000070 47 73 01 3f 12 5e b0 3f 8a 53 ba 3f b8 39 69 3f
       0.50566524 1.3778708 1.4556744 0.91103697
000080 08 88 ae 3e 66 18 99 3d c5 65 0d 3d d7 05 f7 3d
       0.3408816 0.07475357 0.034520883 0.12061661
000090 81 84 18 3d 7d f8 0e 3e 7f 2e 77 3d 84 b4 cf 3e
       0.03723574 0.13961978 0.060347077 0.4056741
0000a0 ef 9e 08 3f 42 e0 fb 3d 2c ce d5 3e 68 5b e7 3d
       0.53367513 0.12298633 0.4175886 0.11296731
0000b0 ea b0 55 3f 50 9d 09 3d 15 25 28 3e f5 d1 51 3d
       0.83473074 0.03359729 0.16420396 0.05122562
0000c0 66 6a 12 3f 2c e9 11 3d bf 71 91 3e 6e 83 1a 3f
       0.571936 0.03562276 0.28407094 0.60356796
0000d0 cb c5 21 3d f0 25 09 3f e9 44 a1 3d 56 f8 86 3e
       0.03949527 0.53573513 0.07874472 0.2636134
0000e0 aa f2 c4 3e 0c af 22 3f 73 27 14 3f 45 e6 a7 3d
       0.38466388 0.6354835 0.57872695 0.08198217
0000f0 69 57 bb 3d b0 1f 4b 3d 3f cb 32 3d 8d 05 10 3d
       0.091475315 0.049590766 0.04365086 0.035161544
000100 14 5a e2 3d e8 82 f6 3d 3e 07 45 3d 70 9e aa 3e
       0.11052337 0.12036687 0.04810261 0.33324003
000110 47 a5 83 3d 79 22 16 3d c8 49 32 3d 64 25 12 3e
       0.064280085 0.03665397 0.043527395 0.14272076
000120 19 05 78 3d 27 a4 d4 3d 51 ff 29 3e d8 72 48 3f
       0.060551737 0.10382872 0.16601302 0.7830024
000130 10 a5 be 3e 51 39 47 3d f4 1a 7d 3d 72 51 a3 3e
       0.37235308 0.048638646 0.061793283 0.31898075
000140 85 45 0f 3f e3 75 98 3d e3 ec cd 3f 6a 83 1a 3d
       0.55965453 0.0744436 1.6087917 0.037722982
000150 c7 a8 d3 3e 97 c6 31 3f 0c 3a 95 3d aa de 2e 3e
       0.41339704 0.6944365 0.07286462 0.17077127
000160 45 3b 0e 3f 81 dd 1e 3d 50 7c 4c 3e 7e 11 4c 3d
       0.5555919 0.03878546 0.19969296 0.04982137
000170 38 98 e7 3e fd 38 1b 3d 3d 85 ea 3d 44 89 55 3e
       0.4523332 0.037896145 0.114511944 0.20853144
000180 95 9f 6d 3f 61 17 20 3e 3e bd 4c 3d 74 76 e9 3e
       0.9282163 0.15633918 0.049985163 0.45598185
000190 aa 5e ef 3d 6b 65 86 3e 00 53 38 3d 79 46 0c 3e
       0.116879776 0.2624925 0.04500103 0.13698758
0001a0 7a 27 b2 3d b7 72 0c 40 a7 49 11 3e 44 ee d0 3e
       0.08698936 2.1945016 0.14188252 0.40806782
0001b0 c3 7c 7d 3d aa ba 83 3d 4c 41 92 3d 9f 3f 66 3e
       0.06188656 0.06432088 0.07141361 0.22485207
0001c0 38 cd 60 3f d9 9e a2 3e db 24 82 3f 8c 2e ce 3e
       0.8781314 0.31761816 1.0167497 0.40269887
0001d0 83 0a 21 3e 2e a3 ff 3c db 2e 9f 3e 28 36 a3 3e
       0.15726666 0.03120574 0.31090435 0.31877255
0001e0 3a fe fb 3e af 53 20 3d 3d 78 20 3f f0 b5 9e 3d
       0.49217397 0.039142307 0.6268347 0.077495456
0001f0 c2 d8 43 3d e8 45 48 3d 87 d8 9b 3e e8 1a ea 3d
       0.04781414 0.048894793 0.30438635 0.11430913

convs.0.att_src f4 [1, 4, 32]
000000 67 36 6e be 12 a2 c1 3d 1c 06 20 3d 06 1f 62 be
       -0.2326294 0.094547406 0.039068326 -0.22082147
000010 16 9d c1 be ae 32 c2 3e 8e 2e b2 3d 09 e2 c4 3e
       -0.3781516 0.3792929 0.08700286 0.384537
000020 49 5f 49 be 48 3a 30 3e fd e1 5f 3e 99 19 cc bd
       -0.19665255 0.17209733 0.21863551 -0.0996582
000030 0b bd 6b 3e 29 fa af 3e 1c 94 82 3e 60 c1 a3 3e
       0.23021333 0.34370545 0.25503623 0.3198347
000040 f0 ed 8e be e3 c8 23 be 62 ae cd be 8c 5b 9b 3e
       -0.27915907 -0.15994601 -0.40172106 0.30343282
000050 fd 9a 8b be a6 6a 7b 3e 6d 49 4d bd 28 19 19 be
       -0.27266684 0.24552402 -0.050118852 -0.14951003
000060 55 64 45 3e 25 41 45 bd c6 17 4e be d7 f9 35 bc
       0.19276555 -0.04815783 -0.20126256 -0.01110693
000070 cc 82 43 be c2 13 38 bd a2 a2 a3 be 8e ff 0e 3e
       -0.19092864 -0.044940718 -0.31960016 0.13964674
000080 3a 14 b1 3e e9 f8 45 be 9d 09 3b 3e f7 e1 c7 3e
       0.34585744 -0.19333233 0.18265386 0.39039585
000090 b4 8f 29 3d 6f f1 b8 3e 32 53 40 3e 87 71 81 3d
       0.04139681 0.361217 0.18781736 0.06320482
0000a0 74 29 a5 bd 84 61 3f be 0f 60 89 3d 45 40 99 bd
       -0.08064547 -0.18689543 0.06707775 -0.074829616
0000b0 86 0c d6 3e 79 44 4b 3d 31 a6 10 3d c9 0d 65 be
       0.4180643 0.049625847 0.035314742 -0.2236854
0000c0 64 7b b2 bd 01 47 9a be 38 c9 20 3e 3d 58 1e be
       -0.08714941 -0.30132297 0.15701759 -0.15463348
0000d0 f4 e0 b5 3e e3 05 8c bd c2 9e 3b 3e 02 bd 94 3e
       0.35523188 -0.0683706 0.1832228 0.29050452
0000e0 64 33 9e 3d 37 ed 95 bd 0d 5a 87 be 80 be ad 3e
       0.07724646 -0.07320636 -0.2643589 0.33934402
0000f0 cb e9 bf 3d aa 17 2b 3d df b7 56 be 03 91 3d be
       0.09370764 0.041770615 -0.20968579 -0.18512349
000100 72 36 5a 3e 39 7a cd 3e e3 89 23 3e db 5a 73 be
       0.21309832 0.4013231 0.15970568 -0.23765127
000110 6d 78 a8 be 7d 85 07 3d d0 f4 06 3d 56 1d 92 3e
       -0.32904378 0.03308629 0.032948315 0.28538007
000120 09 1f 03 3e f5 9d c8 be b4 f4 cc 3e 81 6f cd bd
       0.12804808 -0.39183012 0.40030444 -0.10031033
000130 95 c7 a4 bd 13 5e 8f be e3 47 d8 3e 74 96 80 be
       -0.0804588 -0.2800146 0.42242345 -0.25114787
000140 48 1d 68 3e 40 f1 6d 3b 48 65 73 be 9c f1 ca bd
       0.2266742 0.0036307126 -0.23769104 -0.099093646
000150 1d 20 06 3e 0d eb 26 3e 2c 4b 03 be c8 de 9b 3e
       0.13098188 0.16300602 -0.12821645 0.30443406
000160 b5 bf 5a 3e e8 b4 c7 be 3c 63 9b 3e c6 f5 ed 3c
       0.21362193 -0.39005208 0.30349147 0.029047858
000170 3c bf 9c be ce 11 30 be 52 59 72 3e 96 e9 ad be
       -0.3061465 -0.17194292 0.23666885 -0.33967274
000180 50 e3 89 3e 2d 89 ba 3e c8 ff 88 be d9 30 c0 be
       0.26931238 0.36432782 -0.26757646 -0.37537268
000190 be 2d 92 3e 7c d7 4c 3e d6 e2 80 be 73 87 3b bd
       0.28550524 0.20004076 -0.25173062 -0.04578347
0001a0 b9 eb 11 3e 5a b4 ae be e0 57 c1 3e 03 9a 5c be
       0.14250077 -0.34121972 0.37762356 -0.21543126
0001b0 92 73 b7 3e 63 3d b8 3e e0 fd 9a 3e 72 e5 c4 be
       0.3583036 0.35984334 0.30271816 -0.38456303
0001c0 b0 6f 86 bd 35 ea 05 3e 3d be b5 3e da 25 1e 3e
       -0.065642715 0.13077624 0.35496703 0.15444127
0001d0 9d 2f 8a be 41 6d 7b bd 6c 0f c0 3d 51 36 e9 bc
       -0.2698945 -0.06138349 0.093779415 -0.028468283
0001e0 94 6c d7 be 5e 43 c7 be 40 8e ba 3d 82 f8 7f be
       -0.42075026 -0.38918585 0.09109163 -0.24997142
0001f0 2a 41 9f be 7d 9f 37 be d3 ed 6f be 4e be 9b 3e
       -0.31104404 -0.17931934 -0.23430566 0.30418628

convs.0.att_dst f4 [1, 4, 32]
000000 db 8c b6 3e e0 75 9f 3e e2 3b a0 be 3f 5c 9b be
       0.3565434 0.3114462 -0.31295687 -0.30343816
000010 64 5c 84 3d c3 98 c2 3c 98 ba 83 be 8e 0e d0 bd
       0.064629346 0.023754483 -0.25728297 -0.10159026
000020 90 2d 13 3d 7a 55 5a be 5a b6 64 be ae b7 97 b9
       0.035932124 -0.21321669 -0.22335187 -0.00028937816
000030 a6 d7 b5 3e e3 b1 43 3e 8a 3f 99 3d 52 93 50 be
       0.3551609 0.19110827 0.07482822 -0.20368698
000040 4b c5 96 3d 00 a0 b0 be 69 ba cf be 44 44 a7 3e
       0.073618494 -0.3449707 -0.40571907 0.3266927
000050 db ab 13 be 81 2e 91 3e 46 74 be be fc 2c 8f 3e
       -0.14421026 0.28355792 -0.37198085 0.27964008
000060 69 39 29 be d7 2c a6 3e 01 5b 30 3d f7 4b 27 3e
       -0.16525806 0.32456085 0.043055538 0.16337572
000070 a7 b6 87 3d a1 26 36 bd df 12 d7 3c b5 6f 91 3e
       0.06626635 -0.044470433 0.026254116 0.28405538
000080 cb 85 ae be 14 5b 8f 3e 8f 7e a9 3e a5 c2 44 3e
       -0.3408645 0.27999175 0.3310437 0.19214876
000090 ec 6a a5 3e 5e 3c b9 3d 91 c5 cc 3e a2 db cd 3e
       0.32308137 0.09044717 0.3999448 0.4020663
0000a0 27 a8 9c 3e 71 46 d7 bd 4c 52 60 3e c4 b4 29 bd
       0.3059704 -0.105114825 0.21906394 -0.041432157
0000b0 a5 1f 3f 3e 07 6f 52 3e d5 bf 0e 3e b1 d4 16 3e
       0.18664415 0.20550166 0.13940366 0.14729573
0000c0 76 e8 14 be 4d 72 69 be 8d 31 aa 3e 56 66 07 bd
       -0.14541802 -0.22797509 0.3324093 -0.03305658
0000d0 7b 05 a1 3a 3d fa 73 bd 62 a8 80 be c2 1e cd bd
       0.0012284959 -0.059564818 -0.25128466 -0.10015632
0000e0 70 e3 86 be f9 b0 3c 3e ee 5c eb 3d a2 85 b7 3e
       -0.26345396 0.18426885 0.11492334 0.3584414
0000f0 46 36 a1 3e 2d 9c 5a 3e 8e 8a a9 3e 38 f6 67 be
       0.3148672 0.21348639 0.3311352 -0.22652519
000100 de 03 af 3e 7b f3 27 3e 15 fc 83 3e 3b 7a d1 3e
       0.34182638 0.16401474 0.2577826 0.40913567
000110 89 32 dd be 13 e0 a9 be 8d f9 a4 be f3 2e f7 3c
       -0.43202618 -0.33178768 -0.32221642 0.030173754
000120 7c 65 1d be 65 76 4b be 98 b8 e0 bd 42 7e ca be
       -0.15370744 -0.19869383 -0.109727085 -0.39549452
000130 cc fd 77 3e 48 2b 72 3d 05 0c 2f be 3f d3 b2 bb
       0.2421791 0.059123307 -0.17094429 -0.0054573114
000140 9b 4c f6 bd 1c 71 11 3e 28 b0 a1 3e 2b 3b 0d be
       -0.1202633 0.14203304 0.3157971 -0.13792102
000150 7d 17 e4 bd af 35 13 be 90 ee 59 3e 64 d7 cf 3c
       -0.111372925 -0.14375947 0.2128241 0.025371261
000160 ff f0 b4 3e 79 80 70 be 65 b9 e9 be 99 f5 35 3e
       0.35340115 -0.23486508 -0.45649257 0.1776947
000170 23 fd 4a bd 3c d6 a0 3c 83 ea 91 3e d2 0c 59 be
       -0.049557816 0.019633405 0.2849923 -0.21196297
000180 19 bd 96 be 55 da 3f be d4 70 97 3e ee 4a 4d 3d
       -0.29441145 -0.18735631 0.2957827 0.050120287
000190 88 97 cf bd 41 6c 5c 3e 07 02 91 3e d0 21 06 be
       -0.10136324 0.2152567 0.2832186 -0.13098836
0001a0 c4 f2 85 be 43 7d a9 be 68 f0 8d 3d fd a0 1e 3e
       -0.26161778 -0.3310338 0.069306195 0.154911
0001b0 a2 12 ac be 02 12 82 3e 06 ae a3 be 56 05 81 3e
       -0.33607966 0.25404364 -0.31968707 0.25199383
0001c0 60 8d ef bd 4f 56 76 3e fa 92 3f be 58 2d bf bd
       -0.11696887 0.24056362 -0.18708411 -0.093348205
0001d0 7f b1 b2 3e bb 17 bf bd 15 42 64 3c 28 05 bb be
       0.34901044 -0.09330698 0.013931771 -0.3652737
0001e0 e8 12 f1 bd f9 7f 08 3c 59 61 1d 3e 90 ab f7 bd
       -0.11771184 0.008331292 0.15369166 -0.1209327
0001f0 d8 fd bc 3e 40 a6 fb 3d 72 62 c7 be 77 65 cf be
       0.36912417 0.12287569 -0.38942295 -0.405071

convs.0.bias f4 [128]
000000 c5 13 b2 ba c2 18 7a bb cd c5 60 b9 90 be b8 bb
       -0.0013586214 -0.003816173 -0.00021435991 -0.005637951
000010 ac 41 a9 bb 8d e8 99 bb 8a 87 6a bb e4 5f 75 bb
       -0.0051652994 -0.0046969117 -0.0035786354 -0.0037441188
000020 1b d0 8c 39 3d 4f 13 3a e9 70 3b 3b bd f3 98 3b
       0.00026857932 0.00056194124 0.0028601235 0.0046677277
000030 f7 23 84 bb 87 2a 32 3b 79 77 7b ba db 86 3d bb
       -0.0040326077 0.0027185993 -0.0009592693 -0.0028919491
000040 db 0b 8d 3b ba 99 f1 38 15 bf 47 3b 63 d2 92 39
       0.004304392 0.00011520409 0.0030478884 0.0002800404
000050 1a 9a a6 b9 72 d7 7b bb 15 63 57 3b c0 f0 a2 ba
       -0.00031776802 -0.0038427976 0.0032865454 -0.0012431368
000060 ed 7d b2 ba 9b e6 01 bc ab 4d 21 bb d3 05 98 39
       -0.0013617851 -0.007928516 -0.0024612944 0.0002899604
000070 e2 6c 09 bb 44 83 b4 bb 5a 2f f7 3a fe 75 2f 3a
       -0.002096944 -0.005508812 0.0018858716 0.00066933024
000080 3d 96 f9 bb 24 5b 95 bb 50 3c d8 bb fd e6 3a ba
       -0.0076167868 -0.004557984 -0.0065989867 -0.0007129757
000090 c5 c1 bc 3a b8 5f dc bb 56 ed 81 bb bc 19 01 3a
       0.001440101 -0.0067252778 -0.00396506 0.0004924794
0000a0 6e 6a a5 3b 3f 6e 6c bb 0d cf c6 ba 0d d4 6a 3b
       0.005048088 -0.0036076454 -0.0015167907 0.0035831959
0000b0 ab f9 02 3b da cb bc 3b 3c 7b 00 3a 47 20 dd 3b
       0.001998524 0.0057616057 0.0004901176 0.0067482325
0000c0 10 51 38 bb 2e 32 4e 3c 7d 8c 5e 3b 13 2c 25 ba
       -0.002812449 0.012585206 0.003395825 -0.0006300818
0000d0 cf 8c 04 ba 54 1b bd bb f5 6c 4e 3b 2c c9 7c 3b
       -0.00050563825 -0.00577108 0.003149805 0.0038572056
0000e0 7b bf 07 bc 3d 53 42 3b fd 62 27 3a 7d a7 d3 3b
       -0.008285399 0.0029651665 0.0006385295 0.006459175
0000f0 05 2c ea ba ae 03 75 3a 8a 4a 97 3b bd 0d cd 3b
       -0.0017865902 0.00093465566 0.00461704 0.0062577412
000100 1c 81 7f 3b 12 08 6c 3b 8e ee c2 ba a4 39 ba bb
       0.0038986867 0.0036015552 -0.001487212 -0.005683141
000110 51 e0 54 bb e2 2b 24 bc 2a 2e 82 ba e6 17 4c bb
       -0.0032482336 -0.010020228 -0.0009931971 -0.0031142174
000120 5c 80 9b bb 71 03 11 3a 7b dc a1 3a ee 09 6c 39
       -0.0047455262 0.0005531824 0.0012349033 0.00022510413
000130 81 ad be 3b 9d 15 95 3b ad d9 90 3b 23 2d 58 bb
       0.005819023 0.0045496956 0.00442048 -0.0032985888
000140 af 21 67 3a dc 00 35 bb 22 e9 9a b9 c9 13 80 ba
       0.000881697 -0.002761892 -0.00029546866 -0.0009771521
000150 a3 6f cc bb 59 a5 99 3b d4 d9 51 bb 04 81 d9 bb
       -0.006238894 0.0046889004 -0.0032020705 -0.0066376943
000160 c3 68 9b 3a 48 8f 18 bb 35 9e 6e 3b f5 b3 55 3b
       0.0011856783 -0.0023278762 0.0036410217 0.0032608483
000170 72 34 18 bc ff 14 83 3a f0 8d fd 39 67 ce 3a bb
       -0.009289848 0.0010000764 0.00048361672 -0.0028504373
000180 09 36 c5 3b fb 43 52 3b 70 27 9b 3b 96 20 ad 3b
       0.0060184044 0.0032083977 0.004734926 0.0052834256
000190 98 4e 0a 3c 33 16 33 3b 9f b2 45 3a 0a 47 10 ba
       0.00844159 0.0027326464 0.000754157 -0.00055037497
0001a0 fd 4a 20 bb f5 93 18 ba 1f 12 16 bb 6e 04 4d bb
       -0.002445876 -0.0005820387 -0.0022898985 -0.0031283158
0001b0 9d 50 7a 39 67 a4 ac 3a a5 28 52 3b df f0 e8 3b
       0.00023871889 0.0013171554 0.0032067683 0.007108792
0001c0 eb ae 80 3a f2 67 c5 3b dd b5 82 3b c9 20 25 3b
       0.0009817755 0.006024354 0.003988965 0.0025196543
0001d0 bb aa 9e bb 75 12 0d bc 68 89 4b bb 90 b3 c3 3b
       -0.00484213 -0.0086103575 -0.0031057242 0.0059723333
0001e0 92 f7 9a 3b 87 33 24 bb cf 91 b6 3a 1b 92 ad 3b
       0.0047292197 -0.0025055127 0.0013928952 0.005296958
0001f0 59 3f 7f 3b 7b 46 27 3b a9 09 e9 bb d0 ee 05 bc
       0.003894767 0.0025524187 -0.0071117473 -0.008174613

convs.0.lin_src.weight f4 [128, 755]
000000 da 98 9e 3c 67 f0 50 3d 01 7d 01 3d 6f eb 79 bd
       0.019359995 0.051010516 0.031613354 -0.061015543
000010 f3 12 b3 bb 66 31 bb 3d ef d3 41 ba 61 16 8d 3d
       -0.0054649054 0.091402814 -0.0007393946 0.06889034
000020 e0 d5 16 bd 2e 74 6a 3d 1e bd 3e 3d 8d 97 b8 3d
       -0.03682506 0.057239704 0.046567075 0.09013281
000030 0f fc 01 bc 0b ae 1a 3d 47 76 cf bc f4 a4 0e bc
       -0.007933631 0.037763637 -0.025324954 -0.00870632
000040 bf d9 35 bc 68 a1 9c 3d 14 c7 83 bd 05 19 04 3c
       -0.011099278 0.07647973 -0.064344555 0.008062606
000050 ab 31 27 bd 0f 7a 18 bd bd a7 a6 bd 8f d2 ce bd
       -0.04081885 -0.03722578 -0.08137462 -0.100987546
000060 b9 68 c5 bc 4f 28 b0 bd 12 03 8c 3d 25 63 7b 3c
       -0.024097787 -0.08601438 0.06836523 0.015343462
000070 c9 20 48 bd b6 92 c0 bd 19 dd a2 3b 4f ef 1f 3d
       -0.04885939 -0.09402983 0.0049702046 0.03904658
000080 ee 50 d8 bc 2b c7 90 3d 51 35 60 3d 84 34 d1 3d
       -0.026405778 0.07069238 0.054738346 0.10215095
000090 96 2c 53 bc 90 4d bf 3c ad 8a d1 3d c4 67 24 bd
       -0.012889048 0.023352414 0.102315284 -0.04013802
0000a0 59 71 21 bd 7c 30 38 bd 63 14 c8 bc 68 17 da 3c
       -0.039414737 -0.044968113 -0.024423784 0.02662249
0000b0 b2 3c b2 bd df 93 98 3d 48 e2 b2 bc ec 82 a3 3c
       -0.08702983 0.07450079 -0.021836415 0.01995989
0000c0 f3 01 71 3d c6 f7 3d bd 01 22 bc bd 9a a4 4b bd
       0.05883975 -0.046378873 -0.09186173 -0.049717523
0000d0 9e 28 2a bb be 32 18 bd cf b5 83 3d de 01 2b bd
       -0.002596415 -0.037157767 0.064311616 -0.041749828
0000e0 6a a1 59 bd 98 de b0 3d 5a 7c b7 bd a8 60 e1 bc
       -0.053132452 0.086362064 -0.08959265 -0.02751191
0000f0 2b c2 42 3d 93 83 1f bc 68 02 0a bd d9 9e e7 bb
       0.047548454 -0.00973596 -0.0336937 -0.0070684967
000100 a6 a9 2a 3d 82 db 05 bc e4 60 87 bd 24 49 a2 bb
       0.041665696 -0.0081700105 -0.06610277 -0.0049525667
000110 3c 90 74 bd 7d d1 40 bc 5e 9e 0a 3d 2c 3a 80 3d
       -0.059707865 -0.011768696 0.033842437 0.062610954
000120 68 6c 6d 3c ac 7e e6 3c 59 ec 6d 3d f7 c1 72 3d
       0.014491178 0.028136574 0.058086727 0.05926701
000130 77 cb 3e bd b7 ab 9e 3d bc 6a 33 bc 03 f5 9c 3c
       -0.046580758 0.07747596 -0.01095074 0.0191598
000140 84 f0 89 bc 8b 06 26 bd e8 df ae bc b4 cb 09 3d
       -0.01683832 -0.040533584 -0.021347001 0.033641532
000150 5f d9 11 bd a9 dd 8d bd 43 ab 13 3d 9d 1f 11 bd
       -0.03560769 -0.06927044 0.036052 -0.03543054
000160 15 ef d5 3c 31 dc 47 bd bd 71 b4 bc 80 11 f2 ba
       0.02611498 -0.048793975 -0.02202689 -0.001846835
000170 b8 4f 00 bd e5 d6 2f 3d f1 25 d8 bd 70 5c 93 3b
       -0.031326026 0.04292955 -0.10554112 0.0044971034
000180 b0 47 93 3c c2 27 36 3d 8f 0f 38 3d f3 74 e9 3c
       0.01797852 0.04447151 0.044936713 0.028498149
000190 d8 13 de 3c b4 13 7b 3d 51 ae 49 3d fe 68 87 3d
       0.027109072 0.061298087 0.049238507 0.066118225
0001a0 d7 78 38 3c a2 1b 7c 3b 70 b8 1d bc f6 de d6 3a
       0.011259279 0.003846862 -0.009626493 0.0016393352
0001b0 66 c1 15 bd 6e 02 91 3c ff 60 f0 3c 7d 7b 8b 3d
       -0.036561392 0.017701354 0.029343126 0.06810663
0001c0 64 91 89 3d 09 6a b6 3d be 36 c2 bd ca 43 55 bd
       0.06717184 0.08906943 -0.094830975 -0.0520666
0001d0 20 c0 aa 3d 66 a6 99 3d b8 b6 e2 3c 45 76 5f 3c
       0.08337426 0.07502441 0.027675018 0.0136390375
0001e0 91 c0 10 3d 7d 90 28 bd 58 50 b3 39 0a e6 9f 3d
       0.035339896 -0.04115342 0.000342014 0.07807548
0001f0 1c 1b aa 3c 61 44 e2 bc a8 be 5b bd 90 75 bb 3d
       0.02076488 -0.027620496 -0.05364862 0.09153283
000200 58 01 8b bd 92 26 e6 bb 36 a7 20 bd 01 04 88 bd
       -0.06787366 -0.007023641 -0.039221965 -0.06641389
000210 9c dc 48 3d 76 fb 5b 3d 0e f0 e5 3b 81 ef 63 bd
       0.049038514 0.05370661 0.007017142 -0.05564833
000220 b9 d1 12 3d 3c 4f ad 3b 72 aa 85 3c eb f3 74 3d
       0.03584454 0.0052889865 0.016316626 0.05980293
000230 84 e6 84 3d 9e 5f ca 3b db 3a b9 bd e5 a7 04 bd
       0.0648928 0.0061759492 -0.09044429 -0.03238668
000240 7c e1 90 3c 35 68 73 3d f7 9e b0 3d f5 4f 99 3d
       0.017685644 0.05942555 0.0862407 0.07485954
000250 6f fc 7e 3d ae e7 05 3d f5 db 3d 3c 7b f7 f3 3b
       0.06225246 0.03269165 0.011588086 0.0074452735
000260 92 be 36 3d 11 35 06 ba 76 82 d1 bc cb 83 6b bd
       0.044615336 -0.0005119602 -0.025574904 -0.057498734
000270 83 c4 49 3d 44 91 10 bd b1 10 62 bd c9 a0 74 bc
       0.049259674 -0.035294786 -0.0551917 -0.014930912
000280 9b 9b d8 ba db 90 0d 3d 00 b0 22 bd 40 71 c0 3d
       -0.0016525866 0.034561973 -0.039718628 0.09396601
000290 c2 9e 28 3d 3a 46 a4 3c 71 f1 bd 3d 4e 28 cf 39
       0.04116703 0.020053018 0.09274567 0.00039512146
0002a0 79 df 86 3b 63 38 72 3d e4 c7 e4 bc f5 f5 ea 3c
       0.0041159955 0.059135806 -0.027927347 0.028681735
0002b0 3e 77 34 3d 2f 38 53 bd f3 34 af 3d fa d9 76 bd
       0.04405903 -0.051567253 0.08555021 -0.060266472
0002c0 b6 6f 01 3d fb 0b 52 3b a3 31 14 3d 1b fb 39 bd
       0.031600676 0.0032050598 0.03618015 -0.04540549
0002d0 38 21 98 3d 8e 64 41 bc 2d 44 20 bc 5a 8d 5b bd
       0.07428211 -0.011803759 -0.009781879 -0.0536016
0002e0 c9 86 93 3d 72 97 11 bd 88 4b aa bc 59 c4 9a 3d
       0.072034426 -0.03554482 -0.02078797 0.075569816
0002f0 96 ec 83 3c 88 09 a4 3c 31 63 e3 3d ad 07 87 3d
       0.016104024 0.020024076 0.11102904 0.06593261
000300 43 92 18 bd 84 b5 a1 3d 2f a2 c8 3d 06 bd 50 bd
       -0.03724886 0.078959495 0.09796559 -0.050961517
000310 05 f2 4f 3d 2a ae b0 bb f8 22 16 bd 3c 29 bb bc
       0.050767917 -0.0053918557 -0.036654443 -0.02284681
000320 b0 24 51 3d e0 d4 f7 bc 96 04 ed 3c f9 bf a4 3d
       0.05106038 -0.030252874 0.02893285 0.080444284
000330 0c b2 4c 3d e2 1e cc bd 44 1d 11 bd 93 57 95 bd
       0.049974486 -0.09966828 -0.0354283 -0.07292094
000340 fc a9 8a 3d 99 e9 c7 bc 26 9b 1a bd 8a 3b 39 bc
       0.06770703 -0.02440338 -0.037745617 -0.011305699
000350 de 38 eb bc 58 86 b3 ba c8 02 a1 3c f3 e7 b6 3d
       -0.02871364 -0.0013696654 0.019654647 0.089309596
000360 a2 44 c2 3d ee d4 87 bd 25 ff 34 3d 28 5e 85 3d
       0.09485747 -0.0663241 0.044188637 0.065120995
000370 76 5f d7 3b 63 8b 1d 3d 7c 93 57 bd e2 3e ed 3c
       0.006572659 0.038463008 -0.052630886 0.028960649
000380 dc e3 45 3d ac 4b c7 3d 9d d5 96 3d da 31 77 3d
       0.048313007 0.0973123 0.07364962 0.060350277
000390 4f 39 62 bd e1 ce b1 3d 08 e4 f0 bc 25 82 d6 bc
       -0.055230435 0.08682037 -0.029405609 -0.026185105
0003a0 d2 c1 39 3d 1a 4e 64 bd 11 02 8e 3d 31 48 bc bd
       0.045350857 -0.055738546 0.06933988 -0.09193457
0003b0 4c 37 b4 ba b9 ad c1 bc b9 8b 91 bc 81 e6 94 bc
       -0.001374939 -0.023642408 -0.01776682 -0.01817632
0003c0 e1 fa 38 3c dd 17 b4 bc 87 1b f0 3c 1a a4 16 3d
       0.011290283 -0.021984035 0.029310001 0.036777593
0003d0 96 7b 2c 3d be 51 c3 3d 63 a5 5d 3b 83 c9 da 3d
       0.04211005 0.095370755 0.0033820502 0.106829666
0003e0 d7 ad 20 3d 2c 1c 95 bd 99 c7 38 bd 0b fc 9e bc
       0.039228287 -0.07280764 -0.045112226 -0.019407293
0003f0 eb 1c 9c bc d3 d5 ad bc ad 82 16 3d 93 ef a9 3b
       -0.019056758 -0.021220123 0.036745716 0.00518603

convs.0.lin_dst.weight f4 [128, 755]
000000 da 98 9e 3c 67 f0 50 3d 01 7d 01 3d 6f eb 79 bd
       0.019359995 0.051010516 0.031613354 -0.061015543
000010 f3 12 b3 bb 66 31 bb 3d ef d3 41 ba 61 16 8d 3d
       -0.0054649054 0.091402814 -0.0007393946 0.06889034
000020 e0 d5 16 bd 2e 74 6a 3d 1e bd 3e 3d 8d 97 b8 3d
       -0.03682506 0.057239704 0.046567075 0.09013281
000030 0f fc 01 bc 0b ae 1a 3d 47 76 cf bc f4 a4 0e bc
       -0.007933631 0.037763637 -0.025324954 -0.00870632
000040 bf d9 35 bc 68 a1 9c 3d 14 c7 83 bd 05 19 04 3c
       -0.011099278 0.07647973 -0.064344555 0.008062606
000050 ab 31 27 bd 0f 7a 18 bd bd a7 a6 bd 8f d2 ce bd
       -0.04081885 -0.03722578 -0.08137462 -0.100987546
000060 b9 68 c5 bc 4f 28 b0 bd 12 03 8c 3d 25 63 7b 3c
       -0.024097787 -0.08601438 0.06836523 0.015343462
000070 c9 20 48 bd b6 92 c0 bd 19 dd a2 3b 4f ef 1f 3d
       -0.04885939 -0.09402983 0.0049702046 0.03904658
000080 ee 50 d8 bc 2b c7 90 3d 51 35 60 3d 84 34 d1 3d
       -0.026405778 0.07069238 0.054738346 0.10215095
000090 96 2c 53 bc 90 4d bf 3c ad 8a d1 3d c4 67 24 bd
       -0.012889048 0.023352414 0.102315284 -0.04013802
0000a0 59 71 21 bd 7c 30 38 bd 63 14 c8 bc 68 17 da 3c
       -0.039414737 -0.044968113 -0.024423784 0.02662249
0000b0 b2 3c b2 bd df 93 98 3d 48 e2 b2 bc ec 82 a3 3c
       -0.08702983 0.07450079 -0.021836415 0.01995989
0000c0 f3 01 71 3d c6 f7 3d bd 01 22 bc bd 9a a4 4b bd
       0.05883975 -0.046378873 -0.09186173 -0.049717523
0000d0 9e 28 2a bb be 32 18 bd cf b5 83 3d de 01 2b bd
       -0.002596415 -0.037157767 0.064311616 -0.041749828
0000e0 6a a1 59 bd 98 de b0 3d 5a 7c b7 bd a8 60 e1 bc
       -0.053132452 0.086362064 -0.08959265 -0.02751191
0000f0 2b c2 42 3d 93 83 1f bc 68 02 0a bd d9 9e e7 bb
       0.047548454 -0.00973596 -0.0336937 -0.0070684967
000100 a6 a9 2a 3d 82 db 05 bc e4 60 87 bd 24 49 a2 bb
       0.041665696 -0.0081700105 -0.06610277 -0.0049525667
000110 3c 90 74 bd 7d d1 40 bc 5e 9e 0a 3d 2c 3a 80 3d
       -0.059707865 -0.011768696 0.033842437 0.062610954
000120 68 6c 6d 3c ac 7e e6 3c 59 ec 6d 3d f7 c1 72 3d
       0.014491178 0.028136574 0.058086727 0.05926701
000130 77 cb 3e bd b7 ab 9e 3d bc 6a 33 bc 03 f5 9c 3c
       -0.046580758 0.07747596 -0.01095074 0.0191598
000140 84 f0 89 bc 8b 06 26 bd e8 df ae bc b4 cb 09 3d
       -0.01683832 -0.040533584 -0.021347001 0.033641532
000150 5f d9 11 bd a9 dd 8d bd 43 ab 13 3d 9d 1f 11 bd
       -0.03560769 -0.06927044 0.036052 -0.03543054
000160 15 ef d5 3c 31 dc 47 bd bd 71 b4 bc 80 11 f2 ba
       0.02611498 -0.048793975 -0.02202689 -0.001846835
000170 b8 4f 00 bd e5 d6 2f 3d f1 25 d8 bd 70 5c 93 3b
       -0.031326026 0.04292955 -0.10554112 0.0044971034
000180 b0 47 93 3c c2 27 36 3d 8f 0f 38 3d f3 74 e9 3c
       0.01797852 0.04447151 0.044936713 0.028498149
000190 d8 13 de 3c b4 13 7b 3d 51 ae 49 3d fe 68 87 3d
       0.027109072 0.061298087 0.049238507 0.066118225
0001a0 d7 78 38 3c a2 1b 7c 3b 70 b8 1d bc f6 de d6 3a
       0.011259279 0.003846862 -0.009626493 0.0016393352
0001b0 66 c1 15 bd 6e 02 91 3c ff 60 f0 3c 7d 7b 8b 3d
       -0.036561392 0.017701354 0.029343126 0.06810663
0001c0 64 91 89 3d 09 6a b6 3d be 36 c2 bd ca 43 55 bd
       0.06717184 0.08906943 -0.094830975 -0.0520666
0001d0 20 c0 aa 3d 66 a6 99 3d b8 b6 e2 3c 45 76 5f 3c
       0.08337426 0.07502441 0.027675018 0.0136390375
0001e0 91 c0 10 3d 7d 90 28 bd 58 50 b3 39 0a e6 9f 3d
       0.035339896 -0.04115342 0.000342014 0.07807548
0001f0 1c 1b aa 3c 61 44 e2 bc a8 be 5b bd 90 75 bb 3d
       0.02076488 -0.027620496 -0.05364862 0.09153283
000200 58 01 8b bd 92 26 e6 bb 36 a7 20 bd 01 04 88 bd
       -0.06787366 -0.007023641 -0.039221965 -0.06641389
000210 9c dc 48 3d 76 fb 5b 3d 0e f0 e5 3b 81 ef 63 bd
       0.049038514 0.05370661 0.007017142 -0.05564833
000220 b9 d1 12 3d 3c 4f ad 3b 72 aa 85 3c eb f3 74 3d
       0.03584454 0.0052889865 0.016316626 0.05980293
000230 84 e6 84 3d 9e 5f ca 3b db 3a b9 bd e5 a7 04 bd
       0.0648928 0.0061759492 -0.09044429 -0.03238668
000240 7c e1 90 3c 35 68 73 3d f7 9e b0 3d f5 4f 99 3d
       0.017685644 0.05942555 0.0862407 0.07485954
000250 6f fc 7e 3d ae e7 05 3d f5 db 3d 3c 7b f7 f3 3b
       0.06225246 0.03269165 0.011588086 0.0074452735
000260 92 be 36 3d 11 35 06 ba 76 82 d1 bc cb 83 6b bd
       0.044615336 -0.0005119602 -0.025574904 -0.057498734
000270 83 c4 49 3d 44 91 10 bd b1 10 62 bd c9 a0 74 bc
       0.049259674 -0.035294786 -0.0551917 -0.014930912
000280 9b 9b d8 ba db 90 0d 3d 00 b0 22 bd 40 71 c0 3d
       -0.0016525866 0.034561973 -0.039718628 0.09396601
000290 c2 9e 28 3d 3a 46 a4 3c 71 f1 bd 3d 4e 28 cf 39
       0.04116703 0.020053018 0.09274567 0.00039512146
0002a0 79 df 86 3b 63 38 72 3d e4 c7 e4 bc f5 f5 ea 3c
       0.0041159955 0.059135806 -0.027927347 0.028681735
0002b0 3e 77 34 3d 2f 38 53 bd f3 34 af 3d fa d9 76 bd
       0.04405903 -0.051567253 0.08555021 -0.060266472
0002c0 b6 6f 01 3d fb 0b 52 3b a3 31 14 3d 1b fb 39 bd
       0.031600676 0.0032050598 0.03618015 -0.04540549
0002d0 38 21 98 3d 8e 64 41 bc 2d 44 20 bc 5a 8d 5b bd
       0.07428211 -0.011803759 -0.009781879 -0.0536016
0002e0 c9 86 93 3d 72 97 11 bd 88 4b aa bc 59 c4 9a 3d
       0.072034426 -0.03554482 -0.02078797 0.075569816
0002f0 96 ec 83 3c 88 09 a4 3c 31 63 e3 3d ad 07 87 3d
       0.016104024 0.020024076 0.11102904 0.06593261
000300 43 92 18 bd 84 b5 a1 3d 2f a2 c8 3d 06 bd 50 bd
       -0.03724886 0.078959495 0.09796559 -0.050961517
000310 05 f2 4f 3d 2a ae b0 bb f8 22 16 bd 3c 29 bb bc
       0.050767917 -0.0053918557 -0.036654443 -0.02284681
000320 b0 24 51 3d e0 d4 f7 bc 96 04 ed 3c f9 bf a4 3d
       0.05106038 -0.030252874 0.02893285 0.080444284
000330 0c b2 4c 3d e2 1e cc bd 44 1d 11 bd 93 57 95 bd
       0.049974486 -0.09966828 -0.0354283 -0.07292094
000340 fc a9 8a 3d 99 e9 c7 bc 26 9b 1a bd 8a 3b 39 bc
       0.06770703 -0.02440338 -0.037745617 -0.011305699
000350 de 38 eb bc 58 86 b3 ba c8 02 a1 3c f3 e7 b6 3d
       -0.02871364 -0.0013696654 0.019654647 0.089309596
000360 a2 44 c2 3d ee d4 87 bd 25 ff 34 3d 28 5e 85 3d
       0.09485747 -0.0663241 0.044188637 0.065120995
000370 76 5f d7 3b 63 8b 1d 3d 7c 93 57 bd e2 3e ed 3c
       0.006572659 0.038463008 -0.052630886 0.028960649
000380 dc e3 45 3d ac 4b c7 3d 9d d5 96 3d da 31 77 3d
       0.048313007 0.0973123 0.07364962 0.060350277
000390 4f 39 62 bd e1 ce b1 3d 08 e4 f0 bc 25 82 d6 bc
       -0.055230435 0.08682037 -0.029405609 -0.026185105
0003a0 d2 c1 39 3d 1a 4e 64 bd 11 02 8e 3d 31 48 bc bd
       0.045350857 -0.055738546 0.06933988 -0.09193457
0003b0 4c 37 b4 ba b9 ad c1 bc b9 8b 91 bc 81 e6 94 bc
       -0.001374939 -0.023642408 -0.01776682 -0.01817632
0003c0 e1 fa 38 3c dd 17 b4 bc 87 1b f0 3c 1a a4 16 3d
       0.011290283 -0.021984035 0.029310001 0.036777593
0003d0 96 7b 2c 3d be 51 c3 3d 63 a5 5d 3b 83 c9 da 3d
       0.04211005 0.095370755 0.0033820502 0.106829666
0003e0 d7 ad 20 3d 2c 1c 95 bd 99 c7 38 bd 0b fc 9e bc
       0.039228287 -0.07280764 -0.045112226 -0.019407293
0003f0 eb 1c 9c bc d3 d5 ad bc ad 82 16 3d 93 ef a9 3b
       -0.019056758 -0.021220123 0.036745716 0.00518603

convs.1.att_src f4 [1, 1, 9]
000000 16 c3 f6 3e 58 e1 02 bf b0 53 56 bf 0b c5 10 bf
       0.48195714 -0.511251 -0.83721447 -0.56550664
000010 c8 eb 20 bf 92 c1 72 3e 3b 93 1a 3f 3d ea bc bc
       -0.62859774 0.23706654 0.60380906 -0.023060912
000020 ee 9a 1f bf
       -0.6234578

convs.1.att_dst f4 [1, 1, 9]
000000 80 11 37 3f 8c 3a f7 3e 78 73 ec 3e 21 4f e3 be
       0.7151108 0.48286855 0.46181846 -0.44396308
000010 16 04 29 bf 95 61 f6 bd bb 83 4c 3e b2 98 00 3f
       -0.6602186 -0.12030331 0.19972126 0.50232995
000020 b3 a8 58 bf
       -0.84632415

convs.1.bias f4 [9]
000000 d2 78 73 bd 22 7b 23 bd 0a 66 f2 bb 01 ab 25 3d
       -0.059441395 -0.03991235 -0.007397418 0.040446285
000010 2b 3c e9 bc 99 fb 46 bd 73 c5 63 bd 46 f8 46 bd
       -0.028471073 -0.048579786 -0.055608224 -0.048576616
000020 a0 16 ca 3d
       0.098675966

convs.1.lin_src.weight f4 [9, 128]
000000 ba 91 05 be 9a 40 d9 ba 23 46 eb bd d3 df b4 bd
       -0.13043872 -0.0016575039 -0.11487987 -0.088317536
000010 fd df 4f 3e d2 d4 aa bd 7f b9 61 be f1 03 c5 3d
       0.20300288 -0.083413735 -0.22043417 0.096198924
000020 30 76 4d be f6 87 e6 3c a3 07 4a bd 42 9b 3d 3e
       -0.20064616 0.028141003 -0.04932369 0.18516257
000030 f1 42 1e 3e a9 5b bc bc 8d e3 ee 3d 5a 3a 18 3e
       0.15455224 -0.022992926 0.116644956 0.1486601
000040 42 86 1a be 09 15 30 be ce 6b c6 3d 8e 09 05 be
       -0.15090278 -0.17195524 0.09688531 -0.12991926
000050 31 74 bb 3d dc 8d 21 be ac 76 ab 3b 2e 00 a8 bd
       0.09153021 -0.15776771 0.0052326526 -0.08203159
000060 b5 6e 17 3e 45 a0 2b 3e 8b 0c e1 3d d3 34 22 3c
       0.14788325 0.16760357 0.109887205 0.00990029
000070 c8 86 c5 3d 44 5c 0c 3e ad be 1b 3e c5 41 2c 3e
       0.09644848 0.13707072 0.15209456 0.16821964
000080 70 49 fe bc 59 78 85 ba 46 d0 a5 3d 3d 29 40 be
       -0.031040877 -0.0010182961 0.08096366 -0.18765731
000090 ac c4 ce bd 58 e4 26 3e cc 6c b5 bd c4 44 d7 bd
       -0.10096106 0.16298044 -0.08858642 -0.10511163
0000a0 0b 71 3a be 1b f9 2e 3e f3 c6 2b be ee 80 2f be
       -0.18207185 0.17087214 -0.16775112 -0.17139027
0000b0 5b dd f4 bd 2c 0b 14 3e af 35 4b bd 3c d0 04 be
       -0.11956283 0.14457387 -0.049611744 -0.1297006
0000c0 c4 0b ca bd ff 01 27 3e 07 35 bb 3d ec 6c d3 bd
       -0.09865525 0.16309355 0.091409735 -0.103235096
0000d0 61 7f 53 3d 66 7c fb 3d 15 11 0c be 6b 43 14 be
       0.05163515 0.122795865 -0.13678391 -0.14478843
0000e0 5d 28 fa 3c 77 38 1e be cc a5 5b be 2f 51 f9 bd
       0.030536825 -0.15451227 -0.21449965 -0.12173688
0000f0 1e 35 d6 bd ea 99 da bd cf f1 19 be ee 05 ae 3d
       -0.1045935 -0.10673888 -0.15033649 0.08497225
000100 f5 ca fa bd 07 7f d3 bd 67 15 1d 3e c0 f1 af 3c
       -0.12245742 -0.10326963 0.15340196 0.02147758
000110 b4 06 c8 3d 52 58 64 be 06 2c 4f be 40 d5 07 be
       0.097669035 -0.22299317 -0.20231637 -0.13264942
000120 3e 55 31 ba 70 4e 25 3e 77 00 02 3d 8a e8 59 be
       -0.0006764716 0.16143203 0.031738725 -0.21280113
000130 df 73 48 3e ed 3f bb 3c aa 71 b5 bd d2 4b 37 be
       0.19575451 0.02285763 -0.0885957 -0.17900017
000140 dc b2 09 be 87 6a 2a 3c 3f de fe 3d b1 c9 24 3e
       -0.13447136 0.010401375 0.12444734 0.16092564
000150 73 cd 9e 3d 9a f5 26 be a4 a5 dd bd a0 e5 f1 bb
       0.0775403 -0.16304627 -0.10822609 -0.0073821098
000160 49 2f 35 be 39 d4 94 3d 4a f6 ac 3d 1a 66 31 3e
       -0.17693819 0.07267041 0.084454134 0.17324105
000170 6c 38 11 be 95 24 90 3d 23 5f 8d bd 1e a3 1a bd
       -0.1418168 0.070382275 -0.069029115 -0.037753217
000180 3e ad e3 3d 8b 64 2a 3c fe b9 7e 3c 24 42 2a be
       0.11117028 0.010399948 0.015547274 -0.16626793
000190 2f 20 7d bd 08 71 1c 3e 30 4c 22 3e 83 0e 90 3d
       -0.06179827 0.15277493 0.15849376 0.07034018
0001a0 4b e6 1c be a8 bf bb 3d 43 31 3e be 37 79 d7 bd
       -0.15322225 0.09167415 -0.1857348 -0.10521167
0001b0 f1 d0 34 3e 24 4c 3c 3e fb cd 88 3d 17 0d 56 be
       0.1765783 0.1838842 0.06679913 -0.20903431
0001c0 0f 61 45 3e a4 1e 22 be 16 51 06 3e 3f 3d 3f be
       0.19275306 -0.15832001 0.1311687 -0.18675707
0001d0 74 dd 46 3d d3 c9 b6 3d 98 ce 02 bb eb e3 d1 bd
       0.048551038 0.08925214 -0.0019959565 -0.1024855
0001e0 23 1a 17 3e 20 07 b4 3a ff ae 1f 3e 4c e9 55 bd
       0.14756064 0.0013735034 0.155941 -0.052224442
0001f0 42 0e a9 3d 4a ef 3f bc ee 03 19 be 5c 3e 8d 3d
       0.082546726 -0.011714766 -0.14942905 0.0689666
000200 c9 77 0d bd ed 9a b3 3d c8 4f 59 bd e9 90 e7 bd
       -0.034538064 0.08769784 -0.0530546 -0.11306936
000210 e5 2a 39 3e e3 0f 4e be bc 96 49 bd c4 0a 1a 3e
       0.18082769 -0.20123248 -0.049216017 0.1504317
000220 c6 60 bb 3c 61 19 f7 bd c1 a8 fa 3d e8 26 de 3c
       0.022873294 -0.120653875 0.122392185 0.027118161
000230 91 2a 0f be 34 16 0f be a8 64 09 bc 37 22 99 3d
       -0.13981082 -0.13973314 -0.008385815 0.07477229
000240 bf 37 86 bd c7 18 65 be 73 5a 56 3e 53 c3 55 3e
       -0.065536015 -0.22372733 0.20932941 0.20875292
000250 f0 7a 54 be 6b 01 c2 3d 0b bc 75 bc 28 48 23 3e
       -0.20750022 0.09472927 -0.014998446 0.15945494
000260 bf 0a 5c be 83 ce 9a bc 90 56 81 bd ca 10 3f 3e
       -0.21488474 -0.0188973 -0.063153386 0.18658748
000270 c5 c2 59 3d 7f c6 ab bd 6e bc 39 3e 22 6e 4a bb
       0.053164262 -0.083874695 0.18138286 -0.0030888398
000280 9d 73 e1 bd 14 c2 bd 3d 8b 31 6b 3e f4 f9 30 3d
       -0.110083796 0.09265533 0.22968118 0.043207124
000290 1b 24 19 3e 21 e9 56 bd 2a 39 de bd db b0 fc 3c
       0.1495518 -0.052468423 -0.10850747 0.03084605
0002a0 eb 37 f2 3d f9 94 1e be 81 80 06 bc 2e 53 3d 3d
       0.11827072 -0.15486516 -0.008209349 0.046221904
0002b0 15 7c 39 be c4 fb 12 3e da e8 da 3d 1b b7 25 be
       -0.1811374 0.14353853 0.10688944 -0.1618313
0002c0 65 d7 07 be 36 2c 14 be 51 e4 18 3e 73 a3 20 3e
       -0.1326576 -0.1446999 0.14930846 0.15687351
0002d0 c4 c4 e9 3d 0b 30 66 bc e2 f5 63 3e e3 b6 88 bd
       0.11414483 -0.01404954 0.22261766 -0.06675508
0002e0 63 86 69 bd 5f 76 b0 bd 05 c7 c7 bd 7c 21 bc 3d
       -0.057012927 -0.086163275 -0.09754757 0.09186074
0002f0 d2 cd 8b bd be f6 a3 3c cd 89 9c bd 94 53 23 be
       -0.068263665 0.020015117 -0.07643471 -0.15949851
000300 e0 a1 1f 3e 22 6e df bd 9a e4 7d bd 93 a6 39 3e
       0.15589094 -0.10909678 -0.06198559 0.1812995
000310 ff 50 41 3d df 90 93 be 77 06 4e be c7 f2 87 be
       0.047196385 -0.28821465 -0.20119654 -0.26552412
000320 1d 0d 26 be 36 d4 8b bc 87 e0 03 be 56 69 16 be
       -0.1621594 -0.017068963 -0.12878619 -0.1468862
000330 23 fe 88 bd 76 20 88 3e cf ad e9 bd 4d 48 56 be
       -0.06689098 0.26587266 -0.114101045 -0.20926018
000340 6f 07 81 bd 09 fc f4 bc 12 4a 48 3d dc 18 8e 3d
       -0.06300246 -0.029905336 0.048898764 0.06938335
000350 72 14 36 bd 95 41 99 3d 19 9b 1d be 9e e6 e5 3d
       -0.044453092 0.07483212 -0.15391196 0.11225627
000360 7b c3 34 be 52 3c 7d be a1 0c 15 bc db dd d1 bc
       -0.17652695 -0.24730042 -0.009097249 -0.025618484
000370 e9 f8 31 be fb bf 2e 3d ce 78 65 be 65 67 0e 3d
       -0.17380108 0.042663556 -0.22409365 0.034766573
000380 33 3c 31 be 9b 3a 1e be 13 9d e4 3c 37 9b fc 3b
       -0.1730812 -0.15452044 0.02790693 0.0077089327
000390 49 be 31 be 01 c4 90 3d 72 9c e6 3d 39 0a cd 3d
       -0.17357744 0.07068635 0.11260308 0.100117154
0003a0 9f ed 44 be d5 8d 02 3e 6d b7 0c be 83 d9 df bd
       -0.1923127 0.12749417 -0.13741846 -0.10930159
0003b0 cb b4 87 bc 43 94 02 be 3c 6d 2c 3e 76 77 00 3e
       -0.016565701 -0.1275187 0.16838545 0.1254557
0003c0 d0 69 80 3c 9d b8 1b be ae db 2f 3e 73 a9 80 3d
       0.015675455 -0.15207143 0.17173645 0.0628232
0003d0 c0 df a7 3d 64 76 14 be d1 60 49 bd c5 4c df 3c
       0.08196974 -0.14498287 -0.049164597 0.027258286
0003e0 3c 2e 4b bd b4 d4 f9 3c b4 af 19 3e 66 ab f6 3d
       -0.04960464 0.030496933 0.15008432 0.120444104
0003f0 c2 fa 3c be 3d ab ec 3d 31 f8 53 3e 07 5a 90 bd
       -0.18455032 0.115560986 0.20700146 -0.07048421
