saved_models/amazon-photo_GAT_s6.pt (torch, 399538 bytes, 14 tensors)

bns.0.weight f4 [128]
1.046045 1.0294898 0.98775375 0.9794848 1.0490175 1.0458349 1.0252324 1.0653399
1.021038 1.0123082 0.99722785 1.0042601 0.9889739 1.0142812 1.0836481 0.990869
1.0348564 1.0081515 1.0292697 1.0547662 0.98275536 1.0053219 1.0051104 1.0358952
0.992956 1.0111219 1.0053902 0.9905953 1.011164 1.0092422 1.0485294 1.0914105
1.0069518 1.0741541 1.0017124 0.98604506 0.9880641 0.9899796 1.0237585 1.0469325
1.0164977 1.0524032 1.0718726 1.041542 1.0055352 0.9972083 0.99220824 0.9950514
1.0370213 1.0450345 1.0566809 1.0004265 1.0339912 1.0296644 1.0164661 1.0434986
1.0564721 1.0084504 1.0386657 1.1010051 1.102784 1.0460469 1.0529286 1.0591152
0.97619534 1.0066264 1.0267271 0.98264784 1.0382171 0.9822779 0.999443 0.96563977
0.97893983 1.0201732 1.0120414 1.0289664 1.014842 1.0582498 1.042305 1.0147909
1.0249588 1.0458409 0.9919059 1.0307829 1.0635898 1.060696 0.99432427 1.0013163
1.0089151 1.0063344 0.9612126 1.0127765 1.0394306 1.0759635 1.0201814 0.9761364
0.97849166 0.9933479 0.97949153 1.0189755 1.011086 0.9704091 1.0350314 1.0259659
1.0553553 1.0608718 1.0640724 1.0254529 1.0261415 0.97359663 1.0665052 0.9988281
0.98497504 0.99760544 0.9864482 0.9857507 1.0264696 0.99392796 1.0434096 1.0665247
1.0614878 1.0110683 1.0411081 1.0099515 1.0309551 1.0129035 1.04152 1.033556
00000000: cde4 853f 52c6 833f 6edd 7c3f 84bf 7a3f
00000010: 3546 863f ebdd 853f d13a 833f 0f5d 883f
00000020: 60b1 823f 5193 813f 534a 7f3f 988b 803f
00000030: 652d 7d3f f7d3 813f fbb4 8a3f 97a9 7d3f
00000040: 2d76 843f 1c0b 813f 1cbf 833f 9402 873f
00000050: db95 7b3f 63ae 803f 75a7 803f 3798 843f
00000060: 5d32 7e3f 716c 813f a0b0 803f a797 7d3f
00000070: d26d 813f d92e 813f 3636 863f 57b3 8b3f
00000080: cce3 803f e27d 893f 1d38 803f 736d 7c3f
00000090: c5f1 7c3f 4e6f 7d3f 850a 833f e201 863f
000000a0: 991c 823f 26b5 863f 1f33 893f 4051 853f
000000b0: 61b5 803f 0b49 7f3f 5c01 7e3f b0bb 7e3f
000000c0: 1dbd 843f b1c3 853f 5241 873f fa0d 803f
000000d0: d359 843f 0bcc 833f 901b 823f 5d91 853f
000000e0: 7a3a 873f e714 813f fff2 843f bced 8c3f
000000f0: 0728 8d3f dde4 853f 5dc6 863f 1691 873f
00000100: f0e7 793f 22d9 803f cb6b 833f cf8e 7b3f
00000110: 4ce4 843f 9176 7b3f 7fdb 7f3f 2b34 773f
00000120: cd9b 7a3f 0995 823f 938a 813f 2cb5 833f
00000130: 58e6 813f bb74 873f 406a 853f abe4 813f
00000140: da31 833f 1dde 853f 8ced 7d3f b2f0 833f
00000150: b623 883f e3c4 873f 098c 7e3f 222b 803f
00000160: 2124 813f 91cf 803f 0712 763f a9a2 813f
00000170: 100c 853f 2cb9 893f 4e95 823f 13e4 793f
00000180: 6e7e 7a3f 0c4c 7e3f f5bf 7a3f ca6d 823f
00000190: 446b 813f bb6c 783f e97b 843f da52 833f
000001a0: e215 873f a6ca 873f 8633 883f 0a42 833f
000001b0: 9b58 833f a13d 793f 3e83 883f 33b3 7f3f
000001c0: 5327 7c3f 1263 7f3f df87 7c3f 285a 7c3f
000001d0: 5b63 833f 1072 7e3f 728e 853f e283 883f
000001e0: d5de 873f b06a 813f 0843 853f 1746 813f
000001f0: 56f6 833f d2a6 813f 8750 853f 904b 843f

bns.0.bias f4 [128]
0.032739993 -0.016052699 -0.024771083 -0.019470813 0.030362371 0.02932893 -0.0049869707 0.033257525
-0.025351299 -0.026916392 -0.026501475 -0.031907696 -0.03142788 -0.026441595 0.0356696 -0.004244617
0.02828837 0.014982423 0.02890896 -0.0057518454 -0.02447848 -0.027697917 -0.026893586 0.016835757
0.019010399 -0.014983367 -0.017561112 -0.019239282 0.022360355 -0.024466412 0.030633587 -0.0135509875
-0.0047533554 0.029553683 -0.019338595 -0.021309884 -0.020812865 -0.02524608 -0.03127652 0.031540137
-0.02166909 0.03184468 0.06886216 0.02748537 0.02076581 -0.022057392 -0.02189356 -0.016730014
0.02279512 0.012939024 0.032923415 -0.014385882 0.023845952 0.021548437 0.025387552 0.026596377
0.028789109 0.014796615 0.025672147 0.02731994 0.03903927 0.031309195 0.035011932 0.041987482
-0.026570534 0.02808852 0.02830059 -0.025499426 0.040048614 -0.0258341 0.0099311555 -0.028392889
0.01805815 0.0006873418 0.02126699 0.033301227 0.026081726 0.03167121 0.03046609 0.007896472
0.024310367 0.030538205 -0.02646735 0.024928503 0.032992948 0.035608508 -0.0214789 0.02241106
-0.016018994 0.04272546 -0.025038125 -0.02005661 -0.02054596 0.035421927 -0.02217669 -0.025770493
-0.024888603 -0.016655741 -0.004659837 0.029289793 -0.02172248 -0.02328761 0.030677559 0.031190142
0.021506108 0.032309007 -0.025170555 0.028398978 -0.025355235 -0.027003964 0.039217476 -0.024040775
-0.012889229 -0.024367375 -0.021917721 -0.004045824 0.029825704 -0.023122935 0.030425865 0.030746033
0.03170382 -0.02286954 0.028598767 0.03744301 0.028252743 0.024550783 0.029063322 0.029878074
00000000: 5f1a 063d f380 83bc baec cabc 4181 9fbc
00000010: 82ba f83c 3943 f03c be69 a3bb 0b39 083d
00000020: 87ad cfbc c47f dcbc 9f19 d9bc a5b1 02bd
00000030: 85ba 00bd 0b9c d8bc 491a 123d 6e16 8bbb
00000040: 03bd e73c d678 753c 7cd2 ec3c fa79 bcbb
00000050: 1887 c8bc bee6 e2bc f04f dcbc 24eb 893c
00000060: b2bb 9b3c cc7c 75bc 52dc 8fbc b39b 9dbc
00000070: 102d b73c c96d c8bc 4af3 fa3c f604 5ebc
00000080: 09c2 9bbb 911a f23c f96b 9ebc 1192 aebc
00000090: be7f aabc ded0 cebc cf1b 00bd 3b30 013d
000000a0: 6083 b1bc 916f 023d 9b07 8d3d 0029 e13c
000000b0: 0f1d aa3c b4b1 b4bc 205a b3bc 620d 89bc
000000c0: d5bc ba3c 33fe 533c b4da 063d c3b2 6bbc
000000d0: 9658 c33c 5986 b03c 8ef9 cf3c a5e0 d93c
000000e0: 23d7 eb3c 806d 723c 654e d23c 11ce df3c
000000f0: a4e7 1f3d 123e 003d ac68 0f3d 11fb 2b3d
00000100: 73aa d9bc e519 e63c a4d6 e73c 2ce4 d0bc
00000110: 040a 243d 09a2 d3bc 49b6 223c 3498 e8bc
00000120: afee 933c ba2e 343a 1c38 ae3c de66 083d
00000130: 58a9 d53c acb9 013d 0694 f93c 3460 013c
00000140: 8926 c73c 422b fa3c 0ed2 d8bc dc36 cc3c
00000150: 9d23 073d 3ada 113d 85f4 afbc 6697 b73c
00000160: 443a 83bc e400 2f3d c11c cdbc c34d a4bc
00000170: 0050 a8bc 9516 113d e4ab b5bc a41c d3bc
00000180: 2fe3 cbbc 9f71 88bc 8cb1 98bb 26f1 ef3c
00000190: 58f3 b1bc a8c5 bebc 814f fb3c 7882 ff3c
000001a0: 942d b03c 7356 043d 7b32 cebc f9a4 e83c
000001b0: c8b5 cfbc 6b37 ddbc 81a2 203d 29f1 c4bc
000001c0: 582d 53bc 179e c7bc cb8c b3bc d592 84bb
000001d0: 0955 f43c 4f6c bdbc aa3f f93c 1bdf fb3c
000001e0: dddb 013d e758 bbbc f647 ea3c d75d 193d
000001f0: 4c72 e73c b91e c93c 3416 ee3c ddc2 f43c

bns.0.running_mean f4 [128]
-0.48119777 -0.9607823 -1.2432127 3.47636 0.9012747 0.57343495 0.23593082 0.52132946
-2.2614768 -1.8199708 2.1751914 0.60571545 -0.16625391 -2.0926373 0.4176667 0.68913084
0.04607646 1.452936 1.5115991 -1.1363738 4.0896897 -0.4955053 -3.58617 0.07402597
-2.5009468 -0.87515175 2.326876 2.7291913 -0.635819 -3.0469887 0.0060774353 -0.13019599
-0.5219694 -0.649525 1.8351439 1.7768096 0.39461002 1.8460597 1.7069372 -0.7018956
0.25712746 -1.5928694 -0.33521026 -1.7242032 1.7814462 1.6665053 2.3418167 -0.24267492
0.1267596 -0.36060488 -2.4729693 -0.25325626 -0.8174568 -1.300529 0.42650947 -0.8118735
-1.6280094 2.3530455 -1.7619694 0.1761813 -0.37413743 -0.79847175 -2.4383328 -2.272906
-0.06278075 -3.3047147 -0.2749922 -0.30802003 0.6762629 -1.8231506 0.74639195 -0.41169074
-0.7768606 1.6640627 -1.7102181 0.14537574 -1.6405021 -0.22363698 1.0144874 -0.103340164
-0.64720255 0.3718689 -0.42702752 -0.16630931 0.2673916 0.43470338 -0.108463824 -1.6916314
-0.27438784 -0.14328061 1.8415409 0.08661396 -0.06643966 0.81599957 -0.26308382 1.5995934
5.038992 -5.095305 -4.3614693 3.0845428 -0.5307151 -2.619743 -5.3570437 -4.586957
0.24044566 -0.27870363 -0.73548245 -1.4438584 1.419714 0.93676347 0.06916685 -0.52326506
3.7356734 3.2967343 -3.3103797 5.4234476 -4.257544 1.6057221 -3.4073796 -2.2969458
-2.031898 -0.5121859 -2.0962296 -4.5943093 -5.1967044 -0.118719704 -1.0382993 -0.115400456
00000000: 8e5f f6be d4f5 75bf 9821 9fbf af7c 5e40
00000010: f0b9 663f a2cc 123f d997 713e d975 053f
00000020: 09bc 10c0 cef4 e8bf 5636 0b40 2b10 1b3f
00000030: 773e 2abe c5ed 05c0 69d8 d53e e16a 303f
00000040: acba 3c3d cff9 b93f 147c c13f b274 91bf
00000050: bdde 8240 dfb2 fdbe cf83 65c0 ee9a 973d
00000060: 830f 20c0 f209 60bf 89eb 1440 12ab 2e40
00000070: 09c5 22bf dd01 43c0 3925 c73b 1952 05be
00000080: c99f 05bf 4547 26bf ffe5 ea3f 7f6e e33f
00000090: 530a ca3e af4b ec3f eb7c da3f 6eaf 33bf
000000a0: 36a6 833e 25e3 cbbf aea0 abbe b1b2 dcbf
000000b0: 6e06 e43f 0c50 d53f 53e0 1540 c67f 78be
000000c0: 45cd 013e 34a1 b8be 2145 1ec0 ceaa 81be
000000d0: d944 51bf bc77 a6bf 735f da3e f1d6 4fbf
000000e0: 9d62 d0bf 4c98 1640 3788 e1bf df68 343e
000000f0: f18e bfbe a568 4cbf a50d 1cc0 4b77 11c0
00000100: 3293 80bd 7280 53c0 c7cb 8cbe cdb4 9dbe
00000110: 911f 2d3f 005d e9bf 8b13 3f3f 21c9 d2be
00000120: 56e0 46bf 0200 d53f 6de8 dabf 61dd 143e
00000130: f9fb d1bf 1801 65be b9da 813f 02a4 d3bd
00000140: 11af 25bf 9a65 be3e 5aa3 dabe fd4c 2abe
00000150: 8de7 883e 7191 de3e 4822 debd 6187 d8bf
00000160: 907c 8cbe 27b8 12be 9db7 eb3f a962 b13d
00000170: 8411 88bd 59e5 503f ecb2 86be 7abf cc3f
00000180: 6c3f a140 bd0c a3c0 2891 8bc0 2669 4540
00000190: f2dc 07bf dfa9 27c0 e76c abc0 5ac8 92c0
000001a0: 6337 763e 3eb2 8ebe 9448 3cbf 5ad0 b8bf
000001b0: 30b9 b53f bbcf 6f3f 59a7 8d3d b3f4 05bf
000001c0: 4615 6f40 b2fd 5240 43dd 53c0 e28c ad40
000001d0: cd3d 88c0 4d88 cd3f 8212 5ac0 2901 13c0
000001e0: 9e0a 02c0 9d1e 03bf a028 06c0 9504 93c0
000001f0: 674b a6c0 5123 f3bd fee6 84bf 1357 ecbd

bns.0.running_var f4 [128]
0.107294485 0.08239047 0.21113129 0.65802705 0.17875168 0.119466595 0.091937594 0.09968874
0.28303882 0.16779336 0.38922167 0.22550367 0.14690925 0.13558552 0.104824424 0.1766734
0.11309987 0.18036589 0.25971135 0.10280589 0.76089346 0.06328842 0.43389133 0.117778495
0.28234679 0.09162942 0.5913378 0.55154204 0.116260774 0.43733537 0.10492771 0.07266434
0.08037318 0.06526338 0.74231917 0.9451821 0.07860955 0.85166967 0.5359408 0.08255046
0.044505835 0.39494187 0.049744617 0.92890537 0.80128807 0.73530304 1.5156748 0.25638273
0.0437527 0.0567877 1.1358525 0.03207167 0.15451768 0.30670667 0.10301654 0.11707605
0.51191735 1.6686487 0.54791623 0.038506374 0.05190071 0.29706317 1.2730998 1.0408776
0.075861245 1.9363648 0.092592366 0.08096094 0.12521076 0.6943914 0.18282042 0.06522943
0.23490664 0.49188915 0.59324855 0.038806763 0.58440423 0.043027047 0.20714518 0.049931362
0.15586689 0.07425097 0.10969484 0.07727846 0.0541001 0.08904376 0.034374967 0.5969124
0.04905823 0.04636831 0.67364264 0.037812505 0.042371582 0.21669352 0.03148783 0.47307742
2.715385 1.7857267 2.0156283 1.2195697 0.07295527 0.68647635 2.412331 1.7305466
0.06467144 0.091266446 0.05103315 0.27329832 0.45388398 0.21360213 0.0395105 0.06309044
0.98663145 0.9263263 0.82224506 2.1121602 1.513701 0.22218414 1.6044159 0.7820502
0.66814816 0.05660279 0.46168312 1.7848514 2.245227 0.10083803 0.23193863 0.081308976
00000000: 36bd db3d 56bc a83d cd32 583e 7674 283f
00000010: ae0a 373e e7aa f43d c749 bc3d 9c29 cc3d
00000020: 77ea 903e 06d2 2b3e 1048 c73e 6fea 663e
00000030: 616f 163e eed6 0a3e 30ae d63d dfe9 343e
00000040: e8a0 e73d d6b1 383e e3f8 843e e58b d23d
00000050: eac9 423f 5c9d 813d 0127 de3e da35 f13d
00000060: c28f 903e 35a8 bb3d ea61 173f dc31 0d3f
00000070: 211a ee3d 6cea df3e 57e4 d63d 0bd1 943d
00000080: b29a a43d cfa8 853d a108 3e3f 74f7 713f
00000090: 0bfe a03d 0607 5a3f 6b33 093f 3710 a93d
000000a0: c04b 363d d235 ca3e 03c1 4b3d becc 6d3f
000000b0: 3721 4d3f d23c 3c3f a201 c23f 9944 833e
000000c0: 0836 333d 389a 683d 9d63 913f 955d 033d
000000d0: e239 1e3e a808 9d3e 56fa d23d 91c5 ef3d
000000e0: 040d 033f 4896 d53f 3d44 0c3f dcb8 1d3d
000000f0: d795 543d aa18 983e eff4 a23f 7a3b 853f
00000100: 245d 9b3d cdda f73f 11a1 bd3d d9ce a53d
00000110: 4037 003e a3c3 313f 4735 3b3e 0297 853d
00000120: 5e8b 703e e5d8 fb3e 23df 173f d7f3 1e3d
00000130: 849b 153f 213d 303d de1d 543e d484 4c3d
00000140: 929b 1f3e e410 983d b0a7 e03d 2b44 9e3d
00000150: 1198 5d3d 935c b63d c4cc 0c3d 40cf 183f
00000160: 48f1 483d b2ec 3d3d d873 2c3f 49e1 1a3d
00000170: d38d 2d3d e8e4 5d3e 62f9 003d 3437 f23e
00000180: dec8 2d40 b192 e43f 0e00 0140 dc1a 9c3f
00000190: 9369 953d eabc 2f3f a263 1a40 8d82 dd3f
000001a0: 7672 843d e7e9 ba3d 2308 513d c2ed 8b3e
000001b0: 7b63 e83e 84ba 5a3e c3d5 213d 9035 813d
000001c0: e193 7c3f b823 6d3f a77e 523f a22d 0740
000001d0: f4c0 c13f 3d84 633e 805d cd3f 7134 483f
000001e0: c20b 2b3f 54d8 673d bb61 ec3e 0376 e43f
000001f0: cdb1 0f40 2b84 ce3d 5281 6d3e 5285 a63d

convs.0.att_src f4 [1, 4, 32]
-0.3993166 0.096628554 -0.37549868 0.2745139 0.1788441 0.16800371 -0.0036682202 -0.27036965
0.3354423 -0.2511766 0.41153544 -0.15104653 -0.018267848 -0.15699269 0.009534732 -0.28665343
0.2929437 0.08987093 0.43181345 -0.4012337 0.09609278 -0.07739307 -0.4538631 0.1477446
-0.25717664 -0.13837081 -0.228076 0.43646047 -0.2115784 -0.40860242 -0.27311277 -0.09942704
-0.028059509 0.4225864 -0.12014163 0.13264391 0.40411335 -0.16101736 0.3348969 0.2682677
0.36420634 0.33129728 0.041078165 0.29501078 -0.29226482 0.30286568 0.07352205 -0.06731447
-0.39861408 0.32300863 0.11717707 0.2946902 -0.05817362 -0.16420941 -0.28987122 0.4121594
0.20047033 -0.01824867 0.3031121 0.10846267 -0.06540425 0.21144019 0.09013225 0.08365586
-0.2543907 0.19439441 0.27567163 0.33181253 -0.10647483 0.28867546 0.054850075 0.29574636
0.10017022 -0.124044634 0.24597934 -0.24332902 0.16019858 0.08784622 -0.35769787 -0.18920738
0.009491033 -0.108628094 -0.11269812 -0.28646734 0.010365966 -0.41277033 0.12852629 0.20182113
-0.1648381 -0.24021082 -0.37839147 0.0077331406 0.24085785 -0.23648702 0.32550758 -0.12501022
0.2243006 -0.36751658 0.13403551 0.1280078 0.23836215 -0.1597029 -0.22693792 -0.038842477
0.10140352 0.010568416 -0.021171657 -0.051196113 -0.23183177 -0.028946275 -0.39573953 0.32850432
0.36561438 0.27075422 0.3824012 -0.10756651 -0.20864215 0.29935282 -0.05585883 0.24364768
0.22652563 0.30885032 -0.012648276 -0.26783758 0.061191253 0.26639107 -0.15061882 0.37164462
00000000: 3a73 ccbe 31e5 c53d 5d41 c0be 168d 8c3e
00000010: e822 373e 2a09 2c3e 8666 70bb e46d 8abe
00000020: 18bf ab3e 389a 80be c6b4 d23e f1ab 1abe
00000030: 74a6 95bc b1c2 20be 9137 1c3c 3dc4 92be
00000040: b7fc 953e 400e b83d a716 dd3e 816e cdbe
00000050: 4bcc c43d 4280 9ebd bf60 e8be 5c4a 173e
00000060: a8ac 83be 14b1 0dbe c18c 69be bf77 df3e
00000070: 02a8 58be 5634 d1be 70d5 8bbe 67a0 cbbd
00000080: 0edd e5bc 3f5d d83e d10c f6bd ced3 073e
00000090: f2e7 ce3e bce1 24be 9b77 ab3e 625a 893e
000000a0: 4179 ba3e cc9f a93e 9441 283d a70b 973e
000000b0: bca3 95be 3611 9b3e bb92 963d 2bdc 89bd
000000c0: 2517 ccbe 6361 a53e 88fa ef3d a2e1 963e
000000d0: 7647 6ebd 8326 28be 006a 94be 8f06 d33e
000000e0: 1848 4d3e 3c7e 95bc 8231 9b3e ad21 de3d
000000f0: aaf2 85bd c783 583e 4297 b83d c353 ab3d
00000100: 7f3f 82be 540f 473e d524 8d3e 55e3 a93e
00000110: 7a0f dabd 45cd 933e 79aa 603d 116c 973e
00000120: 0b26 cd3d 1d0b febd 02e2 7b3e 3e2b 79be
00000130: 190b 243e b8e8 b33d 2d24 b7be 94bf 41be
00000140: 4780 1b3c 6878 debd 46ce e6bd d9ab 92be
00000150: 03d6 293c a256 d3be 659c 033e 33aa 4e3e
00000160: 52cb 28be d3f9 75be 87bc c1be 4966 fd3b
00000170: 71a3 763e a729 72be eea8 a63e ae02 00be
00000180: 0eaf 653e 222b bcbe 9b40 093e 7a14 033e
00000190: 3515 743e 2889 23be 6a62 68be 4a19 1fbd
000001a0: a6ac cf3d 2627 2d3c 2f70 adbc 04b3 51bd
000001b0: 4f65 6dbe bd20 edbc 5f9e cabe b831 a83e
000001c0: cf31 bb3e 4ca0 8a3e 17ca c33e d54b dcbd
000001d0: 4aa6 55be c644 993e 3bcc 64bd c77e 793e
000001e0: 56f6 673e a121 9e3e b73a 4fbc 0222 89be
000001f0: aea3 7a3d 6964 883e d23b 1abe 3448 be3e

convs.0.att_dst f4 [1, 4, 32]
0.091118485 -0.31751558 -0.38147342 -0.39820248 -0.22711918 0.1285203 -0.19249487 -0.12584892
-0.27306095 -0.07830065 0.06188815 -0.2330006 -0.03519268 0.030035036 -0.28784803 0.11969327
0.17981169 0.3391257 0.081183076 -0.03184582 0.30886894 -0.20979147 0.07164086 0.09291985
-0.267412 0.28282222 0.24259059 -0.27646497 -0.07272914 -0.23054753 0.008012977 0.020925343
0.11658198 0.22117464 0.034230396 0.09233166 -0.3221627 0.11170041 -0.26094627 -0.039214786
-0.2600296 -0.10708559 0.3961323 -0.27667052 0.39816168 0.048797682 0.14593023 -0.27017218
-0.24225692 0.3264997 0.06366788 0.32868338 -0.31169298 -0.044013355 0.020640476 0.37902138
-0.071269475 0.20053314 0.04590372 -0.19423318 0.33447653 -0.36566085 0.04991192 0.021342658
-0.06681517 0.38483152 0.25103596 -0.34641206 -0.39407653 0.41022214 0.05601232 0.30422574
0.05107911 -0.24772146 0.29956597 0.13825911 0.12115479 0.24659961 -0.36474457 0.2798378
0.34542575 0.24473451 -0.3432697 0.19952995 -0.22510427 0.011876812 0.03619124 -0.08700137
-0.06359243 -0.16560389 0.38728994 0.21580283 0.30272645 -0.2558798 0.30765235 0.33282852
-0.15837939 0.36991453 0.29724512 -0.32342538 -0.028841123 0.2547516 0.2608814 -0.23816055
-0.3562921 -0.15563676 -0.11860283 0.029874627 -0.2891716 -0.26336822 -0.21515213 -0.123492315
-0.31930512 -0.18428066 -0.0798616 -0.17179953 -0.27207616 0.08840729 0.3817593 -0.32103315
0.086368695 -0.2435691 -0.0984499 0.39131853 -0.27704173 -0.25216147 0.17148842 0.21627967
00000000: 549c ba3d 6791 a2be 7c50 c3be 32e1 cbbe
00000010: ee91 68be d39a 033e 601d 45be 8ade 00be
00000020: a5ce 8bbe 175c a0bd 6e7e 7d3d b697 6ebe
00000030: 3326 10bd 090c f63c d160 93be bf21 f53d
00000040: 8e20 383e e2a1 ad3e 5043 a63d c370 02bd
00000050: 1224 9e3e 93d3 56be 71b8 923d c34c be3d
00000060: 3aea 88be 13ce 903e ab69 783e d18c 8dbe
00000070: 04f3 94bd a714 6cbe dd48 033c a06b ab3c
00000080: 88c2 ee3d 9b7b 623e 2c35 0c3d 6218 bd3d
00000090: 82f2 a4be 2fc3 e43d c09a 85be af9f 20bd
000000a0: 9a22 85be b14f dbbd dad1 ca3e c2a7 8dbe
000000b0: d9db cb3e 14e0 473d bc6e 153e 0254 8abe
000000c0: 3312 78be f82a a73e 4e64 823d 3049 a83e
000000d0: 3996 9fbe 5947 34bd 3716 a93c 170f c23e
000000e0: bbf5 91bd 8f58 4d3e 8a05 3c3d 10e5 46be
000000f0: 8240 ab3e e637 bbbe 7170 4c3d ccd6 ae3c
00000100: 64d6 88bd a308 c53e c987 803e ec5c b1be
00000110: 66c4 c9be a308 d23e 2d6d 653d 7ac3 9b3e
00000120: 5438 513d b2aa 7dbe b660 993e cc93 0d3e
00000130: 0120 f83d 9c84 7c3e cdbf babe e646 8f3e
00000140: a5db b03e af9b 7a3e 0cc1 afbe 9451 4c3e
00000150: bc81 66be f696 423c 443d 143d c62d b2bd
00000160: bf3c 82bd 1194 29be de4a c63e 6bfb 5c3e
00000170: f6fe 9a3e ad02 83be 9c84 9d3e 8068 aa3e
00000180: 352e 22be 7065 bd3e 8330 983e 0398 a5be
00000190: 3844 ecbc cd6e 823e 3f92 853e 5ce0 73be
000001a0: eb6b b6be 3e5f 1fbe 0ae6 f2bd a2bb f43c
000001b0: 4d0e 94be 33d8 86be d750 5cbe 8ae9 fcbd
000001c0: f67b a3be 12b4 3cbe 7b8e a3bd 37ec 2fbe
000001d0: 914d 8bbe e20e b53d f475 c33e 755e a4be
000001e0: 12e2 b03d 2e6a 79be 1aa0 c9bd e75a c83e
000001f0: 6ad8 8dbe 4f1b 81be a99a 2f3e 6b78 5d3e

convs.0.bias f4 [128]
0.00044564376 -0.00079737796 -0.0034023598 -0.003534678 0.004628732 0.008519644 0.000311988 0.0035846422
-0.0017696113 -0.0071959007 -0.0010197709 -0.0012148307 0.00091810606 -0.00475497 0.00097641966 0.00015023178
0.004436555 -0.00027967634 0.0046686362 -0.009012545 -0.0028652714 0.0012091742 -0.0037518542 -0.003324686
-0.0017643864 -0.0047162618 -0.0009822967 -0.002651273 0.0015523193 -0.0024583412 -0.0031054365 -0.0014864568
0.0026721405 0.0038537206 -0.0047953017 0.0025460697 -0.0030932461 -0.0022470343 0.0014730088 -0.0011109789
-0.005526993 0.00096432684 -0.0020119203 -0.0020142624 0.0054826555 -0.0028770661 -0.0024678223 -0.0005936576
0.001904833 -0.00031809558 0.0005929834 0.00093113113 0.0054403096 0.0045752944 0.0030277101 0.0048658927
0.0027037954 0.00079430855 0.0028581724 0.0013854398 0.00015714437 0.0033189908 0.0048510004 -0.004053418
0.0028225335 -0.0020269998 0.0024018015 0.001365478 0.0019694543 -0.001956334 -0.0028478084 -0.0032986272
0.0002706394 -0.00018106043 0.001787627 0.0017570823 0.0056193443 0.0023157788 0.0063109677 0.00094787456
0.005041577 0.007199502 -0.005592223 0.0017233612 0.004972211 0.0046835584 -0.00024618176 0.0004336376
0.0016207851 0.0022872663 0.0025181293 -0.007362136 -0.0039868965 -0.00026282624 -0.0016606938 -0.0010228502
0.0032593927 0.0031834343 -0.0013184666 -0.0005412973 -0.004030758 -0.0032190005 -0.004266754 -0.0036162487
-0.0004335417 0.007049004 -0.007458369 -0.000758333 -0.004296915 -0.00094378524 -0.0037201804 -0.0061393245
-0.0017935474 0.0050252033 0.0018289356 -0.0001598421 0.0065127728 -0.0007738102 -0.003955113 0.0045790253
-0.0013390259 -0.004961164 0.0024093143 -0.0021289438 -0.0016078843 0.0033712238 0.0010808817 -0.0038330036
00000000: 4ba5 e939 2107 51ba 20fa 5ebb 0ea6 67bb
00000010: 9eac 973b fa95 0b3c 5292 a339 51ec 6a3b
00000020: 4df2 e7ba 97cb ebbb d5a9 85ba f43a 9fba
00000030: 0ead 703a 94cf 9bbb 6af6 7f3a 8987 1d39
00000040: 8560 913b 86a1 92b9 5cfb 983b 5ba9 13bc
00000050: 47c7 3bbb 277d 9e3a abe1 75bb fae2 59bb
00000060: fc42 e7ba df8a 9abb 68c0 80ba fbc0 2dbb
00000070: 3177 cb3a 1f1c 21bb 9484 4bbb 37d5 c2ba
00000080: 141f 2f3b b48e 7c3b e821 9dbb f6db 263b
00000090: 0fb8 4abb fb42 13bb f911 c13a 449e 91ba
000000a0: c71b b5bb e1ca 7c3a 6cda 03bb b701 04bb
000000b0: d9a7 b33b 298d 3cbb 30bb 21bb b09f 1bba
000000c0: 97ab f93a 11c6 a6b9 7172 1b3a 2717 743a
000000d0: a044 b23b 5aec 953b 8c6c 463b 1172 9f3b
000000e0: 2932 313b 2539 503a 2d50 3b3b a597 b53a
000000f0: 1fc7 2439 6d83 593b 24f5 9e3b 89d2 84bb
00000100: 41fa 383b 6ad7 04bb 8b67 1d3b d7f9 b23a
00000110: f611 013b d735 00bb 4ca2 3abb c82d 58bb
00000120: 9be4 8d39 0adb 3db9 cf4e ea3a e64d e63a
00000130: 7a22 b83b 52c4 173b 3ccc ce3b c97a 783a
00000140: d033 a53b cde9 eb3b f73e b7bb 68e2 e13a
00000150: eeed a23b 8978 993b f511 81b9 da59 e339
00000160: 8670 d43a f6e5 153b 3307 253b 133e f1bb
00000170: 83a4 82bb f1cb 89b9 a3ab d9ba 2811 86ba
00000180: 899b 553b 2aa1 503b 66d0 acba d9e5 0dba
00000190: 7314 84bb def5 52bb 20d0 8bbb 96fe 6cbb
000001a0: fb4c e3b9 55fb e63b 5565 f4bb deca 46ba
000001b0: 23cd 8cbb 5b68 77ba 45ce 73bb 632c c9bb
000001c0: 7715 ebba 76aa a43b e5b8 ef3a 499b 27b9
000001d0: 1969 d53b 86d9 4aba e499 81bb a60b 963b
000001e0: 4182 afba 4391 a2bb 96e5 1d3b c085 0bbb
000001f0: a5bf d2ba c0ef 5c3b 5fac 8d3a 2133 7bbb

convs.0.lin_src.weight f4 [128, 755]
-0.07069877 0.06854484 0.0032423022 -0.014929139 0.06031031 0.023289705 -0.057368193 -0.03720412
0.03615494 -0.03858771 -0.022384742 0.02227806 -0.023786891 -0.041976944 -0.03383895 0.04682483
0.010219133 -0.03946502 -0.07875671 -0.042228077 0.024059288 -0.022357445 0.029929556 -0.002818782
2.3101275e-05 0.009450966 0.0008993852 -0.03481692 -0.07743048 -0.07226533 -0.019712191 0.054049175
0.050762415 0.0533475 0.049442977 0.08176591 0.041431904 0.0489441 -0.036206864 0.023109693
0.07576796 0.01945306 0.105161145 0.011828851 -0.07094204 -0.094459616 0.028686786 0.034020737
-0.010653252 0.030377693 -0.014957325 0.006462031 0.04319064 0.024531826 -0.07818281 0.012456709
-0.012409674 0.029854469 0.04132763 -0.10249157 0.03500652 -0.06286072 0.029015057 0.0644734
-0.04600291 0.044450074 0.026149698 0.040947225 0.045797665 0.019472705 -0.003162594 -0.062328115
-0.027697287 0.072067924 -0.013400718 0.090540715 0.07976943 0.007904882 0.012232006 0.06695284
-0.0699754 0.0032713737 0.054916278 0.05136434 0.01554724 0.02890055 0.06556716 -0.098374724
-0.018158942 0.04371694 -0.07286779 -0.02072243 0.029953832 -0.07970435 0.060591165 -0.083402626
-0.03149508 0.009611382 0.004850766 0.11044029 0.062363096 -0.062913135 -0.035099726 -0.052024692
0.009606432 -0.016611917 0.019432511 0.03279194 -0.041346554 -0.023996249 0.020550642 0.009814224
0.062433384 0.022781542 0.029237026 0.03878767 -0.0046114167 -0.09034629 -0.006498202 0.015186518
-0.0009424745 -0.051767293 -0.058281235 0.006204381 -0.039721604 -0.06147275 -0.014306638 -0.023884716
0.020467902 -0.025158634 -0.029068146 0.07477034 -0.023552516 -0.058665328 0.0211778 0.057693172
0.07076118 0.04024857 0.021058414 -0.0405907 -0.037434015 -0.0045518656 -0.100578025 0.07206044
0.01450892 -0.024664914 -0.043677974 -0.016864102 -0.07056092 0.03571241 0.042756382 -0.07435291
-0.004077162 0.07833609 -0.05258694 -0.026455395 -0.12022332 0.07879178 0.039462283 0.09103466
0.00233712 0.021391355 -0.070825554 0.03071854 -0.04969238 -0.046139598 0.031815324 -0.032283388
0.008795033 0.029292766 0.105232306 -0.08243659 -0.044514716 -0.040642083 -0.0019064044 0.013897827
-0.051961284 0.08163304 0.086292446 0.0017491846 0.022862278 0.07813549 -0.005188688 -0.07289682
-0.053917877 0.03305781 -0.0041565383 0.033423517 0.074546784 -0.041729007 0.069903865 -0.031413592
-0.044781398 -0.02450125 0.008835934 0.003454429 0.047570053 -0.05283358 0.08361713 0.06352953
0.080156006 -0.03397585 -0.015973294 0.021056741 -0.03683907 -0.05368421 0.043550305 0.105800815
0.0026409226 -0.010915806 0.0088646095 -0.0097901905 0.016574133 -0.08547439 0.0036368943 -0.082626686
0.0041807187 -0.060338564 -0.019781444 0.058798097 -0.02426381 0.0069510997 -0.06779374 0.051198777
-0.0036944917 0.04373179 -0.07224985 -0.088314466 -0.061780404 0.07392169 -0.12610027 0.031187952
-0.060285725 0.028716944 -0.034953374 -0.018262519 0.011399969 -0.067734376 0.02763277 0.05471162
0.0023132449 -0.016284673 -0.06182095 0.066560574 -0.08310791 -0.030358357 0.038347196 0.059369743
-0.1012345 0.014550352 0.09237462 -0.05684745 0.06478547 -0.038912673 -0.01646442 0.04143828
00000000: 84ca 90bd 3d61 8c3d ce7c 543b 5999 74bc
00000010: f207 773d 0dca be3c e9fa 6abd 5963 18bd
00000020: 3417 143d 260e 1ebd 3560 b7bc 7a80 b63c
00000030: badc c2bc 04f0 2bbd b69a 0abd 65cb 3f3d
00000040: 276e 273c 13a6 21bd 334b a1bd 59f7 2cbd
00000050: fc17 c53c f626 b7bc d42e f53c 51bb 38bb
00000060: 9cc9 c137 39d8 1a3c b8c4 6b3a 309c 0ebd
00000070: df93 9ebd d8ff 93bd 767b a1bc ab62 5d3d
00000080: 40ec 4f3d e882 5a3d b884 4a3d e374 a73d
00000090: 80b4 293d 9c79 483d a64d 14bd 8a50 bd3c
000000a0: 3b2c 9b3d 065c 9f3c ba5e d73d cccd 413c
000000b0: 0f4a 91bd 0b74 c1bd 8d00 eb3c 5459 0b3d
000000c0: fa8a 2ebc a4da f83c 910f 75bc 72bf d33b
000000d0: abe8 303d f8f6 c83c 4f1e a0bd 3917 4c3c
000000e0: f251 4bbc 5c91 f43c 2947 293d 1ae7 d1bd
000000f0: ff62 0f3d 1fbd 80bd fcb0 ed3c a10a 843d
00000100: 8c6d 3cbd 4811 363d e437 d63c 47b8 273d
00000110: 5596 3b3d 3985 9f3c 8643 4fbb c44b 7fbd
00000120: 6ce5 e2bc 5998 933d af8e 5bbc 696d b93d
00000130: 285e a33d 7a83 013c c068 483c 921e 893d
00000140: 434f 8fbd 8b64 563b e4ef 603d 6a63 523d
00000150: dab9 7e3c d9c0 ec3c 1348 863d b078 c9bd
00000160: 10c2 94bc 8910 333d b53b 95bd 16c2 a9bc
00000170: bd61 f53c 093c a3bd 712e 783d ffce aabd
00000180: fc00 01bd 0f79 1d3c 2df3 9e3b 852e e23d
00000190: 7270 7f3d 9ad8 80bd bbc4 0fbd d817 55bd
000001a0: 4c64 1d3c b715 88bc ee30 9f3c d750 063d
000001b0: 015b 29bd c893 c4bc d259 a83c d7cb 203c
000001c0: 26ba 7f3d 5ba0 ba3c 7d82 ef3c d2df 1e3d
000001d0: 5e1b 97bb 7a07 b9bd dfee d4bb e0d0 783c
000001e0: 6510 77ba f109 54bd 4eb8 6ebd 1f4e cb3b
000001f0: 1fb3 22bd daca 7bbd 6466 6abc e1a9 c3bc
00000200: 4dac a73c 7b19 cebc 5220 eebc 3121 993d
00000210: 35f1 c0bc 0e4b 70bd 117d ad3c ad4f 6c3d
00000220: 3deb 903d afdb 243d b282 ac3c 6f42 26bd
00000230: 6954 19bd d127 95bb dafb cdbd 6d94 933d
00000240: d2b6 6d3c 130e cabc ade7 32bd 9626 8abc
00000250: 3e82 90bd 2d47 123d 5121 2f3d 5746 98bd
00000260: b799 85bb ac6e a03d 6765 57bd fcb8 d8bc
00000270: a537 f6bd 965d a13d 34a3 213d 6170 ba3d
00000280: 5e2a 193b ec3c af3c fd0c 91bd 73a5 fb3c
00000290: 3d8a 4bbd e0fc 3cbd c950 023d 963b 04bd
000002a0: 0b19 103c 62f7 ef3c 0984 d73d 84d4 a8bd
000002b0: 1055 36bd 5078 26bd 51e0 f9ba b6b3 633c
000002c0: 5bd5 54bd 392f a73d 18ba b03d e544 e53a
000002d0: ac49 bb3c 8005 a03d df05 aabb ee4a 95bd
000002e0: fed8 5cbd a067 073d 9233 88bb 19e7 083d
000002f0: fcab 983d 09ec 2abd c229 8f3d 8aab 00bd
00000300: b36c 37bd d8b6 c8bc 98c4 103c b463 623b
00000310: d1d8 423d 0668 58bd 753f ab3d c51b 823d
00000320: d528 a43d 432a 0bbd 6dda 82bc 307f ac3c
00000330: 91e4 16bd f9e3 5bbd ce61 323d 19ae d83d
00000340: 5413 2d3b 35d8 32bc de3c 113c 0967 20bc
00000350: 7ac6 873c 320d afbd f658 6e3b 2e38 a9bd
00000360: 69fe 883b 9225 77bd b20c a2bc 46d6 703d
00000370: e6c4 c6bc 0dc6 e33b 72d7 8abd cfb5 513d
00000380: 491f 72bb 1b20 333d bbf7 93bd 37de b4bd
00000390: 730d 7dbd 4164 973d 6e20 01be e07d ff3c
000003a0: 2aee 76bd cc3f eb3c 452b 0fbd 479b 95bc
000003b0: f0c6 3a3c 52b8 8abd 1e5e e23c 4b19 603d
000003c0: cf99 173b 6f67 85bc f737 7dbd e950 883d
000003d0: 7b34 aabd 17b2 f8bc f311 1d3d b02d 733d
000003e0: 0954 cfbd 9964 6e3c e82e bd3d dfd8 68bd
000003f0: 3fae 843d e562 1fbd 64e0 86bc 30bb 293d

convs.0.lin_dst.weight f4 [128, 755]
-0.07069877 0.06854484 0.0032423022 -0.014929139 0.06031031 0.023289705 -0.057368193 -0.03720412
0.03615494 -0.03858771 -0.022384742 0.02227806 -0.023786891 -0.041976944 -0.03383895 0.04682483
0.010219133 -0.03946502 -0.07875671 -0.042228077 0.024059288 -0.022357445 0.029929556 -0.002818782
2.3101275e-05 0.009450966 0.0008993852 -0.03481692 -0.07743048 -0.07226533 -0.019712191 0.054049175
0.050762415 0.0533475 0.049442977 0.08176591 0.041431904 0.0489441 -0.036206864 0.023109693
0.07576796 0.01945306 0.105161145 0.011828851 -0.07094204 -0.094459616 0.028686786 0.034020737
-0.010653252 0.030377693 -0.014957325 0.006462031 0.04319064 0.024531826 -0.07818281 0.012456709
-0.012409674 0.029854469 0.04132763 -0.10249157 0.03500652 -0.06286072 0.029015057 0.0644734
-0.04600291 0.044450074 0.026149698 0.040947225 0.045797665 0.019472705 -0.003162594 -0.062328115
-0.027697287 0.072067924 -0.013400718 0.090540715 0.07976943 0.007904882 0.012232006 0.06695284
-0.0699754 0.0032713737 0.054916278 0.05136434 0.01554724 0.02890055 0.06556716 -0.098374724
-0.018158942 0.04371694 -0.07286779 -0.02072243 0.029953832 -0.07970435 0.060591165 -0.083402626
-0.03149508 0.009611382 0.004850766 0.11044029 0.062363096 -0.062913135 -0.035099726 -0.052024692
0.009606432 -0.016611917 0.019432511 0.03279194 -0.041346554 -0.023996249 0.020550642 0.009814224
0.062433384 0.022781542 0.029237026 0.03878767 -0.0046114167 -0.09034629 -0.006498202 0.015186518
-0.0009424745 -0.051767293 -0.058281235 0.006204381 -0.039721604 -0.06147275 -0.014306638 -0.023884716
0.020467902 -0.025158634 -0.029068146 0.07477034 -0.023552516 -0.058665328 0.0211778 0.057693172
0.07076118 0.04024857 0.021058414 -0.0405907 -0.037434015 -0.0045518656 -0.100578025 0.07206044
0.01450892 -0.024664914 -0.043677974 -0.016864102 -0.07056092 0.03571241 0.042756382 -0.07435291
-0.004077162 0.07833609 -0.05258694 -0.026455395 -0.12022332 0.07879178 0.039462283 0.09103466
0.00233712 0.021391355 -0.070825554 0.03071854 -0.04969238 -0.046139598 0.031815324 -0.032283388
0.008795033 0.029292766 0.105232306 -0.08243659 -0.044514716 -0.040642083 -0.0019064044 0.013897827
-0.051961284 0.08163304 0.086292446 0.0017491846 0.022862278 0.07813549 -0.005188688 -0.07289682
-0.053917877 0.03305781 -0.0041565383 0.033423517 0.074546784 -0.041729007 0.069903865 -0.031413592
-0.044781398 -0.02450125 0.008835934 0.003454429 0.047570053 -0.05283358 0.08361713 0.06352953
0.080156006 -0.03397585 -0.015973294 0.021056741 -0.03683907 -0.05368421 0.043550305 0.105800815
0.0026409226 -0.010915806 0.0088646095 -0.0097901905 0.016574133 -0.08547439 0.0036368943 -0.082626686
0.0041807187 -0.060338564 -0.019781444 0.058798097 -0.02426381 0.0069510997 -0.06779374 0.051198777
-0.0036944917 0.04373179 -0.07224985 -0.088314466 -0.061780404 0.07392169 -0.12610027 0.031187952
-0.060285725 0.028716944 -0.034953374 -0.018262519 0.011399969 -0.067734376 0.02763277 0.05471162
0.0023132449 -0.016284673 -0.06182095 0.066560574 -0.08310791 -0.030358357 0.038347196 0.059369743
-0.1012345 0.014550352 0.09237462 -0.05684745 0.06478547 -0.038912673 -0.01646442 0.04143828
00000000: 84ca 90bd 3d61 8c3d ce7c 543b 5999 74bc
00000010: f207 773d 0dca be3c e9fa 6abd 5963 18bd
00000020: 3417 143d 260e 1ebd 3560 b7bc 7a80 b63c
00000030: badc c2bc 04f0 2bbd b69a 0abd 65cb 3f3d
00000040: 276e 273c 13a6 21bd 334b a1bd 59f7 2cbd
00000050: fc17 c53c f626 b7bc d42e f53c 51bb 38bb
00000060: 9cc9 c137 39d8 1a3c b8c4 6b3a 309c 0ebd
00000070: df93 9ebd d8ff 93bd 767b a1bc ab62 5d3d
00000080: 40ec 4f3d e882 5a3d b884 4a3d e374 a73d
00000090: 80b4 293d 9c79 483d a64d 14bd 8a50 bd3c
000000a0: 3b2c 9b3d 065c 9f3c ba5e d73d cccd 413c
000000b0: 0f4a 91bd 0b74 c1bd 8d00 eb3c 5459 0b3d
000000c0: fa8a 2ebc a4da f83c 910f 75bc 72bf d33b
000000d0: abe8 303d f8f6 c83c 4f1e a0bd 3917 4c3c
000000e0: f251 4bbc 5c91 f43c 2947 293d 1ae7 d1bd
000000f0: ff62 0f3d 1fbd 80bd fcb0 ed3c a10a 843d
00000100: 8c6d 3cbd 4811 363d e437 d63c 47b8 273d
00000110: 5596 3b3d 3985 9f3c 8643 4fbb c44b 7fbd
00000120: 6ce5 e2bc 5998 933d af8e 5bbc 696d b93d
00000130: 285e a33d 7a83 013c c068 483c 921e 893d
00000140: 434f 8fbd 8b64 563b e4ef 603d 6a63 523d
00000150: dab9 7e3c d9c0 ec3c 1348 863d b078 c9bd
00000160: 10c2 94bc 8910 333d b53b 95bd 16c2 a9bc
00000170: bd61 f53c 093c a3bd 712e 783d ffce aabd
00000180: fc00 01bd 0f79 1d3c 2df3 9e3b 852e e23d
00000190: 7270 7f3d 9ad8 80bd bbc4 0fbd d817 55bd
000001a0: 4c64 1d3c b715 88bc ee30 9f3c d750 063d
000001b0: 015b 29bd c893 c4bc d259 a83c d7cb 203c
000001c0: 26ba 7f3d 5ba0 ba3c 7d82 ef3c d2df 1e3d
000001d0: 5e1b 97bb 7a07 b9bd dfee d4bb e0d0 783c
000001e0: 6510 77ba f109 54bd 4eb8 6ebd 1f4e cb3b
000001f0: 1fb3 22bd daca 7bbd 6466 6abc e1a9 c3bc
00000200: 4dac a73c 7b19 cebc 5220 eebc 3121 993d
00000210: 35f1 c0bc 0e4b 70bd 117d ad3c ad4f 6c3d
00000220: 3deb 903d afdb 243d b282 ac3c 6f42 26bd
00000230: 6954 19bd d127 95bb dafb cdbd 6d94 933d
00000240: d2b6 6d3c 130e cabc ade7 32bd 9626 8abc
00000250: 3e82 90bd 2d47 123d 5121 2f3d 5746 98bd
00000260: b799 85bb ac6e a03d 6765 57bd fcb8 d8bc
00000270: a537 f6bd 965d a13d 34a3 213d 6170 ba3d
00000280: 5e2a 193b ec3c af3c fd0c 91bd 73a5 fb3c
00000290: 3d8a 4bbd e0fc 3cbd c950 023d 963b 04bd
000002a0: 0b19 103c 62f7 ef3c 0984 d73d 84d4 a8bd
000002b0: 1055 36bd 5078 26bd 51e0 f9ba b6b3 633c
000002c0: 5bd5 54bd 392f a73d 18ba b03d e544 e53a
000002d0: ac49 bb3c 8005 a03d df05 aabb ee4a 95bd
000002e0: fed8 5cbd a067 073d 9233 88bb 19e7 083d
000002f0: fcab 983d 09ec 2abd c229 8f3d 8aab 00bd
00000300: b36c 37bd d8b6 c8bc 98c4 103c b463 623b
00000310: d1d8 423d 0668 58bd 753f ab3d c51b 823d
00000320: d528 a43d 432a 0bbd 6dda 82bc 307f ac3c
00000330: 91e4 16bd f9e3 5bbd ce61 323d 19ae d83d
00000340: 5413 2d3b 35d8 32bc de3c 113c 0967 20bc
00000350: 7ac6 873c 320d afbd f658 6e3b 2e38 a9bd
00000360: 69fe 883b 9225 77bd b20c a2bc 46d6 703d
00000370: e6c4 c6bc 0dc6 e33b 72d7 8abd cfb5 513d
00000380: 491f 72bb 1b20 333d bbf7 93bd 37de b4bd
00000390: 730d 7dbd 4164 973d 6e20 01be e07d ff3c
000003a0: 2aee 76bd cc3f eb3c 452b 0fbd 479b 95bc
000003b0: f0c6 3a3c 52b8 8abd 1e5e e23c 4b19 603d
000003c0: cf99 173b 6f67 85bc f737 7dbd e950 883d
000003d0: 7b34 aabd 17b2 f8bc f311 1d3d b02d 733d
000003e0: 0954 cfbd 9964 6e3c e82e bd3d dfd8 68bd
000003f0: 3fae 843d e562 1fbd 64e0 86bc 30bb 293d

convs.1.att_src f4 [1, 1, 9]
-0.19956885 0.16217254 0.3514421 0.19313814 -0.7598692 0.5368249 0.31131694 0.0037293313
0.7305972
00000000: c75b 4cbe 8f10 263e 38f0 b33e 01c6 453e
00000010: ca86 42bf 5b6d 093f ef64 9f3e cc67 743b
00000020: 6b08 3b3f

convs.1.att_dst f4 [1, 1, 9]
0.28332716 0.28611425 0.5451193 -0.32964754 0.49061424 -0.1090321 -0.14110775 -0.6869086
0.23478
00000000: 4210 913e 917d 923e f08c 0b3f 90c7 a8be
00000010: ca31 fb3e 394c dfbd 8d7e 10be 3ed9 2fbf
00000020: 2b6a 703e

convs.1.bias f4 [9]
-0.021428691 -0.024367034 -0.03787857 0.027015703 -0.021604206 -0.026360838 -0.02876344 -0.020896805
-0.011419988
00000000: 398b afbc 609d c7bc 8f26 1bbd 0950 dd3c
00000010: 4efb b0bc aff2 d7bc 4ea1 ebbc c72f abbc
00000020: e71a 3bbc

convs.1.lin_src.weight f4 [9, 128]
0.0087111415 0.10185674 0.01347387 0.19448788 -0.02736905 0.043722965 -0.10468176 0.0046387245
0.02621572 0.05895917 0.19753344 -0.060665946 0.16357751 0.17855136 0.09713097 0.17045766
-0.09800105 -0.20995805 -0.15046233 0.120887086 0.016454915 -0.15959285 -0.071253076 0.09387166
0.0018501615 0.049626265 0.09883037 -0.025428515 0.18804403 0.23920278 -0.14851682 0.056795336
0.15965657 -0.122398876 0.14758822 0.124914326 -0.20445801 -0.21380268 -0.17124651 -0.015185871
-0.0002793718 -0.0883988 -0.06530731 -0.18902466 0.10252021 0.08160116 0.010511819 0.0017339363
-0.008676792 0.14320429 -0.20149602 -0.12513661 -0.17735599 -0.021488627 -0.073615976 0.1014741
-0.22058192 0.12905367 -0.21741912 -0.18340756 0.09748235 -0.04420077 0.029085275 0.047143877
-0.05836733 0.06318012 0.030811843 -0.16540153 0.10025877 -0.025233118 -0.24889559 0.054708067
-0.1249212 -0.050034128 -0.16334054 0.1348462 0.046827618 0.026615852 -0.076982826 0.14782366
0.13887502 0.13669336 0.20153329 0.10112654 -0.13658479 -0.23453292 0.03915813 -0.06600766
0.21645977 0.12865435 0.15689306 -0.010645818 -0.12359071 0.03613526 0.17629723 0.01303953
-0.015863653 0.16561782 0.009492766 0.21623428 0.061910465 -0.100013524 0.014540469 -0.13568677
-0.056807406 -0.060026363 0.20947167 0.03931069 0.006630595 -0.18292417 -0.038815472 0.016762363
0.078450754 -0.10850894 0.07129065 0.09661795 -0.013004379 -0.18392563 -0.18299538 -0.06514098
0.20043951 -0.15696481 0.019701837 0.047091093 -0.13895239 -0.08462056 -0.13794221 -0.029002724
0.13659777 0.114980996 0.16072823 0.010149353 -0.093692824 -0.07044508 -0.17127235 0.13331223
0.07242128 -0.049526736 -0.11057385 0.07225661 -0.19504838 -0.21766154 0.09521984 0.07368594
-0.0073040477 -0.13933858 0.10179651 0.026346859 -0.07690333 0.24522239 0.18024552 0.023121918
0.10611469 0.18438125 0.031346105 0.096865624 0.20634179 0.006636534 -0.14937468 -0.042145792
0.06733419 0.08809522 0.14557874 0.03141102 0.0937956 -0.06526237 -0.20702708 -0.20020713
-0.038322207 -0.19213189 0.16773109 -0.05128528 -0.09521205 -0.10775743 -0.08065414 -0.0032782562
-0.103401676 0.046046704 -0.07646501 -0.08040907 -0.09046259 -0.08840183 0.10347805 -0.091744676
-0.047778074 -0.18952253 -0.1421831 -0.16121568 0.035381727 -0.001086881 0.052898794 0.091409095
0.06905826 -0.100314096 -0.09000865 0.15906948 -0.1913289 -0.03640637 -0.17399785 -0.1835136
-0.12484762 -0.06313597 -0.125412 -0.15235578 -0.20075265 0.11101705 0.17879726 0.16724338
-0.011489669 0.15095621 0.16449301 0.09656858 -0.026859075 -0.0075925407 0.1788336 0.083873846
-0.019902915 0.16766687 0.052091993 0.18400693 -0.12172922 0.0019352098 0.114490494 0.18515421
0.023510544 -0.19374089 -0.0767398 -0.086498 0.17313007 -0.024004698 -0.03002668 0.14328055
-0.035271592 -0.00029868275 -0.17810042 0.0891848 0.093608856 0.025312435 -0.15871161 0.093169756
0.1624846 0.14631784 0.0990889 -0.21020834 -0.05176827 0.10597989 -0.18698524 -0.17184398
0.15510687 -0.047295995 -0.14477924 0.015780495 -0.11917157 -0.15951656 0.20425516 -0.1400641
00000000: 2db9 0e3c 449a d03d 82c1 5c3c d527 473e
00000010: 0f35 e0bc da16 333d 6463 d6bd 7100 983b
00000020: 5ac2 d63c 2c7f 713d 3546 4a3e db7c 78bd
00000030: dd80 273e 2bd6 363e 9aec c63d 748c 2e3e
00000040: c6b4 c8bd 3eff 56be cc12 1abe a693 f73d
00000050: 75cc 863c 4f6c 23be 22ed 91bd c93f c03d
00000060: 1e81 f23a e944 4b3d 9467 ca3d 764f d0bc
00000070: 9d8e 403e 93f1 743e cb14 18be 3aa2 683d
00000080: 037d 233e 43ac fabd 5e21 173e 15d3 ff3d
00000090: 715d 51be 17ef 5abe 3f5b 2fbe 29ce 78bc
000000a0: a678 92b9 6e0a b5bd d7bf 85bd ae8f 41be
000000b0: 1ef6 d13d 821e a73d c439 2c3c 3f45 e33a
000000c0: 1a29 0ebc 25a4 123e f954 4ebe d023 00be
000000d0: cf9c 35be eb08 b0bc f9c3 96bd a7d1 cf3d
000000e0: 3ae0 61be a526 043e 1ea3 5ebe 31cf 3bbe
000000f0: d4a4 c73d de0b 35bd 3e44 ee3c f019 413d
00000100: 9512 6fbd 9464 813d 1e69 fc3c 055f 29be
00000110: 7854 cd3d afb5 cebc 7cde 7ebe 9115 603d
00000120: b0d6 ffbd 96f0 4cbd be42 27be 1f15 0a3e
00000130: 51ce 3f3d 7d09 da3c 2ca9 9dbd 165f 173e
00000140: 4135 0e3e 58f9 0b3e be5e 4e3e 6e1b cf3d
00000150: e2dc 0bbe 6629 70be 4664 203d 062f 87bd
00000160: a1a7 5d3e f7bd 033e 93a8 203e cc6b 2ebc
00000170: 201d fdbd 9102 143d 4387 343e c1a3 553c
00000180: 7ef4 81bc b897 293e 8c87 1b3c 856c 5d3e
00000190: d495 7d3d e4d3 ccbd 263b 6e3c 79f1 0abe
000001a0: e2ae 68bd 34de 75bd be7f 563e 3f04 213d
000001b0: 7645 d93b 7950 3bbe f9fc 1ebd 3951 893c
000001c0: caaa a03d ef39 debd d500 923d a2df c53d
000001d0: 5210 55bc 0057 3cbe 2463 3bbe a268 85bd
000001e0: 0440 4d3e 62bb 20be bf65 a13c 97e2 403d
000001f0: 8949 0ebe 8b4d adbd b940 0dbe 1f97 edbc
00000200: 49e0 0b3e 287b eb3d f195 243e 7949 263c
00000210: 06e2 bfbd 8345 90bd 0562 2fbe 0083 083e
00000220: 9c51 943d 8cdc 4abd 8b74 e2bd 46fb 933d
00000230: c3ba 47be abe2 5ebe 9f02 c33d a7e8 963d
00000240: cb56 efbb c6ae 0ebe b07a d03d 5ed5 d73c
00000250: 7e7f 9dbd 941b 7b3e 4892 383e 2d6a bd3c
00000260: a952 d93d 70ce 3c3e c664 003d 7c61 c63d
00000270: 434b 533e 4877 d93b adf5 18be 11a1 2cbd
00000280: 82e6 893d 446b b43d 9812 153e d7a8 003d
00000290: e817 c03d 47a8 85bd e8fe 53be 1903 4dbe
000002a0: bff7 1cbd 39be 44be b3c1 2b3e 8410 52bd
000002b0: 89fe c2bd edaf dcbd ff2d a5bd 03d8 56bb
000002c0: 42c4 d3bd 789b 3c3d b099 9cbd 83ad a4bd
000002d0: 7344 b9bd 050c b5bd 4dec d33d a2e4 bbbd
000002e0: f1b2 43bd 3212 42be 7298 11be b915 25be
000002f0: 6eec 103d ad75 8eba 68ac 583d b134 bb3d
00000300: 6b6e 8d3d 7a71 cdbd 7556 b8bd 1ce3 223e
00000310: b9eb 43be d91e 15bd 7e2c 32be fdea 3bbe
00000320: 1cb0 ffbd 6e4d 81bd 016c 00be 2703 1cbe
00000330: 1a92 4dbe e85c e33d a116 373e d941 2b3e
00000340: 2a3f 3cbc 4494 1a3e db70 283e bfc5 c53d
00000350: 9007 dcbc d9ca f8bb 2820 373e 0dc6 ab3d
00000360: 700b a3bc ddb0 2b3e 6a5e 553d 506c 3c3e
00000370: 2b4d f9bd dea6 fd3a fe79 ea3d 1199 3d3e
00000380: 2f99 c03c 0364 46be c229 9dbd dd25 b1bd
00000390: 0249 313e 80a5 c4bc 83fa f5bc 23b8 123e
000003a0: f278 10bd 8598 9cb9 f55f 36be 85a6 b63d
000003b0: 00b6 bf3d 065c cf3c 4c85 22be c9cf be3d
000003c0: 5d62 263e 58d4 153e 1fef ca3d db40 57be
000003d0: f70a 54bd fc0b d93d 0f79 3fbe def7 2fbe
000003e0: 56d4 1e3e 72b9 41bd 0241 14be 1946 813c
000003f0: 3910 f4bd 4f58 23be 4428 513e f76c 0fbe

convs.1.lin_dst.weight f4 [9, 128]
0.0087111415 0.10185674 0.01347387 0.19448788 -0.02736905 0.043722965 -0.10468176 0.0046387245
0.02621572 0.05895917 0.19753344 -0.060665946 0.16357751 0.17855136 0.09713097 0.17045766
-0.09800105 -0.20995805 -0.15046233 0.120887086 0.016454915 -0.15959285 -0.071253076 0.09387166
0.0018501615 0.049626265 0.09883037 -0.025428515 0.18804403 0.23920278 -0.14851682 0.056795336
0.15965657 -0.122398876 0.14758822 0.124914326 -0.20445801 -0.21380268 -0.17124651 -0.015185871
-0.0002793718 -0.0883988 -0.06530731 -0.18902466 0.10252021 0.08160116 0.010511819 0.0017339363
-0.008676792 0.14320429 -0.20149602 -0.12513661 -0.17735599 -0.021488627 -0.073615976 0.1014741
-0.22058192 0.12905367 -0.21741912 -0.18340756 0.09748235 -0.04420077 0.029085275 0.047143877
-0.05836733 0.06318012 0.030811843 -0.16540153 0.10025877 -0.025233118 -0.24889559 0.054708067
-0.1249212 -0.050034128 -0.16334054 0.1348462 0.046827618 0.026615852 -0.076982826 0.14782366
0.13887502 0.13669336 0.20153329 0.10112654 -0.13658479 -0.23453292 0.03915813 -0.06600766
0.21645977 0.12865435 0.15689306 -0.010645818 -0.12359071 0.03613526 0.17629723 0.01303953
-0.015863653 0.16561782 0.009492766 0.21623428 0.061910465 -0.100013524 0.014540469 -0.13568677
-0.056807406 -0.060026363 0.20947167 0.03931069 0.006630595 -0.18292417 -0.038815472 0.016762363
0.078450754 -0.10850894 0.07129065 0.09661795 -0.013004379 -0.18392563 -0.18299538 -0.06514098
0.20043951 -0.15696481 0.019701837 0.047091093 -0.13895239 -0.08462056 -0.13794221 -0.029002724
0.13659777 0.114980996 0.16072823 0.010149353 -0.093692824 -0.07044508 -0.17127235 0.13331223
0.07242128 -0.049526736 -0.11057385 0.07225661 -0.19504838 -0.21766154 0.09521984 0.07368594
-0.0073040477 -0.13933858 0.10179651 0.026346859 -0.07690333 0.24522239 0.18024552 0.023121918
0.10611469 0.18438125 0.031346105 0.096865624 0.20634179 0.006636534 -0.14937468 -0.042145792
0.06733419 0.08809522 0.14557874 0.03141102 0.0937956 -0.06526237 -0.20702708 -0.20020713
-0.038322207 -0.19213189 0.16773109 -0.05128528 -0.09521205 -0.10775743 -0.08065414 -0.0032782562
-0.103401676 0.046046704 -0.07646501 -0.08040907 -0.09046259 -0.08840183 0.10347805 -0.091744676
-0.047778074 -0.18952253 -0.1421831 -0.16121568 0.035381727 -0.001086881 0.052898794 0.091409095
0.06905826 -0.100314096 -0.09000865 0.15906948 -0.1913289 -0.03640637 -0.17399785 -0.1835136
-0.12484762 -0.06313597 -0.125412 -0.15235578 -0.20075265 0.11101705 0.17879726 0.16724338
-0.011489669 0.15095621 0.16449301 0.09656858 -0.026859075 -0.0075925407 0.1788336 0.083873846
-0.019902915 0.16766687 0.052091993 0.18400693 -0.12172922 0.0019352098 0.114490494 0.18515421
0.023510544 -0.19374089 -0.0767398 -0.086498 0.17313007 -0.024004698 -0.03002668 0.14328055
-0.035271592 -0.00029868275 -0.17810042 0.0891848 0.093608856 0.025312435 -0.15871161 0.093169756
0.1624846 0.14631784 0.0990889 -0.21020834 -0.05176827 0.10597989 -0.18698524 -0.17184398
0.15510687 -0.047295995 -0.14477924 0.015780495 -0.11917157 -0.15951656 0.20425516 -0.1400641
00000000: 2db9 0e3c 449a d03d 82c1 5c3c d527 473e
00000010: 0f35 e0bc da16 333d 6463 d6bd 7100 983b
00000020: 5ac2 d63c 2c7f 713d 3546 4a3e db7c 78bd
00000030: dd80 273e 2bd6 363e 9aec c63d 748c 2e3e
00000040: c6b4 c8bd 3eff 56be cc12 1abe a693 f73d
00000050: 75cc 863c 4f6c 23be 22ed 91bd c93f c03d
00000060: 1e81 f23a e944 4b3d 9467 ca3d 764f d0bc
00000070: 9d8e 403e 93f1 743e cb14 18be 3aa2 683d
00000080: 037d 233e 43ac fabd 5e21 173e 15d3 ff3d
00000090: 715d 51be 17ef 5abe 3f5b 2fbe 29ce 78bc
000000a0: a678 92b9 6e0a b5bd d7bf 85bd ae8f 41be
000000b0: 1ef6 d13d 821e a73d c439 2c3c 3f45 e33a
000000c0: 1a29 0ebc 25a4 123e f954 4ebe d023 00be
000000d0: cf9c 35be eb08 b0bc f9c3 96bd a7d1 cf3d
000000e0: 3ae0 61be a526 043e 1ea3 5ebe 31cf 3bbe
000000f0: d4a4 c73d de0b 35bd 3e44 ee3c f019 413d
00000100: 9512 6fbd 9464 813d 1e69 fc3c 055f 29be
00000110: 7854 cd3d afb5 cebc 7cde 7ebe 9115 603d
00000120: b0d6 ffbd 96f0 4cbd be42 27be 1f15 0a3e
00000130: 51ce 3f3d 7d09 da3c 2ca9 9dbd 165f 173e
00000140: 4135 0e3e 58f9 0b3e be5e 4e3e 6e1b cf3d
00000150: e2dc 0bbe 6629 70be 4664 203d 062f 87bd
00000160: a1a7 5d3e f7bd 033e 93a8 203e cc6b 2ebc
00000170: 201d fdbd 9102 143d 4387 343e c1a3 553c
00000180: 7ef4 81bc b897 293e 8c87 1b3c 856c 5d3e
00000190: d495 7d3d e4d3 ccbd 263b 6e3c 79f1 0abe
000001a0: e2ae 68bd 34de 75bd be7f 563e 3f04 213d
000001b0: 7645 d93b 7950 3bbe f9fc 1ebd 3951 893c
000001c0: caaa a03d ef39 debd d500 923d a2df c53d
000001d0: 5210 55bc 0057 3cbe 2463 3bbe a268 85bd
000001e0: 0440 4d3e 62bb 20be bf65 a13c 97e2 403d
000001f0: 8949 0ebe 8b4d adbd b940 0dbe 1f97 edbc
00000200: 49e0 0b3e 287b eb3d f195 243e 7949 263c
00000210: 06e2 bfbd 8345 90bd 0562 2fbe 0083 083e
00000220: 9c51 943d 8cdc 4abd 8b74 e2bd 46fb 933d
00000230: c3ba 47be abe2 5ebe 9f02 c33d a7e8 963d
00000240: cb56 efbb c6ae 0ebe b07a d03d 5ed5 d73c
00000250: 7e7f 9dbd 941b 7b3e 4892 383e 2d6a bd3c
00000260: a952 d93d 70ce 3c3e c664 003d 7c61 c63d
00000270: 434b 533e 4877 d93b adf5 18be 11a1 2cbd
00000280: 82e6 893d 446b b43d 9812 153e d7a8 003d
00000290: e817 c03d 47a8 85bd e8fe 53be 1903 4dbe
000002a0: bff7 1cbd 39be 44be b3c1 2b3e 8410 52bd
000002b0: 89fe c2bd edaf dcbd ff2d a5bd 03d8 56bb
000002c0: 42c4 d3bd 789b 3c3d b099 9cbd 83ad a4bd
000002d0: 7344 b9bd 050c b5bd 4dec d33d a2e4 bbbd
000002e0: f1b2 43bd 3212 42be 7298 11be b915 25be
000002f0: 6eec 103d ad75 8eba 68ac 583d b134 bb3d
00000300: 6b6e 8d3d 7a71 cdbd 7556 b8bd 1ce3 223e
00000310: b9eb 43be d91e 15bd 7e2c 32be fdea 3bbe
00000320: 1cb0 ffbd 6e4d 81bd 016c 00be 2703 1cbe
00000330: 1a92 4dbe e85c e33d a116 373e d941 2b3e
00000340: 2a3f 3cbc 4494 1a3e db70 283e bfc5 c53d
00000350: 9007 dcbc d9ca f8bb 2820 373e 0dc6 ab3d
00000360: 700b a3bc ddb0 2b3e 6a5e 553d 506c 3c3e
00000370: 2b4d f9bd dea6 fd3a fe79 ea3d 1199 3d3e
00000380: 2f99 c03c 0364 46be c229 9dbd dd25 b1bd
00000390: 0249 313e 80a5 c4bc 83fa f5bc 23b8 123e
000003a0: f278 10bd 8598 9cb9 f55f 36be 85a6 b63d
000003b0: 00b6 bf3d 065c cf3c 4c85 22be c9cf be3d
000003c0: 5d62 263e 58d4 153e 1fef ca3d db40 57be
000003d0: f70a 54bd fc0b d93d 0f79 3fbe def7 2fbe
000003e0: 56d4 1e3e 72b9 41bd 0241 14be 1946 813c
000003f0: 3910 f4bd 4f58 23be 4428 513e f76c 0fbe
