saved_models/cora_GPR_s3.pt (torch, 188087 bytes, 5 tensors)

lin1.weight f4 [32, 1443]
0	0xbe148fbd	-0.14507957
1	0x3e0e47ed	0.13894625
2	0xbee139c2	-0.43989378
3	0xbdb69d53	-0.08916726
4	0x3f06573c	0.5247686
5	0x3f2fe703	0.6871187
6	0x3d641fc1	0.055694345
7	0xbe109a95	-0.14121468
8	0x3ec4dc43	0.38449296
9	0x3ecfa831	0.40558007
10	0x3ea27330	0.31728506
11	0x3d97fd93	0.07421412
12	0x3eca6fb8	0.3953836
13	0xbe0ac635	-0.13552172
14	0x3e1f4ff2	0.1555784
15	0x3f2f35b2	0.6844131
16	0x3e8d293a	0.27570516
17	0x3f34b3f8	0.7058711
18	0x3e38b495	0.18037637
19	0x3e2470a2	0.16058591
20	0x3ec6e418	0.38845897
21	0xbf151cbb	-0.58246964
22	0x3c0b9ec4	0.008521739
23	0x3ee2ac81	0.44272235
24	0xbee0eaed	-0.43929234
25	0xbc0b78f6	-0.008512726
26	0x3e039d1d	0.12852903
27	0xbe9645cb	-0.29350123
28	0x3f09da4a	0.5384871
29	0xbea6ee7b	-0.3260382
30	0xbe1a2179	-0.15051831
31	0x3f594259	0.84866863
32	0xbe7f122c	-0.24909276
33	0x3ed15079	0.40881708
34	0xbf3609e9	-0.7110887
35	0xbcd6b188	-0.0262077
36	0x3e951a36	0.2912156
37	0xbf08dea5	-0.5346473
38	0xbe01c035	-0.12670977
39	0x3ee90bdd	0.45516863
40	0x3e49f715	0.1972316
41	0x3d4ebf7d	0.050475586
42	0xbef5b8f9	-0.47992685
43	0xbeb22a73	-0.3479801
44	0xbd928efc	-0.07156178
45	0x3f2056ec	0.6263263
46	0x3e2bca2a	0.16776338
47	0x3e5752e4	0.21027714
48	0x3e85f6e5	0.26164928
49	0xbf215361	-0.6301785
50	0x3f31d22e	0.69461334
51	0x3f149a0f	0.58047575
52	0x3ec8aac3	0.3919278
53	0xbe30f284	-0.17280012
54	0xbe91da35	-0.2848679
55	0x3f18db49	0.597096
56	0xbe8556f5	-0.26042905
57	0xbe8af344	-0.27138722
58	0x3e0a7b73	0.13523655
59	0x3e9ff766	0.31243438
60	0xbedd5183	-0.4322625
61	0xbe48eed4	-0.19622356
62	0x3e7342c3	0.23755936
63	0x3d5a39f6	0.053277932
64	0x3ec1813d	0.37793913
65	0x3ec9460d	0.39311257
66	0xbd42a4b3	-0.04752035
67	0x3caa31fc	0.020775788
68	0x3e8efee1	0.27928832
69	0xbe750278	-0.23926723
70	0x3e60dbdd	0.21958871
71	0xbe17ac2a	-0.14811769
72	0x3e5d5807	0.21615611
73	0x3e0bebe4	0.13664204
74	0xbea9e954	-0.33185828
75	0xbef23b50	-0.47310877
76	0x3f37f39f	0.7185611
77	0xbdab2a6e	-0.08357702
78	0x3e697be5	0.22801168
79	0x3ea1b8df	0.31586358
80	0x3ef71727	0.4825985
81	0xbe4f17ce	-0.20223925
82	0x3f0b7d23	0.5448782
83	0x3ec8a84a	0.39190894
84	0x3cc2f31e	0.023797568
85	0x3d415d27	0.047207978
86	0x3df9164f	0.12162458
87	0x3d95f3e6	0.073219106
88	0x3c96e838	0.018421277
89	0xbdb0ca6c	-0.08632359
90	0xbe8494d5	-0.258948
91	0x3ec05dbd	0.37571517
92	0x3e652de7	0.22380792
93	0x3e8540c1	0.26025966
94	0x3f12e61f	0.57382387
95	0x3f1fd670	0.6243658
96	0x3d1af1fb	0.037828427
97	0x3e9d8e3a	0.30772573
98	0x3e301b47	0.17197905
99	0xbc85c95e	-0.01633137
100	0x3f12a4b1	0.5728255
101	0x3e1bf319	0.15229453
102	0x3db205e4	0.0869253
103	0x3f302fef	0.6882314
104	0xbf085458	-0.532537
105	0x3e81dd50	0.2536416
106	0x3f55e2f3	0.8354942
107	0x3f33160d	0.6995552
108	0xbeb356c1	-0.35027125
109	0xbe791cf7	-0.24327455
110	0xbd808222	-0.06274821
111	0xbef11d18	-0.4709251
112	0x3f1cb912	0.61219895
113	0xbf17325f	-0.59061235
114	0xbe826106	-0.25464648
115	0xbf0174e1	-0.5056897
116	0xbdd5463c	-0.10413787
117	0xbedea648	-0.43486238
118	0x3e5af2ca	0.21381679
119	0xbeacffd0	-0.3378892
120	0xbf07ed9c	-0.5309694
121	0xbe34224a	-0.17591205
122	0x3eabe5a9	0.33573654
123	0x3e0b469b	0.13601153
124	0xbe194ca2	-0.1497064
125	0x3ec3d3b3	0.3824745
126	0x3eff5a90	0.4987378
127	0xbe4d7cd9	-0.20067157
128	0xbd4b583a	-0.049644686
129	0x3e164bec	0.146774
130	0x3e3bf1ea	0.18354002
131	0x3ea771d0	0.3270402
132	0x3d984719	0.07435436
133	0xbe8128f4	-0.25226557
134	0x3e4e5ce8	0.20152628
135	0x3e54777b	0.20748703
136	0x3dcfb247	0.101414256
137	0xbf07fedf	-0.5312328
138	0x3f4706fd	0.7774504
139	0x3e1c93ad	0.15290709
140	0xbe67e195	-0.22644646
141	0xbc87755d	-0.016535455
142	0x3ec14b15	0.37752596
143	0x3f47846d	0.7793644
144	0x3f09c778	0.5381999
145	0x3f0be0f4	0.54640126
146	0xbe9dc754	-0.30816138
147	0xbec95dfd	-0.3932952
148	0xbe9c1223	-0.30482587
149	0x3e28bbfb	0.16477959
150	0x3e7f5530	0.2493484
151	0x3e6e5156	0.23273215
152	0x3eb468eb	0.35236296
153	0x3e18bf80	0.14916801
154	0xbeec2597	-0.4612243
155	0xbee641f8	-0.44972205
156	0x3f060311	0.5234843
157	0xbe0ceab5	-0.13761409
158	0x3e7bc1ef	0.24585699
159	0x3e838016	0.2568366
160	0x3e26f148	0.16302979
161	0xbebe7c76	-0.3720433
162	0xbee2b710	-0.4428029
163	0xbee2d175	-0.44300428
164	0xbe8a9ea7	-0.27074167
165	0xbec19aeb	-0.37813506
166	0x3f332115	0.69972354
167	0x3e9dc62f	0.30815265
168	0x3e869b43	0.2629033
169	0xbd3303fe	-0.04370498
170	0xbf081873	-0.53162307
171	0x3efd06ce	0.49419254
172	0x3dd49096	0.1037914
173	0x3e97d8f8	0.29657722
174	0xbeb46b0e	-0.35237926
175	0xbe4e26ad	-0.20131941
176	0x3ece448f	0.4028668
177	0xbc99ecf7	-0.018789751
178	0x3f4ca063	0.7993223
179	0x3e26c842	0.1628733
180	0xbf09b543	-0.5379221
181	0x3eab5e97	0.33470604
182	0x3ed490d7	0.41516754
183	0x3f4142fd	0.7549284
184	0x3f15a38d	0.58452684
185	0x3bc1cbf6	0.0059142066
186	0x3f3b1cc0	0.73090744
187	0xbd856392	-0.06513132
188	0x3e1eaec2	0.15496352
189	0x3ea22e44	0.31675923
190	0xbe9a1fdb	-0.3010243
191	0x3e78bfef	0.24291967
192	0x3ec00ac2	0.37508208
193	0xbb361d30	-0.0027788393
194	0x3f132169	0.57472855
195	0xbe75f180	-0.24017906
196	0x3ea9a380	0.33132553
197	0xbf0377f6	-0.5135492
198	0x3dd67597	0.10471647
199	0x3e08261f	0.13295792
200	0xbe982c2b	-0.29721197
201	0xbe97bbf8	-0.29635596
202	0x3ea869ad	0.32893124
203	0x3e0fc378	0.14039409
204	0x3f0a42d3	0.54008216
205	0xbe97cca9	-0.2964833
206	0xbdf3be3f	-0.11901521
207	0xbdad2896	-0.08455007
208	0x3ef4526e	0.4771914
209	0xbe3c070a	-0.1836206
210	0xbe81ef5c	-0.2537793
211	0xbd2eb6a1	-0.042654637
212	0xbe960a16	-0.2930457
213	0x3dcaef81	0.09908963
214	0xbe94a05e	-0.290286
215	0x3d544123	0.05181993
216	0x3efb2664	0.49052727
217	0x3ee6afdf	0.45056054
218	0x3e09b6d3	0.13448648
219	0x3f17d7f9	0.59313923
220	0x3eef63a6	0.46755713
221	0xbe48a760	-0.19595098
222	0x3e473a6c	0.1945588
223	0x3eca1577	0.394695
224	0x3e030eaa	0.12798563
225	0xbd2277b1	-0.039664928
226	0x3dc4bca7	0.09606295
227	0x3e859ba0	0.26095295
228	0xbc640bc1	-0.013918818
229	0xbe959e28	-0.29222226
230	0x3f04348b	0.51642674
231	0xbe241f90	-0.16027665
232	0x3ea188e1	0.31549743
233	0x3ecc0b1d	0.3985223
234	0xbe1d25af	-0.15346406
235	0xbe53a739	-0.20669259
236	0x3f479529	0.77961975
237	0x3e326792	0.17422321
238	0x3e8e9ddb	0.2785481
239	0xbf05ab62	-0.52214634
240	0xbee71efe	-0.45140833
241	0x3f0061d7	0.5014929
242	0x3e3ae6b0	0.18252063
243	0x3ee71cc8	0.45139146
244	0x3f30b871	0.69031435
245	0x3e958666	0.292041
246	0x3ef0b1c8	0.47010636
247	0x3f1e99fa	0.619537
248	0x3eb74f6f	0.3580279
249	0xbbe2cf7e	-0.0069217077
250	0x3ec848c6	0.39118022
251	0x3e9eb612	0.30998284
252	0x3d55117f	0.05201864
253	0xbe68d370	-0.22736907
254	0xbe8d07d9	-0.2754505
255	0x3ef62b6f	0.48080012

lin1.bias f4 [32]
0	0x3e580fe9	0.21099819
1	0xbd11e8d5	-0.035622437
2	0x3e1352e5	0.1438709
3	0x3dd78f86	0.10525422
4	0xbd3c30dd	-0.045945037
5	0x3dc52002	0.09625246
6	0xbd74e6f2	-0.05979056
7	0x3df36237	0.11883967
8	0xbd55d727	-0.05220714
9	0xbd9f0e28	-0.07766372
10	0x3d25b21f	0.040453073
11	0x3ece51cf	0.4029679
12	0x3e97a04a	0.29614478
13	0xbd9faea4	-0.07796982
14	0x3e38aeb6	0.18035397
15	0x3d45f6d1	0.048331086
16	0x3ebf941e	0.37417692
17	0xbd1dc3ec	-0.038516924
18	0x3deb2778	0.114821374
19	0xbd630e20	-0.055433393
20	0x3d037648	0.032095224
21	0xbc97d9ef	-0.018536536
22	0x3dfb58e0	0.12272811
23	0x3e62f189	0.22162451
24	0xbd7fd172	-0.062455602
25	0x3e088931	0.13333584
26	0xbd047c79	-0.03234527
27	0x3e0748da	0.13211384
28	0xbd8fa0b0	-0.070130706
29	0x3d770095	0.06030329
30	0xbd84ae15	-0.06478516
31	0x3d910590	0.07081139

lin2.weight f4 [9, 32]
0	0x3e850625	0.2598125
1	0xbe4eacb8	-0.20183074
2	0x3f639cda	0.8891121
3	0x3f139ee0	0.576643
4	0xbda3f023	-0.08004787
5	0x3f758e82	0.95920575
6	0xbd6525f8	-0.055944413
7	0xbe92d270	-0.28676176
8	0x3ecd4ce0	0.40097713
9	0xbe274fa2	-0.16338971
10	0xbd8fe23b	-0.07025572
11	0xbec4bafc	-0.38423908
12	0xbf1f5250	-0.62234974
13	0xbe092b42	-0.13395408
14	0xbdb8a9da	-0.090167716
15	0xbe723a4c	-0.23655051
16	0xbfb8eb28	-1.4446764
17	0x3d9d7fb4	0.07690373
18	0xbe927e55	-0.2861201
19	0xbe36bbde	-0.17845103
20	0x3f61fee8	0.8827958
21	0xbf116fb3	-0.56811064
22	0xbea349c7	-0.31892225
23	0x3e5694ed	0.20955248
24	0xbcccc7dc	-0.024997644
25	0x3eea68a3	0.45782956
26	0x3f5aec3c	0.85516715
27	0x3eb424ae	0.35184234
28	0xbe4fdbf1	-0.20298745
29	0xbde73493	-0.112893246
30	0xbe1546a5	-0.1457773
31	0xbf4d564d	-0.8020981
32	0xbd0e5809	-0.034751926
33	0x3d98c406	0.074592635
34	0x3eb04284	0.34425747
35	0xbe398f36	-0.18121037
36	0x3ddfca2b	0.10927232
37	0xbf7071b3	-0.9392349
38	0xbcf0485c	-0.029331379
39	0xbecacf73	-0.39611396
40	0xbe12696d	-0.14298029
41	0x3d868a32	0.065693274
42	0xbdadd954	-0.08488718
43	0xbdc62fd0	-0.09677088
44	0x3e8ba9af	0.27277896
45	0xbe09e38a	-0.13465706
46	0xbf1f7d17	-0.62300247
47	0x3de3190c	0.11088762
48	0xbeebe4e7	-0.46073076
49	0x3ccc02ce	0.024903681
50	0xbeb5b46f	-0.35489222
51	0xba19deae	-0.00058696687
52	0xbe13a443	-0.1441813
53	0xbda2ac3a	-0.07943006
54	0xbe438eec	-0.19097489
55	0x3f01ceb3	0.5070602
56	0xbd701c2c	-0.058620617
57	0xbf18247f	-0.5943069
58	0xbe30e5ac	-0.17275113
59	0xbe62aba2	-0.22135785
60	0x3d162006	0.036651634
61	0xbe78a473	-0.24281482
62	0xbd4627e8	-0.0483779
63	0x3f124c36	0.5714754
64	0xbd27a5a0	-0.040929437
65	0xbc6c108c	-0.014408242
66	0xbe00e6f9	-0.12588109
67	0xbdd7e5d9	-0.10541887
68	0xbdc6a9d3	-0.0970036
69	0xbe6cd9f8	-0.23130023
70	0xbdaa7fed	-0.08325181
71	0x3e48408e	0.19555876
72	0xbd3eb4d7	-0.04655918
73	0xbd7f14a5	-0.062275548
74	0x3eafc03e	0.34326357
75	0xbea9d8d2	-0.33173233
76	0xbf1e73af	-0.6189527
77	0xbd1a9022	-0.037735112
78	0xbe0306b9	-0.12795533
79	0x3eaa2560	0.3323164
80	0x3dcd08f6	0.10011475
81	0xbcab2519	-0.020891713
82	0x3e090126	0.13379344
83	0xbda5061e	-0.080578074
84	0xbea8eecc	-0.32994688
85	0xbdbc718c	-0.09201345
86	0x3e2f8b66	0.1714302
87	0xbe4ddd41	-0.20103933
88	0xbdcaf920	-0.09910798
89	0xbe7f6677	-0.24941431
90	0xbe72a707	-0.23696528
91	0x3e4bda13	0.19907407
92	0xbdc6046d	-0.09668813
93	0x3e8dd6c5	0.2770292
94	0x3ca50bb3	0.02014718
95	0x3eb85a14	0.36006224
96	0x3f037ce3	0.51362437
97	0x3d19a853	0.037514042
98	0xbf1368cc	-0.5758178
99	0x3fbc7828	1.4724169
100	0xbe625854	-0.22104007
101	0xbfbd5bb0	-1.4793606
102	0x3e87df81	0.26537707
103	0x3ed85249	0.4225028
104	0xbe40ac9d	-0.18815847
105	0x3dcf2711	0.10114873
106	0xbe2fea32	-0.17179182
107	0x3f142288	0.5786519
108	0xbcda7251	-0.026665838
109	0x3db4e726	0.088331506
110	0xbe2c497b	-0.16824906
111	0xbe1d1e2c	-0.15343541
112	0xbf9f68fa	-1.2453911
113	0x3e792a2d	0.24332495
114	0x3e96c299	0.2944534
115	0x3d8aba6e	0.0677384
116	0xbf7473de	-0.954893
117	0x3f927280	1.1441193
118	0xbed67029	-0.41882446
119	0x3f2f433f	0.68461984
120	0xbe672bdd	-0.22575326
121	0xbeb93f5f	-0.3618116
122	0xbf097bd5	-0.5370458
123	0xbefda32b	-0.4953855
124	0x3d27c9bb	0.04096387
125	0xbe1d0583	-0.15334134
126	0xbc083d45	-0.008315389
127	0xbf137578	-0.5760112
128	0x3d4dac05	0.05021288
129	0x3d8f64a4	0.070016176
130	0x3ecb014b	0.39649424
131	0xbf03ceff	-0.51487726
132	0xbe03a97a	-0.12857619
133	0x3f50432e	0.8135251
134	0xbe545d93	-0.2073882
135	0xbeb1c85c	-0.34723175
136	0xbe742cc2	-0.23845199
137	0xbb32dab8	-0.002729101
138	0xbdb260b9	-0.08709855
139	0x3e634447	0.22194014
140	0x3f33ccc3	0.70234317
141	0xbdf96657	-0.12177723
142	0x3e271e5f	0.1632018
143	0xbef33044	-0.4749776
144	0xbe667fcd	-0.2250969
145	0x3ca670e4	0.020317502
146	0xbed87c84	-0.42282498
147	0xbe3efda0	-0.18651438
148	0xbf4ade10	-0.7924509
149	0xbc4e3998	-0.012586974
150	0x3e11460d	0.14186879
151	0xbf3b4076	-0.73145235
152	0xbe033671	-0.12813736
153	0xbef434a1	-0.47696403
154	0x3f331282	0.69950116
155	0xbdd19692	-0.10233797
156	0x3d2fd2ff	0.04292583
157	0xbe208d7b	-0.1567897
158	0xbc9b5e4b	-0.01896586
159	0x3edbcee9	0.42931297
160	0xbec076dc	-0.37590683
161	0x3cb035d5	0.021510044
162	0xbf48162c	-0.7815883
163	0xbe457142	-0.19281486
164	0x3dd2d9a9	0.10295422
165	0x3f30b214	0.69021726
166	0xbe49e27c	-0.19715303
167	0xbe7bfb32	-0.24607542
168	0xbe6b81e7	-0.22998773
169	0xbe6a1a13	-0.22861509
170	0xbe74ee72	-0.23919085
171	0xbda63906	-0.08116345
172	0xbf08599f	-0.5326175
173	0xbbf64f43	-0.007516773
174	0xbf12ee88	-0.5739522
175	0x3da7aa08	0.08186728
176	0xbf621315	-0.88310367
177	0xbdcbb1df	-0.099460356
178	0xbe3dab9e	-0.18522498
179	0x3d34a996	0.044107042
180	0xbe84602c	-0.25854623
181	0xbe087337	-0.13325201
182	0xbeabf056	-0.335818
183	0x3f31025d	0.6914423
184	0x3d3479bf	0.04406142
185	0x3f011769	0.50426346
186	0xbe51a418	-0.20472753
187	0xbef5d755	-0.48015848
188	0xbe1b7a84	-0.15183455
189	0xbe02d146	-0.12775144
190	0xbe280dc9	-0.16411509
191	0x3f1c5426	0.610659
192	0xbec7e131	-0.39038995
193	0x3d790972	0.060800023
194	0x3f0b1526	0.54329145
195	0xbd226461	-0.03964651
196	0xbe0194a1	-0.12654354
197	0xbee6553b	-0.449869
198	0x3d643be4	0.05572118
199	0xbdbb7a77	-0.09154218
200	0xbdc9b87c	-0.09849641
201	0x3d11274e	0.035437874
202	0xbe8f49fa	-0.27986127
203	0xbd3c567d	-0.04598092
204	0x3e2e6d1c	0.1703381
205	0xbda3ed38	-0.0800423
206	0xbe66d606	-0.22542581
207	0xbe45e197	-0.19324337
208	0x3f146745	0.57970077
209	0xbe23ef6e	-0.16009304
210	0xbe779c01	-0.24180605
211	0x3d65fe6a	0.05615083
212	0xbe18cc34	-0.14921647
213	0xbdabe55f	-0.083933584
214	0xbe93b485	-0.28848663
215	0xbde602fa	-0.112310365
216	0x3d46317d	0.04838704
217	0xbe2667e0	-0.16250563
218	0xbe6135d9	-0.21993198
219	0xbe128bfd	-0.14311214
220	0x3d094f71	0.033523027
221	0xbe9105c3	-0.28324708
222	0x3d9329a7	0.07185679
223	0x3e8c8581	0.27445605
224	0x3cd37a8c	0.02581527
225	0xbe43fa9d	-0.1913857
226	0xbef9df22	-0.4880305
227	0x3f1dbc74	0.6161568
228	0x3d9ed4a5	0.077554025
229	0xbfc5e037	-1.545905
230	0x3dfcc325	0.12341908
231	0xbe421716	-0.18954119
232	0xbd29a6a4	-0.041418687
233	0xbb7e8a79	-0.003883986
234	0xbe28e36c	-0.16493005
235	0xbf0904bc	-0.5352285
236	0x3f34dde1	0.7065106
237	0x3b2bb112	0.0026198071
238	0x3f141145	0.5783885
239	0xbdb2ae77	-0.08724683
240	0x3f80177a	1.0007164
241	0x3d8578b5	0.06517164
242	0xbb9e6dde	-0.0048348745
243	0x3da686f5	0.0813121
244	0xbfb140a0	-1.3847847
245	0x3d95848b	0.07300671
246	0x3ef8bd57	0.48581955
247	0xbdee6750	-0.11640799
248	0xbbfb1bbd	-0.007663219
249	0x3eb37b9f	0.35055253
250	0xbe6878ea	-0.22702375
251	0x3dd3f1df	0.103488676
252	0xbe461f9f	-0.19348
253	0xbe9355cc	-0.28776395
254	0xbd7d345e	-0.06181752
255	0xbf2d8328	-0.67778254

lin2.bias f4 [9]
0	0xbda60323	-0.08106067
1	0xbde11283	-0.10989859
2	0x39f44dae	0.00046597183
3	0x3e351f9d	0.17687841
4	0xbded525b	-0.11587974
5	0x3cad3c2f	0.021146862
6	0xbe416c3f	-0.18888949
7	0xbe54cd7b	-0.2078151
8	0x3dd141cd	0.10217629

prop1.temp f8 [11]
0	0x3fe9d1be6b45e6f2	0.8068534941841945
1	0x3fe48477af0c0f3e	0.641170350922472
2	0x3fe16374949b85a3	0.5433905508509053
3	0x3fdc6ef2e32ab660	0.44427177604925383
4	0x3fd807d1273ebc83	0.37547711212659624
5	0x3fd42f998e271236	0.3154052627762981
6	0x3fd13a2d0d0b78e9	0.26917578004748904
7	0x3fcd7ed5245a45c9	0.23043312335043556
8	0x3fc976dacd7c8420	0.19893965753092946
9	0x3fc614b57a4bed5b	0.17250698539269646
10	0x3fddaaed73189e55	0.4635575889574047
