saved_models/directed_twitch-e_GPR_s5.pt (torch, 408402 bytes, 5 tensors)

lin1.weight f4 [32, 3170]
0	0x3c1ac632	0.0094466675
1	0xbb82f48d	-0.003996438
2	0xbd2e2a6c	-0.042520925
3	0xbc36a6bc	-0.011148151
4	0xbc94e57a	-0.01817583
5	0x3e1cbbc9	0.1530601
6	0xbc8d17c6	-0.01722325
7	0xbd40851a	-0.047001936
8	0xbd63e74c	-0.055640504
9	0xbd3aeb94	-0.04563482
10	0xbbe7a434	-0.007069135
11	0xbd83c4ff	-0.064340584
12	0xbd4e0935	-0.05030175
13	0x3d88ccb5	0.0667967
14	0xbd0f035a	-0.034915306
15	0xbc1bd671	-0.009511576
16	0x3d127fb5	0.035766322
17	0xbd651dbf	-0.05593657
18	0xbd58ad44	-0.052899614
19	0xbc6b50d8	-0.014362536
20	0xbd050e5e	-0.032484405
21	0x3d326477	0.043552842
22	0x3c90e863	0.017688936
23	0xbb55d9e5	-0.0032631096
24	0xbd0916ab	-0.033468883
25	0xbd5795ca	-0.052633084
26	0x3d070e17	0.03297242
27	0xbd24c029	-0.04022232
28	0xbd4bd238	-0.049761027
29	0xbd890846	-0.06691031
30	0xbc4abdaa	-0.012374321
31	0x3d0cd008	0.03437808
32	0xbc32c680	-0.010911584
33	0xbc395868	-0.011312582
34	0x3db18275	0.08667461
35	0xbd3d4713	-0.04621036
36	0xbd42b6b5	-0.047537524
37	0x3bb4248d	0.0054975213
38	0x3c7f4265	0.0155797945
39	0x3d3f99e2	0.046777613
40	0xbd18a18d	-0.03726344
41	0xbd841a6a	-0.064503506
42	0xbd19c1d9	-0.037538383
43	0xbd168b20	-0.036753774
44	0xbd834450	-0.06409514
45	0x3d4cb741	0.049979452
46	0xbd4b1b55	-0.049586613
47	0xbc8a16fd	-0.016856665
48	0xbd4f7c02	-0.050655372
49	0xbd2f6620	-0.042822003
50	0xbd25ad4f	-0.040448483
51	0x3d41b4fb	0.047291737
52	0xbbe73062	-0.007055328
53	0xbd2c339e	-0.042041413
54	0xbd82ff3c	-0.06396338
55	0xbbcbec70	-0.006223254
56	0xbd2f5af5	-0.042811353
57	0x3d166646	0.03671863
58	0xbd17f7a2	-0.037101395
59	0xbd0ead55	-0.03483327
60	0xbd681418	-0.056659788
61	0xbd62c437	-0.055362906
62	0x3d1d9ef5	0.03848167
63	0x3b05dbe6	0.002042526
64	0x3cf7d69d	0.030253703
65	0xbc04d84f	-0.008108213
66	0xbab70f06	-0.0013966269
67	0xbc03cfcd	-0.008045149
68	0xbd70ab33	-0.05875702
69	0xbd166ac6	-0.03672292
70	0xbd86496c	-0.06556973
71	0xbd536dea	-0.051618494
72	0x3c698e0a	0.014255056
73	0xbd3a8dea	-0.045545496
74	0xbd113cdd	-0.035458434
75	0xbd82aa46	-0.06380133
76	0x3bffcd52	0.0078064585
77	0x3d2b4520	0.04181397
78	0x3d40de70	0.047087133
79	0xbd8b9fbd	-0.06817577
80	0xbd4f836b	-0.05066244
81	0xbd50869f	-0.050909635
82	0xbd5f4115	-0.054505426
83	0xbd13031e	-0.035891645
84	0xb9540a65	-0.00020221768
85	0x3c1cb972	0.009565698
86	0xbd7db3da	-0.061939098
87	0xbd7abc7d	-0.061214913
88	0xbc8c6a4c	-0.01714053
89	0xbd408f87	-0.04701188
90	0x3bb2d16f	0.0054570953
91	0xbd359b0c	-0.044337317
92	0xbc024970	-0.007952079
93	0xbc909fb3	-0.017654276
94	0xbd4a6d75	-0.049420793
95	0xbc72f5c5	-0.014829104
96	0x3b7ceef6	0.003859458
97	0x3bcb3aab	0.006202062
98	0xbd6e960a	-0.058248557
99	0xbd65ec1a	-0.056133367
100	0xbd6fdf97	-0.05856284
101	0xbd4b7004	-0.049667373
102	0xbd1753bb	-0.036945086
103	0x3d083f47	0.03326347
104	0xbd0e6736	-0.0347664
105	0xbd66a482	-0.05630923
106	0xbd6482ce	-0.055788808
107	0xbd8a70ce	-0.06759797
108	0x3c4b5431	0.0124102095
109	0x3d71c4d0	0.059025586
110	0x3c8478ae	0.016170826
111	0xbd85df8d	-0.065367796
112	0xbd1fe51d	-0.03903686
113	0xbd2f4eeb	-0.04279987
114	0xbb9f0694	-0.004853079
115	0x3d82dcec	0.06389794
116	0x39aab51e	0.0003255987
117	0x3c87b57e	0.016566034
118	0xbaaaf853	-0.0013043977
119	0xbd0cdffc	-0.034393296
120	0xbbd45771	-0.0064801504
121	0xbd148fac	-0.03626983
122	0xbd1e976e	-0.038718633
123	0x3be4ce11	0.006982573
124	0xbd87144b	-0.065956675
125	0x3c8bc732	0.017062757
126	0xbd4d5d03	-0.05013753
127	0xbd29e11c	-0.041474447
128	0xbd8862d3	-0.06659474
129	0xbd6fd88f	-0.058556136
130	0xbc90c96d	-0.017674172
131	0xbd2dc0d2	-0.042420216
132	0x3e29bc81	0.16575815
133	0xbd83fbfd	-0.06444547
134	0xbd40dbbf	-0.047084566
135	0xbd6c45d5	-0.057683785
136	0x3c5b0901	0.013368846
137	0xbd864356	-0.06555812
138	0x3b15ac3c	0.0022838255
139	0xbd2daeb3	-0.042402934
140	0x3b83d87c	0.0040236097
141	0x3c403b25	0.011732851
142	0xbd8a17ba	-0.06742807
143	0xbd15d541	-0.036580328
144	0xbd7b2af8	-0.061320275
145	0xbd8963de	-0.06708501
146	0x3d368e85	0.04456951
147	0x3d6ca801	0.05777741
148	0xbd1ad6fe	-0.03780269
149	0x3c8b7a70	0.017026156
150	0xbd74eccb	-0.059796136
151	0x3c83c7f6	0.01608656
152	0xbd3c2ce6	-0.045941256
153	0xbd64c0a7	-0.05584779
154	0xbd3fb5d6	-0.04680427
155	0xbd47677f	-0.048682686
156	0xbd169b0a	-0.03676895
157	0xbd7f6c7e	-0.062359326
158	0xbbfa8bdf	-0.0076460685
159	0x3d6a55e8	0.057210833
160	0x3d38b6e2	0.045096286
161	0x3d6640fb	0.056214314
162	0xbd83186a	-0.06401141
163	0xbb882f36	-0.0041560186
164	0x3b2f4a1c	0.0026747053
165	0xbd36546f	-0.044514116
166	0xbd64f833	-0.055900764
167	0x3e3374c2	0.17525008
168	0xbd7a72f8	-0.0611448
169	0xbd5ed027	-0.05439773
170	0x3d4a9082	0.04945422
171	0xbd6a5a69	-0.057215128
172	0x3c90c8c7	0.017673863
173	0xbbaefe5a	-0.0053403797
174	0xbd2b6413	-0.041843485
175	0x3d7433ff	0.0596199
176	0xbd8bbdd4	-0.06823316
177	0xbd153172	-0.036424108
178	0xbd5ee437	-0.05441686
179	0x3d2a8e39	0.04163954
180	0xbd8464a7	-0.064645104
181	0x3cd9f92c	0.026608072
182	0xbc191f88	-0.009345897
183	0xbd635be4	-0.055507556
184	0xbd495f02	-0.049162872
185	0x3d30fc33	0.043209266
186	0xbc8cf2ce	-0.017205622
187	0xbd89bd94	-0.06725612
188	0xbd78fc8e	-0.06078773
189	0xbd5a8044	-0.05334498
190	0xbb4a0ae2	-0.003082924
191	0xbd70b7eb	-0.058769148
192	0xbd38cf85	-0.04511978
193	0xbd481d5a	-0.048856117
194	0xbd3c957b	-0.046040993
195	0x3d74e1f5	0.059785802
196	0x3c27eed0	0.010249808
197	0xbc5e5eee	-0.013572438
198	0xbc8c323b	-0.017113796
199	0xbc8f20f4	-0.017471768
200	0x3e3a1486	0.18171892
201	0xbd1ef39d	-0.038806546
202	0x3c08daa7	0.008352912
203	0xbd498c55	-0.049206097
204	0xbc8983bb	-0.016786447
205	0x3c5bf59c	0.013425257
206	0x3d424cd8	0.047436565
207	0xbd4c2d9e	-0.04984819
208	0x3d71d079	0.059036706
209	0x3a0fa7c2	0.0005480015
210	0xbd7eb867	-0.06218758
211	0x3ba7e24d	0.0051234127
212	0x3d2ee569	0.04269925
213	0xbd2f355c	-0.042775497
214	0xb9778257	-0.00023604311
215	0x3c849f06	0.01618911
216	0xbd7a527e	-0.061113827
217	0x3d7d0734	0.061774448
218	0x3bb54bb6	0.005532707
219	0xbd80065f	-0.06251215
220	0xbc8e1d66	-0.017348003
221	0xbd69dcd9	-0.057095382
222	0x3d1259ed	0.03573029
223	0x3d0b0884	0.033943668
224	0xbd4b2fdc	-0.04960619
225	0xbc600101	-0.013672114
226	0xbd6935a3	-0.056935918
227	0x3a21b51e	0.0006168651
228	0x3d872cf3	0.0660037
229	0xbc181919	-0.0092833275
230	0xbd517a00	-0.05114174
231	0xbd8a556d	-0.06754575
232	0x3d13c115	0.03607281
233	0x3d318835	0.043342788
234	0x3b5c4662	0.0033611287
235	0xbd68078f	-0.056647833
236	0xbd67bcff	-0.056576725
237	0xbd242879	-0.04007766
238	0xbd246b66	-0.040141486
239	0xbc5bd99f	-0.013418584
240	0xbd337c92	-0.04381997
241	0xbd09a1da	-0.03360162
242	0x3d821784	0.063521415
243	0x3d2f990b	0.042870563
244	0x3b410cdf	0.0029457135
245	0xbd7fc22c	-0.062441036
246	0xbd5698cf	-0.052391823
247	0x3d3b1285	0.04567196
248	0xbd6f8a2c	-0.05848138
249	0xbd09540e	-0.033527426
250	0xbc336dc9	-0.010951468
251	0xbd880b31	-0.066427596
252	0xbd001293	-0.031267714
253	0x3c3be3c8	0.0114678815
254	0xbc6c77a0	-0.014432818
255	0x3c70986b	0.014684777

lin1.bias f4 [32]
0	0xbd63baf6	-0.05559822
1	0xbd71f2bc	-0.05906938
2	0xbd6f9399	-0.05849037
3	0x39584deb	0.00020628392
4	0x3c5ecb37	0.013598255
5	0xbd2ed47d	-0.042683113
6	0xbc837d33	-0.01605091
7	0x3d1028d1	0.035195176
8	0x3cd2e4f8	0.025743946
9	0xbbf3c8ab	-0.007439693
10	0x3c50b9d2	0.0127396155
11	0x3d000b5d	0.031260837
12	0xbd1d262f	-0.038366493
13	0xbd0b8e59	-0.0340713
14	0xbd4bede9	-0.049787436
15	0xbd1b88d9	-0.037972305
16	0xbd7893e2	-0.060687907
17	0xbbdb64e9	-0.006695379
18	0xbd63dd75	-0.05563112
19	0x3bb75143	0.005594404
20	0xbb5f385e	-0.0034060697
21	0xbd3bf4bc	-0.045887694
22	0xbd613c1b	-0.05498896
23	0xba3b07d2	-0.0007134649
24	0x3b4bf8c4	0.0031123618
25	0xbd08324d	-0.033251096
26	0x3c51a2b5	0.01279514
27	0x3c79c0c2	0.015243711
28	0xbd1d977d	-0.03847455
29	0xbd1a6f12	-0.03770358
30	0x3b901de3	0.004398094
31	0x3cb7609b	0.022384932

lin2.weight f4 [2, 32]
0	0x3df3977c	0.11894128
1	0x3cae1995	0.021252433
2	0x3d149ece	0.03628426
3	0xbe0b2f9b	-0.13592379
4	0xbd8de352	-0.069281235
5	0x3d3c9ae8	0.046046168
6	0x3a615452	0.00085956336
7	0xbd0f33a0	-0.034961343
8	0xbd1d5e7e	-0.038420193
9	0xbd971c04	-0.073783904
10	0xbd816e30	-0.06319845
11	0xbe154038	-0.14575279
12	0x3dd6855c	0.10474655
13	0x3d8ed147	0.0697351
14	0x3df504ec	0.119638294
15	0x3dc9b99e	0.09849857
16	0x3de5bc94	0.11217609
17	0xbe0c4f60	-0.13702154
18	0x3e0c553a	0.13704386
19	0xbde64c1c	-0.112449855
20	0xbd6c83e7	-0.05774298
21	0x3dd652be	0.104650006
22	0x3d14b56b	0.036305826
23	0x3d77a707	0.060462024
24	0x3c922172	0.017838214
25	0xbcd8a782	-0.026447061
26	0xbdcff5f3	-0.10154333
27	0xbd0df5b0	-0.034658134
28	0x3dadd85b	0.08488532
29	0x3c22dbb3	0.009940076
30	0xbd681ff9	-0.056671117
31	0xbd155d91	-0.036466185
32	0xbc56b22b	-0.013104002
33	0x3e29f8e5	0.16598852
34	0x3e30d7cb	0.17269818
35	0xbd5be5ac	-0.05368583
36	0x3c4b7114	0.012417097
37	0x3d8393fd	0.06424711
38	0x3e581bed	0.21104403
39	0xbe4484f5	-0.19191344
40	0x3e0a6bc0	0.13517666
41	0xbd178939	-0.0369961
42	0x3dd5fa1f	0.104480974
43	0xbc8b31b6	-0.016991477
44	0xbd75c178	-0.05999896
45	0x3d9546b8	0.07288879
46	0x3cf1e4b9	0.029528009
47	0x3d935d54	0.07195535
48	0xbb9734b3	-0.0046144365
49	0x3973f884	0.00023266865
50	0xbe1588c9	-0.1460296
51	0xbdd31a10	-0.103077054
52	0x3cfbaea4	0.030722924
53	0x3bb22ecf	0.005437709
54	0x3dd1b03e	0.10238694
55	0x3e1ed743	0.15511803
56	0x3db895be	0.09012936
57	0xbdc7afdc	-0.097503394
58	0x3e35c52e	0.17751
59	0x3d8c203e	0.06842087
60	0x3e4072c5	0.18793781
61	0xbd9e712b	-0.07736429
62	0x3e32e5ed	0.17470522
63	0x3d769937	0.06020471

lin2.bias f4 [2]
0	0x3cee82c6	0.029115092
1	0x3d2c05fd	0.0419979

prop1.temp f8 [11]
0	0x3fc58e0e7b5aaae9	0.16839772246506549
1	0x3fbb541a7ae6c15f	0.10675206661722346
2	0x3fb27c2c48ee62c4	0.07220722942873709
3	0x3fa8ff4f2e38cf43	0.048822855369876204
4	0x3fa097070b3c80cb	0.03240224849855763
5	0x3f94b2b15efc89d1	0.02021290914775326
6	0x3f863138cfe1af26	0.010836070865671465
7	0x3f6b5e1f923b5d50	0.003340779936347772
8	0xbf674a4a2df25e1d	-0.0028430413072546693
9	0xbf808946c1b60ee6	-0.008074333941073996
10	0x3fd3467cdc9aed6b	0.30117723029589766
