saved_models/directed_ogb-arxiv_GAT_s3.pt (torch, 311585 bytes, 41 tensors)

bns.0.weight f4 [128]
1.0723249 0.9541937 0.9878067 1.0918462 1.014529 1.0841677 1.0509846 1.1676157
1.0008503 0.93135244 1.066336 1.0730307 1.0429125 0.9412454 1.0901384 1.0306994
1.0261099 0.9858669 1.0083381 0.96998227 1.0048878 1.0124537 1.0018634 1.0365306
0.9434141 1.0321299 1.007407 1.0643641 1.0295472 0.9307053 1.0736051 0.96230286
1.1357472 0.9396537 0.9744624 1.0684519 0.9622987 1.0846237 0.96344644 0.9432607
0.9136507 1.2144358 1.0086251 1.0660919 1.0527116 0.9528736 1.0875165 0.9182065
1.0443714 0.9138281 0.99290013 0.96604127 1.0801153 1.1309962 1.0526184 1.1316675
1.1151565 1.1537831 1.0975806 1.0782055 0.97619486 0.9537218 0.96448237 0.9710657
1.0395217 0.98279256 1.0185367 1.0067095 0.9202457 1.0235021 1.0194833 0.97747153
1.0682222 0.96287936 0.94016427 0.97309166 1.0496956 1.0199491 0.94707155 1.0875711
1.0726854 0.9637159 0.97324693 1.0697588 1.0987108 0.8960168 0.9696147 0.9628747
1.0397606 0.9856383 0.98262095 0.9421075 1.0318837 1.1709379 0.94688505 1.023823
0.9991942 1.1451231 0.94574916 1.1366714 1.0217644 0.9441192 1.0403184 1.0415246
0.93130934 0.9389766 1.120664 1.0978237 1.0033536 1.1390929 1.1229886 1.0678114
0.9544788 0.9382082 0.94287133 0.9488125 0.9871135 0.9520625 1.0827327 1.0268576
1.0923747 0.92702746 0.94328254 0.9307807 1.0745891 0.9687483 0.8887178 1.0367972
00000000: f141 893f 0a46 743f e6e0 7c3f 9ec1 8b3f
00000010: 16dc 813f 02c6 8a3f aa86 863f 6e74 953f
00000020: dd1b 803f 1d6d 6e3f b37d 883f 1259 893f
00000030: 287e 853f 75f5 703f a889 8b3f f5ed 833f
00000040: 9257 833f c661 7c3f 3911 813f c250 783f
00000050: 2aa0 803f 1598 813f 0f3d 803f 09ad 843f
00000060: 9683 713f d51c 843f b6f2 803f 153d 883f
00000070: 34c8 833f b442 6e3f e46b 893f 7b59 763f
00000080: 2a60 913f 258d 703f 5e76 793f 08c3 883f
00000090: 3559 763f f3d4 8a3f 6da4 763f 8979 713f
000000a0: 03e5 693f a272 9b3f a11a 813f b375 883f
000000b0: 41bf 863f 86ef 733f be33 8b3f 950f 6b3f
000000c0: f6ad 853f a3f0 693f b42e 7e3f 7b4e 773f
000000d0: 3841 8a3f 7cc4 903f 33bc 863f 7bda 903f
000000e0: 73bd 8e3f 2aaf 933f 857d 8c3f a302 8a3f
000000f0: e8e7 793f 1d27 743f 51e8 763f c397 783f
00000100: 0c0f 853f 4b98 7b3f 695f 823f dbdb 803f
00000110: 3995 6b3f 1e02 833f 6e7e 823f 933b 7a3f
00000120: 81bb 883f 437f 763f 9bae 703f 891c 793f
00000130: 6d5c 863f b18d 823f 4873 723f 8835 8b3f
00000140: c14d 893f 16b6 763f b626 793f dbed 883f
00000150: 8ea2 8c3f 5b61 653f ab38 783f f57e 763f
00000160: e016 853f cb52 7c3f 0c8d 7b3f f52d 713f
00000170: c414 843f 4be1 953f 0f67 723f a20c 833f
00000180: 31cb 7f3f 6593 923f 9e1c 723f 737e 913f
00000190: 2dc9 823f ccb1 713f 2729 853f ae50 853f
000001a0: 4a6a 6e3f c560 703f eb71 8f3f 7d85 8c3f
000001b0: e46d 803f cccd 913f 17be 8f3f 0bae 883f
000001c0: b958 743f 6a2e 703f 0460 713f 60e5 723f
000001d0: 78b3 7c3f 5eba 733f fc96 8a3f 1270 833f
000001e0: efd2 8b3f ac51 6d3f f77a 713f a547 6e3f
000001f0: 238c 893f e3ff 773f 0283 633f c5b5 843f

bns.0.bias f4 [128]
0.029265461 0.05528212 -0.053420812 -0.031201266 0.035729576 -0.027043844 -0.007422009 -0.076846525
-0.10255908 -0.067110315 0.033495676 0.09493693 0.053945757 -0.034100574 -0.015186517 0.09618118
0.041674435 0.05400288 -0.07024258 -0.16342644 -0.04367227 -0.020235425 -0.09735871 0.019642893
-0.15419847 -0.009681477 0.06451663 0.0505323 0.11611075 -0.080861315 -0.032430775 -0.07840544
-0.16316989 -0.05195001 -0.08202859 -0.0027419447 -0.0815568 -0.024012284 0.021011382 -0.065146014
-0.086973175 -0.10618757 -0.1155572 0.053791597 -0.020660706 -0.07531553 0.03858551 -0.00056900625
0.05282599 -0.101671286 0.041063637 -0.0060427245 0.09218447 -0.12913904 0.116123386 -0.047862247
0.013061357 0.08257889 0.10094535 0.072490424 0.025336457 -0.049604494 -0.11829457 -0.044876933
-0.093169354 -0.103219785 0.039551705 0.090481974 -0.039981045 0.008484393 0.10422456 0.047207803
0.03779146 -0.010639678 -0.05071462 -0.0105449725 0.043977838 0.008343085 -0.050832413 0.0043440876
0.032439515 -0.08282923 0.13199201 0.10359147 -0.014071516 -0.07471895 0.0029629497 0.013996821
0.055750825 -0.09483769 -0.061601203 -0.04787053 -0.02217606 0.045986235 -0.037868846 0.024718137
0.028172119 -0.038989495 0.05557864 0.11169966 0.012994309 -0.05956997 -0.051871516 -0.00939296
-0.1242724 -0.097064555 -0.038119342 0.074644 0.014472569 -0.085060835 -0.07629754 -0.049976524
0.00842768 -0.112799294 -0.013631397 0.03843278 -0.0172024 -0.05129479 0.029376062 -0.1251386
0.0049367133 0.02710899 -0.036320157 -0.072629996 0.009525836 -0.073467165 -0.09340424 0.04409836
00000000: 1fbe ef3c 816f 623d c8cf 5abd cc99 ffbc
00000010: 2d59 123d 0d8b ddbc 5334 f3bb b661 9dbd
00000020: 7f0a d2bd 2271 89bd c332 093d 4b6e c23d
00000030: 3af6 5c3d 0bad 0bbd ded0 78bc a3fa c43d
00000040: d0b2 2a3d 2032 5d3d 57db 8fbd 4359 27be
00000050: b2e1 32bd c3c4 a5bc 0164 c7bd 22ea a03c
00000060: 34e6 1dbe 0f9f 1ebc 4b21 843d f5fa 4e3d
00000070: 79cb ed3d 9e9a a5bd 22d6 04bd 0893 a0bd
00000080: 0216 27be 89c9 54bd 9bfe a7bd 33b2 33bb
00000090: 4007 a7bd 69b5 c4bc 1020 ac3c 466b 85bd
000000a0: fe1e b2bd de78 d9bd 41a9 ecbd 9454 5c3d
000000b0: a440 a9bc 073f 9abd d70b 1e3d 5d29 15ba
000000c0: 1160 583d 0939 d0bd 5832 283d 0c02 c6bb
000000d0: 36cb bc3d 063d 04be 19d2 ed3d 340b 44bd
000000e0: 4dff 553c 1f1f a93d 70bc ce3d dc75 943d
000000f0: 678e cf3c 152e 4bbd 6c44 f2bd e0d0 37bd
00000100: 93cf bebd e564 d3bd f800 223d 9d4e b93d
00000110: 2ac3 23bd 2002 0b3c b073 d53d f85c 413d
00000120: 38cb 1a3d 0b52 2ebc 22ba 4fbd d2c4 2cbc
00000130: 1b22 343d 6fb1 083c a635 50bd d958 8e3b
00000140: 4cdf 043d 5fa2 a9bd ea28 073e c427 d43d
00000150: 378c 66bc 4006 99bd 0c2e 423b ec52 653c
00000160: fa5a 643d 433a c2bd 8b51 7cbd e413 44bd
00000170: 92aa b5bc 105c 3c3d 5d1c 1bbd b17d ca3c
00000180: 37c9 e63c 73b3 1fbd 6ea6 633d cbc2 e43d
00000190: 15e6 543c a4ff 73bd 3a77 54bd eee4 19bc
000001a0: 8782 febd c8c9 c6bd 0723 1cbd f4de 983d
000001b0: 5b1e 6d3c 6034 aebd e241 9cbd 2fb4 4cbd
000001c0: 4014 0a3c 5103 e7bd 3956 5fbc b16b 1d3d
000001d0: 0cec 8cbc 7c1a 52bd 11a6 f03c 5524 00be
000001e0: 27c4 a13b ac13 de3c 72c4 14bd 09bf 94bd
000001f0: 4112 1c3c f475 96bd b94a bfbd 7ba0 343d

bns.0.running_mean f4 [128]
0.105439365 -0.51756877 0.34239057 -0.20253153 -0.36517975 0.16271015 -0.31635058 0.07805641
0.17638338 0.08443488 0.044662796 0.05518986 -0.011683209 0.055068284 0.257025 0.10924417
0.0066746003 -0.08482682 -0.07156176 -0.15222842 -0.036800124 -0.043515366 -0.043972604 -0.21425362
0.22671455 0.07776029 0.015381712 0.48365468 0.29392597 -0.044126064 -0.045487452 -0.12613605
-0.1249612 -0.035480797 -0.16519888 -0.14546558 -0.30070907 -0.1693733 -0.0956047 0.20219712
0.08309276 0.22109976 0.37455663 -0.1806092 0.28774068 0.024000088 0.008689937 -0.02571574
0.28272387 -0.06708191 -0.025473364 0.056747284 -0.12971155 -0.05072004 0.13950658 -0.07902443
0.03799197 0.26662734 -0.4817251 -0.2902388 0.3370048 -0.07486515 0.4495575 -0.06555748
-0.55849737 0.02407673 -0.09243949 0.39957377 0.27673313 0.19763435 0.0017731356 -0.08399209
0.14971702 -0.010537877 0.11009343 0.24538809 0.071902245 0.1270562 0.117237866 -0.2250307
-0.15232143 0.17087868 0.046032097 -0.1603296 -0.10733857 0.08132116 -0.21845165 0.041651864
0.01721066 0.081160285 4.984692e-05 0.08565091 0.023478849 -0.2400102 -0.17592058 -0.076422766
0.091103666 -0.2562078 0.20983733 -0.21327135 -0.11619548 0.087096915 -0.16267218 0.18223336
0.03814683 0.03541828 -0.24081548 0.12158196 -0.1940071 0.1730249 0.21669963 -0.17528829
0.5132235 0.31787622 -0.039377484 0.2591299 -0.06628749 0.06402242 -0.3967276 0.13442656
0.12178855 -0.069995984 -0.15113224 -0.14612941 -0.13015983 0.18378145 0.22669426 0.11807668
00000000: 98f0 d73d 637f 04bf d14d af3e 6d64 4fbe
00000010: d7f8 babe 7d9d 263e b4f8 a1be 0adc 9f3d
00000020: d89d 343e 32ec ac3d 56f0 363d c30e 623d
00000030: ee6a 3fbc 488f 613d c898 833e 68bb df3d
00000040: 9bb6 da3b afb9 adbd f98e 92bd c4e1 1bbe
00000050: babb 16bd 2b3d 32bd 9e1c 34bd 4d65 5bbe
00000060: dc27 683e c940 9f3d 9303 7c3c 96a1 f73e
00000070: 777d 963e 88bd 34bd 0d51 3abd cf29 01be
00000080: a8eb ffbd 5054 11bd e529 29be eef4 14be
00000090: 8af6 99be 3270 2dbe 66cc c3bd c30c 4f3e
000000a0: 892c aa3d fa67 623e e3c5 bf3e 9ef1 38be
000000b0: bf52 933e d59b c43c 3d60 0e3c d1a9 d2bc
000000c0: 2fc1 903e 3e62 89bd 84ad d0bc d76f 683d
000000d0: 1bd3 04be d1bf 4fbd d0da 0e3e 8fd7 a1bd
000000e0: 789d 1b3d 6183 883e aca4 f6be 2e9a 94be
000000f0: e58b ac3e e652 99bd 672c e63e 0043 86bd
00000100: aff9 0ebf 903c c53c ea50 bdbd ef94 cc3e
00000110: f7af 8d3e a960 4a3e 8f68 e83a 0b04 acbd
00000120: 6b4f 193e 0fa7 2cbc aa78 e13d 0447 7b3e
00000130: 7c41 933d 051b 023e 681a f03d 736e 66be
00000140: 26fa 1bbe d2fa 2e3e 278c 3c3d 712d 24be
00000150: 53d4 dbbd b58b a63d cab1 5fbe 259b 2a3d
00000160: 5ffd 8c3c 5d37 a63d b912 5138 bf69 af3d
00000170: b756 c03c 3cc5 75be 8624 34be 8a83 9cbd
00000180: 8f94 ba3d ab2d 83be 99df 563e ce63 5abe
00000190: e5f7 edbd de5f b23d 8993 26be 629b 3a3e
000001a0: da3f 1c3d c212 113d 5598 76be f6ff f83d
000001b0: cca9 46be 702d 313e 82e6 5d3e c67e 33be
000001c0: 9e62 033f acc0 a23e 494a 21bd adac 843e
000001d0: bcc1 87bd 301e 833d e11f cbbe 1ea7 093e
000001e0: 466c f93d 0e5a 8fbd 69c2 1abe f3a2 15be
000001f0: 9e48 05be 3431 3c3e 8a22 683e 30d2 f13d

bns.0.running_var f4 [128]
0.06339075 0.098517075 0.0679347 0.06989069 0.072862566 0.061938073 0.07664806 0.06972437
0.06988069 0.08244228 0.08471225 0.071783684 0.073152296 0.0640413 0.06579479 0.074922785
0.080893226 0.063128546 0.06553952 0.07474186 0.058791857 0.08045309 0.07604353 0.067102045
0.066933446 0.070720606 0.078236096 0.07369648 0.075327925 0.08353581 0.060212076 0.076143
0.062199768 0.07007949 0.06415649 0.071861215 0.069068976 0.079343386 0.078654155 0.068769746
0.07392478 0.06086635 0.060972165 0.068090685 0.06776595 0.062352624 0.06329525 0.06660892
0.09410596 0.06980248 0.06801742 0.06869536 0.07104422 0.08004701 0.07296034 0.065992035
0.068130076 0.062171258 0.068234414 0.07035709 0.07137706 0.0626787 0.08901994 0.07278471
0.07499901 0.06327208 0.06796688 0.07118784 0.061234884 0.07202574 0.07346772 0.06918347
0.07636762 0.06459603 0.062252898 0.0664778 0.08617478 0.08783278 0.06469496 0.0759875
0.077797845 0.06488041 0.07237565 0.06679487 0.07070972 0.07007347 0.06631988 0.06129779
0.08194371 0.09114367 0.06907661 0.06755306 0.060490817 0.06463067 0.06243621 0.08409397
0.06832958 0.061703645 0.061198745 0.0658864 0.07158365 0.070399635 0.060536467 0.0808171
0.06253888 0.06697712 0.061221026 0.08350969 0.07650181 0.0739845 0.06915225 0.07327182
0.06711904 0.06657003 0.076805815 0.07134575 0.072201334 0.079202995 0.06185869 0.07268178
0.06413169 0.07281324 0.067128666 0.08055133 0.08126127 0.072127126 0.082463436 0.072530426
00000000: 02d3 813d 52c3 c93d 5921 8b3d da22 8f3d
00000010: f838 953d c7b2 7d3d a8f9 9c3d a7cb 8e3d
00000020: 9b1d 8f3d 80d7 a83d 9e7d ad3d 5303 933d
00000030: dfd0 953d 1628 833d 6bbf 863d 1e71 993d
00000040: 59ab a53d 8a49 813d 9539 863d 4312 993d
00000050: bbcf 703d 97c4 a43d b6bc 9b3d cc6c 893d
00000060: 6714 893d f7d5 903d 3f3a a03d 2eee 963d
00000070: 8745 9a3d d314 ab3d f0a0 763d dcf0 9b3d
00000080: 2fc5 7e3d d685 8f3d 7a64 833d f92b 933d
00000090: 0974 8d3d c97e a23d 6e15 a13d 27d7 8c3d
000000a0: e065 973d fe4e 793d f3bd 793d 2173 8b3d
000000b0: e0c8 8a3d 7765 7f3d f1a0 813d 426a 883d
000000c0: a0ba c03d 9af4 8e3d b84c 8b3d 27b0 8c3d
000000d0: a27f 913d b0ef a33d 3b6c 953d d526 873d
000000e0: c887 8b3d 4aa7 7e3d 7cbe 8b3d 6117 903d
000000f0: 232e 923d b15d 803d 1650 b63d 2610 953d
00000100: 1599 993d cb94 813d 3832 8b3d eeca 913d
00000110: 6ed1 7a3d 3b82 933d 3e76 963d 10b0 8d3d
00000120: a066 9c3d ec4a 843d e5fc 7e3d 8325 883d
00000130: 677c b03d ace1 b33d cb7e 843d 569f 9b3d
00000140: 7a54 9f3d 05e0 843d af39 943d c0cb 883d
00000150: 42d0 903d ae82 8f3d b8d2 873d 6413 7b3d
00000160: 1bd2 a73d 88a9 ba3d 0a78 8d3d 4259 8a3d
00000170: 38c5 773d 165d 843d 1dbd 7f3d 7639 ac3d
00000180: 61f0 8b3d f6bc 7c3d 89ab 7a3d 73ef 863d
00000190: 739a 923d af2d 903d 16f5 773d 7083 a53d
000001a0: 6214 803d 4d2b 893d e6c2 7a3d 2107 ab3d
000001b0: fbac 9c3d 2f85 973d b29f 8d3d 890f 963d
000001c0: b575 893d de55 883d 5e4c 9d3d b81d 923d
000001d0: 4bde 933d 2e35 a23d 8a5f 7d3d 2fda 943d
000001e0: 7a57 833d 1c1f 953d c17a 893d 18f8 a43d
000001f0: 4f6c a63d 63b7 933d 97e2 a83d d58a 943d

bns.1.weight f4 [128]
1.0239428 0.93040466 0.95537657 1.0161455 0.88265336 0.963835 1.0353394 0.95393103
0.95928055 0.99577844 0.9418252 1.0118835 1.013983 0.94904506 0.91520715 0.9522082
1.0444626 0.96405286 1.0212018 1.0783898 1.0440928 1.0826155 0.9682664 1.0331364
1.0592436 1.0611538 1.0436326 1.0815136 1.0448232 1.1483344 1.0730917 0.99688965
0.92781377 1.035439 0.92894506 1.1006372 0.999772 1.1151477 1.0022326 1.0425081
0.9047995 1.0483012 1.086508 1.0900908 1.0065187 0.964714 1.0642982 0.9900295
1.027051 0.9904059 1.0322088 1.1174241 0.94645727 0.96360093 0.9030343 1.0066521
0.89410025 1.0265431 1.0832759 1.0107075 1.0103843 0.9753361 0.9517144 1.003645
1.0191444 1.025581 1.0631107 0.9247711 0.9983941 0.95196843 1.0557095 1.0681977
1.021115 1.0403178 1.0346822 1.074112 1.0801818 0.9351416 1.0238123 0.9397687
0.97419894 1.0582969 1.0061364 0.96400654 0.9582114 1.051482 1.0470204 1.038723
1.0262197 1.046055 1.0481874 1.0151566 1.1042633 0.9522542 0.9406833 0.9811066
1.0413815 1.0563424 0.9668847 1.0366898 1.0136043 1.1249278 1.0279651 1.0255505
1.0728289 0.942244 1.055984 1.0196885 0.940175 0.9478032 1.0330526 0.9560023
0.9421165 1.0000159 0.939221 0.9550809 1.0128267 1.0551049 0.9500526 1.005261
1.0942189 0.9961812 0.99097407 1.0279485 0.96422213 1.064744 0.9914138 0.98262686
00000000: 8f10 833f 002f 6e3f 8f93 743f 0e11 823f
00000010: 92f5 613f e4bd 763f 0086 843f d334 743f
00000020: 6993 753f 56eb 7e3f 751b 713f 6685 813f
00000030: 32ca 813f 9ef4 723f 044b 6a3f ebc3 733f
00000040: f3b0 853f 2bcc 763f beb6 823f ad08 8a3f
00000050: d5a4 853f 2593 8a3f 4fe0 773f d03d 843f
00000060: 4b95 873f e3d3 873f c195 853f 0a6f 8a3f
00000070: c4bc 853f 9ffc 923f 125b 893f 2934 7f3f
00000080: 3485 6d3f 4489 843f 58cf 6d3f aee1 8c3f
00000090: 0ff1 7f3f 29bd 8e3f 2849 803f e870 853f
000000a0: f1a0 673f bc2e 863f b212 8b3f 1888 8b3f
000000b0: 9bd5 803f 7ff7 763f ec3a 883f 9372 7d3f
000000c0: 6876 833f 3e8b 7d3f 6b1f 843f c107 8f3f
000000d0: 064b 723f 8dae 763f 422d 673f fad9 803f
000000e0: c1e3 643f c465 833f c9a8 8a3f dd5e 813f
000000f0: 4654 813f a0af 793f 8ea3 733f 7077 803f
00000100: 5373 823f 3d46 833f 0314 883f ccbd 6c3f
00000110: c196 7f3f 34b4 733f 7d21 873f b4ba 883f
00000120: e5b3 823f 2229 853f 7770 843f 817c 893f
00000130: 6643 8a3f 7165 6f3f 480c 833f ae94 703f
00000140: 1a65 793f 4676 873f 14c9 803f 22c9 763f
00000150: 584d 753f f696 863f c404 863f e0f4 843f
00000160: 2b5b 833f 21e5 853f 012b 863f a7f0 813f
00000170: 8058 8d3f eec6 733f 9fd0 703f cd29 7b3f
00000180: fd4b 853f 3a36 873f c185 773f 40b2 843f
00000190: c9bd 813f a2fd 8f3f 5c94 833f 3d45 833f
000001a0: 7552 893f e736 713f 7c2a 873f 2785 823f
000001b0: 4faf 703f 3ba3 723f 113b 843f 91bc 743f
000001c0: 8c2e 713f 8500 803f ca70 703f 2f80 743f
000001d0: 4ea4 813f ad0d 873f a636 733f 64ac 803f
000001e0: 5d0f 8c3f bb05 7f3f 7ab0 7d3f d193 833f
000001f0: 43d7 763f 8849 883f 4bcd 7d3f 6f8d 7b3f

bns.1.bias f4 [128]
-0.050408933 -0.06692775 -0.018178122 -0.030095372 -0.059299305 -0.09014201 0.123088956 0.064440906
-0.10199061 0.07112396 -0.07447529 0.015330107 -0.036748074 -0.060901325 -0.053653713 -0.07589267
0.029228143 -0.0017049295 0.07724169 -0.015336289 -0.023528403 0.04613876 -0.056354754 0.08326296
0.07107093 0.06302426 0.06772762 -0.03839674 0.0884272 0.097462095 0.04961537 0.00994359
-0.047269557 0.108247854 -0.073792025 -0.05901997 -0.04112923 0.054159377 0.052394096 0.025979929
-0.16432133 0.036968082 0.086085774 0.056182344 0.023757674 -0.1399121 0.05286481 0.025605617
0.06402805 -0.018517246 0.012555889 0.023195237 -0.0931876 -0.10229157 -0.08222392 0.062413886
-0.13318373 0.002197108 0.04577185 -0.041297022 -0.059675455 -0.019882394 -0.0066421544 0.028045662
-0.0971627 0.062000196 0.006655229 -0.07746029 -0.11398403 0.014436361 -0.038632985 -0.06859942
-0.030945133 0.049556617 -0.016020592 0.041585535 0.029699069 0.09358555 0.032271177 -0.009280553
-0.02041296 0.05961273 -0.0075667896 -0.049725752 -0.04070793 0.014466034 0.05841886 0.04798004
-0.020087844 -0.094095305 -0.060064714 -0.016289167 0.03240981 -0.056824483 -0.12230815 0.08505559
-0.024286639 -0.06260199 -0.06499613 0.09969979 -0.022390716 0.048306365 0.025370136 0.04673934
-0.029806698 -0.054973073 0.031493522 0.023718594 -0.055981122 0.038482852 0.1049658 -0.060347144
-0.037654385 -0.011768059 -0.0033862668 -0.086399764 -0.03399261 -0.008938833 -0.03878424 0.054196056
0.13493872 -0.032205068 0.033386275 -0.15867428 0.06811524 -0.036779765 -0.10146686 0.026868235
00000000: 9979 4ebd 6b11 89bd 49ea 94bc 928a f6bc
00000010: d4e3 72bd 609c b8bd 1016 fc3d 98f9 833d
00000020: 74e0 d0bd 70a9 913d 8086 98bd 212b 7b3c
00000030: 2685 16bd ab73 79bd ffc3 5bbd 9e6d 9bbd
00000040: dc6f ef3c f177 dfba e430 9e3d 0f45 7bbc
00000050: a3be c0bc fffb 3c3d 3ed4 66bd c585 aa3d
00000060: a38d 913d dd12 813d c7b4 8a3d e645 1dbd
00000070: 5219 b53d 359a c73d 7c39 4b3d 70ea 223c
00000080: b99d 41bd 0db1 dd3d 4620 97bd edbe 71bd
00000090: 2077 28bd 39d6 5d3d 319b 563d dcd3 d43c
000000a0: da43 28be d86b 173d bd4d b03d 751f 663d
000000b0: 749f c23c 1e45 0fbe c588 583d dfc2 d13c
000000c0: 2321 833d 7bb1 97bc 37b7 4d3c f003 be3c
000000d0: 24d9 bebd 3e7e d1bd 0465 a8bd b4a5 7f3d
000000e0: 5161 08be 5bfd 0f3b 437b 3b3d 1127 29bd
000000f0: 406e 74bd 67e0 a2bc 6ea6 d9bb 04c0 e53c
00000100: 3dfd c6bd ebf3 7d3d 1b14 da3b 80a3 9ebd
00000110: 7670 e9bd 7d86 6c3c 9f3d 1ebd da7d 8cbd
00000120: a680 fdbc e1fb 4a3d 9e3d 83bc 9855 2a3d
00000130: 764b f33c c8a9 bf3d c82e 043d 760d 18bc
00000140: 1439 a7bc 7a2c 743d d5f2 f7bb 3bad 4bbd
00000150: 5cbd 26bd f202 6d3c 9d48 6f3d b886 443d
00000160: 438f a4bc 0ab5 c0bd 6b06 76bd dc70 85bc
00000170: 26c0 043d cac0 68bd b27c fabd a031 ae3d
00000180: c6f4 c6bc 7935 80bd b11c 85bd 672f cc3d
00000190: bc6c b7bc e5dc 453d 08d5 cf3c c071 3f3d
000001a0: 2d2d f4bc 722b 61bd 5aff 003d 7f4d c23c
000001b0: 764c 65bd 32a0 1d3d 4ff8 d63d 912e 77bd
000001c0: 7c3b 1abd d1ce 40bc 21ec 5dbb 5cf2 b0bd
000001d0: d63b 0bbd 2f74 12bc 39dc 1ebd affc 5d3d
000001e0: 602d 0a3e 76e9 03bd 0cc0 083d 837b 22be
000001f0: 0180 8b3d 61a6 16bd dbcd cfbd c61a dc3c

bns.1.running_mean f4 [128]
0.033873305 0.16755855 -0.24389759 0.2602831 -0.31995878 0.1957141 0.112397134 -0.25805873
-0.28903738 -0.21675692 -0.050086018 0.1102548 -0.05459003 -0.2878974 -0.06334768 -0.039869417
-0.08172288 -0.23772037 -0.26189083 0.081785396 0.20565818 -0.21763317 0.25031036 -0.24183998
-0.11869444 -0.2300285 -0.2574246 0.18833627 -0.34796658 -0.1018261 -0.18956855 -0.41505432
0.21004763 0.06605029 -0.4383669 -0.30822507 -0.12591918 -0.15275565 -0.12924632 0.21734898
-0.09863969 0.109561354 -0.12988323 -0.20382878 0.04769731 0.1589189 0.005502492 -0.13157524
-0.067632794 0.06996522 -0.21109927 0.07323915 0.14053395 -0.3104357 0.029928377 -0.055457503
-0.049063616 -0.056699663 -0.3294472 -0.32882857 0.340849 0.4210046 -0.28791633 0.18436806
-0.19700244 0.084338024 -0.47593123 0.23040375 -0.34341577 0.026800722 0.1623491 0.07402021
-0.14062224 -0.22230928 -0.4579106 -0.05181722 0.08796022 0.24169889 0.2764255 -0.14828378
-0.29790038 -0.20469035 0.03581863 -0.15846328 0.26965728 0.11348293 -0.17380296 0.055488773
0.026646875 0.18882594 0.117184885 -0.5079677 -0.14646475 -0.051868748 0.20490165 -0.44356662
-0.17140079 0.28999963 0.0824392 0.010092863 -0.051896777 0.08545218 -0.39951277 -0.010891749
0.15776272 -0.046304785 -0.35178903 0.017782522 -0.110331364 0.09238408 -0.27383426 -0.19281586
-0.30675828 -0.10420251 -0.050257146 -0.31497666 0.17186958 -0.2724241 -0.051679015 -0.18450232
0.18791936 -0.19698401 0.031830266 -0.25221083 -0.035262905 0.0321645 -0.07851217 -0.036447193
00000000: bcbe 0a3d 7894 2b3e 4ac0 79be d443 853e
00000010: a3d1 a3be 4769 483e 7830 e63d 4620 84be
00000020: b5fc 93be 87f5 5dbe ff26 4dbd 45cd e13d
00000030: cc99 5fbd 4a67 93be 6ebc 81bd 1d4e 23bd
00000040: 535e a7bd f86c 73be 8e16 86be 1a7f a73d
00000050: 0f98 523e 3bdb 5ebe ae28 803e e6a4 77be
00000060: 1216 f3bd 978c 6bbe 28cd 83be 39db 403e
00000070: ad28 b2be 348a d0bd 421e 42be 0082 d4be
00000080: ba16 573e 6045 873d a071 e0be adcf 9dbe
00000090: f5f0 00be fa6b 1cbe 2659 04be bb90 5e3e
000000a0: 9b03 cabd b461 e03d 1c00 05be 7eb8 50be
000000b0: 415e 433d a3bb 223e 404e b43b a9bb 06be
000000c0: 1083 8abd ed49 8f3d 682a 58be 68fe 953d
000000d0: 22e8 0f3e 6ef1 9ebe 5b2c f53c 6827 63bd
000000e0: eef6 48bd e83d 68bd 4ead a8be 385c a8be
000000f0: c383 ae3e ea8d d73e c569 93be fbca 3c3e
00000100: 02bb 49be 6ab9 ac3d 42ad f3be f6ee 6b3e
00000110: 31d4 afbe 308d db3c d83e 263e e897 973d
00000120: 47ff 0fbe 0ba5 63be 4273 eabe 4b3e 54bd
00000130: 7d24 b43d ea7f 773e a587 8d3e b4d7 17be
00000140: 6686 98be 599a 51be 8eb6 123d 3344 22be
00000150: 8510 8a3e bd69 e83d 67f9 31be 3248 633d
00000160: 8c4a da3c 965b 413e a1fe ef3d 2c0a 02bf
00000170: dbfa 15be 5374 54bd bdd1 513e 2a1b e3be
00000180: b083 2fbe d57a 943e e2d5 a83d 895c 253c
00000190: b791 54bd 8d01 af3d f08c ccbe 4e73 32bc
000001a0: 8d8c 213e 16aa 3dbd b11d b4be a7ac 913c
000001b0: 69f5 e1bd dd33 bd3d 0134 8cbe 8571 45be
000001c0: 6c0f 9dbe 2068 d5bd 70da 4dbd 9f44 a1be
000001d0: 94fe 2f3e 2c7b 8bbe 60ad 53bd 2dee 3cbe
000001e0: ef6d 403e 2db6 49be 7460 023d c721 81be
000001f0: d66f 10bd ecbe 033d fdca a0bd a749 15bd

bns.1.running_var f4 [128]
1.413981 1.0871696 1.4497292 1.3143657 1.4309452 1.2184255 2.5776756 1.0801164
0.63930845 1.1948712 1.6940415 1.0191733 1.8363037 0.72530866 1.7719398 2.0646708
2.184493 1.9927078 1.6323109 1.3170698 0.87917197 1.0396837 3.2488878 1.3304365
1.3101795 1.0461661 2.8469517 1.7861711 1.4787096 0.7993318 2.0151331 4.1684065
2.6377568 1.4722248 4.124441 2.0046191 3.1548724 1.257096 0.9480609 1.0063292
1.864021 2.620808 1.1598214 1.57442 2.4018753 2.3816803 1.5262036 1.2766707
5.27575 4.250854 3.2393162 1.0070701 5.147429 1.2026336 1.6763645 2.8129585
1.7424668 0.86224174 0.9064824 2.036674 1.1948537 3.121773 1.9391317 1.3047924
1.0375375 1.309471 1.6755762 2.6195278 1.4032513 2.3993685 3.4242382 1.2033597
1.2973286 0.71845806 1.8292056 2.8793077 1.1528153 2.7394483 1.8437599 4.6195836
1.0997566 3.1552625 1.4050704 2.3173313 1.3129812 1.9609196 0.8629123 3.8128407
2.3802855 1.922702 2.546046 1.478433 1.1834658 2.8246973 1.2446561 2.2244453
1.0892336 1.2834986 1.3860059 2.1827474 2.271663 1.2472867 2.6571805 1.5592064
1.2412587 1.8278017 1.2752968 4.0784607 2.3999593 1.1042292 2.0317745 1.4337778
1.2096475 2.5632234 1.6943183 3.112072 1.8087568 2.3740718 2.5827494 0.99682957
1.0005877 1.3798888 2.0645647 1.9664432 1.319971 2.4159203 1.5206577 1.8039562
00000000: 54fd b43f 6028 8b3f ba90 b93f 233d a83f
00000010: 3629 b73f 5ef5 9b3f a3f8 2440 4141 8a3f
00000020: b8a9 233f 8af1 983f 5ad6 d83f 4574 823f
00000030: 000c eb3f d4ad 393f ecce e23f 9123 0440
00000040: bcce 0b40 0d11 ff3f 90ef d03f be95 a83f
00000050: 6a11 613f 5b14 853f c7ed 4f40 be4b aa3f
00000060: f6b3 a73f c5e8 853f 7534 3640 41a1 e43f
00000070: 5b46 bd3f 02a1 4c3f f1f7 0040 9663 8540
00000080: 02d1 2840 dd71 bc3f 6cfb 8340 ae4b 0040
00000090: 6ee9 4940 86e8 a03f 1fb4 723f 65cf 803f
000000a0: 3d98 ee3f 51bb 2740 0775 943f 9886 c93f
000000b0: 53b8 1940 736d 1840 a45a c33f f269 a33f
000000c0: f2d2 a840 ff06 8840 f550 4f40 ace7 803f
000000d0: bdb7 a440 e6ef 993f 1d93 d63f 8307 3440
000000e0: 2709 df3f e0bb 5c3f 3b0f 683f de58 0240
000000f0: f7f0 983f 21cb 4740 7835 f83f 7003 a73f
00000100: 07ce 843f bf9c a73f 4879 d63f 58a6 2740
00000110: bd9d b33f 418f 1940 b826 5b40 b107 9a3f
00000120: dd0e a63f deec 373f 6923 ea3f 9446 3840
00000130: 748f 933f 1f53 2f40 5300 ec3f a1d3 9340
00000140: d3c4 8c3f d2ef 4940 59d9 b33f 284f 1440
00000150: c50f a83f 6aff fa3f d2e7 5c3f 9505 7440
00000160: 9956 1840 191b f63f 6bf2 2240 4b3d bd3f
00000170: cf7b 973f d7c7 3440 e450 9f3f 505d 0e40
00000180: 026c 8b3f af49 a43f a468 b13f 22b2 0b40
00000190: ed62 1140 17a7 9f3f 3f0f 2a40 1394 c73f
000001a0: 91e1 9e3f 68f5 e93f ed3c a33f c082 8240
000001b0: ef98 1940 6257 8d3f 9808 0240 0886 b73f
000001c0: bbd5 9a3f da0b 2440 6cdf d83f 302c 4740
000001d0: 5885 e73f cbf0 1740 c44b 2540 3930 7f3f
000001e0: 4213 803f 32a0 b03f d421 0440 69b4 fb3f
000001f0: cff4 a83f 709e 1a40 e9a4 c23f 09e8 e63f

bns.2.weight f4 [128]
1.0313829 0.99129474 1.0270739 1.0781547 1.0176344 0.9746728 1.0929573 0.99425685
1.0468758 0.9943762 0.94455403 1.0198224 0.9976418 1.0415027 1.0709685 1.0844904
1.0210063 1.030563 1.0146017 1.0447409 0.97697437 1.0548991 1.0127175 0.881721
0.9761387 1.0037483 0.9387212 0.9306382 1.0599755 0.99876183 1.0269076 0.96217716
1.0203215 1.0150799 0.94494843 1.021721 0.9959199 1.0351994 1.0517331 0.9790229
0.99123424 1.0514467 1.0942147 0.96004075 0.9565802 0.9354521 0.9645469 0.9615696
1.0729321 1.0204862 1.002372 1.0453705 0.93212086 0.93601125 1.0652205 1.0822096
0.89986676 1.0129901 0.91075736 0.95023304 0.9453675 0.9602486 0.9642442 0.98522246
1.0476732 0.9977854 0.9840072 1.0630162 1.1121442 1.0099196 1.1071022 1.0993127
1.00524 0.9215133 1.1148708 0.94154376 0.9900949 0.9538874 0.9572604 1.0536283
0.9513749 1.1037966 0.9958975 1.0612166 1.0256423 1.0456578 1.0019389 1.0111834
1.0207435 0.97375804 1.0297716 0.973874 0.93326926 0.94455814 0.986349 0.98400867
1.0586996 0.91819954 1.0559223 1.0180454 1.0547681 0.8635466 1.0079069 1.0132122
0.97274053 1.1270763 1.1051142 1.095352 1.0662595 0.9863578 1.0278608 1.0649481
0.9793709 1.0618999 0.9951161 0.9591974 0.88495624 1.0666251 1.0472951 0.9872658
1.0154387 1.0424409 0.9707187 0.91837883 0.97597384 0.94133294 1.0613463 1.0124459
00000000: 5b04 843f 7ec5 7d3f 2877 833f f900 8a3f
00000010: d841 823f 2884 793f 06e6 8b3f 9e87 7e3f
00000020: 0700 863f 708f 7e3f 4bce 713f 8a89 823f
00000030: 7465 7f3f f64f 853f 7f15 893f 95d0 8a3f
00000040: 56b0 823f 7de9 833f 78de 813f 12ba 853f
00000050: fe1a 7a3f ef06 873f baa0 813f 78b8 613f
00000060: 3ae4 793f d37a 803f 0850 703f 4e3e 6e3f
00000070: 47ad 873f dbae 7f3f b571 833f 3e51 763f
00000080: e599 823f 23ee 813f 24e8 713f c1c7 823f
00000090: 9bf4 7e3f 6a81 843f 319f 863f 3fa1 7a3f
000000a0: 87c1 7d3f ce95 863f 3a0f 8c3f 3bc5 753f
000000b0: 71e2 743f ca79 6f3f 8cec 763f 6d29 763f
000000c0: d755 893f 4b9f 823f ba4d 803f b3ce 853f
000000d0: 799f 6e3f 6f9e 6f3f 2559 883f d885 8a3f
000000e0: ab5d 663f a9a9 813f 6527 693f 7942 733f
000000f0: 9b03 723f dad2 753f b5d8 763f 8a37 7c3f
00000100: 281a 863f dd6e 7f3f e5e7 7b3f ea10 883f
00000110: be5a 8e3f 0c45 813f 86b5 8d3f 47b6 8c3f
00000120: b4ab 803f 4ce8 6b3f 16b4 8e3f 0309 713f
00000130: dc76 7d3f f731 743f 040f 753f 4bdd 863f
00000140: 4e8d 733f 3549 8d3f 23f3 7e3f f2d5 873f
00000150: 3f48 833f 1dd8 853f 893f 803f 756e 813f
00000160: b9a7 823f 3548 793f 8ecf 833f ce4f 793f
00000170: bcea 6e3f 90ce 713f 5e81 7c3f fee7 7b3f
00000180: 7883 873f 200f 6b3f 7628 873f 504f 823f
00000190: a402 873f 6411 5d3f 1803 813f f0b0 813f
000001a0: 8605 793f 0944 903f 6274 8d3f 7f34 8c3f
000001b0: 317b 883f f281 7c3f f190 833f 3850 883f
000001c0: 0db8 7a3f 56ec 873f eebf 7e3f f68d 753f
000001d0: 7e8c 623f 2c87 883f c40d 863f 74bd 7c3f
000001e0: e5f9 813f b46e 853f 0581 783f e01a 6b3f
000001f0: 6cd9 793f 32fb 703f 32da 873f d497 813f

bns.2.bias f4 [128]
-0.022802139 0.063837916 0.0797268 0.07886746 0.0320139 0.07499426 0.04062228 -0.01878426
0.067545034 -0.03342853 -0.12266994 -0.013383424 -0.046500333 0.025566641 -0.040049106 0.106874436
0.030924216 0.024501204 0.07344441 -0.009755459 -0.012568367 0.068635836 0.054457784 -0.051910352
-0.019077977 0.07762026 -0.018323613 -0.038766146 -0.009573935 0.05214467 0.052966345 -0.015732318
-0.04034478 0.03589605 0.0607849 -0.06864552 -0.10744991 0.07177655 0.040872507 -0.014255521
0.057228327 0.019145587 0.09711765 0.087512515 -0.06493634 -0.05937167 -0.0005355074 -0.090785146
0.07568197 0.022917511 0.06710293 -0.054002568 0.032174032 -0.060623664 0.053863004 0.07319953
0.024778223 -0.06239344 0.0041086464 -0.122786865 -0.042866684 -0.04812714 -0.037693586 -0.0146344965
0.028792303 0.024143491 0.050092082 0.048906416 -0.0627678 -0.07634732 -0.022088254 0.115643
0.031104324 -0.009718688 -0.0024803674 -0.06335329 0.082066715 -0.0090146 -0.100862704 -0.042481355
-0.054532014 0.06405974 0.0645987 -0.056209017 -0.015333082 0.029607585 0.0535904 -0.012007751
0.01732615 0.023618294 0.019811273 -0.020674806 -0.10018659 0.008618882 0.04892215 0.0065683336
0.026137928 -0.009930437 -0.07516065 -0.05813367 -0.03418022 -0.03224883 0.023005346 0.026112808
-0.12628956 0.05483763 0.074273005 0.03494205 0.03970558 -0.0592047 -0.0014006448 0.0631517
0.018874612 0.10476045 -0.005096572 -0.041831568 -0.07610286 -0.010610626 0.022521656 -0.01149974
0.095519245 0.03211003 0.05687315 0.0018169124 -0.053340185 -0.13282777 0.10056804 -0.0013892561
00000000: 8dcb babc 74bd 823d ce47 a33d 4385 a13d
00000010: 0221 033d 9796 993d 8c63 263d 73e1 99bc
00000020: 0d55 8a3d 5bec 08bd 613a fbbd 2646 5bbc
00000030: 2277 3ebd 2271 d13c 880a 24bd fce0 da3d
00000040: c854 fd3c c0b6 c83c 066a 963d 5cd5 1fbc
00000050: 8deb 4dbc f290 8c3d 200f 5f3d f39f 54bd
00000060: 6b49 9cbc 5ff7 9e3d 671b 96bc 40c9 1ebd
00000070: fedb 1cbc a695 553d 3df3 583d 10e1 80bc
00000080: 9140 25bd bd07 133d 96f9 783d 0696 8cbd
00000090: b30e dcbd 95ff 923d ee69 273d fd8f 69bc
000000a0: 4068 6a3d 35d7 9c3c 9ee5 c63d c339 b33d
000000b0: 58fd 84bd b52f 73bd 4b61 0cba 90ed b9bd
000000c0: 26ff 9a3d 81bd bb3c 436d 893d cc31 5dbd
000000d0: ebc8 033d 8550 78bd 749f 5c3d a3e9 953d
000000e0: b3fb ca3c 4490 7fbd d3a1 863b ae77 fbbd
000000f0: fa94 2fbd f720 45bd 9764 1abd 87c5 6fbc
00000100: d6dd eb3c 92c8 c53c 5b2d 4d3d 1852 483d
00000110: 688c 80bd fc5b 9cbd 6df2 b4bc 3dd6 ec3d
00000120: 7fce fe3c 223b 1fbc a98d 22bb 5fbf 81bd
00000130: 9812 a83d f9b1 13bc 1b91 cebd ee00 2ebd
00000140: f65c 5fbd c131 833d 534c 843d 6d3b 66bd
00000150: 9b37 7bbc 9b8b f23c 9b81 5b3d 28bc 44bc
00000160: 92ef 8d3c 277b c13c 404b a23c 365e a9bc
00000170: a02e cdbd 3636 0d3c 9862 483d 2d3b d73b
00000180: 351f d63c 46b3 22bc d4ed 99bd 921d 6ebd
00000190: 8f00 0cbd 5917 04bd b575 bc3c 87ea d53c
000001a0: 0d52 01be 6c9d 603d 721c 983d 651f 0f3d
000001b0: 51a2 223d a180 72bd d795 b7ba ae55 813d
000001c0: ee9e 9a3c a68c d63d 2501 a7bb 9457 2bbd
000001d0: d1db 9bbd 31d8 2dbc 567f b83c 6869 3cbc
000001e0: 989f c33d cf85 033d d2f3 683d 7725 ee3a
000001f0: 3d7b 5abd 0104 08be 9ef6 cd3d b317 b6ba

bns.2.running_mean f4 [128]
0.15496124 0.2859143 0.19594963 0.23944047 0.21486048 -0.031255264 -0.034748223 -0.1438963
0.12809813 0.38149592 -0.28377244 0.2019932 0.098062195 0.018399976 0.10444024 0.056985512
-0.010755747 -0.103612065 0.007245942 -0.099931404 0.17205411 0.034570213 -0.16763684 0.02030787
0.1451764 -0.27298346 -0.31114227 -0.01623528 0.104226306 0.3369942 0.08897941 0.18288143
0.07883195 0.16993852 -0.407692 0.069800384 -0.07490395 -0.1497004 -0.63236636 0.16484568
-0.20954397 0.13254309 0.21781757 -0.059473902 0.7666827 0.100817055 -0.30232275 -0.041696332
-0.10802268 -0.49693492 -0.031828888 0.15778086 0.48176146 0.46723992 -0.18220156 0.14743431
-0.009311474 -0.18062016 0.017995834 -0.18118677 -0.15450968 0.12568457 -0.061075352 -0.18165794
0.13539988 0.050185345 0.044857096 -0.13401699 0.13549592 -0.10387757 0.038741294 -0.08262843
0.16536695 -0.022183655 -0.06802507 -0.1643622 0.13917333 0.090802155 -0.036765624 -0.0633154
0.40920338 -0.072008446 -0.402104 0.023473533 -0.09750178 0.032111824 0.09600527 -0.01413489
0.1322246 -0.062777214 0.052946422 -0.031742953 0.08428831 0.04569291 0.10317051 0.14224398
0.08339451 0.018046493 -0.1472987 -0.13923031 -0.00967071 0.0113364 0.0043960945 0.008412215
-0.045339286 0.13755484 -0.19531429 -0.03572981 -0.115291506 -0.2533178 -0.09220341 0.012651305
-0.3501763 -0.069680996 -0.070662074 -0.07816991 -0.004422946 -0.031910345 0.17425153 0.23418991
-0.09638323 0.06135599 -0.23860154 -0.09818292 -0.035088144 0.12713656 0.23403047 0.0022920955
00000000: 29ae 1e3e 5c63 923e 05a7 483e e22f 753e
00000010: 6304 5c3e 8505 00bd 2754 0ebd 8d59 13be
00000020: 282c 033e 6f53 c33e 9f4a 91be 4ed7 4e3e
00000030: d5d4 c83d 8cbb 963c c4e4 d53d a469 693d
00000040: df38 30bc 9032 d4bd 5e6f ed3b d6a8 ccbd
00000050: f42e 303e 7f99 0d3d fea8 2bbe b15c a63c
00000060: 1fa9 143e 7dc4 8bbe 0a4e 9fbe daff 84bc
00000070: 9a74 d53d 818a ac3e d63a b63d 4545 3b3e
00000080: a572 a13d 5d04 2e3e 01bd d0be 81f3 8e3d
00000090: 3e67 99bd 104b 19be c3e2 21bf 4ecd 283e
000000a0: b292 56be 60b9 073e 920b 5f3e e89a 73bd
000000b0: 5145 443f 2c79 ce3d 0cca 9abe c6c9 2abd
000000c0: ff3a ddbd 416e febe 025f 02bd 4e91 213e
000000d0: 70a9 f63e 123a ef3e 0c93 3abe 05f9 163e
000000e0: 278f 18bc 7ef4 38be 006c 933c 0689 39be
000000f0: c937 1ebe 75b3 003e 262a 7abd 8a04 3abe
00000100: 44a6 0a3e 268f 4d3d 13bc 373d c03b 09be
00000110: 71bf 0a3e c3bd d4bd 31af 1e3d 1839 a9bd
00000120: f455 293e 7fba b5bc ba50 8bbd 914e 28be
00000130: 7483 0e3e 7bf6 b93d 8d97 16bd 81ab 81bd
00000140: 1b83 d13e 2a79 93bd 93e0 cdbe 914b c03c
00000150: 03af c7bd b087 033d 699e c43d 0796 67bc
00000160: e365 073e 5791 80bd 59de 583d e604 02bd
00000170: 599f ac3d 7d28 3b3d 0f4b d33d 68a8 113e
00000180: beca aa3d 3dd6 933c 78d5 16be 6492 0ebe
00000190: e671 1ebc 4fbc 393c 1d0d 903b 63d3 093c
000001a0: b0b5 39bd 2ddb 0c3e 7800 48be 6c59 12bd
000001b0: f41d ecbd dfb2 81be 24d5 bcbd 6b47 4f3c
000001c0: 4f4a b3be e9b4 8ebd 47b7 90bd 8c17 a0bd
000001d0: 5cee 90bb 6cb4 02bd fe6e 323e 7bcf 6f3e
000001e0: 9264 c5bd 6b50 7b3d f653 74be 2014 c9bd
000001f0: 96b8 0fbd 1630 023e afa5 6f3e fb36 163b

bns.2.running_var f4 [128]
1.686266 1.1858048 2.449688 1.3755776 1.757747 1.0353789 2.5587103 2.724715
2.7637138 1.5348196 2.1849022 3.4353 1.0783161 1.9244242 1.8557634 0.682322
1.291439 1.7870032 3.4897006 2.11579 1.4072703 1.0129548 2.9307387 4.6388493
1.2387439 1.0944836 0.83763933 1.2577883 1.7302696 1.371622 4.0572095 1.4583998
1.8611289 1.6985418 0.99409443 0.9646476 4.9232316 2.8342185 1.2860936 1.7984782
3.2785962 1.4409854 1.9384637 1.128459 2.3223608 1.9645925 3.2592006 2.0621095
1.5836959 1.2614003 1.4860992 1.4499815 1.7464986 1.2706057 1.7818875 2.585692
2.0129251 1.960187 1.1969335 1.5396788 1.190523 1.9763262 4.9486556 1.0974815
1.2166501 1.9072324 1.1089351 3.4629471 0.97551924 1.1938046 1.194669 0.76245916
1.4132066 2.1548753 0.8543584 1.9611828 2.0631843 1.6325904 1.0805775 2.7577765
1.7593014 2.185307 1.2903781 2.3033698 1.6960717 3.7327878 1.3380446 1.2837352
2.909852 1.9501171 2.189927 1.6103939 1.3777894 0.94869417 2.5714467 1.535369
1.616268 1.0632056 3.0371811 0.77430964 1.2636875 1.5377811 3.643115 2.3089135
1.5627211 1.0232235 1.0834776 0.82331413 2.8259034 0.9937627 2.7958817 3.3981502
1.3347942 1.4480107 0.8369733 3.3095543 0.8856002 3.677359 3.3576853 1.1366049
1.7439698 2.0790267 1.393671 2.1397464 1.3877852 3.1850471 1.0506997 2.5729825
00000000: 90d7 d73f 74c8 973f b0c7 1c40 ed12 b03f
00000010: dbfd e03f 4c87 843f e9c1 2340 bb61 2e40
00000020: b0e0 3040 f874 c43f 70d5 0b40 f5db 5b40
00000030: 4306 8a3f 8853 f63f a889 ed3f a8ac 2e3f
00000040: e04d a53f 85bc e43f 4157 5f40 1a69 0740
00000050: 6f21 b43f 81a8 813f 3991 3b40 7471 9440
00000060: 298f 9e3f 0a18 8c3f 886f 563f 35ff a03f
00000070: 7979 dd3f 4f91 af3f a9d4 8140 d8ac ba3f
00000080: 7939 ee3f d169 d93f f97c 7e3f 25f3 763f
00000090: 1d8b 9d40 d663 3540 b79e a43f 8934 e63f
000000a0: 85d4 5140 3672 b83f 941f f83f 5871 903f
000000b0: 8fa1 1440 c477 fb3f be96 5040 9af9 0340
000000c0: 8cb6 ca3f 9175 a13f 8038 be3f fe98 b93f
000000d0: 448d df3f 35a3 a23f e414 e43f fa7b 2540
000000e0: c4d3 0040 68e7 fa3f 1e35 993f 3214 c53f
000000f0: 0f63 983f 42f8 fc3f 635b 9e40 467a 8c3f
00000100: 31bb 9b3f 3120 f43f 96f1 8d3f eda0 5d40
00000110: a1bb 793f 97ce 983f eaea 983f 8630 433f
00000120: f4e3 b43f 7ae9 0940 3bb7 5a3f 0a08 fb3f
00000130: 360b 0440 b9f8 d03f 5d50 8a3f 697f 3040
00000140: ca30 e13f 12dc 0b40 1c2b a53f 696a 1340
00000150: e118 d93f ffe5 6e40 0c45 ab3f 6f51 a43f
00000160: 043b 3a40 709d f93f c427 0c40 6321 ce3f
00000170: 675b b03f 9fdd 723f 9592 2440 f986 c43f
00000180: dfe1 ce3f 1f17 883f 2d61 4240 2839 463f
00000190: 83c0 a13f 03d6 c43f cc28 6940 3dc5 1340
000001a0: 3f07 c83f fdf8 823f 65af 8a3f b7c4 523f
000001b0: 9adb 3440 3b67 7e3f baef 3240 4b7b 5940
000001c0: 89da aa3f 6a58 b93f e243 563f bdcf 5340
000001d0: b2b6 623f da59 6b40 51e4 5640 457c 913f
000001e0: 673a df3f c60e 0540 d063 b23f 9bf1 0840
000001f0: f2a2 b13f d0d7 4b40 547d 863f bfab 2440

bns.3.weight f4 [128]
1.0240276 0.9243517 0.9476411 0.99551505 1.1737322 1.0865858 1.1167101 0.9822029
0.95096916 0.9857998 0.92315763 0.94658846 1.0441663 1.1150827 1.0474291 0.9539863
1.0005631 0.9544662 1.080267 0.955873 0.99549174 0.9506639 0.94990396 1.1387125
1.1068984 0.9387724 0.9567057 1.0437348 1.0040371 1.073791 0.9510134 0.9242461
0.9966562 1.0263593 1.1173779 0.9605069 0.98469305 1.1119155 0.9708829 0.9631345
0.9985545 1.1939213 0.905978 1.1265504 0.89728475 1.0829053 0.9343324 1.131235
0.91738474 0.95293415 0.9543945 0.95395595 1.0594083 0.9202595 1.0529796 1.1108838
1.0710617 1.0016183 0.9061669 1.0181134 0.9661393 0.9211278 0.9593251 1.1513087
0.9874025 1.0677096 1.0531535 0.9401005 1.1464268 0.9130049 0.93332106 0.9430356
0.95438313 0.9323731 1.1424828 0.9506874 0.9016906 1.0254004 0.9439172 0.9530986
1.1736091 0.9497085 1.0876408 0.9686648 0.91422975 0.9141318 0.9333207 1.1216756
0.9596239 0.9578831 1.0625108 1.1436273 1.1260835 1.1283013 0.92996234 0.8911816
1.0916806 0.92554 1.0919658 0.92100745 0.9635874 1.033458 0.88940924 0.9400026
1.0247177 0.9459135 1.0326838 0.9307557 1.0037733 0.9898006 0.99936676 1.0474515
1.104177 0.9206278 1.0829759 0.9823951 1.1007539 0.9359853 1.0979232 0.9349885
1.0704241 1.0996575 1.0721978 1.1456879 0.936927 1.0535967 1.0499865 0.9448532
00000000: 5613 833f 50a2 6c3f 9b98 723f 13da 7e3f
00000010: db3c 963f 3e15 8b3f 5bf0 8e3f a671 7b3f
00000020: b772 733f 605d 7c3f 0f54 6c3f 9f53 723f
00000030: 3ea7 853f 08bb 8e3f 2812 863f 7238 743f
00000040: 7412 803f e657 743f 3046 8a3f 18b4 743f
00000050: 8cd8 7e3f b65e 733f e82c 733f 55c1 913f
00000060: d9ae 8d3f 6353 703f aaea 743f 1a99 853f
00000070: 4a84 803f fc71 893f 9d75 733f 649b 6c3f
00000080: dc24 7f3f be5f 833f 3d06 8f3f c8e3 753f
00000090: d814 7c3f 3f53 8e3f c88b 783f fc8f 763f
000000a0: 45a1 7f3f 6ad2 983f 2dee 673f ce32 903f
000000b0: 74b4 653f a49c 8a3f 6830 6f3f 4fcc 903f
000000c0: bad9 6a3f 7ef3 733f 3353 743f 7536 743f
000000d0: b19a 873f 2096 6b3f 09c8 863f 7131 8e3f
000000e0: 8d18 893f 0735 803f 8efa 673f 8a51 823f
000000f0: e854 773f 08cf 6b3f 5496 753f 155e 933f
00000100: 69c6 7c3f b5aa 883f bccd 863f 6daa 703f
00000110: 1dbe 923f b0ba 693f 21ee 6e3f c86a 713f
00000120: 7452 743f 01b0 6e3f e03c 923f 4060 733f
00000130: 32d5 663f 5240 833f 8fa4 713f 45fe 733f
00000140: d338 963f 1920 733f d037 8b3f 6bfa 773f
00000150: f60a 6a3f 8b04 6a3f 1bee 6e3f 1193 8f3f
00000160: e9a9 753f d437 753f 5b00 883f 6162 923f
00000170: 8123 903f 2d6c 903f 0312 6e3f 7a24 643f
00000180: 31bc 8b3f 30f0 6c3f 89c5 8b3f 25c7 6b3f
00000190: aaad 763f 5a48 843f 53b0 633f 03a4 703f
000001a0: f329 833f 6327 723f fc2e 843f 0146 6e3f
000001b0: a57b 803f 9263 7d3f 80d6 7f3f e412 863f
000001c0: ac55 8d3f 43ae 6b3f f49e 8a3f 3f7e 7b3f
000001d0: 81e5 8c3f bc9c 6f3f bf88 8c3f 685b 6f3f
000001e0: a803 893f 94c1 8c3f c73d 893f e7a5 923f
000001f0: 73da 6f3f 42dc 863f f565 863f e6e1 713f

bns.3.bias f4 [128]
0.07942213 -0.10793064 -0.06754096 0.037004218 0.115257345 0.14691056 0.13461761 0.07967762
-0.11283484 0.15522224 -0.05663271 -0.0842163 0.15116802 0.11398091 0.05759758 -0.0890807
0.15546608 -0.057120763 0.120518975 -0.028070925 -0.026970074 -0.037795983 -0.018992407 0.11624495
0.161473 -0.08088988 -0.06215706 0.058738828 -0.059195414 0.14718428 -0.0667944 0.05992683
0.12920628 0.040109064 0.17923103 -0.11258654 0.0093365 0.1362269 -0.027417757 0.14488412
0.03160512 0.14487341 -0.13330783 0.12538077 -0.11604133 0.11175804 -0.07374937 0.14997411
-0.104373164 -0.073567994 -0.07399273 -0.059051815 0.14626504 -0.093519405 0.14569162 0.1491275
0.115211815 0.16461317 -0.09551186 0.12593403 -0.025895746 -0.07122749 -0.116106085 0.13805048
0.010306713 0.13151337 0.13655108 -0.08103216 0.14272194 -0.09563464 -0.1578153 -0.0628021
-0.05725156 -0.081116594 0.14476876 -0.056502353 -0.10238984 0.12772317 -0.10442371 0.07622323
0.12730612 -0.10645565 0.11994448 -0.020223618 -0.09581087 -0.1259587 -0.09239554 0.14011474
0.08572104 -0.037798505 0.08313458 0.13068998 0.005842751 0.18120788 -0.07461356 -0.12420308
0.09766929 -0.08204991 0.14939098 -0.06606644 -0.037266843 0.14479308 -0.10288576 -0.053358488
0.11149948 -0.050458632 0.062726796 -0.10273327 0.18136959 -0.06101603 0.09905301 0.12188682
0.1228852 -0.11469918 0.13453618 -0.039199345 0.1462487 -0.08691928 0.12845312 -0.08614521
0.13895361 0.1345343 -0.0007075083 0.14168082 -0.038326 0.14197706 0.1343321 -0.12282631
00000000: 12a8 a23d bd0a ddbd ea52 8abd bc91 173d
00000010: 0b0c ec3d b96f 163e 33d9 093e 052e a33d
00000020: f415 e7bd 94f2 1e3e b3f7 67bd 9879 acbd
00000030: cacb 1a3e d36e e93d 71eb 6b3d f16f b6bd
00000040: 8032 1f3e 76f7 69bd a7d2 f63d fff4 e5bc
00000050: 58f0 dcbc f6cf 1abd f795 9bbc d511 ee3d
00000060: 2e59 253e 98a9 a5bd 6798 7ebd 2098 703d
00000070: e476 72bd 7ab7 163e 81cb 88bd d675 753d
00000080: a74e 043e 6749 243d 5788 373e c693 e6bd
00000090: 1ff8 183c 117f 0b3e 349b e0bc 815c 143e
000000a0: 5f74 013d b259 143e d981 08be d163 003e
000000b0: 14a7 edbd 66e1 e43d e909 97bd d092 193e
000000c0: 99c1 d5bd d1aa 96bd 8089 97bd 51e0 71bd
000000d0: 81c6 153e 1a87 bfbd 2f30 153e e1b4 183e
000000e0: 2cf4 eb3d 5b90 283e b99b c3bd daf4 003e
000000f0: 5123 d4bc b8df 91bd 07c9 edbd 1b5d 0d3e
00000100: 7ddd 283c 71ab 063e 0cd4 0b3e 30f4 a5bd
00000110: b325 123e 18dc c3bd 569a 21be 639e 80bd
00000120: 9d80 6abd 7520 a6bd 433e 143e 036f 67bd
00000130: c4b1 d1bd ddc9 023e 19dc d5bd ed1a 9c3d
00000140: 895c 023e 6b05 dabd 74a5 f53d 00ac a5bc
00000150: 7d38 c4bd 51fb 00be df39 bdbd 3d7a 0f3e
00000160: 838e af3d 9bd2 1abd 7642 aa3d 98d3 053e
00000170: 8c74 bf3b 8f8e 393e ffce 98bd 2f5e febd
00000180: d606 c83d c909 a8bd f3f9 183e d74d 87bd
00000190: 1ea5 18bd a344 143e c5b5 d2bd 6e8e 5abd
000001a0: d759 e43d b6ad 4ebd e876 803d d265 d2bd
000001b0: f3b8 393e f2eb 79bd 4edc ca3d cc9f f93d
000001c0: 3cab fb3d 67e7 eabd dac3 093e 7e8f 20bd
000001d0: 38c2 153e bc02 b2bd 3789 033e e66c b0bd
000001e0: db49 0e3e 5cc3 093e 1478 39ba c714 113e
000001f0: b9fb 1cbd 6f62 113e 5b8e 093e 5c8c fbbd

bns.3.running_mean f4 [128]
-0.11790906 0.07243199 0.2187899 0.058257345 -0.26660088 -0.27216145 -0.44997346 -0.23207664
0.014817165 -0.37552485 -0.086103536 -0.16507372 -0.09139816 -0.11064517 0.06781872 0.06773184
-0.005974632 0.13457617 -0.04585429 0.17085817 -0.16897847 -0.12400291 0.07552171 -0.20464996
-0.4302267 0.31812543 -0.2513032 -0.021310857 -0.037576962 -0.15161076 -0.23523316 -0.20057952
0.1522094 -0.42688492 -0.20080122 -0.1775728 0.15051508 -0.26068586 -0.34157056 0.07883679
-0.20892191 -0.21894096 0.03614192 0.01887642 -0.118182495 -0.12855616 0.06921161 0.0052314773
-0.20142168 -0.02031669 -0.14181043 -0.15641016 -0.44863495 0.30292544 -0.080156475 -0.14517896
-0.011156224 -0.253249 -0.40616804 -0.03529944 0.08563695 0.017618585 -0.054472882 -0.10391902
0.17229155 0.17203206 -0.06359704 -0.35192204 -0.060568113 0.29976162 0.2782718 0.025462065
0.29201153 -0.18030064 -0.25816402 0.031917915 -0.3261438 0.08341153 -0.20250915 -0.11538894
0.0544348 0.14425653 -0.052904136 0.026736166 0.04990248 -0.11072314 0.08639215 -0.25096595
0.37046075 -0.227838 -0.35374096 -0.2846604 -0.2831705 -0.36490372 0.053050447 -0.13386719
-0.36824545 -0.5283502 -0.096889414 -0.16462691 -0.093623266 0.20746918 -0.37729055 0.021710115
-0.17839472 -0.19519132 0.08395482 0.20651989 -0.41057283 0.049214486 0.01639179 -0.01764676
0.14565596 -0.12511957 -0.027905306 -0.19200693 -0.3329167 0.28229588 0.0090042325 0.13182656
-0.01648549 -0.0984112 -0.040162 -0.17687154 0.17852555 0.01403121 -0.33248937 -0.04709853
00000000: 4e7a f1bd 3957 943d 760a 603e 419f 6e3d
00000010: e97f 88be bf58 8bbe ec62 e6be 80a5 6dbe
00000020: b2c3 723c cb44 c0be 0d57 b0bd 1609 29be
00000030: f52e bbbd ef99 e2bd 8be4 8a3d feb6 8a3d
00000040: d9c6 c3bb 56ce 093e b5d1 3bbd 72f5 2e3e
00000050: b108 2dbe 3df5 fdbd 20ab 9a3d c28f 51be
00000060: ad46 dcbe 56e1 a23e d0aa 80be 1b94 aebc
00000070: 4dea 19bd da3f 1bbe f6e0 70be b864 4dbe
00000080: c8dc 1b3e a990 dabe d69e 4dbe a5d5 35be
00000090: a020 1a3e 9e78 85be 56e2 aebe 2f75 a13d
000000a0: a0ef 55be 0f32 60be 8d09 143d b9a2 9a3c
000000b0: aa09 f2bd 3aa4 03be d1be 8d3d d06c ab3b
000000c0: 7c41 4ebe 306f a6bc c136 11be fc29 20be
000000d0: 7bb3 e5be 0b19 9b3e 1429 a4bd cba9 14be
000000e0: 98c8 36bc daa9 81be 42f5 cfbe 2596 10bd
000000f0: 6d62 af3d da54 903c f51e 5fbd 7fd3 d4bd
00000100: 326d 303e 2c29 303e 2a3f 82bd 202f b4be
00000110: 4516 78bd 5b7a 993e a479 8e3e d295 d03c
00000120: 8982 953e bba0 38be 132e 84be 5cbc 023d
00000130: 52fc a6be aad3 aa3d 8f5e 4fbe 0951 ecbd
00000140: 06f7 5e3d fcb7 133e 02b2 58bd ce05 db3c
00000150: 8b66 4c3d d0c2 e2bd 5eee b03d 9c7e 80be
00000160: 08ad bd3e 5d4e 69be 891d b5be 02bf 91be
00000170: b9fb 90be a9d4 babe 6d4b 593d 7b14 09be
00000180: ab8a bcbe f541 07bf f56d c6bd f593 28be
00000190: 8ebd bfbd cd72 543e 3a2c c1be 69d9 b13c
000001a0: 1bad 36be 3ce0 47be 81f0 ab3d f379 533e
000001b0: 9a36 d2be 2195 493d 1348 863c f08f 90bc
000001c0: d626 153e 581f 00be ab99 e4bc 779d 44be
000001d0: 0f74 aabe 1689 903e 7d86 133c 8bfd 063e
000001e0: 940c 87bc d08b c9bd e980 24bd d01d 35be
000001f0: 67cf 363e 29e3 653c 0c3c aabe 63ea 40bd

bns.3.running_var f4 [128]
1.6254069 1.5083699 1.1793828 1.6219931 1.5323851 4.19425 1.532107 1.7300277
4.1301217 1.9692074 1.7778702 1.5439167 1.4107765 1.9547455 1.5515183 2.2566717
1.1444757 0.7886486 1.7915145 2.2294593 1.1357096 1.4888476 3.7874258 1.6369712
3.2603402 3.2853527 2.077475 2.036008 1.828835 2.2545648 1.361151 2.0429418
2.0029855 1.9502962 0.8071329 1.5886766 4.574543 0.88187146 1.1572204 2.0423186
2.0954993 1.4140264 2.6374962 1.5437989 3.871729 2.69111 2.3676755 3.4506505
1.0685326 2.1672258 3.6332338 2.5669053 1.5639755 1.1583936 1.5066104 1.3183466
1.4463278 1.9007334 2.53076 0.9737346 0.8150834 1.5319836 4.30355 1.7327889
2.8538373 1.0292763 1.1093513 1.8796123 1.7337525 2.0423584 2.8835247 1.9927992
1.0211966 2.1432464 1.3219268 3.5881126 2.5358531 4.104777 1.7223164 2.0932565
1.6870767 1.6958321 1.494595 1.2721822 1.5311841 2.0990973 1.2588251 1.1633044
1.4370924 3.561852 1.230491 4.069819 1.268018 1.8564647 3.6874774 2.6365516
2.3049815 1.7418349 1.415048 1.8982817 1.3871014 1.7355908 1.7330904 1.2989205
3.197805 1.0002742 3.1250658 1.9249351 1.4794792 3.9654198 1.6511756 3.5799553
1.5034233 2.8951197 2.24488 1.2926401 3.0908458 1.0108963 2.7475758 4.3258305
2.6718545 1.8384247 1.7054607 1.3995191 0.88239366 1.2894061 1.2063525 1.1953627
00000000: 550d d03f 4412 c13f 04f6 963f 789d cf3f
00000010: 3225 c43f 4c37 8640 151c c43f 8c71 dd3f
00000020: f529 8440 fd0e fc3f 4091 e33f 109f c53f
00000030: 5394 b43f 1a35 fa3f 2798 c63f 4f6d 1040
00000040: 2e7e 923f e0e4 493f 5950 e53f 76af 0e40
00000050: ef5e 913f 8f92 be3f 2f65 7240 4688 d13f
00000060: 6aa9 5040 3843 5240 5af5 0440 f44d 0240
00000070: 4417 ea3f ca4a 1040 323a ae3f 8fbf 0240
00000080: ea30 0040 4ea3 f93f 43a0 4e3f c159 cb3f
00000090: a862 9240 54c2 613f cc1f 943f 59b5 0240
000000a0: a91c 0640 d1fe b43f bdcc 2840 349b c53f
000000b0: 68ca 7740 253b 2c40 ff87 1740 75d7 5c40
000000c0: adc5 883f d4b3 0a40 e786 6840 2d48 2440
000000d0: 5930 c83f 3e46 943f 9cd8 c03f 95bf a83f
000000e0: 4521 b93f 3b4b f33f f9f7 2140 ac46 793f
000000f0: 4ea9 503f 0a18 c43f aeb6 8940 07cc dd3f
00000100: 45a5 3640 53bf 833f 39ff 8d3f 2397 f03f
00000110: 9aeb dd3f 00b6 0240 ab8b 3840 0b14 ff3f
00000120: 92b6 823f f32a 0940 e634 a93f a3a3 6540
00000130: 6b4b 2240 555a 8340 dd74 dc3f eaf7 0540
00000140: 21f2 d73f 0711 d93f e44e bf3f ded6 a23f
00000150: d7fd c33f 9c57 0640 2e21 a13f 29e7 943f
00000160: a5f2 b73f 62f5 6340 bb80 9d3f f53b 8240
00000170: 6a4e a23f a3a0 ed3f a1ff 6b40 43bd 2840
00000180: d184 1340 72f4 de3f 4b20 b53f e5fa f23f
00000190: 8a8c b13f d727 de3f e8d5 dd3f 0743 a63f
000001a0: d6a8 4c40 fc08 803f 1401 4840 4664 f63f
000001b0: 935f bd3f 70c9 7d40 b959 d33f fd1d 6540
000001c0: 2d70 c03f a449 3940 1dac 0f40 3b75 a53f
000001d0: 6bd0 4540 0d65 813f 48d8 2f40 346d 8a40
000001e0: aaff 2a40 8051 eb3f 894c da3f 7123 b33f
000001f0: 8de4 613f 420b a53f c269 9a3f a501 993f
