saved_models/directed_ogb-arxiv_GAT_s9.pt (torch, 311585 bytes, 41 tensors)

bns.0.weight f4 [128]
1.0637741 0.97632885 1.0633299 0.9920217 0.9495628 1.020758 1.0026935 0.9207712
1.024147 0.98030406 0.9859367 1.0784656 1.0052521 0.9569998 0.9046083 1.0148299
1.0387459 1.0537848 1.0727724 0.9477579 0.9465235 0.96190965 1.0698218 0.9505933
1.040986 1.1505766 1.0817046 0.97552884 1.0239419 1.1071724 1.0997257 0.9426293
0.9262856 1.0216012 0.98052776 1.0294434 1.1135002 0.9899003 1.0388473 0.9508613
0.94584787 1.0006565 1.013255 0.9967706 0.9646446 1.0453062 0.9421265 0.9750055
1.0573909 0.9438502 0.92929167 0.9907062 0.9902258 1.0178874 1.0642335 1.0110002
0.95972353 0.9705049 1.070953 1.0348164 0.9869124 1.0729425 0.93736553 1.0096722
0.9547437 1.0146741 0.9324326 0.9721367 0.9785738 1.000165 1.0165131 1.0430106
1.0521951 0.9896865 1.0428283 1.0616559 1.0045352 0.9703066 1.0309067 1.083566
0.96092826 1.0164915 1.025476 1.036532 0.987999 0.9852251 0.9103991 0.9663351
1.0582966 0.97610664 1.0054394 1.0820326 0.92635906 0.988838 1.0802621 1.0188842
1.1498966 0.9303605 0.87479866 0.94342047 0.9535525 0.9248898 1.0348215 0.9556476
1.111943 0.9313495 1.1774961 1.0496279 1.0223777 1.0318595 1.0733196 0.915475
0.9655735 0.9812611 1.0105519 1.0403466 1.1081507 1.0650321 0.9409653 1.0457852
0.97700536 1.029967 1.0696754 0.95377 1.099764 1.0237105 1.06393 1.1436546
00000000: c029 883f b0f0 793f 321b 883f 22f5 7d3f
00000010: 8c16 733f 33a8 823f 4358 803f a9b7 6b3f
00000020: 4017 833f 35f5 7a3f 5966 7c3f 290b 8a3f
00000030: 1aac 803f f0fd 743f 6994 673f f2e5 813f
00000040: a0f5 843f 6ce2 863f 9b50 893f 43a0 723f
00000050: 5d4f 723f b63f 763f ecef 883f 155a 733f
00000060: 073f 853f 1846 933f 4c75 8a3f 42bc 793f
00000070: 8710 833f d3b7 8d3f d0c3 8c3f 2750 713f
00000080: 0e21 6d3f d4c3 823f de03 7b3f cdc4 833f
00000090: 2d87 8e3f 1b6a 7d3f f3f8 843f a56b 733f
000000a0: 1623 723f 8315 803f 57b2 813f 5c2c 7f3f
000000b0: f3f2 763f 98cc 853f 342f 713f f699 793f
000000c0: 9658 873f 2ba0 713f 0fe6 6d3f ec9e 7d3f
000000d0: 707f 7d3f 224a 823f ce38 883f 7468 813f
000000e0: 71b0 753f 0273 783f fd14 893f dd74 843f
000000f0: 4ba6 7c3f 2e56 893f 30f7 6f3f f03c 813f
00000100: 156a 743f d7e0 813f e7b3 6e3f f3dd 783f
00000110: d083 7a3f 6805 803f 1a1d 823f 5f81 853f
00000120: 54ae 863f 185c 7d3f 667b 853f 57e4 873f
00000130: 9c94 803f 0366 783f c0f4 833f 4ab2 8a3f
00000140: 65ff 753f 651c 823f cc42 833f 15ad 843f
00000150: 81ed 7c3f b637 7c3f ea0f 693f bd61 773f
00000160: 4376 873f 20e2 793f 3db2 803f 0b80 8a3f
00000170: de25 6d3f 7d24 7d3f 0746 8a3f cc6a 823f
00000180: d02f 933f 1b2c 6e3f cef2 5f3f 0184 713f
00000190: 041c 743f 94c5 6c3f 0875 843f 52a5 743f
000001a0: 2654 8e3f ec6c 6e3f 31b8 963f 355a 863f
000001b0: 46dd 823f f913 843f 8962 893f 925c 6a3f
000001c0: d32f 773f ed33 7b3f c459 813f 142a 853f
000001d0: e2d7 8d3f f952 883f 1ae3 703f 4adc 853f
000001e0: 061d 7a3f f5d5 833f 20eb 883f 452a 743f
000001f0: 11c5 8c3f f208 833f dc2e 883f 4663 923f

bns.0.bias f4 [128]
0.05484253 -0.07208821 0.020530261 0.061464336 -0.06487045 -0.12241956 -0.003335068 -0.10255645
0.033172324 0.066286564 -0.049193416 0.054619804 0.035499506 -0.08513624 -0.057030085 0.014899677
0.078727916 0.050761033 0.048683345 -0.17228371 0.00761846 -0.048138347 -0.0012296924 -0.079939224
-0.010294096 -0.060455374 -0.034246974 -0.042512365 -0.073894136 -0.14180775 0.05275959 0.061008107
-0.061721016 -0.06598324 -0.031078797 0.04206152 -0.093044065 -0.10972396 0.080379635 -0.027164118
-0.011001491 0.03704632 -0.063580565 -0.12598452 -0.07539992 -0.005250388 -0.08206733 0.030515144
0.061360523 -0.17340218 -0.03261576 0.091714166 -0.1023288 -0.016613744 0.13159232 0.017449554
-0.05556095 0.07838722 0.013946074 0.054225605 -0.056080528 0.055379 0.0104177 0.08092494
-0.0502047 0.011862243 -0.12422961 -0.077488795 -0.12154331 -0.028633421 0.05015817 0.0030796744
-0.017234009 -0.06702288 -0.02791371 0.056503024 0.06702961 -0.05678381 -0.06569004 0.101214714
0.029515157 0.049227748 0.047700312 -0.07803381 -0.07593381 0.034539282 -0.15220784 -0.017888546
0.046990927 0.052095424 0.022960225 0.05598939 -0.083076395 -0.053718913 0.03743842 -0.012186503
0.18250148 -0.034633495 0.059700623 -0.089425236 -0.05464489 -0.04503493 -0.02742057 -0.048299614
-0.028128855 -0.06368791 0.10448192 0.08707139 0.025629288 -0.046665188 0.06919486 -0.09554598
-0.06712005 0.049013693 -0.03473061 0.09149484 0.004581402 -0.04080319 -0.087979205 -0.021863496
-0.22231768 0.025592307 -0.05003622 -0.049698908 0.030203512 0.081072494 0.01972373 0.028471712
00000000: 90a2 603d fca2 93bd 142f a83c 07c2 7b3d
00000010: ccda 84bd 1bb7 fabd 2891 5abb 1e09 d2bd
00000020: b4df 073d 40c1 873d 097f 49bd 04b9 5f3d
00000030: ee67 113d e95b aebd 6198 69bd c61d 743c
00000040: 1a3c a13d cdea 4f3d 3068 473d 246b 30be
00000050: 46a4 f93b b72c 45bd a12d a1ba 2db7 a3bd
00000060: 91a8 28bc 0ea0 77bd 8e46 0cbd 7221 2ebd
00000070: cf55 97bd 0d36 11be 711a 583d a3e3 793d
00000080: 2dcf 7cbd 3922 87bd f698 febc b348 2c3d
00000090: e38d bebd f5b6 e0bd 149e a43d 4987 debc
000000a0: 993f 34bc e2bd 173d 8736 82bd 1602 01be
000000b0: 466b 9abd 720b acbb eb12 a8bd e5fa f93c
000000c0: 2c55 7b3d 5790 31be 1a98 05bd a3d4 bb3d
000000d0: c391 d1bd 8c19 88bc 23c0 063e 5ef2 8e3c
000000e0: e193 63bd 7b89 a03d 137e 643c ab1b 5e3d
000000f0: b2b4 65bd 17d5 623d 00af 2a3c fabb a53d
00000100: 72a3 4dbd da59 423c 186c febd 72b2 9ebd
00000110: b3eb f8bd a390 eabc a772 4d3d 5dd4 493b
00000120: 562e 8dbc 4b43 89bd 4bab e4bc b76f 673d
00000130: d246 893d 2496 68bd 8088 86bd a949 cf3d
00000140: c5c9 f13c 09a3 493d 6761 433d 31d0 9fbd
00000150: 2f83 9bbd 1079 0d3d 5fdc 1bbe 008b 92bc
00000160: 8f79 403d 0362 553d 1517 bc3c 2155 653d
00000170: f523 aabd 5d08 5cbd 0759 193d e6a9 47bc
00000180: abe1 3a3e dadb 0dbd a488 743d 9424 b7bd
00000190: 52d3 5fbd 8c76 38bd 1aa1 e0bc d1d5 45bd
000001a0: 7c6e e6bc cf6e 82bd 9efa d53d 7c52 b23d
000001b0: 83f4 d13c ff23 3fbd 09b6 8d3d 9cad c3bd
000001c0: 3d76 89bd 95c2 483d af41 0ebd a661 bb3d
000001d0: 961f 963b 3f21 27bd 712e b4bd 131b b3bc
000001e0: 3fa7 63be f5a6 d13c c8f2 4cbd 1591 4bbd
000001f0: 5b6d f73c 5609 a63d a993 a13c 823d e93c

bns.0.running_mean f4 [128]
-0.26060912 0.19966598 -0.040034316 -0.044809368 -0.08638027 0.2348008 0.26887432 0.009930991
-0.03613404 0.15328293 -0.41844043 -0.012946486 -0.12736915 0.25822207 0.21507181 -0.23955077
0.20253877 -0.21701753 -0.3909402 0.37347525 0.16481842 0.26175362 -0.4820069 -0.0757538
-0.03513706 -0.38468304 0.20201294 0.261558 0.19044527 -0.18218462 -0.15390545 0.2386899
-0.1219079 -0.08653461 0.23637097 0.18210104 -0.40524244 -0.4053627 -0.33910745 -0.034288168
-0.22747661 -0.33377463 -0.12354511 0.16589531 0.006492616 0.22728969 -0.011740388 0.24589385
0.31005976 0.0010446382 0.37841037 0.3433909 0.11693862 0.3130379 -0.009512768 0.5082922
0.06555123 0.3262379 -0.11918945 0.07586467 0.21652456 -0.07428937 0.22983652 0.13842972
0.25061432 0.0056107785 -0.32453617 0.06327125 -0.1574284 0.04717209 0.012629185 0.20567432
-0.17332426 -0.34213346 -0.10593292 0.04148716 0.28323853 -0.03301376 0.1074317 0.11857066
0.042631418 0.24460898 -0.31987 0.10704437 -0.29859912 0.07554191 -0.3879731 -0.069335416
0.16490746 -0.05921945 -0.06739375 -0.089220144 -0.27048388 -0.18040062 -0.48313072 0.022939587
0.087273985 0.05352824 -0.16815875 0.44270673 -0.4371442 -0.17268401 -0.26627713 -0.19234167
0.013527204 0.103102885 -0.31442004 0.52384377 -0.04597535 0.091565564 0.37148118 -0.13249113
-0.02625479 -0.052913576 0.3362647 0.2635272 -0.20465949 -0.27053612 0.022288656 -0.45800173
-0.2864334 -0.03587709 -0.09967373 -0.08379192 0.0351765 0.22658388 -0.011295404 0.030625321
00000000: 8f6e 85be 3d75 4c3e 06fb 23bd 078a 37bd
00000010: 24e8 b0bd 9f6f 703e e5a9 893e 98b5 223c
00000020: 4a01 14bd 33f6 1c3e d33d d6be 7f1d 54bc
00000030: 0f6d 02be af35 843e c93b 5c3e cc4c 75be
00000040: 5366 4f3e d839 5ebe 5029 c8be 2638 bf3e
00000050: 29c6 283e 9204 863e 9cc9 f6be cf24 9bbd
00000060: e1eb 0fbd 2df5 c4be 7bdc 4e3e eeea 853e
00000070: 1604 433e 9b8e 3abe 6499 1dbe 206b 743e
00000080: d9aa f9bd 0f39 b1bd 3b0b 723e b278 3a3e
00000090: f07b cfbe b38b cfbe 7e9f adbe c071 0cbd
000000a0: a1ef 68be 82e4 aabe 3805 fdbd 76e0 293e
000000b0: 03c0 d43b a1be 683e c25a 40bc 99cb 7b3e
000000c0: 27c0 9e3e 3eec 883a 01bf c13e efd0 af3e
000000d0: 847d ef3d 8146 a03e 71db 1bbc 701f 023f
000000e0: b93f 863d a708 a73e 9919 f4bd f05e 9b3d
000000f0: 9db8 5d3e 0625 98bd 445a 6b3e 85c0 0d3e
00000100: 8550 803e 9fda b73b 9b29 a6be 5b94 813d
00000110: e934 21be 8537 413d a4ea 4e3c 4a9c 523e
00000120: ea7b 31be 1e2c afbe 5cf3 d8bd 71ee 293d
00000130: a404 913e 7039 07bd 2705 dc3d 2dd5 f23d
00000140: 489e 2e3d c77a 7a3e 00c6 a3be 143a db3d
00000150: fce1 98be b8b5 9a3d 69a4 c6be baff 8dbd
00000160: 80dd 283e 1890 72bd bc05 8abd 0db9 b6bd
00000170: dd7c 8abe f1ba 38be e95c f7be cdeb bb3c
00000180: b4bc b23d 6e40 5b3d cf31 2cbe 75aa e23e
00000190: 5dd1 dfbe 14d4 30be 7a55 88be 37f5 44be
000001a0: 35a1 5d3c 9b27 d33d aafb a0be a01a 063f
000001b0: a650 3cbd ba86 bb3d c832 be3e c1ab 07be
000001c0: 4914 d7bc e8bb 58bd e32a ac3e 0aed 863e
000001d0: 4292 51be b683 8abe b396 b63c 347f eabe
000001e0: 66a7 92be dbf3 12bd be21 ccbd 199b abbd
000001f0: 3c15 103d 9b05 683e 5c10 39bc f4e1 fa3c

bns.0.running_var f4 [128]
0.06590257 0.083482385 0.087195694 0.06254304 0.06013841 0.062388517 0.062423494 0.061740518
0.08246973 0.07426346 0.06637383 0.072147876 0.074993476 0.06440522 0.07240212 0.06293904
0.07318909 0.08396692 0.06404693 0.07213645 0.07014001 0.0636146 0.090142675 0.07529238
0.06965999 0.06075567 0.07775136 0.08214506 0.06654986 0.061540134 0.07086605 0.06877848
0.059717126 0.06944337 0.06958112 0.074257895 0.069097705 0.06824152 0.076090336 0.059578113
0.06067072 0.08991535 0.06942235 0.06821161 0.06753925 0.06815434 0.07295033 0.074184194
0.06896583 0.068409756 0.06460297 0.0595525 0.06263229 0.07925882 0.07370569 0.08618521
0.07102464 0.07638741 0.0656259 0.064040974 0.068728626 0.068484366 0.07430314 0.08216773
0.07293591 0.0649384 0.087112896 0.066363655 0.06323284 0.06579442 0.082779154 0.066794984
0.07221153 0.08827288 0.06808268 0.07000854 0.06368625 0.0821121 0.06694724 0.06538633
0.07460892 0.07516326 0.07944364 0.06999632 0.068650834 0.07123946 0.061647236 0.07234885
0.06684353 0.06345349 0.060393807 0.074600264 0.054832626 0.06642604 0.07931243 0.07839523
0.075444944 0.07474794 0.077434026 0.061196033 0.06920848 0.07180175 0.07414464 0.061536685
0.07675396 0.063122794 0.058530834 0.07403769 0.07199367 0.06835089 0.076533176 0.06621333
0.0642215 0.0675347 0.06775896 0.07216404 0.07509642 0.066648185 0.07498108 0.07152501
0.06742838 0.07322449 0.06316288 0.064029686 0.07717843 0.08584186 0.08007383 0.06796659
00000000: edf7 863d d0f8 aa3d a893 b23d 9116 803d
00000010: b253 763d 1a8b 7f3d c7af 7f3d a0e3 7c3d
00000020: e4e5 a83d 7117 983d 01ef 873d 44c2 933d
00000030: 2e96 993d e2e6 833d 9047 943d 2fe6 803d
00000040: 29e4 953d d9f6 ab3d 092b 833d 46bc 933d
00000050: 91a5 8f3d 5f48 823d b99c b83d e432 9a3d
00000060: e6a9 8e3d f0da 783d 1b3c 9f3d ab3b a83d
00000070: 4b4b 883d 8211 7c3d 3822 913d bbdb 8c3d
00000080: f299 743d 5338 8e3d 8c80 8e3d 8614 983d
00000090: 1983 8d3d 36c2 8b3d 40d5 9b3d 2e08 743d
000000a0: dc81 783d 8a25 b83d 4e2d 8e3d 87b2 8b3d
000000b0: 0552 8a3d 8194 8b3d fc66 953d e2ed 973d
000000c0: f53d 8d3d 6a1a 8c3d 904e 843d 52ed 733d
000000d0: 5c45 803d 7352 a23d 02f3 963d df81 b03d
000000e0: 5e75 913d 0171 9c3d df66 863d ea27 833d
000000f0: 98c1 8c3d 8841 8c3d 3f2c 983d 8e47 a83d
00000100: 6c5f 953d 6dfe 843d 3f68 b23d abe9 873d
00000110: 3880 813d 3abf 863d 1e88 a93d cfcb 883d
00000120: a3e3 933d 69c8 b43d ef6e 8b3d a360 8f3d
00000130: f06d 823d 642a a83d a21b 893d 45e9 853d
00000140: 90cc 983d 32ef 993d 59b3 a23d 3b5a 8f3d
00000150: cf98 8c3d fee5 913d d081 7c3d a22b 943d
00000160: 43e5 883d e7f3 813d 7f5f 773d 06c8 983d
00000170: 2d98 603d 600a 883d 8e6e a23d ae8d a03d
00000180: e182 9a3d 7315 993d bb95 9e3d b1a8 7a3d
00000190: 2dbd 8d3d cc0c 933d 25d9 973d e40d 7c3d
000001a0: 2e31 9d3d 8646 813d 07be 6f3d 13a1 973d
000001b0: 6b71 933d 8dfb 8b3d 6dbd 9c3d db9a 873d
000001c0: 9086 833d a24f 8a3d 36c5 8a3d bdca 933d
000001d0: 27cc 993d d87e 883d ae8f 993d b47b 923d
000001e0: e417 8a3d b9f6 953d 8a5b 813d ff21 833d
000001f0: ba0f 9e3d dbcd af3d c0fd a33d 1132 8b3d

bns.1.weight f4 [128]
1.073615 0.96193415 1.1115826 0.9788828 0.94968206 1.0384014 1.1094184 0.8939449
1.0102049 1.0247048 1.0182011 0.90674627 0.95936996 1.0923837 1.0515524 0.91794026
1.0068829 1.0482465 1.0419822 0.9689013 0.94772357 1.0487984 1.0403655 1.0905482
1.007505 1.0738832 0.9489788 1.023044 0.95260626 0.92197883 1.0397404 0.99120075
1.0476907 1.1142613 0.9794703 1.0442036 0.9359553 0.9716066 1.0568097 1.0489175
0.89566684 0.9916881 0.9999476 1.0449268 0.95811456 1.0511502 1.1399121 1.1544815
0.95570695 1.064332 0.9404927 0.96231616 0.9416152 0.9601821 1.0291107 0.98730993
0.9544541 0.9405604 1.1317225 0.9878793 1.0902885 1.0911932 0.9623331 1.0427358
1.0864512 1.0295582 1.0555019 0.95796883 1.0123409 1.0360868 0.94715357 1.0518937
0.9184867 1.0457733 1.0605556 1.0650189 1.0146666 0.9613901 1.0897058 1.0901939
1.0858608 0.97694814 0.9162979 0.94261277 1.0710547 0.91493154 1.0815452 1.0628141
0.9756806 0.9152162 1.1331463 1.0252639 1.018493 1.0736705 1.0078173 0.98462576
1.0309813 1.0546663 1.0223408 1.0548009 1.0382906 0.97531724 0.9633217 1.0506992
1.0430967 1.0185602 0.92556345 0.9580876 0.87219715 0.93884397 0.9548733 1.0591698
1.0118471 0.94906765 1.0210104 1.0497018 1.0104262 0.98057306 1.0724388 0.9440345
0.9909829 1.0067655 1.0422206 0.9506526 1.0770752 1.0029331 1.0456313 1.080621
00000000: 376c 893f 5141 763f 5748 8e3f 1098 7a3f
00000010: 5d1e 733f 56ea 843f 6c01 8e3f 93d9 643f
00000020: 654e 813f 8729 833f 6a54 823f 8620 683f
00000030: 4599 753f 3bd3 8b3f 4599 863f 22fe 6a3f
00000040: 8ae1 803f f12c 863f ac5f 853f ea09 783f
00000050: 039e 723f 073f 863f b22a 853f 1597 8b3f
00000060: edf5 803f 0175 893f 46f0 723f 1bf3 823f
00000070: 01de 733f ce06 6c3f 3716 853f 55bf 7d3f
00000080: bb1a 863f 1da0 8e3f 91be 7a3f 77a8 853f
00000090: c49a 6f3f 36bb 783f 8a45 873f ee42 863f
000000a0: 6c4a 653f 45df 7d3f 91fc 7f3f 29c0 853f
000000b0: ff46 753f 178c 863f a4e8 913f 0dc6 933f
000000c0: 36a9 743f 083c 883f 21c4 703f 5a5a 763f
000000d0: b20d 713f 7ece 753f e6b9 833f 58c0 7c3f
000000e0: 1b57 743f 91c8 703f 48dc 903f a8e5 7c3f
000000f0: 938e 8b3f 38ac 8b3f 765b 763f 5e78 853f
00000100: d510 8b3f 90c8 833f b01a 873f 723d 753f
00000110: 6394 813f 7e9e 843f a878 723f 74a4 863f
00000120: f221 6b3f e6db 853f 49c0 873f 8a52 883f
00000130: 98e0 813f a91d 763f 7b7b 8b3f 798b 8b3f
00000140: 7dfd 8a3f 4619 7a3f 8092 6a3f 124f 713f
00000150: 5218 893f f438 6a3f 1370 8a3f 4b0a 883f
00000160: 34c6 793f 9c4b 6a3f f00a 913f d93b 833f
00000170: fb5d 823f 096e 893f 2800 813f 6f10 7c3f
00000180: 32f7 833f 4eff 863f 10dc 823f b703 873f
00000190: b5e6 843f 64ae 793f 409c 763f 507d 863f
000001a0: 3184 853f 2e60 823f baf1 6c3f 3b45 753f
000001b0: 5048 5f3f 1458 703f 9472 743f e092 873f
000001c0: 3584 813f 19f6 723f 78b0 823f a15c 863f
000001d0: a555 813f d606 7b3f ad45 893f 3fac 713f
000001e0: 0eb1 7d3f b1dd 803f 7c67 853f f85d 733f
000001f0: 9add 893f 1d60 803f 3fd7 853f ca51 8a3f

bns.1.bias f4 [128]
0.044870574 -0.10452738 0.051117063 -0.0118067 -0.034826253 -0.090756215 -0.105800934 -0.023396539
-0.15242228 -0.06839168 -0.055640996 0.04584664 -0.10609296 -0.11758577 0.0540467 0.012797812
0.064961605 -0.00019163893 0.014694614 -0.0074676895 -0.00033799012 0.016623298 0.03257041 0.04023931
-0.043214068 -0.002479577 -0.06321441 0.048336636 -0.030960286 -0.07236063 0.03247713 -0.09732913
-0.010725545 -0.020878563 -0.04848087 -0.06792515 -0.05278152 -0.029525323 0.05984597 0.019952685
-0.097463295 -0.010796164 -0.05762909 0.043687545 -0.072211534 0.08713975 -0.116205275 0.0004656112
-0.13213794 0.061003435 -0.088495925 -0.0644962 -0.065315895 0.036832538 0.04789521 -0.04484817
0.00299314 -0.08971722 -0.0032601287 -0.060903125 0.07780591 -0.006623645 -0.05915653 -0.014666763
-0.024760893 0.013153571 -0.006202417 -0.06912366 -0.022945974 -0.013054149 0.002318472 0.07999182
-0.025783986 0.038004585 -0.015339284 0.0807713 -0.1282977 -0.03468926 0.0013832857 0.05001674
-0.08296796 -0.014201386 -0.060247146 -0.067925364 0.044556614 -0.0041205995 -0.072205834 0.016593141
-0.0861676 -0.02295935 0.03140078 -0.039106037 -0.042006545 -0.029747084 -0.071010895 -0.020435844
-0.15579611 -0.0011048926 -0.028479908 -0.009635547 0.02348197 -0.15074438 0.06535483 0.05841593
0.001523488 0.022506962 -0.11303759 -0.06009704 -0.12344043 -0.08601665 -0.0029775617 0.06364287
0.034759443 -0.06373606 -0.045043297 0.03485437 -0.04888044 -0.035675727 0.05164566 -0.048584487
0.015420151 -0.08354998 0.078020684 -0.0509751 0.033458766 0.036817096 0.04436567 0.018903574
00000000: 35ca 373d 7312 d6bd 2060 513d e470 41bc
00000010: f9a5 0ebd 65de b9bd 29ae d8bd 19aa bfbc
00000020: 9614 1cbe f010 8cbd d0e7 63bd b0c9 3b3d
00000030: 4447 d9bd cfd0 f0bd 1360 5d3d eaad 513c
00000040: 970a 853d aff2 48b9 aec1 703c 85b3 f4bb
00000050: 4434 b1b9 952d 883c 8d68 053d fad1 243d
00000060: 3c01 31bd 6680 22bb 8e76 81bd a3fc 453d
00000070: 6da0 fdbc cf31 94bd bd06 053d 7f54 c7bd
00000080: 32ba 2fbc 8509 abbc e093 46bd 571c 8bbd
00000090: 6f31 58bd 17df f1bc 0c21 753d d073 a33c
000000a0: d69a c7bd 65e2 30bc 7b0c 6cbd b6f1 323d
000000b0: a4e3 93bd 5376 b23d 08fd edbd 471d f439
000000c0: 2b4f 07be bdde 793d 5a3d b5bd 9516 84bd
000000d0: 57c4 85bd b7dd 163d c52d 443d b7b2 37bd
000000e0: 8e28 443b a9bd b7bd e2a7 55bb 8e75 79bd
000000f0: b458 9f3d 290b d9bb 1e4e 72bd dd4c 70bc
00000100: 5bd7 cabc 1382 573c a53d cbbb b590 8dbd
00000110: 32f9 bbbc 12e1 55bc 81f1 173b c0d2 a33d
00000120: f038 d3bc b2aa 1b3d 9f51 7bbc 6c6b a53d
00000130: 7960 03be 5316 0ebd 5e4f b53a 5ade 4c3d
00000140: 1beb a9bd eeac 68bc b6c5 76bd 741c 8bbd
00000150: ff80 363d 1806 87bb a7e0 93bd 57ee 873c
00000160: a378 b0bd 3f15 bcbc 1b9e 003d a72d 20bd
00000170: 0e0f 2cbd 28b0 f3bc 296e 91bd 1269 a7bc
00000180: 0489 1fbe 0bd2 90ba b24e e9bc 6ade 1dbc
00000190: 435d c03c bc5c 1abe c1d8 853d 8b45 6f3d
000001a0: c6af c73a 8560 b83c 4180 e7bd 5028 76bd
000001b0: 56ce fcbd 7f29 b0bd 3223 43bb 3157 823d
000001c0: eb5f 0e3d 0d88 82bd 527f 38bd 75c3 0e3d
000001d0: db36 48bd b620 12bd 668a 533d 8700 47bd
000001e0: cda4 7c3c 401c abbd 4fc9 9f3d 44cb 50bd
000001f0: 0f0c 093d 86cd 163d c7b8 353d abdb 9a3c

bns.1.running_mean f4 [128]
0.025049783 -0.4862517 -0.12429444 -0.13901046 -0.2659529 -0.059942864 -0.22392407 -0.26652727
-0.10572548 -0.10300896 0.053838555 0.108128 -0.14718111 -0.13469331 0.028736414 -0.092533484
-0.20917852 -0.1648476 -0.10332427 -0.034312442 0.06987552 0.2380959 0.29938683 0.3302617
-0.26858407 -0.21344276 -0.13009807 0.20430736 -0.09223592 -0.47330335 -0.14634386 0.02548807
-0.35352787 -0.08367468 -0.021685174 -0.29608995 -0.07384127 0.0070899366 -0.2753868 -0.14161597
0.14016454 -0.18203337 -0.11580936 0.35115483 -0.44006717 0.2757662 -0.104958154 -0.10449207
0.013232043 0.023047155 0.06797552 0.12356174 0.25583944 0.12262759 -0.14593191 0.29514173
-0.15730803 0.124243006 -0.2808827 0.11469543 -0.055265125 -0.05702091 -0.13759372 -0.46278185
-0.37323925 -0.20528625 -0.01152952 -0.46051693 -0.026238853 -0.1254422 -0.014414371 -0.060220767
0.17933616 -0.062061522 -0.036931716 -0.33807087 -0.02599127 -0.05369369 -0.14539352 -0.3834129
-0.15039513 0.20448181 -0.098336786 -0.033353187 0.008962416 -0.10101656 -0.22147039 -0.25195843
-0.121151246 -0.24081305 0.08186694 0.031912096 -0.19169337 -0.15222016 -0.18768075 -0.002151204
0.22495407 -0.2445821 0.09331782 0.008804723 0.14279947 0.07416442 -0.013819877 0.22134623
0.01193019 0.016065095 -0.045826092 0.08606974 -0.36137286 -0.09573088 0.1857816 0.023131046
-0.35974637 -0.2936053 0.3955342 0.1347731 -0.4164533 -0.14004645 -0.4291687 0.43391544
-0.0983723 -0.12110117 -0.39930767 0.25663182 -0.08015069 -0.050622072 -0.6517645 0.24992701
00000000: 3435 cd3c fcf5 f8be 158e febd c258 0ebe
00000010: fa2a 88be a686 75bd 5a4c 65be 4376 88be
00000020: 9a86 d8bd 5df6 d2bd d185 5c3d 3672 dd3d
00000030: a5b6 16be 0bed 09be a168 eb3c 3282 bdbd
00000040: e532 56be cfcd 28be ad9b d3bd 348b 0cbd
00000050: e61a 8f3d 69cf 733e 3b49 993e 1018 a93e
00000060: da83 89be bd90 5abe 6e38 05be f335 513e
00000070: 30e6 bcbd d154 f2be 2adb 15be 5bcc d03c
00000080: 9b01 b5be a15d abbd 1ba5 b1bc 1a99 97be
00000090: 173a 97bd b352 e83b 80ff 8cbe c703 11be
000000a0: 4b87 0f3e f566 3abe 752d edbd 91ca b33e
000000b0: 7c50 e1be 3a31 8d3e 4df4 d6bd f0ff d5bd
000000c0: 36cb 583c 63cd bc3c c036 8b3d f00d fd3d
000000d0: 63fd 823e 2d24 fb3d 2d6f 15be d11c 973e
000000e0: 5b15 21be 1e73 fe3d dbcf 8fbe 70e5 ea3d
000000f0: af5d 62bd c28e 69bd 5ee5 0cbe bef1 ecbe
00000100: 3719 bfbe 8f36 52be 50e6 3cbc e0c8 ebbe
00000110: ddf2 d6bc ec73 00be 412a 6cbc 0daa 76bd
00000120: e6a3 373e 3934 7ebd b645 17bd a017 adbe
00000130: a5eb d4bc eaed 5bbd 0ae2 14be b24e c4be
00000140: 2e01 1abe ae63 513e cc64 c9bd 5a9d 08bd
00000150: 19d7 123c c5e1 cebd 22c9 62be b200 81be
00000160: 251e f8bd b297 76be dba9 a73d 42b6 023d
00000170: 444b 44be 9adf 1bbe 622f 40be 37fb 0cbb
00000180: 5c5a 663e bb73 7abe 6a1d bf3d af41 103c
00000190: 063a 123e 84e3 973d c46c 62bc 96a8 623e
000001a0: d876 433c f29a 833c 24b4 3bbd 5545 b03d
000001b0: dd05 b9be 8d0e c4bd 883d 3e3e 527d bd3c
000001c0: ad30 b8be 6f53 96be 7583 ca3e f601 0a3e
000001d0: 5e39 d5be 5668 0fbe 00bc dbbe 2a2a de3e
000001e0: 6b77 c9bd e403 f8bd 0e72 ccbe 3f65 833e
000001f0: 0c26 a4bd 1759 4fbd 0ada 26bf deec 7f3e

bns.1.running_var f4 [128]
2.4518743 1.7174397 0.8900179 1.979324 2.232381 1.5144339 1.028492 2.1659362
0.909954 1.6302372 0.660399 2.627337 1.1902502 1.3533921 2.7822573 1.7159503
1.6555195 3.823715 2.4567032 1.6629884 1.0422457 0.93635356 1.7877842 1.667034
1.9467938 1.741283 2.1658394 1.8588619 1.2536029 2.0941296 3.2517786 1.0799644
2.4341025 1.6473299 7.0837564 1.0430199 2.8663762 1.1661142 0.975902 1.0913767
1.6095318 2.1240678 4.3559747 1.2981011 0.92852855 3.002536 1.1913007 1.1053854
1.1979028 0.85682434 1.8264135 1.1962168 0.7182482 1.5900259 1.623865 1.2367924
1.1490445 1.3312165 0.63979834 1.8801445 0.7824627 1.2860942 1.113901 0.6890878
0.9405747 2.3949785 1.5308336 1.2869658 1.7418385 2.4895935 5.710397 1.6052898
1.2597595 4.2647886 1.3826302 1.1711218 1.1118473 4.077008 1.4167492 1.0024565
1.1241963 1.4583693 2.673808 2.525965 1.680817 2.6114032 1.8754063 1.1062545
1.8882998 1.1858305 1.258631 1.7261777 0.9843174 1.4903368 1.1311227 1.9523605
2.652749 1.6569401 1.1777735 1.7005167 2.4500813 1.9239154 1.6673697 0.9882068
1.5525507 1.93807 2.0886185 0.86584526 1.4196283 0.7402204 2.3354886 1.3735466
1.6668885 1.9542136 4.449435 1.4715782 2.1474679 4.250469 1.0059781 2.076248
0.9541859 1.5434954 1.2842729 0.66428566 2.4340842 1.5216175 4.224645 3.2283385
00000000: 82eb 1c40 10d5 db3f 37d8 633f 7d5a fd3f
00000010: 55df 0e40 f8d8 c13f a0a5 833f b39e 0a40
00000020: bff2 683f 9dab d03f e90f 293f 4a26 2840
00000030: 1e5a 983f f43b ad3f 8110 3240 42a4 db3f
00000040: 10e8 d33f bfb7 7440 a03a 1d40 cedc d43f
00000050: 4f68 853f deb4 6f3f 1dd6 e43f 5f61 d53f
00000060: 8a30 f93f 5de2 de3f 1d9d 0a40 30ef ed3f
00000070: 0f76 a03f 3806 0640 241d 5040 463c 8a3f
00000080: 56c8 1b40 b5db d23f 22ae e240 ad81 853f
00000090: b572 3740 3b43 953f b7d4 793f 3bb2 8b3f
000000a0: 2305 ce3f baf0 0740 2564 8b40 2d28 a63f
000000b0: 0cb4 6d3f 8d29 4040 8b7c 983f 457d 8d3f
000000c0: e154 993f d758 5b3f ebc7 e93f a21d 993f
000000d0: 1ddf 373f f885 cb3f cfda cf3f 374f 9e3f
000000e0: e413 933f 4d65 aa3f d3c9 233f 93a8 f03f
000000f0: 7a4f 483f bc9e a43f 4f94 8e3f 0f68 303f
00000100: 81c9 703f 5447 1940 5bf2 c33f 4cbb a43f
00000110: 90f4 de3f 8055 1f40 92bb b640 237a cd3f
00000120: cd3f a13f 2679 8840 07fa b03f 52e7 953f
00000130: 0351 8e3f d976 8240 0a58 b53f 7f50 803f
00000140: aae5 8f3f d8ab ba3f ac1f 2b40 69a9 2140
00000150: 0325 d73f 3b21 2740 500d f03f bf99 8d3f
00000160: cfb3 f13f 4bc9 973f d21a a13f 64f3 dc3f
00000170: 3afc 7b3f 5bc3 be3f a1c8 903f f3e6 f93f
00000180: a4c6 2940 9d16 d43f 48c1 963f 88aa d93f
00000190: 22ce 1c40 dc42 f63f 5f6c d53f 1ffb 7c3f
000001a0: fbb9 c63f ae12 f83f edab 0540 09a8 5d3f
000001b0: 61b6 b53f 167f 3d3f a578 1540 60d0 af3f
000001c0: 9a5c d53f ac23 fa3f c661 8e40 ad5c bc3f
000001d0: 1d70 0940 d803 8840 e4c3 803f 3fe1 0440
000001e0: 8745 743f 4291 c53f 0e63 a43f a00e 2a3f
000001f0: 09c8 1b40 5dc4 c23f 4b30 8740 199d 4e40

bns.2.weight f4 [128]
1.0316901 1.0062627 0.9404493 0.9632698 1.0361688 0.9650742 0.95937264 1.0166746
0.93940765 1.0741527 0.9262771 1.0113871 0.99728703 0.9823038 0.9510456 0.96205866
0.99108225 1.0515723 0.9019014 1.0465666 0.9575461 1.0143209 0.96183723 1.0496911
0.9496378 0.9390841 0.924107 1.0558512 1.0698934 1.0580509 1.1114439 1.0496329
1.0557008 1.0241479 1.1380306 0.98404807 1.0799248 0.95080936 0.94535303 1.0087842
0.9606003 1.1132268 0.99021816 0.97762805 0.9653923 0.9753639 1.0649662 0.98243755
1.0208429 1.1230849 1.0738237 0.95451576 1.0384585 0.9515802 1.0093367 0.9903133
1.0623614 1.0267458 1.0555482 0.9811497 1.0370104 1.08898 1.0365705 0.9294541
1.1114902 1.0091355 0.9844149 1.0129246 0.9356651 1.0260527 0.97211385 0.99640363
1.0162417 1.0111923 0.9626403 0.94900286 0.96017426 1.0800759 1.011171 1.0700039
1.0304416 0.94376653 1.0338925 0.9423205 1.0228317 1.0642362 1.0150691 1.0546185
0.91399324 0.99350935 0.98904467 1.0629656 1.066692 1.0962851 0.98917633 1.0081846
0.9764132 1.0164096 1.0644041 1.0238426 1.0732272 1.1441486 1.0192568 0.9268083
1.0325128 1.1140884 1.0492446 0.9397113 1.0085104 1.0016937 1.0306904 1.0129242
1.0271589 0.94909024 1.0146995 1.032546 0.967915 1.0899386 1.0200231 1.0471617
1.0496047 1.0037514 0.94547635 0.97176456 0.95529413 1.0913887 0.9391647 1.0450745
00000000: 6c0e 843f 37cd 803f 49c1 703f da98 763f
00000010: 2ea1 843f 1a0f 773f 7299 753f 6522 823f
00000020: 057d 703f d67d 893f 7f20 6d3f 2275 813f
00000030: 344e 7f3f 4378 7b3f b977 733f 7a49 763f
00000040: 91b7 7d3f ec99 863f 03e3 663f e5f5 853f
00000050: be21 753f 44d5 813f f73a 763f 475c 863f
00000060: 761b 733f d167 703f 4792 6c3f 2226 873f
00000070: 44f2 883f 366e 873f cb43 8e3f 5f5a 863f
00000080: 3421 873f 4717 833f fdaa 913f 93ea 7b3f
00000090: fa3a 8a3f 3e68 733f a802 723f d71f 813f
000000a0: e7e9 753f 377e 8e3f f07e 7d3f d545 7a3f
000000b0: f323 773f 73b1 793f d050 883f 0781 7b3f
000000c0: fbaa 823f 3fc1 8f3f 0e73 893f 255b 743f
000000d0: 35ec 843f c39a 733f f231 813f 2c85 7d3f
000000e0: 75fb 873f 686c 833f 341c 873f a02c 7b3f
000000f0: c2bc 843f b263 8b3f 58ae 843f b4f0 6d3f
00000100: 5045 8e3f 5a2b 813f 9d02 7c3f 83a7 813f
00000110: bf87 6f3f b255 833f 74dc 783f 4f14 7f3f
00000120: 3514 823f c06e 813f 986f 763f daf1 723f
00000130: fbcd 753f ed3f 8a3f 0d6e 813f e3f5 883f
00000140: 83e5 833f af9a 713f 9756 843f eb3b 713f
00000150: 26ec 823f e438 883f c9ed 813f bdfd 863f
00000160: 76fb 693f a156 7e3f 0832 7d3f 420f 883f
00000170: 5d89 883f 1253 8c3f a93a 7d3f 310c 813f
00000180: 37f6 793f b619 823f 653e 883f 460d 833f
00000190: 825f 893f 7673 923f 0277 823f 4f43 6d3f
000001a0: 6129 843f 739a 8e3f a64d 863f eb90 703f
000001b0: de16 813f 8037 803f aaed 833f 80a7 813f
000001c0: f179 833f 94f7 723f ace1 813f 782a 843f
000001d0: 47c9 773f 1c83 8b3f 1e90 823f 6509 863f
000001e0: 7259 863f ed7a 803f bd0a 723f 90c5 783f
000001f0: 288e 743f a0b2 8b3f 196d 703f 00c5 853f

bns.2.bias f4 [128]
-0.063256346 0.07130926 0.11582 -0.11914887 -0.035419192 0.0065160976 -0.08731448 0.03724692
-0.06238946 0.03152448 -0.041591007 -0.06461781 0.05138463 0.038846154 -0.061884657 -0.08658264
-0.09224277 -0.026644913 -0.117543235 -0.01632872 -0.099552915 -0.031756114 -0.07561294 0.055612367
-0.005574774 -0.052162446 -0.035995666 0.05953024 0.023160063 0.041127823 -0.084049925 0.03702675
-0.0028287913 0.015187789 0.030714763 -0.064066574 0.02751686 -0.087604456 -0.018356076 0.03856381
-0.071287 0.07638731 0.0023034813 0.002316906 0.004744839 -0.07841531 -0.017665256 0.020802585
-0.0004169293 0.04616881 0.047504857 -0.06690021 -0.076073125 -0.027086997 0.0033040077 0.0061205886
0.07540514 0.07567779 -0.0195943 -0.065627076 0.016363205 -0.012701661 0.010461209 -0.043782737
0.06773732 0.028737918 -0.12646085 -0.07467379 -0.12396766 -0.028716112 -0.047891583 -0.09646768
0.061942082 0.023598172 -0.018425561 -0.005920121 0.0028842422 0.004131791 -0.06650342 -0.046196688
-0.06438888 -0.067609884 0.054612897 -0.02687397 0.020978594 -0.11151496 0.047591068 -0.031170249
-0.023363395 0.04276003 -0.12534125 -0.008058055 0.025379714 -0.027348844 -0.05763919 0.03354082
0.027094096 0.033043154 -0.11808634 0.022571236 0.017884135 0.09003173 0.017690007 -0.13504861
0.022843843 -0.04100256 0.06467727 -0.036868718 0.00041055598 0.010094526 0.08492676 -0.039018102
0.028223392 -0.032651227 -0.009537688 0.035217624 -0.06905719 -0.025576489 0.039236043 0.046275415
0.04282389 -0.011297124 -0.04637341 0.079660684 -0.030192953 0.023918917 -0.07625715 0.038583405
00000000: 8b8c 81bd 970a 923d 0933 ed3d 5304 f4bd
00000010: b713 11bd fd84 d53b efd1 b2bd 3a90 183d
00000020: 178c 7fbd d01f 013d 555b 2abd 5856 84bd
00000030: b178 523d 251d 1f3d c47a 7dbd 3d52 b1bd
00000040: c7e9 bcbd 6f46 dabc 82ba f0bd cfc3 85bc
00000050: 66e2 cbbd b312 02bd f5da 9abd cbc9 633d
00000060: 98ac b6bb 4aa8 55bd 3170 13bd fbd5 733d
00000070: 2cba bd3c a675 283d 5e22 acbd 5da9 173d
00000080: 3e63 39bb 34d6 783c 879d fb3c 5635 83bd
00000090: 0a6b e13c f769 b3bd 7b5f 96bc 16f5 1d3d
000000a0: ebfe 91bd f370 9c3d 01f6 163b 3bd7 173b
000000b0: 987a 9b3b 3598 a0bd bab6 90bc 2f6a aa3c
000000c0: 4e97 dab9 821b 3d3d 7494 423d fa02 89bd
000000d0: 3acc 9bbd 8de5 ddbc 0d88 583b 388f c83b
000000e0: 036e 9a3d f5fc 9a3d 3a84 a0bc 7d67 86bd
000000f0: 210c 863c a11a 50bc 7e65 2b3c 8755 33bd
00000100: ddb9 8a3d c86b eb3c f47e 01be 92ee 98bd
00000110: c2e2 fdbd 0d3e ebbc f729 44bd d990 c5bd
00000120: fbb6 7d3d f450 c13c 34f1 96bc 93fd c1bb
00000130: 8e05 3d3b fa63 873b f232 88bd bd38 3dbd
00000140: 51de 83bd 0d77 8abd c6b1 5f3d cd26 dcbc
00000150: 4ddb ab3c f561 e4bd daee 423d c058 ffbc
00000160: 9764 bfbc 2425 2f3d 7559 00be ef05 04bc
00000170: 1ee9 cf3c af0a e0bc 1217 6cbd 1962 093d
00000180: 70f4 dd3c 4258 073d 40d7 f1bd 50e7 b83c
00000190: c081 923c 8e62 b83d a2ea 903c 2f4a 0abe
000001a0: 0323 bb3c 4df2 27bd 8475 843d a703 17bd
000001b0: e43f d739 8363 253c 15ee ad3d 72d1 1fbd
000001c0: be34 e73c 4bbd 05bd f743 1cbc 5b40 103d
000001d0: db6d 8dbd c985 d1bc f9b5 203d 4a8b 3d3d
000001e0: 1a68 2f3d 9317 39bc 0bf2 3dbd 2425 a33d
000001f0: 3657 f7bc 9bf1 c33c b52c 9cbd a209 1e3d

bns.2.running_mean f4 [128]
-0.08788563 -0.41426054 0.077808574 -0.3872253 -0.107837304 0.16158415 0.3179606 -0.1907469
0.22572383 0.43560705 0.09845876 0.026369043 -0.40169078 -0.24594384 0.329449 -0.24385044
-0.09668529 0.07846135 -0.001670878 0.16823821 -0.3501711 0.18722932 -0.25715676 -0.086738095
-0.0055301427 0.2316035 0.12078303 0.15964912 0.13831353 -0.22340627 -0.0019268269 -0.37712532
0.22663133 -0.051602714 -0.25069702 0.076191835 0.120156914 -0.04455286 -0.29826602 -0.095480494
-0.20390914 -0.06746734 -0.19852006 -0.04612433 0.11525005 0.20466293 -0.23779029 -0.15147008
-0.035080522 -0.29107085 0.13674487 0.22665992 0.21109578 -0.18640019 -0.19076149 -0.16019854
0.04899809 -0.049418025 -0.095441416 -0.047484767 0.07892674 0.038024917 0.19666119 0.09855548
-0.24974081 0.09481407 0.1625929 -0.15823378 0.33945355 -0.107679576 -0.30102047 -0.019316392
0.23304817 -0.03338163 0.05386846 0.06425682 0.0038783834 0.14535974 -0.14135948 0.19355568
-0.13534842 -0.24539733 -0.34233442 0.06523188 0.34950992 -0.016170394 -0.2347721 0.19574778
0.07346233 -0.40768653 0.29549086 -0.021712773 0.08605399 -0.034268145 -0.23036322 0.09914064
0.013266389 -0.4688127 0.18373686 -0.01154676 -0.09045886 -0.1801365 -0.016662383 0.2888833
0.25787202 0.3329665 -0.4532098 -0.1498738 -0.08181215 -0.25329095 -0.07054558 0.22081615
0.17641343 0.08518098 0.19078618 -0.19549724 -0.028722137 0.37665987 -0.029308278 -0.39280984
-0.120295055 0.030442318 -0.44031718 -0.26374966 -0.046981215 0.19874129 -0.017645013 -0.41707134
00000000: 62fd b3bd f519 d4be 1a5a 9f3d 6542 c6be
00000010: ced9 dcbd 5176 253e bbcb a23e 2853 43be
00000020: 2624 673e e307 df3e bfa4 c93d e403 d83c
00000030: 6aaa cdbe b4d8 7bbe 8aad a83e eeb3 79be
00000040: f002 c6bd 58b0 a03d 5d01 dbba a346 2c3e
00000050: a049 b3be 0bb9 3f3e 0daa 83be bea3 b1bd
00000060: 3336 b5bb 7829 6d3e 185d f73d 0f7b 233e
00000070: 10a2 0d3e 9dc4 64be 958d fcba 9216 c1be
00000080: 0b12 683e 5e5d 53bd 5c5b 80be 770a 9c3d
00000090: d414 f63d 0f7d 36bd 53b6 98be 478b c3bd
000000a0: 8fcd 50be 512c 8abd d848 4bbe deec 3cbd
000000b0: 3808 ec3d 2993 513e 4c7f 73be f91a 1bbe
000000c0: 98b0 0fbd 3d07 95be d906 0c3e 8a19 683e
000000d0: 7e29 583e b1df 3ebe fb56 43be 160b 24be
000000e0: 39b2 483d 8e6a 4abd ca76 c3bd 637f 42bd
000000f0: 58a4 a13d 04c0 1b3d 8d61 493e 75d7 c93d
00000100: 0ebc 7fbe e12d c23d c17e 263e 0908 22be
00000110: dbcc ad3e 1c87 dcbd 5b1f 9abe 693d 9ebc
00000120: 2ea4 6e3e 2dbb 08bd 2da5 5c3d 1499 833d
00000130: 7a2c 7e3b 2fd9 143e 8ac0 10be 7633 463e
00000140: c798 0abe 7049 7bbe 7546 afbe 4b98 853d
00000150: f7f2 b23e c677 84bc 1968 70be 1b72 483e
00000160: 6b73 963d 4abc d0be 944a 973e fcde b1bc
00000170: 133d b03d c15c 0cbd 56e4 6bbe 3f0a cb3d
00000180: 455b 593c 3808 f0be 8425 3c3e 9f2e 3dbc
00000190: 7f42 b9bd b475 38be 8d7f 88bc 83e8 933e
000001a0: cd07 843e 967a aa3e 1d0b e8be 8478 19be
000001b0: 218d a7bd 5aaf 81be 337a 90bd a11d 623e
000001c0: b9a5 343e 5e73 ae3d 745d 433e 6e30 48be
000001d0: b04a ebbc 90d9 c03e ea17 f0bc 5f1e c9be
000001e0: 415d f6bd 2b62 f93c 4171 e1be 320a 87be
000001f0: 606f 40bd d682 4b3e 468c 90bc 608a d5be

bns.2.running_var f4 [128]
0.99957234 1.6263947 0.80271626 1.2091341 3.5646596 1.7240089 1.2118535 1.3413982
2.218285 1.1797974 1.7821048 3.075643 3.2953959 1.1087735 2.1649292 2.5362935
1.7138566 3.512975 1.5874029 2.319778 1.7655381 2.2680194 1.5777507 1.8897041
1.9058824 2.3483946 1.8385532 1.427437 0.8866154 1.0627468 1.6209508 1.6820681
2.237536 2.3855906 1.1967412 1.2398324 3.583879 1.1966563 1.284909 1.241568
1.7091806 0.9676111 1.2082685 2.2007353 1.4816664 1.8923247 2.0550084 1.3795167
1.0614868 0.7121324 1.7004412 2.076847 1.2178433 1.3234955 1.1507258 1.1675398
1.5855925 1.8569422 0.89717627 1.9367378 3.022165 1.6037247 0.9374486 1.9573247
0.64973056 1.2469795 1.6458689 1.3688668 1.3601817 1.0805247 1.1227639 1.4567641
1.3284798 3.1527321 1.185002 1.9214965 3.606272 1.1427231 1.1522555 2.28234
0.7095896 1.5898817 3.4891303 1.4601426 0.836997 1.7259307 3.3970928 1.2278609
1.0163226 1.318516 3.4842632 2.5829086 2.0495028 3.0730975 1.2859432 1.8091954
1.7041457 1.6444807 1.6350199 0.67460054 1.6929488 0.9094328 1.2871022 1.9533421
2.0781617 2.0477145 1.0628562 3.357583 1.0094852 2.5033326 1.2695012 1.2616085
1.1399864 2.2350745 1.5106096 2.4673398 2.0840266 1.819808 1.8310074 2.025284
1.2137115 1.6729542 2.3518684 1.5319487 1.803096 1.6305122 3.0149992 0.99028695
00000000: f9e3 7f3f b42d d03f d07e 4d3f e8c4 9a3f
00000010: 6223 6440 53ac dc3f 041e 9b3f f0b2 ab3f
00000020: 62f8 0d40 9a03 973f 031c e43f 56d7 4440
00000030: c4e7 5240 4aec 8d3f 338e 0a40 a252 2240
00000040: a75f db3f 95d4 6040 0530 cb3f 3e77 1440
00000050: 27fd e13f 3b27 1140 bcf3 c93f d3e1 f13f
00000060: f4f3 f33f 194c 1640 b655 eb3f 41b6 b63f
00000070: 3af9 623f 1608 883f 517b cf3f 024e d73f
00000080: ca33 0f40 84ad 1840 d12e 993f d4b2 9e3f
00000090: 465e 6540 092c 993f e677 a43f b3eb 9e3f
000000a0: 6ec6 da3f 5cb5 773f 8ba8 9a3f d9d8 0c40
000000b0: 3fa7 bd3f b237 f23f 4285 0340 0194 b03f
000000c0: cdde 873f 4f4e 363f 0fa8 d93f 10eb 0440
000000d0: 4ae2 9b3f 4d68 a93f fc4a 933f f271 953f
000000e0: b2f4 ca3f 48b0 ed3f 58ad 653f 06e7 f73f
000000f0: 276b 4140 da46 cd3f a2fc 6f3f 9e89 fa3f
00000100: be54 263f 069d 9f3f d5ab d23f 0737 af3f
00000110: 6f1a ae3f a24e 8a3f bab6 8f3f 3f77 ba3f
00000120: a00b aa3f 5dc6 4940 25ae 973f 99f3 f53f
00000130: 29cd 6640 c044 923f 1c7d 933f dc11 1240
00000140: aaa7 353f 3e81 cb3f e94d 5f40 f4e5 ba3f
00000150: 6f45 563f 4ceb dc3f f869 5940 8c2a 9d3f
00000160: dc16 823f 22c5 a83f 2bfe 5e40 604e 2540
00000170: 0e2b 0340 a1ad 4440 c999 a43f b793 e73f
00000180: 7221 da3f 587e d23f 5548 d13f 9fb2 2c3f
00000190: 8cb2 d83f 97d0 683f c4bf a43f 1d07 fa3f
000001a0: 9a00 0540 c10d 0340 ac0b 883f a4e2 5640
000001b0: d036 813f 9a36 2040 047f a23f 637c a13f
000001c0: 13eb 913f 760b 0f40 a85b c13f e5e8 1d40
000001d0: b160 0540 78ef e83f 735e ea3f 419e 0140
000001e0: e65a 9b3f 5d23 d63f 0385 1640 e516 c43f
000001f0: dacb e63f a0b4 d03f bff5 4040 7283 7d3f

bns.3.weight f4 [128]
0.8939911 0.92212373 0.9435843 1.1177014 1.0919113 0.93672585 0.99397177 0.9794849
1.0975014 1.0285043 0.94669664 1.0919853 0.9388503 1.0817059 1.0384988 1.0755816
1.094803 0.93883985 0.9331564 0.93748873 1.037448 1.1997397 0.94989336 1.135848
0.93746203 1.0916482 1.0604569 0.929546 1.0835283 0.95039904 0.9638802 0.9646382
1.0979356 0.9334453 0.9140431 0.98677576 0.97842646 1.003988 0.95619047 1.0993625
0.9365155 0.9624513 1.033278 1.044783 0.9703433 0.93925184 0.9231789 0.9472836
1.0571396 0.93609476 1.046671 0.94111156 0.9605212 0.9322993 1.0974181 1.0371659
1.0350399 0.96879184 1.038617 1.0394689 1.0754039 0.97651446 0.9264844 0.9146133
1.0639273 1.0312003 1.063213 0.9178625 0.980679 0.9725819 0.9293873 0.90075463
1.0422077 0.96929085 1.0808572 1.0400662 0.95464194 0.92794436 0.91932803 0.9897852
1.0173923 1.1263415 1.0377033 1.0663534 0.9141093 0.9147135 0.9441135 1.0933597
0.9368379 1.0824617 0.9285574 0.97995764 0.92818534 1.0662264 1.0500692 1.1303121
1.0792999 0.96389544 0.9905545 0.9651137 1.1432718 0.94565415 1.0432609 0.9734083
0.93996763 1.0513544 1.1592343 1.0724127 1.0895401 0.9287034 0.9636317 1.0490817
1.028578 0.9697078 0.9599888 1.0469413 0.9372068 1.0880202 0.93162984 1.0169603
0.95507836 0.9808014 1.1001943 1.1784899 1.0830666 1.0076709 0.99031985 1.129204
00000000: 9adc 643f 4d10 6c3f be8e 713f d710 8f3f
00000010: c0c3 8b3f 44cd 6f3f ef74 7e3f 86bf 7a3f
00000020: ed7a 8c3f 07a6 833f b65a 723f 2dc6 8b3f
00000030: 7e58 703f 5775 8a3f 87ed 843f a8ac 893f
00000040: 8122 8c3f cf57 703f 56e3 6e3f 43ff 6f3f
00000050: 19cb 843f 1291 993f 362c 733f 7863 913f
00000060: 83fd 6f3f 21bb 8b3f 0dbd 873f baf6 6d3f
00000070: 0eb1 8a3f 5a4d 733f dac0 763f 87f2 763f
00000080: 2789 8c3f 45f6 6e3f bbfe 693f 569d 7c3f
00000090: 287a 7a3f ae82 803f e6c8 743f e9b7 8c3f
000000a0: 7bbf 6f3f 3563 763f 7442 843f 73bb 853f
000000b0: 6b68 783f cf72 703f 7455 6c3f 2e81 723f
000000c0: 5a50 873f e8a3 6f3f 51f9 853f b0ec 703f
000000d0: b8e4 753f 2bab 6e3f 3278 8c3f dac1 843f
000000e0: 307c 843f be02 783f 67f1 843f 510d 853f
000000f0: d6a6 893f dafc 793f 152e 6d3f 1924 6a3f
00000100: c52e 883f 5ffe 833f 5d17 883f 09f9 6a3f
00000110: c70d 7b3f 21fb 783f 53ec 6d3f db97 663f
00000120: 1067 853f 7223 783f 8759 8a3f e420 853f
00000130: 6a63 743f c38d 6d3f 1559 6b3f 9062 7d3f
00000140: e939 823f f52b 903f 76d3 843f 457e 883f
00000150: 1103 6a3f aa2a 6a3f 6cb1 713f 36f3 8b3f
00000160: 9cd4 6f3f 1b8e 8a3f f0b5 6d3f 81de 7a3f
00000170: 8e9d 6d3f 1b7a 883f ab68 863f 11ae 903f
00000180: 8026 8a3f dac1 763f fb94 7d3f b111 773f
00000190: bb56 923f 6416 723f 9389 853f 4931 793f
000001a0: b8a1 703f c892 863f ca61 943f d244 893f
000001b0: 0d76 8b3f 82bf 6d3f 91b0 763f 4f48 863f
000001c0: 72a8 833f c53e 783f d3c1 753f 2c02 863f
000001d0: c9ec 6f3f 3f44 8b3f 4b7f 6e3f c12b 823f
000001e0: 0480 743f cd15 7b3f 2bd3 8c3f c2d8 963f
000001f0: eda1 8a3f 5cfb 803f 9a85 7d3f c289 903f

bns.3.bias f4 [128]
-0.11325017 -0.09306543 0.038484152 0.12479137 0.18212706 -0.0537595 -0.02689715 0.11116023
0.19546658 0.15209232 -0.042946476 0.13500702 -0.076800115 0.12270618 0.1119345 0.07798766
0.06468017 -0.08336888 -0.04583304 -0.07254363 0.043797962 0.15576595 -0.06871592 0.14165486
-0.06933999 0.11856451 0.122940116 -0.037883367 0.12024467 -0.100294456 0.10517104 0.08275651
0.110110275 -0.070520274 -0.07704219 0.08816265 -0.021159936 0.19157937 -0.08793582 0.15267631
-0.02086544 -0.027859267 0.040719282 0.09697714 0.13438338 0.008412665 -0.046606187 -0.02340075
0.19676185 0.011652686 0.029267816 -0.07544769 -0.057405308 -0.11649099 0.13532616 0.08009852
0.073941104 0.10006611 0.11155381 0.15057205 0.016386487 -0.037142593 -0.074387364 -0.09498233
0.10539869 0.12996326 0.12195787 -0.09587805 -0.03124054 0.009814936 -0.091096416 -0.09388837
0.058884677 -0.026128853 0.17718728 0.058766484 0.018858345 -0.049493425 -0.075954646 -0.03556633
0.11588308 0.099079095 0.11430094 0.14079884 -0.09843379 -0.101340644 -0.04606106 0.12976459
-0.09499735 0.17154925 -0.03499471 -0.0296907 -0.042231575 0.060270585 0.16724914 0.13716018
0.1266779 -0.0828513 -0.07482147 -0.056204643 0.14738344 -0.07684565 0.027402276 -0.047340147
-0.12984599 0.14769137 0.13306072 0.12730053 0.09252521 -0.06449977 0.11545172 0.12908557
0.08616057 -0.08053022 -0.12051701 0.07552651 -0.10924938 0.13723375 -0.08829106 0.13360523
-0.06198432 -0.06260628 0.15599716 0.14219277 0.13568904 -0.018285755 0.07983983 0.11896905
00000000: b5ef e7bd 1799 bebd 8fa1 1d3d 9e92 ff3d
00000010: 847f 3a3e ec32 5cbd 6957 dcbc faa7 e33d
00000020: 6428 483e 17be 1b3e a5e8 2fbd 483f 0a3e
00000030: 6149 9dbd 614d fb3d ea3d e53d ffb7 9f3d
00000040: 0977 843d 4ebd aabd 6dbb 3bbd c191 94bd
00000050: 7e65 333d 1c81 1f3e efba 8cbd f90d 113e
00000060: 2002 8ebd f3d1 f23d 07c8 fb3d 972b 1bbd
00000070: d642 f63d 2e67 cdbd ea63 d73d 3f7c a93d
00000080: 7f81 e13d ef6c 90bd 4cc8 9dbd 9f8e b43d
00000090: 9a57 adbc 622d 443e b217 b4bd 2e57 1c3e
000000a0: 00ee aabc 1e39 e4bc 43c9 263d f39b c63d
000000b0: cc9b 093e 46d5 093c 21e6 3ebd eeb2 bfbc
000000c0: f07b 493e e8ea 3e3c 0fc3 ef3c 5284 9abd
000000d0: d421 6bbd d492 eebd f192 0a3e b10a a43d
000000e0: 6f6e 973d 76ef cc3d 5376 e43d 8f2f 1a3e
000000f0: f43c 863c d522 18bd 6758 98bd 1986 c2bd
00000100: 45db d73d 1715 053e 0cc5 f93d b65b c4bd
00000110: 29ec ffbc d3ce 203c c290 babd 8c48 c0bd
00000120: 0f31 713d 2d0c d6bc 9570 353e 20b5 703d
00000130: d17c 9a3c 9eb9 4abd 1c8e 9bbd 00ae 11bd
00000140: 1c54 ed3d fbe9 ca3d 9c16 ea3d 922d 103e
00000150: a897 c9bd af8b cfbd 86aa 3cbd 02e1 043e
00000160: f88d c2bd 9baa 2f3e 9d56 0fbd e939 f3bc
00000170: 04fb 2cbd 4ade 763d 5c43 2b3e b873 0c3e
00000180: dab7 013e f1ad a9bd 003c 99bd d736 66bd
00000190: afeb 163e 4161 9dbd bd7a e03c bee7 41bd
000001a0: 59f6 04be 683c 173e 1241 083e 125b 023e
000001b0: db7d bd3d 7518 84bd f471 ec3d 022f 043e
000001c0: f474 b03d 07ed a4bd 9fd1 f6bd a5ad 9a3d
000001d0: 24be dfbd 0187 0c3e f1d1 b4bd cfcf 083e
000001e0: 45e3 7dbd b937 80bd b8bd 1f3e fb9a 113e
000001f0: 11f2 0a3e 02cc 95bc 1183 a33d 0ca6 f33d

bns.3.running_mean f4 [128]
-0.08841383 0.2846455 0.30050257 -0.21837981 -0.12532972 0.26623002 -0.032685388 -0.17402725
-0.014344368 -0.43084872 -0.18493411 -0.036021706 0.09234875 -0.38787913 -0.12517266 0.089701846
0.038980607 0.13164534 -0.1278171 -0.08104868 -0.0723604 -0.3081555 -0.06877399 0.004063585
0.3988914 -0.19654988 0.04989189 0.103421 -0.21560729 -0.09268583 -0.3720437 -0.05458472
0.30447832 0.009672391 -0.10693073 -0.2902648 -0.06244976 -0.0049459487 0.027668307 -0.11502963
-0.22007987 -0.15173477 -0.1190338 -0.09647003 0.06496414 -0.06889305 -0.13549672 -0.04077702
0.08366047 0.074696206 -0.30513757 -0.013553199 0.078196034 0.21407045 -0.19372335 0.29826227
0.100569546 -0.14018674 -0.20906788 -0.33664742 -0.1071403 -0.10042326 0.10652854 0.26984295
-0.08174049 -0.15886517 0.16401309 0.10892999 0.18111227 -0.18568292 -0.0008388228 -0.08305116
-0.17089666 0.12991437 -0.38171577 -0.053908993 0.11432489 -0.015153572 -0.22675219 -0.14518084
-0.10032005 0.09056013 0.17086865 -0.44029352 0.06611002 -0.33109918 -0.094526805 -0.03997752
-0.15787397 0.42348823 0.0019227441 -0.02783332 0.4507483 -0.2587742 -0.14952695 -0.30621332
-0.032067727 -0.25218457 -0.038778327 0.17167787 -0.42270294 0.19039975 -0.19764718 0.11909839
0.23815197 -0.36000052 -0.4502928 -0.42707667 -0.121286005 -0.1065009 -0.036709674 -0.10347707
-0.022345424 0.08953902 -0.1619315 -0.02084146 -0.085671455 0.17268643 -0.11316903 -0.51486725
-0.22903246 0.35663527 -0.2970486 -0.5353601 -0.07734473 0.41110137 0.00512684 -0.14307529
00000000: 4f12 b5bd 0ebd 913e 79db 993e f59e 5fbe
00000010: 6f56 00be 4d4f 883e 1de1 05bd 3334 32be
00000020: a404 6bbc 3498 dcbe 5e5f 3dbe 7f8b 13bd
00000030: 5721 bd3d 1898 c6be 432d 00be 9ab5 b73d
00000040: 21aa 1f3d 09ce 063e 7ce2 02be dafc a5bd
00000050: b031 94bd 8fc6 9dbe 61d9 8cbd d227 853b
00000060: 7e3b cc3e 5f44 49be 705b 4c3d 64ce d33d
00000070: 28c8 5cbe 12d2 bdbd 837c bebe 3a94 5fbd
00000080: 95e4 9b3e f378 1e3c 80fe dabd 969d 94be
00000090: 52cb 7fbd a011 a2bb a5a8 e23c a894 ebbd
000000a0: 9e5c 61be 5c60 1bbe fec7 f3bd 1492 c5bd
000000b0: eb0b 853d cd17 8dbd a7bf 0abe ce05 27bd
000000c0: 2e56 ab3d 53fa 983d fe3a 9cbe 3d0e 5ebc
000000d0: 3e25 a03d 4935 5b3e 6a5f 46be d5b5 983e
000000e0: 68f7 cd3d 1d8d 0fbe e415 56be 0d5d acbe
000000f0: 606c dbbd b6aa cdbd a32b da3d db28 8a3e
00000100: 8f67 a7bd 8dad 22be 0cf3 273e b016 df3d
00000110: 7f75 393e aa23 3ebe 72e4 5bba ba16 aabd
00000120: 89ff 2ebe 4608 053e 4070 c3be adcf 5cbd
00000130: 2b23 ea3d b046 78bc ba31 68be 49aa 14be
00000140: 9974 cdbd 9777 b93d 31f8 2e3e 276e e1be
00000150: b164 873d d585 a9be 4597 c1bd 78bf 23bd
00000160: b7a9 21be 73d3 d83e 9604 fc3a b402 e4bc
00000170: 7bc8 e63e 0d7e 84be 981d 19be fec7 9cbe
00000180: 7359 03bd 561e 81be 06d6 1ebd 53cc 2f3e
00000190: 856c d8be 27f8 423e 0664 4abe dbe9 f33d
000001a0: 1cde 733e fd51 b8be c78c e6be cba9 dabe
000001b0: cc64 f8bd 251d dabd e25c 16bd c9eb d3bd
000001c0: c00d b7bc 3c60 b73d 5fd1 25be b6bb aabc
000001d0: 8474 afbd b6d4 303e 2ac5 e7bd 57ce 03bf
000001e0: 7c87 6abe e698 b63e c116 98be 5c0d 09bf
000001f0: ea66 9ebd e17b d23e 0dff a73b 5482 12be

bns.3.running_var f4 [128]
3.0151923 1.6995187 1.3435284 1.9294391 1.0629938 5.914748 1.6421857 1.7524636
1.6649302 2.1418166 1.5381675 2.552196 1.1187171 4.0061855 1.7693167 0.8897901
2.2843583 1.3970683 0.97799563 1.4417305 1.2931671 1.217604 1.8379747 1.7936461
1.588392 1.9992107 2.9091697 3.4096382 1.1965833 1.8149121 2.046603 3.5160625
2.3118675 1.4531944 0.94711304 1.3093691 1.5381951 2.3435805 1.4008535 1.4044908
2.3172348 1.5280823 2.421576 2.7392993 2.4424906 3.11211 2.1610029 1.9764276
1.639165 2.6671584 2.7820227 1.7998463 1.8037032 2.2710433 3.1296413 1.3256457
2.232447 2.4603295 3.4324732 1.3381029 2.4210591 3.1052184 3.6051857 1.2159507
2.3808517 4.339132 2.098964 2.3827682 3.28748 2.1710443 1.8231283 2.4724693
2.6421144 1.7583376 1.656947 1.1249473 3.3838625 2.783747 1.3760475 1.1830465
1.8479673 1.8687059 1.5826008 3.320758 1.4806651 1.6783596 1.777646 2.569974
2.9844868 1.4550577 1.2111471 1.5831825 1.8959352 1.960123 0.94996905 1.7526442
2.62732 1.403103 2.1010451 2.1551526 1.5059175 2.0618465 1.2760576 1.2885556
1.6246217 1.3033799 1.1794456 1.16855 3.7992282 1.5500398 1.1631811 3.920506
1.9908235 2.3981037 1.3341033 3.5382113 2.842656 2.4562101 2.6031113 2.586273
4.015966 1.7452905 2.5192182 0.8509382 3.0915751 3.2252223 2.602403 2.2337575
00000000: e9f8 4040 d489 d93f bdf8 ab3f dcf7 f63f
00000010: 2e10 883f 9e45 bd40 2433 d23f ba50 e03f
00000020: 6f1c d53f 8613 0940 ace2 c43f 2e57 2340
00000030: 1f32 8f3f ac32 8040 f878 e23f 49c9 633f
00000040: ed32 1240 22d3 b23f ec5d 7a3f a08a b83f
00000050: 8086 a53f 73da 9b3f c142 eb3f 3296 e53f
00000060: 6e50 cb3f 23e6 ff3f d62f 3a40 8337 5a40
00000070: a429 993f 0a4f e83f 8bfb 0240 2b07 6140
00000080: a3f5 1340 4602 ba3f 0076 723f 6899 a73f
00000090: 94e3 c43f 39fd 1540 2b4f b33f 5bc6 b33f
000000a0: 934d 1440 3398 c33f 1afb 1a40 ae50 2f40
000000b0: c451 1c40 cf2c 4740 df4d 0a40 94fb fc3f
000000c0: 29d0 d13f b9b2 2a40 a90c 3240 5d61 e63f
000000d0: bfdf e63f c658 1140 0b4c 4840 c2ae a93f
000000e0: 69e0 0e40 0a76 1d40 a4ad 5b40 f546 ab3f
000000f0: a2f2 1a40 e6bb 4640 5dbb 6640 46a4 9b3f
00000100: e05f 1840 2bda 8a40 6d55 0640 467f 1840
00000110: 1366 5240 64f2 0a40 455c e93f f03c 1e40
00000120: 6718 2940 3511 e13f d716 d43f 46fe 8f3f
00000130: 3491 5840 e928 3240 5322 b03f 116e 973f
00000140: 318a ec3f c131 ef3f aa92 ca3f 4d87 5440
00000150: 6f86 bd3f 7dd4 d63f e789 e33f 747a 2440
00000160: d501 3f40 553f ba3f de06 9b3f b9a5 ca3f
00000170: 01ae f23f 4fe5 fa3f 2c31 733f a556 e03f
00000180: 0326 2840 e198 b33f 8677 0640 05ee 0940
00000190: e8c1 c03f 4bf5 0340 db55 a33f 64ef a43f
000001a0: 9bf3 cf3f 27d5 a63f 13f8 963f 0c93 953f
000001b0: 8e26 7340 b467 c63f 1ee3 943f 92e9 7a40
000001c0: 4ed3 fe3f 887a 1940 e6c3 aa3f 0e72 6240
000001d0: 13ee 3540 8c32 1d40 6099 2640 7f85 2540
000001e0: cb82 8040 ae65 df3f df3a 2140 16d7 593f
000001f0: 5edc 4540 0b6a 4e40 c58d 2640 e2f5 0e40
