saved_models/directed_twitch-e_GPR_s9.pt (torch, 408402 bytes, 5 tensors)

lin1.weight f4 [32, 3170]
0	0x3c46f7b9	0.012144023
1	0x3b9cce80	0.004785359
2	0xbe19276d	-0.14956446
3	0xbe74344c	-0.23848075
4	0xbdb9f24d	-0.09079418
5	0x3dd1a7fc	0.102371186
6	0xbe33fadb	-0.17576163
7	0xbe146048	-0.14489853
8	0xbdbd238e	-0.09235297
9	0xbe4f7dc7	-0.20262824
10	0xbbf29812	-0.007403382
11	0xbd29f2e1	-0.041491393
12	0x3d9353ec	0.07193741
13	0xbe015da7	-0.12633382
14	0xbe0b07e8	-0.13577235
15	0xbdb6735d	-0.089087225
16	0xbe62fa6f	-0.22165845
17	0x3ba88b7f	0.0051435824
18	0x3e65496a	0.22391286
19	0x3c3af8a0	0.011411816
20	0xbd866825	-0.06562833
21	0xbe1eb5aa	-0.15498987
22	0x3b992b23	0.0046743318
23	0xbc3bc226	-0.011459863
24	0x3e3d37ef	0.18478368
25	0x3e7dbfb1	0.24780156
26	0xbe5a3b42	-0.21311668
27	0xbda23999	-0.07921142
28	0x3e08da1f	0.13364457
29	0x3c5c2890	0.013437405
30	0xbb77e040	-0.0037822872
31	0xbe3acc08	-0.18241894
32	0x3c4c76f5	0.012479533
33	0xbe4acb2f	-0.19804071
34	0xbd89270d	-0.066969015
35	0x3e7a237b	0.24427597
36	0x3dd9f925	0.10643224
37	0x3c70f49d	0.014706758
38	0x39abd73c	0.00032776024
39	0xbe39ca51	-0.18143584
40	0x3e4f0dd5	0.2022012
41	0x3e5a7699	0.21334304
42	0xbe1b4643	-0.15163521
43	0x3e3b6e5d	0.18303819
44	0x3dc0ca10	0.0941354
45	0xbe116900	-0.1420021
46	0x3e511c6b	0.20420997
47	0x3b1e51de	0.0024157683
48	0xbd05e0bb	-0.032685023
49	0xbdf636cd	-0.12022171
50	0xbd0d0cd5	-0.034436066
51	0xbd178bd6	-0.036998592
52	0xbe5030ea	-0.20331159
53	0xbdf47ded	-0.11938081
54	0x3e090b2f	0.13383172
55	0xbe16cc57	-0.14726387
56	0x3e2def49	0.16985811
57	0xbe627cb4	-0.22117883
58	0xbd05e70e	-0.032691054
59	0x3e85edf8	0.26158118
60	0x3cdf4ea4	0.027259178
61	0x3e62f1ee	0.22162601
62	0xbe081ea6	-0.13292941
63	0xb8683df6	-5.5370816e-05
64	0xbe78c919	-0.24295463
65	0x3e6d60fb	0.23181526
66	0xbe843f6f	-0.25829646
67	0x3c811459	0.015756773
68	0x3e625364	0.22102123
69	0x3d4c9149	0.049943242
70	0x3d8b06b2	0.067883864
71	0x3df78258	0.12085408
72	0xbb9dd3ea	-0.004816522
73	0xbe3784da	-0.17921773
74	0x3e7384b5	0.23781092
75	0x3e8778d4	0.26459372
76	0xbc8366d0	-0.016040236
77	0xbe3d6408	-0.1849519
78	0xbe618bb1	-0.22025944
79	0xbe05e196	-0.13074335
80	0xbd034bd0	-0.032054722
81	0x3cfb5a0f	0.030682592
82	0x3e7926b1	0.24331166
83	0xbdbada91	-0.091237195
84	0xbc02fafa	-0.007994408
85	0x3c856909	0.016285436
86	0x3dd9ab49	0.10628373
87	0x3e80e9dc	0.2517842
88	0x3c8aeab9	0.016957628
89	0xbb15e864	-0.0022874111
90	0x3c252878	0.010080449
91	0x3ce2aad1	0.027669342
92	0x3e76bdc2	0.24095824
93	0xbc7950e6	-0.015217042
94	0xbe246c04	-0.1605683
95	0xbe447368	-0.19184649
96	0xbc5eb87d	-0.01359379
97	0x3c3a504b	0.011371682
98	0x3e80d76a	0.25164348
99	0x3e3acdfc	0.1824264
100	0x3e864f85	0.26232544
101	0xbde36b0a	-0.111044005
102	0x3e820775	0.25396314
103	0x3e45ca95	0.1931556
104	0x3dc81178	0.09768957
105	0xbe44d713	-0.1922267
106	0x3d91a5d1	0.07111705
107	0x3dbe6f88	0.09298617
108	0xbc02e9b3	-0.007990289
109	0xbdb19fcc	-0.08673057
110	0xbc4067f5	-0.011743535
111	0x3e12d461	0.14338829
112	0xbe394583	-0.18092923
113	0x3e5ee4c0	0.21766949
114	0x3c3f8a4a	0.0116906855
115	0xbcdde956	-0.027088802
116	0x3e7517d1	0.23934866
117	0xba9054d3	-0.0011011608
118	0xbc1e5a41	-0.009665073
119	0xbd02c3f3	-0.031925153
120	0x3e528c13	0.20561247
121	0x3e4ea378	0.20179546
122	0xbc3017c7	-0.010747856
123	0x3c5a0ab6	0.013308218
124	0x3d550416	0.05200585
125	0x3a6effda	0.00091171043
126	0xbe18f2c7	-0.14936362
127	0x3e722adc	0.23649162
128	0x3d19bddc	0.03753458
129	0x3e4f9acd	0.20273896
130	0xbac74229	-0.0015202212
131	0x3dacb0c9	0.084321566
132	0xbca8c7b2	-0.020603035
133	0xbe00db50	-0.12583661
134	0x3e3be7e1	0.18350174
135	0x3d92f08c	0.07174787
136	0x3c5a89d6	0.013338527
137	0x3dec9b2e	0.11553036
138	0x3c2dc1f5	0.010605325
139	0x3d0782fb	0.033083897
140	0xbbf1a5df	-0.0073745097
141	0x3c1e0326	0.009644305
142	0xbd8c393e	-0.068468556
143	0xbdcdf375	-0.10056201
144	0xbe0113a1	-0.12605144
145	0xbdde7e70	-0.1086396
146	0xbe42cf7a	-0.19024459
147	0xbe7cbb16	-0.24680743
148	0x3e61dbe9	0.22056545
149	0xbb4cf286	-0.0031272485
150	0x3e5bda31	0.21469952
151	0x3e81fa68	0.25386357
152	0xbd749e28	-0.059721142
153	0x3e73056e	0.2373254
154	0x3e70f818	0.2353214
155	0x3d8e3c14	0.06945053
156	0x3dbcab17	0.0921232
157	0xbd7cdbb8	-0.061732978
158	0x3e5c8728	0.21535933
159	0xbe1cd103	-0.15314107
160	0xbe12446e	-0.14283916
161	0xbe15cb8d	-0.1462843
162	0xbdad31c8	-0.08456761
163	0x3c3604e7	0.011109567
164	0xbc5f343c	-0.0136232935
165	0x3c7fc2b0	0.015610382
166	0x3d69d6bb	0.05708955
167	0xbd9fb8b1	-0.07798899
168	0x3e5b541e	0.21418807
169	0x3dbd18e9	0.09233267
170	0xbdde2ac2	-0.10847999
171	0x3e7add2f	0.24498437
172	0x3a07ef79	0.00051855255
173	0xbe010e8c	-0.12603205
174	0x3e47fcea	0.19530073
175	0xbdea492e	-0.11439739
176	0x3cfe5942	0.03104842
177	0x3e738dda	0.23784581
178	0x3e75fb93	0.24021749
179	0xbe426e52	-0.18987396
180	0xbc1de2c8	-0.009636588
181	0x3e0e9433	0.13923721
182	0xbe37718b	-0.17914407
183	0x3e023ffd	0.12719722
184	0x3d93ad43	0.072107814
185	0xbe05ff47	-0.13085662
186	0xbd722ec3	-0.059126627
187	0xbdf05caf	-0.11736428
188	0x3dd39a9f	0.10332226
189	0xbe30882c	-0.17239445
190	0xbe1368e1	-0.14395477
191	0xbc79b6a3	-0.015241298
192	0xbd87bc40	-0.06627703
193	0xbe26d8b3	-0.16293602
194	0xbb8ccdb4	-0.0042969827
195	0xbdc5b391	-0.0965339
196	0xbe7254c6	-0.23665151
197	0x3e2f9c84	0.1714955
198	0xbc8cdc84	-0.017194994
199	0xbbdaa2bc	-0.0066722315
200	0xbe3ee59f	-0.18642281
201	0x3e31888b	0.17337243
202	0x3c4ff469	0.012692549
203	0x3e611514	0.21980697
204	0xbb9e9952	-0.0048400545
205	0x3e64a2d0	0.22327733
206	0xbe3ddb46	-0.18540677
207	0x3dc0c5e3	0.09412744
208	0xbdd19613	-0.102337025
209	0xbc28d14e	-0.010303808
210	0xbde49528	-0.11161262
211	0x3e6134a0	0.21992731
212	0xbdb26d44	-0.08712247
213	0x3d89cb16	0.06728189
214	0xbbc3a7d9	-0.0059709367
215	0x3c8f9098	0.017525002
216	0xbd31594e	-0.04329806
217	0xbe50e262	-0.20398858
218	0xbe6e923d	-0.23297973
219	0x3e7ec9c9	0.24881662
220	0xbe2f9521	-0.17146732
221	0x3d888508	0.06665999
222	0x3d93e49a	0.07221337
223	0xbdfd4940	-0.12367487
224	0x3b8a5f1a	0.004222763
225	0x3e72c999	0.23709716
226	0x3c29c00f	0.010360732
227	0xbc585d16	-0.013205787
228	0xbe4fa46c	-0.20277566
229	0xbe5de132	-0.21667936
230	0xbe507f13	-0.20360975
231	0xbddeb4cc	-0.10874328
232	0xbe0c3339	-0.13691415
233	0xbe78a832	-0.24282911
234	0xbc82fe75	-0.015990475
235	0xbdb48c27	-0.088157944
236	0xbe1bd532	-0.15218046
237	0xbda45784	-0.08024505
238	0xbe283361	-0.1642585
239	0xbe74d69b	-0.2390999
240	0x3e804c47	0.25058195
241	0x3e6fae0a	0.23406234
242	0xbe199695	-0.14998849
243	0x3e31a2b1	0.17347218
244	0xbbb3a095	-0.0054817894
245	0x3df08abd	0.11745212
246	0x3e28e9c9	0.16495432
247	0xbe38e473	-0.18055896
248	0xbe2a4062	-0.16626123
249	0xbc1fb595	-0.009747882
250	0x3c4734c9	0.012158581
251	0xbd10a89b	-0.035317045
252	0xbb2b661e	-0.0026153396
253	0xbc3cc7f0	-0.011522278
254	0x3b878247	0.0041354033
255	0xbbf423cd	-0.007450557

lin1.bias f4 [32]
0	0x3a43835f	0.00074582355
1	0xbd46532e	-0.04841917
2	0xbd3f43ea	-0.046695627
3	0xbbb3a9e0	-0.005482897
4	0xbc415b4b	-0.011801551
5	0xbd2f970e	-0.042868666
6	0xbd48e24b	-0.049043935
7	0xbd29ef6a	-0.04148809
8	0xbc1b062e	-0.009461923
9	0xbd29116e	-0.041276388
10	0xbd3c7972	-0.046014257
11	0x3cf333ba	0.029687751
12	0xbd6fd8da	-0.058556415
13	0xbd5c032f	-0.053713974
14	0xbd5e1563	-0.054219615
15	0xbd5f611d	-0.054535974
16	0x3b1bedd6	0.0023792884
17	0x3d819fd1	0.06329311
18	0xbc32af91	-0.010906116
19	0xbd5ec1ae	-0.054383926
20	0xbb2298ee	-0.0024810391
21	0xbd5afa83	-0.053461563
22	0xbc41439a	-0.011795903
23	0xbc1d715e	-0.009609548
24	0xbd64a0a2	-0.055817254
25	0xbd01ffbc	-0.031738028
26	0x3d758c6e	0.059948377
27	0x3bebde8f	0.007198162
28	0xbb95c7d4	-0.0045709405
29	0xbc1043a7	-0.008805192
30	0x3c0a8da2	0.008456619
31	0xbd20cad6	-0.03925594

lin2.weight f4 [2, 32]
0	0xbe107547	-0.14107238
1	0x3c45eed3	0.012080866
2	0xbd0a92bb	-0.03383134
3	0xbe1a4407	-0.15065013
4	0xbe291188	-0.16510594
5	0x3dda6f82	0.106658
6	0xbcca1266	-0.024666976
7	0x3deba38a	0.11505802
8	0xbd8eac3e	-0.06966446
9	0x3ce65eef	0.02812144
10	0x3d13a3e1	0.03604496
11	0x3b7fb2c2	0.003901646
12	0x3d32a84d	0.043617535
13	0x3dca3448	0.09873253
14	0x3d904a6c	0.07045445
15	0x3e1e5b8e	0.15464613
16	0xbda7c403	-0.08191683
17	0x3d047f19	0.032347772
18	0xbe3a134f	-0.18171428
19	0x3da7416e	0.081667766
20	0xbe1ccfc1	-0.15313627
21	0x3e358a50	0.17728543
22	0xbdd1457f	-0.102183335
23	0xbe03e36c	-0.12879723
24	0x3cc611ac	0.024178348
25	0xb8506e45	-4.969376e-05
26	0xbcf9d444	-0.030496724
27	0xbdde9c3d	-0.10869644
28	0xbdd2294e	-0.102617845
29	0xbd0e0130	-0.0346691
30	0xbdcf6e11	-0.101284154
31	0x3b088e13	0.0020836636
32	0x3e5103fe	0.20411679
33	0xbe048fe0	-0.12945509
34	0x3e0bf27e	0.13666722
35	0x3e869f3a	0.26293355
36	0x3d91a4fe	0.07111548
37	0x3e5cb5c8	0.21553719
38	0x3e0d0469	0.13771214
39	0x3d98859d	0.0744736
40	0x3d04c0ef	0.03241056
41	0xbdf63fa0	-0.12023854
42	0x3daa5c24	0.08318356
43	0xbd42d88d	-0.0475698
44	0x3e6a9f55	0.22912343
45	0x3d45c7a9	0.048286114
46	0x3da0f824	0.07859829
47	0xbe43b98b	-0.19113748
48	0x3d11c969	0.03559247
49	0xbe6b849b	-0.22999804
50	0x3e147bfe	0.14500424
51	0xbc0f625c	-0.008751478
52	0x3e81dd05	0.25363937
53	0xbe4a6c01	-0.19767763
54	0x3e3932fe	0.18085858
55	0x3e5d40d1	0.21606757
56	0x3db7fc95	0.08983723
57	0x3c8f7b96	0.017514985
58	0xbe4736d3	-0.19454508
59	0x3e663f15	0.22485001
60	0x3d8196fc	0.06327626
61	0x3df346cd	0.118787386
62	0xbd533c7f	-0.051571365
63	0xbccf295c	-0.025288276

lin2.bias f4 [2]
0	0x3e041dcd	0.12901993
1	0x3d98f57f	0.074687

prop1.temp f8 [11]
0	0x3fd011277f41db90	0.25104701449839073
1	0x3fc765b5b6a2662f	0.18279143731779032
2	0x3fc016992aee2d24	0.12568964573106556
3	0x3fb2eb84644b6ced	0.0739062065944613
4	0x3fa159920e7f3f25	0.03388649394002944
5	0x3f76aa01d0fdfa1c	0.005533225150314649
6	0xbf8d3ef7c545bbdf	-0.014280257900024238
7	0xbf9d5177f20ad68e	-0.028631090305415934
8	0xbfa43cef4471ecbf	-0.03952739439497454
9	0xbfa8a6d24220e08e	-0.04814774567825096
10	0x3fd08c6ee3815576	0.25857135979943935
