saved_models/elliptic_GCN_s5.pt (torch, 46027 bytes, 26 tensors)

layers.0.bias f4 [32]
0	0x39f19d9f	0.0004608454
1	0x399d5169	0.0003000603
2	0x3a2076a2	0.00061211933
3	0x3a023397	0.0004966794
4	0xba1df4ef	-0.00060255727
5	0x3a57c596	0.0008231042
6	0xbbf81c8a	-0.0075717615
7	0xb806a1b5	-3.209869e-05
8	0xbb08c188	-0.0020867307
9	0xba9119f6	-0.0011070359
10	0x3a5a4b41	0.0008327254
11	0xba90499c	-0.0011008265
12	0x3b916b0c	0.00443781
13	0xb8e84b3a	-0.00011076634
14	0x39a3af4a	0.00031220383
15	0xba490bd2	-0.0007669303
16	0x3b2ee627	0.0026687474
17	0xb80624f5	-3.198251e-05
18	0x3af0dae4	0.0018375781
19	0xb9aefc24	-0.00033375726
20	0x39cd3e6b	0.00039147152
21	0xbbfdc121	-0.00774397
22	0xbabfc85f	-0.0014631859
23	0x3b9ca6ec	0.004780641
24	0x3b61e182	0.0034466689
25	0xbb00769a	-0.0019601942
26	0xbb1deb48	-0.0024096537
27	0x3a033c7a	0.0005006265
28	0x3a80b002	0.0009818079
29	0x3afd28b0	0.0019314494
30	0xba492267	-0.0007672668
31	0xba2eab15	-0.00066630665

layers.0.lin.weight f4 [32, 165]
0	0x3d9d52b0	0.07681787
1	0xbe106102	-0.14099506
2	0xbcb57718	-0.022151515
3	0xbe9fc4fc	-0.31204975
4	0x3e0140b5	0.1262234
5	0xbe5c456e	-0.2151086
6	0xbd978e11	-0.07400144
7	0x3c623691	0.013806955
8	0xbdd752a4	-0.10513809
9	0x3c895c6b	0.016767701
10	0xbdc5a8f7	-0.09651368
11	0xbed3617f	-0.4128532
12	0xbe76a803	-0.24087529
13	0x3e0d5e29	0.1380545
14	0x3e8955bb	0.2682322
15	0x3c019a80	0.007910371
16	0xbe2ce2d8	-0.16883409
17	0xbda2113d	-0.07913444
18	0xbc678982	-0.0141319055
19	0xbd5ee1c4	-0.054414526
20	0x3e7d8568	0.24757922
21	0xbdff2bae	-0.12459503
22	0x3e0986e4	0.13430363
23	0xbd2cff16	-0.042235456
24	0x3df74e63	0.12075498
25	0x3c77ca5e	0.015123932
26	0xbe025a57	-0.12729774
27	0x3d0db6e7	0.034598257
28	0xbd00f68d	-0.03148513
29	0xbe2d2a3f	-0.16910647
30	0xbe2e6b54	-0.1703313
31	0xbdfdb4ca	-0.123879984
32	0xbd8a7a02	-0.067615524
33	0xbd9d4cd5	-0.0768067
34	0xbd0e29ce	-0.034707837
35	0xbcdcbb49	-0.026944773
36	0xbc0f2f65	-0.008739327
37	0x3e5a0f52	0.21294907
38	0x3e9ebfbd	0.3100566
39	0xbcfe8071	-0.031067105
40	0x3e024a0c	0.12723559
41	0xbdc35ea2	-0.09539534
42	0x3e018785	0.12649353
43	0x3e258f86	0.16168031
44	0xbdf1220a	-0.117740706
45	0xba9453c3	-0.0011316467
46	0x3cecbd4e	0.028898861
47	0xbd4f1e82	-0.050566204
48	0x3c269ae1	0.010168762
49	0x3db7fb26	0.0898345
50	0x3dc7e53e	0.09760521
51	0xbe21984c	-0.15780753
52	0xbe236b03	-0.1595879
53	0x39f2799e	0.0004624845
54	0xbe758e70	-0.23980117
55	0xbe1646f5	-0.14675505
56	0x3ca876d5	0.020564476
57	0xbe542895	-0.20718606
58	0x3ddb2960	0.10701251
59	0x3e04ebd5	0.12980588
60	0xbda92c6c	-0.08260426
61	0xbd8c5572	-0.06852235
62	0xbb9edeea	-0.004848351
63	0xbd4c8dd7	-0.049939957
64	0xbe3aa7f0	-0.18228126
65	0x3966e098	0.00022018177
66	0xbd1bdaaf	-0.03805035
67	0xbde9da1b	-0.114185534
68	0xba274242	-0.00063804176
69	0x3d519715	0.051169474
70	0xbe59b651	-0.21260954
71	0xbd8b9175	-0.06814853
72	0x3d98de6b	0.07464298
73	0xbc0fbe31	-0.0087733725
74	0x3da8bbae	0.08238922
75	0xbe5a4e9d	-0.21319051
76	0xbd08f142	-0.033433206
77	0xbe0a5374	-0.13508397
78	0xbe054d51	-0.13017775
79	0xbe7acaf6	-0.24491486
80	0xbd379a47	-0.044824865
81	0xbdfe35ec	-0.124126285
82	0xbdbbcea6	-0.091702744
83	0x3dfac961	0.12245441
84	0xbd45f814	-0.04833229
85	0x3d4b7794	0.049674585
86	0xbdd4bc71	-0.10387505
87	0xbe4cb23a	-0.19989863
88	0xbe5f2b3e	-0.2179384
89	0xbd320c93	-0.043469023
90	0xbd1566ea	-0.0364751
91	0xbc98f7d1	-0.018672856
92	0xbdf3a811	-0.118972905
93	0xbe097454	-0.13423282
94	0xbd6108ff	-0.05494022
95	0xbe289236	-0.16462025
96	0x3d83666b	0.06416019
97	0xbe5ac1a1	-0.21362926
98	0xbe52e00f	-0.20593284
99	0x3d818c82	0.06325628
100	0x3e8cf29b	0.27528843
101	0xbd9c6c56	-0.07637851
102	0x3e9e4029	0.30908325
103	0xbddc93c4	-0.107703716
104	0x3e634ad6	0.22196516
105	0x3e1cbb63	0.15305857
106	0xbdfedadf	-0.1244409
107	0xbe85015d	-0.25977603
108	0x3d5a31e8	0.05327025
109	0xbd4846e2	-0.048895724
110	0x3d382c06	0.04496386
111	0xbd3484e7	-0.044072058
112	0x3d17bcd2	0.037045307
113	0xbcaa2b0b	-0.020772478
114	0xbe12c7a8	-0.14333975
115	0x3d03da1f	0.03219044
116	0xbda46e0e	-0.08028804
117	0x3ddee55d	0.10883591
118	0xbdb159a9	-0.086596794
119	0x3dc0ad4a	0.09408052
120	0xbdf70219	-0.12060947
121	0x3e6b3a0e	0.22971365
122	0x3e4ab1d5	0.197944
123	0x3d5e3125	0.054246087
124	0xbe72fbc9	-0.23728861
125	0x3da98d09	0.082788534
126	0xbe02de71	-0.12780167
127	0x3d026275	0.031832177
128	0xbe1c4091	-0.15259005
129	0xbcf16a2f	-0.029469578
130	0xbe7a1f8c	-0.24426097
131	0x3be05f79	0.0068473187
132	0x3cdb49fd	0.026768679
133	0xbe467e98	-0.19384229
134	0xbdf0e971	-0.117632754
135	0x3e006326	0.12537822
136	0x3dc5a4d2	0.096505776
137	0xbe31481c	-0.17312664
138	0x3e41c2aa	0.18921915
139	0xbc360f92	-0.011112111
140	0xbd5354e6	-0.051594637
141	0xbac4dd7b	-0.001501962
142	0xbe8e2489	-0.2776225
143	0xbd8a605d	-0.06756661
144	0xbeba0c6e	-0.36337608
145	0xbeb75953	-0.35810336
146	0xbe8ca12f	-0.27466723
147	0x3e3825e6	0.17983207
148	0x3e6d3119	0.2316326
149	0x3e33e1b8	0.17566574
150	0x3c998c7e	0.01874375
151	0x3cbd3535	0.02309666
152	0xbdac1953	-0.08403268
153	0xbe96a9ac	-0.29426324
154	0x3d1320ca	0.035919942
155	0xbb8c2339	-0.00427666
156	0x3dc7256f	0.09723937
157	0xbe45ee05	-0.19329078
158	0xbd17e433	-0.037082862
159	0x3f0c1844	0.54724526
160	0xbdf57a75	-0.119862475
161	0xba597587	-0.0008295406
162	0xbd8ccee5	-0.068753995
163	0xbe4d4985	-0.20047577
164	0xbdd4226b	-0.10358127
165	0xbd980cc5	-0.074243106
166	0xbdab0734	-0.08350983
167	0x3ea450c4	0.3209287
168	0xbdb4a20c	-0.088199705
169	0xbb9862a3	-0.0046504303
170	0x3daf4cf6	0.08559601
171	0xbea24130	-0.3169036
172	0x3d0a3eaa	0.033751167
173	0xbe4b03ec	-0.19825715
174	0x3d7423b6	0.05960437
175	0xbd37a738	-0.044837207
176	0xbe5682a6	-0.20948276
177	0x3daafbfe	0.08348845
178	0xbc894da8	-0.016760662
179	0x3dd72ddb	0.10506793
180	0x3ca005a0	0.019533932
181	0xbd6661af	-0.056245502
182	0xbe65a90f	-0.22427772
183	0xbe2415be	-0.16023919
184	0xbe2b9566	-0.1675621
185	0xbe907559	-0.2821453
186	0x3da76f28	0.08175498
187	0xbe0ec309	-0.13941588
188	0xbdd5b477	-0.104348116
189	0x3c15fbd2	0.009154277
190	0xbdbee4ef	-0.09321009
191	0xbe1473f3	-0.14497356
192	0x3dfa10e6	0.12210254
193	0x3d401995	0.046899397
194	0xbc48f1e9	-0.012264707
195	0x3e09974a	0.13436618
196	0x3d5b2ebb	0.053511363
197	0xbe38fb0b	-0.18064515
198	0x3bce2331	0.0062908162
199	0xbe308cc2	-0.17241195
200	0x3dfa7872	0.12230004
201	0x3e12d5fc	0.14339441
202	0x3df875b8	0.12131828
203	0x3d6d381a	0.05791483
204	0xbe21f57c	-0.15816301
205	0x3e14d506	0.14534387
206	0xbc9863d4	-0.01860229
207	0x3c6360aa	0.013878027
208	0x3d9b16c9	0.07572705
209	0xbb2a2d87	-0.0025967078
210	0xbe13c582	-0.14430812
211	0x3d4fb1d3	0.050706696
212	0xbd3a2087	-0.045441177
213	0x3d816a88	0.06319147
214	0x3be90dc3	0.007112236
215	0x3e3cfe9f	0.18456505
216	0x3ce1ff5e	0.027587589
217	0x3e733503	0.23750691
218	0x3e2e828f	0.17041992
219	0x3b9e0b78	0.0048231445
220	0xbe22fdbc	-0.15917104
221	0xbd9e52c3	-0.07730629
222	0xbde014c8	-0.10941464
223	0xbdc468c4	-0.09590295
224	0x3d68a403	0.05679704
225	0xbdb740d4	-0.08947912
226	0xbcf2c5d5	-0.02963535
227	0x3c33dbb0	0.010977671
228	0x3e488b12	0.19584301
229	0xbd366ecc	-0.044539258
230	0x3a8a8108	0.0010567019
231	0xbdf682f1	-0.12036694
232	0xbdf875a0	-0.1213181
233	0xbd722ca4	-0.059124604
234	0x3dbc3bef	0.09191119
235	0xbd7165ea	-0.058935083
236	0xbdb8e4ef	-0.090280406
237	0x3dcad690	0.09904206
238	0x3e0bf1c5	0.13666447
239	0xbd882cf3	-0.066491984
240	0x3de3b9f3	0.111194514
241	0x3e356191	0.17713
242	0x3e10a2e8	0.14124644
243	0x3d61196e	0.054955892
244	0x3aff047d	0.0019456294
245	0xbe19d8c8	-0.15024102
246	0x3dc781a2	0.09741522
247	0xbd9954da	-0.07486887
248	0xbd8a7fb4	-0.06762639
249	0x3e44b5aa	0.19209924
250	0xbe223e8b	-0.15844171
251	0xbe5300a2	-0.2060571
252	0x3ead1120	0.33802128
253	0x3e374884	0.17898756
254	0xbdcb4f05	-0.09927181
255	0x3e79b706	0.24386224

layers.1.bias f4 [32]
0	0x3b7dc81c	0.003872401
1	0x3c114366	0.008866167
2	0xbb0e0354	-0.0021669464
3	0xb972bc2a	-0.00023149015
4	0xbbb3f946	-0.005492362
5	0xba87165a	-0.0010306344
6	0xba3e375a	-0.0007256173
7	0xbc31e8af	-0.010858699
8	0x3a9a1b59	0.0011757418
9	0xbb86c253	-0.0041125207
10	0x3a2f809e	0.00066948857
11	0xba4f241a	-0.0007901803
12	0x3ab576a1	0.0013844558
13	0x3952af4b	0.00020092462
14	0x3b929e99	0.0044744727
15	0x3924a555	0.0001570185
16	0x3b99d4ad	0.0046945424
17	0xba52d6b1	-0.0008042856
18	0x39fd3af6	0.0004829985
19	0x3c98c50d	0.018648649
20	0x3aba3344	0.0014205952
21	0x3b8f36da	0.0043705525
22	0xba987e3f	-0.0011634304
23	0x3b873827	0.004126567
24	0xb9a44307	-0.00031330457
25	0x3a3b980d	0.0007156141
26	0x3aa144a9	0.0012303788
27	0xbb683207	-0.003543021
28	0x3b559bb9	0.0032594039
29	0x396f00be	0.00022793093
30	0xbc164e21	-0.009173901
31	0xbb72f634	-0.0037073018

layers.1.lin.weight f4 [32, 32]
0	0xbe26e772	-0.16299227
1	0xbe242490	-0.16029572
2	0xbe465f49	-0.19372286
3	0xbe5b665b	-0.21425764
4	0x3e44c93b	0.19217388
5	0x3e0d97a9	0.13827385
6	0xbe24caf8	-0.16093051
7	0xbe58fa70	-0.21189284
8	0x3e5965a6	0.21230182
9	0xbe68e8ea	-0.227451
10	0x3dc00889	0.09376628
11	0x3e6a2d06	0.22868738
12	0x3e35bab5	0.17747004
13	0x3e1c406b	0.15258949
14	0x3d6423cc	0.0556982
15	0x3e5a9445	0.21345623
16	0xbe28fdea	-0.1650311
17	0xbeef7a22	-0.46772867
18	0xbe53a455	-0.20668156
19	0x3d66c5de	0.056341045
20	0xbe88c075	-0.26709333
21	0xbd904598	-0.07044524
22	0xbe117046	-0.14202985
23	0xbe5f70e5	-0.2182041
24	0xbd30a382	-0.043124683
25	0x3eb36ef1	0.3504558
26	0xbcc7af40	-0.024375558
27	0x3e38512f	0.17999719
28	0x3da22d71	0.079188235
29	0x3e0647c3	0.13113312
30	0xbe49ef4c	-0.19720191
31	0x3e97899e	0.2959718
32	0xbcae7ecf	-0.021300701
33	0x3da7f2b1	0.082005866
34	0xbdd68107	-0.10473829
35	0x3e249535	0.16072543
36	0xbec74193	-0.38917217
37	0x3e2464f1	0.16054131
38	0x3e960068	0.29297185
39	0xbe1c7e7d	-0.15282626
40	0xbe330803	-0.17483525
41	0xbd0d4c14	-0.034496382
42	0xbeac0592	-0.33598
43	0x3d4eb214	0.050462797
44	0x3ebe16fb	0.37126908
45	0xbddf72ec	-0.109105915
46	0xbb6f8265	-0.0036546227
47	0xbdf8a144	-0.12140134
48	0xbea668be	-0.32501787
49	0xbd1aa5d8	-0.037755817
50	0xbd941b9e	-0.0723183
51	0x3eba0aa3	0.3633624
52	0xbda74676	-0.08167736
53	0x3d1bf9ae	0.03807991
54	0x3c9a439f	0.018831072
55	0x3dc2e4ae	0.095162734
56	0x3e83ef7b	0.25768647
57	0xba85e142	-0.0010214227
58	0xbe2a0db3	-0.16606788
59	0xbd6bceb5	-0.057570178
60	0x3e1340eb	0.14380233
61	0x3e94c6f8	0.2905805
62	0xbec279fe	-0.37983698
63	0xbe17f9de	-0.1484141
64	0x3eccc0b2	0.39990765
65	0xbe1677f5	-0.14694197
66	0x3d9d4d26	0.076807305
67	0xbf0bc65c	-0.5459955
68	0xbdadd4b6	-0.08487837
69	0x3e7c3b72	0.24632052
70	0xbe5c3be6	-0.21507224
71	0xbd7d15e8	-0.06178847
72	0x3dd760ba	0.10516496
73	0x3e27a9e5	0.16373403
74	0xbe734e92	-0.23760441
75	0x3d4af365	0.049548525
76	0xbda91429	-0.08255798
77	0xbeb71dda	-0.35764962
78	0xbec7f390	-0.3905301
79	0x3e6c2e8f	0.23064636
80	0xbe921a6b	-0.2853578
81	0xbeae9588	-0.34098458
82	0xbd1a5304	-0.037676826
83	0xbe39e135	-0.18152316
84	0xbe6eebcd	-0.23332138
85	0x3dda48de	0.106584296
86	0xbcd50de3	-0.026007598
87	0xbd82f11d	-0.06393645
88	0xbdff1ccc	-0.124566644
89	0x3da87769	0.08225901
90	0xbb89b72b	-0.0042027435
91	0xbd5458d0	-0.05184251
92	0x3d64547e	0.05574464
93	0xbe5092a8	-0.20368445
94	0x3d5e91e3	0.054338347
95	0xbe310fd5	-0.17291196
96	0xbe4d2c78	-0.20036495
97	0x3e592f55	0.21209462
98	0xbe3ab949	-0.18234743
99	0xbe8c9623	-0.27458295
100	0x3e0e4d4e	0.13896677
101	0x3ecb13ea	0.3966363
102	0x3d599651	0.05312187
103	0x3e6802f5	0.22657378
104	0x3d782b4b	0.060588162
105	0xbe9cc427	-0.30618402
106	0xbd1c30ea	-0.038132586
107	0x3ee44e30	0.44590902
108	0x3d8e73a2	0.06955649
109	0x3ea58ad4	0.3233248
110	0x3e577249	0.2103969
111	0x3ce03f01	0.027373793
112	0x3e049a5f	0.12949513
113	0xbe988b71	-0.29793885
114	0xbd69c941	-0.057076696
115	0x3e0c552b	0.13704364
116	0xbd762b88	-0.06010011
117	0x3e728c7a	0.236864
118	0x3d854176	0.06506626
119	0x3cc7455b	0.024325063
120	0x3deb5f4c	0.11492786
121	0x3d58c8a2	0.052925713
122	0x3e1841f2	0.14868906
123	0xbe6bf139	-0.23041238
124	0xbef75d1f	-0.48313233
125	0x3e1873cc	0.14887923
126	0xbdb32d83	-0.08748915
127	0x3e067831	0.13131787
128	0xbe250d5e	-0.1611838
129	0x3eb8d475	0.36099592
130	0x3e56335a	0.20918027
131	0xbe1f160d	-0.15535755
132	0x3da66abc	0.08125827
133	0x3d77db8f	0.06051212
134	0x3d96ebf1	0.07369221
135	0xbdc4714d	-0.09591923
136	0x3c0bf27c	0.0085416995
137	0x3bd067ec	0.0063600447
138	0x3e1a438a	0.15064827
139	0xbdf9ea95	-0.12202946
140	0xbed39e3e	-0.41331667
141	0xbddb961f	-0.10721993
142	0xbecc454c	-0.3989662
143	0xbea71838	-0.32635665
144	0xbeb83126	-0.35974997
145	0xbe5a52d0	-0.21320653
146	0xbe4b1ef9	-0.19836034
147	0xbeda61f6	-0.42652863
148	0x3e738a17	0.23783146
149	0xbe07cb83	-0.13261227
150	0x3c5b0ae4	0.013369296
151	0xbe160e72	-0.14653948
152	0x3cd109c3	0.02551735
153	0xbe4089cb	-0.18802564
154	0xbe8b0a2a	-0.27156192
155	0x3e469704	0.19393545
156	0xbeb81a84	-0.3595773
157	0x3e6704f3	0.22560482
158	0xbc819cf5	-0.015821913
159	0x3e57352b	0.21016376
160	0xbe70a54e	-0.23500559
161	0x3dee282e	0.116287574
162	0x3dd5f5e2	0.10447289
163	0xbea5971c	-0.3234185
164	0xbe494b99	-0.19657744
165	0xbeced27d	-0.40394965
166	0xbe826c66	-0.25473326
167	0xbe230bb7	-0.15922438
168	0x3dc9414e	0.09826909
169	0x3cf25841	0.029583098
170	0x3ccd0bba	0.025030006
171	0x3df2ed97	0.11861723
172	0xbdae8054	-0.085205704
173	0x3df78e24	0.12087658
174	0xbe5b92fe	-0.21442792
175	0x3c92b512	0.017908607
176	0x3e4035d7	0.18770538
177	0xbe6ddcd5	-0.23228772
178	0xbcfe360a	-0.031031627
179	0x3eabfafd	0.33589926
180	0xbd1f2deb	-0.03886215
181	0xbea6e19b	-0.32593998
182	0xbe5b02e7	-0.21387826
183	0x3e3fd529	0.18733658
184	0xbe92b100	-0.28650665
185	0xbee0f6a3	-0.4393817
186	0xbe914292	-0.28371102
187	0x3eb869c6	0.360182
188	0xbe0da134	-0.13831025
189	0x3e4de9a4	0.20108658
190	0xbe336a46	-0.17521009
191	0x3d52cf5f	0.051467296
192	0xbd0e6478	-0.034763783
193	0xbe268dc7	-0.16265021
194	0x3df68d68	0.1203869
195	0x3d2a9c6f	0.041653093
196	0x3cb7d182	0.022438768
197	0xbe363ad5	-0.1779588
198	0x3d4cd387	0.050006416
199	0x3d8ac807	0.067764334
200	0xbe1f0003	-0.15527348
201	0xbdf03baa	-0.1173013
202	0xbd1fc3f7	-0.039005246
203	0xbde776fe	-0.11301993
204	0x3e117d7a	0.14208022
205	0xbc997831	-0.01873407
206	0xbe84bb45	-0.25924125
207	0x3e52ea5a	0.2059721
208	0x3ebf3cca	0.37351066
209	0xbe8f6190	-0.28004122
210	0xbeb26c15	-0.34848085
211	0xbd712976	-0.05887743
212	0x3d923873	0.07139673
213	0x3db5678b	0.0885764
214	0xbec752c8	-0.38930345
215	0xbee0b676	-0.43889207
216	0xbe4d636d	-0.20057459
217	0xbdb755a1	-0.08951879
218	0x3e7aa41c	0.24476665
219	0xbca035a1	-0.019556822
220	0x3e2aab4e	0.1666691
221	0xbeb6569e	-0.3561296
222	0xbe6208a7	-0.22073613
223	0xbe33fd65	-0.17577131
224	0x3dd643fb	0.10462185
225	0xbe96c1c4	-0.29444706
226	0xbecffa60	-0.40620708
227	0xbe1d03e8	-0.15333521
228	0x3e79d807	0.24398814
229	0xbdf6fa4e	-0.120594606
230	0x3b9771a5	0.004621702
231	0x3e764471	0.24049546
232	0xbe26e11f	-0.16296814
233	0xbe904610	-0.28178453
234	0x3e67ad5d	0.22624727
235	0x3e2962b0	0.16541553
236	0x3e880dab	0.26572928
237	0xbeecaeb6	-0.46227044
238	0xbdac2bf7	-0.08406823
239	0x3c9d8fa2	0.019233529
240	0x3c67a677	0.014138809
241	0xbe030bf8	-0.12797534
242	0xbe628a86	-0.22123155
243	0x3e85bc21	0.26120093
244	0xbeb56a52	-0.35432678
245	0xbe2e72d0	-0.17035985
246	0x3dbc1da7	0.09185343
247	0x3db4c920	0.08827424
248	0xbe8ca500	-0.27469635
249	0xbe1690e2	-0.14703706
250	0xbe9c21c7	-0.3049452
251	0x3ed5161f	0.4161844
252	0xbee71f70	-0.45141172
253	0xbe520d39	-0.20512857
254	0x3c7a88d9	0.015291416
255	0x3ce03b4f	0.02737203

layers.2.bias f4 [32]
0	0x3b213578	0.002459852
1	0x3b024c1a	0.0019881786
2	0xbb4e5b7a	-0.003148763
3	0x3a020e21	0.0004961212
4	0xbb414ee9	-0.0029496497
5	0xbb19ee7a	-0.002348809
6	0x3b968753	0.0045937686
7	0x3a059f24	0.0005097261
8	0x3b33be85	0.002742679
9	0xbcd15b0f	-0.025556115
10	0x3b69530f	0.0035602485
11	0xbbe59b10	-0.0070070103
12	0xbb4c78e5	-0.0031199988
13	0xbae69c8e	-0.0017594264
14	0xb9dc728e	-0.0004204702
15	0x3b03a5ff	0.0020087955
16	0x3c10280d	0.008798611
17	0xbb5f3e9c	-0.0034064418
18	0x38bd0529	9.0131834e-05
19	0xbc31c78d	-0.010850799
20	0x39a9c584	0.00032381353
21	0x3b6e843c	0.0036394736
22	0xb76d5242	-1.4145453e-05
23	0x3b73efec	0.0037221862
24	0xbb812426	-0.003941077
25	0x3a25a540	0.00063188747
26	0xbabc88c2	-0.0014384019
27	0xbbfcc07f	-0.007713377
28	0xbc0f1ac9	-0.008734413
29	0xbba5e388	-0.005062524
30	0xbb69e9f8	-0.0035692435
31	0xbb223559	-0.0024751036

layers.2.lin.weight f4 [32, 32]
0	0x3e7938a6	0.24338016
1	0x3d76767a	0.06017158
2	0x3e6dd4d0	0.23225713
3	0xbee70575	-0.4512135
4	0xbdb068ed	-0.08613763
5	0xbb57897a	-0.003288834
6	0x3e66823b	0.22510616
7	0xbd1b1a67	-0.037866976
8	0xbe9b93c6	-0.3038618
9	0xbea217cc	-0.3165878
10	0xbe066315	-0.13123734
11	0xbe55da3f	-0.20884036
12	0x3e2677c5	0.16256626
13	0x3e431fe6	0.19055137
14	0x3ea5ee9c	0.32408607
15	0x3def1925	0.11674718
16	0x3e472e24	0.19451195
17	0xbecdf103	-0.4022294
18	0x3df7920b	0.12088402
19	0xbe6ecc4b	-0.23320119
20	0xbebdad4a	-0.37046272
21	0x3e0bbad4	0.13645488
22	0x3e2c1acb	0.16807096
23	0x3cba1d35	0.022719005
24	0xbe0375e8	-0.12837946
25	0xbcee3dbf	-0.029082177
26	0xbe80d22c	-0.25160348
27	0xbcfaf181	-0.030632736
28	0x3e350035	0.1767586
29	0x3c8e54bc	0.017374389
30	0x3df392f5	0.11893264
31	0x3cd3e147	0.025864257
32	0xbe28b706	-0.16476068
33	0x3d97548b	0.07389172
34	0x3ea898c0	0.3292904
35	0xbdb916eb	-0.090375744
36	0x3de2a75f	0.1106708
37	0xbd959696	-0.073041126
38	0x3e5d25ab	0.215964
39	0xbe7be610	-0.2459948
40	0x3e1c19fb	0.15244286
41	0x3cbd43bf	0.023103593
42	0x3dc70521	0.09717775
43	0xbced36dd	-0.028956825
44	0xbdab9b92	-0.08379282
45	0xbd386b52	-0.045024224
46	0x3e0f3662	0.13985589
47	0x3c9b20c6	0.018936526
48	0xbe1c1d86	-0.15245637
49	0x3c726a32	0.014795827
50	0xbe45673d	-0.19277664
51	0x3e75b7f0	0.23995948
52	0x3ddb73b5	0.10715429
53	0xbd9730d8	-0.07382363
54	0x3dc9fbb6	0.09862463
55	0x3e225777	0.15853678
56	0x3d9606e7	0.07325535
57	0xbde7cba3	-0.113181375
58	0x3e9ebe59	0.310046
59	0x3e6377fd	0.2221374
60	0x3ea40025	0.3203136
61	0xbda19ee1	-0.07891632
62	0x3ead4c73	0.3384739
63	0x3e525185	0.2053891
64	0x3cf3e89f	0.029774008
65	0xbf0b3052	-0.54370606
66	0x3d8558e4	0.06511095
67	0x3d4aaebe	0.049483053
68	0xbdb76683	-0.089550994
69	0xbd53809f	-0.051636335
70	0x3c730284	0.014832143
71	0x3e4fe8f5	0.2030371
72	0xbeda5820	-0.4264536
73	0xbe53f7f6	-0.20700058
74	0xbe16c912	-0.1472514
75	0xbe528fe1	-0.20562698
76	0xbea032e4	-0.31288826
77	0xbee09ee2	-0.43871218
78	0xbe400ef8	-0.1875571
79	0x3e9942af	0.29933688
80	0xbdf0d2d0	-0.11758959
81	0x3e86ea52	0.26350647
82	0x3e07e7b0	0.13271976
83	0xbeacd4a8	-0.33755994
84	0xbe17db0b	-0.14829652
85	0xbddaef22	-0.10690142
86	0xbed385ac	-0.4131292
87	0xbb1d597f	-0.0024009643
88	0x3daf2b9e	0.08553241
89	0xbe831341	-0.25600627
90	0xbdb75947	-0.08952575
91	0x3e8daf66	0.2767288
92	0xbdfae153	-0.122500084
93	0x3e85ea9d	0.26155558
94	0x3e36d1ed	0.17853518
95	0x3defd6d5	0.11710898
96	0x3e77d8fc	0.24203867
97	0xbeda878a	-0.42681533
98	0x3e49a58a	0.19692054
99	0x3e3bcb0b	0.18339173
100	0xbe53b41b	-0.20674174
101	0x3eca65ff	0.39530942
102	0x3e29be1c	0.16576427
103	0x3e88947e	0.2667579
104	0xbec0476d	-0.37554494
105	0xbd9f1846	-0.07768302
106	0xbdcad57b	-0.099039994
107	0x3e42cf11	0.19024302
108	0xbea87565	-0.32902065
109	0x3cb29831	0.021801086
110	0x3e4bd3b9	0.19904985
111	0xbf06d8c0	-0.52674484
112	0x3e89e963	0.26935872
113	0xbe1a3139	-0.1505784
114	0xbe8c15d1	-0.27360395
115	0x3d368949	0.04456452
116	0xbe5d98c3	-0.21640305
117	0x3e9b9b8c	0.3039211
118	0x3cec6fae	0.028861847
119	0x3e9a6aa3	0.30159482
120	0xbe1eeb25	-0.15519388
121	0xbe6af14d	-0.22943611
122	0xbe329522	-0.17439702
123	0x3e488f36	0.1958588
124	0x3e528150	0.20557141
125	0xbd699760	-0.057029128
126	0xbd42636a	-0.04745809
127	0x3ea9e1ef	0.33180186
128	0x3ec32484	0.38113797
129	0xbe84c234	-0.25929415
130	0xbe8102e7	-0.25197527
131	0xbcb3dc6d	-0.021955693
132	0x3c135ad7	0.008993826
133	0x3d92db77	0.07170766
134	0x3ecc502b	0.39904913
135	0xba7785ea	-0.0009442257
136	0x3e0a5fdb	0.13513128
137	0x3d342d1c	0.043988332
138	0xbeaf6073	-0.34253272
139	0xbe176232	-0.14783552
140	0xbe82eb2a	-0.2557004
141	0x3e09e0a1	0.13464595
142	0x3c092db7	0.008372716
143	0x3ac3626c	0.0014906651
144	0x3da887f4	0.08229056
145	0x3d9a8f52	0.075468674
146	0x3ea32615	0.31864992
147	0x3cc90902	0.024540428
148	0x3d1e0344	0.038577333
149	0x3ddb6612	0.10712828
150	0xbd807b7c	-0.06273553
151	0x3dd955d7	0.10612076
152	0x3c9c2e4a	0.019065041
153	0xbe7a6dd5	-0.2445596
154	0x3ec2ab28	0.38021207
155	0x3e891b83	0.26778802
156	0xbdf48740	-0.119398594
157	0xbd16c854	-0.03681214
158	0xbbefb3f3	-0.007315153
159	0xbdf545cb	-0.119762026
160	0xbc6175c9	-0.013760992
161	0x3e467713	0.1938136
162	0x3eaed462	0.3414641
163	0x3e882f01	0.2659836
164	0x3e52efd7	0.20599304
165	0x3b7d1102	0.0038614874
166	0x3e8f6d43	0.28013048
167	0x3e48d114	0.19611007
168	0xbe3628fa	-0.17789069
169	0x3e4835e6	0.1955181
170	0xbde28b0c	-0.11061677
171	0xbdb9dc6b	-0.090752445
172	0xbd952fbc	-0.07284495
173	0x3e1125b5	0.1417454
174	0x3e2eedfa	0.17082968
175	0xbe48ed3e	-0.1962175
176	0xbdf69beb	-0.12041458
177	0x3c8a25ef	0.016863791
178	0x3d49b73f	0.049247023
179	0x3e9779c5	0.2958509
180	0xbe71796e	-0.23581478
181	0xbe0aa84b	-0.13540761
182	0x3ea3ffb3	0.3203102
183	0x3e13f144	0.14447504
184	0x3e3a9425	0.18220575
185	0x3d451f83	0.048125755
186	0x3da4a4de	0.080392584
187	0x3e67b744	0.22628504
188	0x3dfc81f0	0.12329471
189	0xbc39a11a	-0.0113299135
190	0xbe4c49f6	-0.19950089
191	0x3dbc7ab6	0.09203093
192	0xbe87c098	-0.26514125
193	0xbcd2d2ca	-0.025735278
194	0xbb308664	-0.0026935572
195	0x3e022598	0.12709653
196	0xbd666d0c	-0.05625634
197	0x3e177b81	0.14793207
198	0xbe4cddca	-0.20006481
199	0xbec96f0b	-0.39342532
200	0xbe58ac08	-0.21159375
201	0xbd504a7b	-0.05085228
202	0xbe04234f	-0.12904094
203	0x3dcfba7b	0.1014299
204	0xbea54953	-0.32282504
205	0xbce2660d	-0.027636552
206	0xbe958e40	-0.2921009
207	0xbd0997d8	-0.033592075
208	0xbd9b44ef	-0.075815074
209	0xbbc32ad3	-0.005956033
210	0xbe4fa612	-0.20278195
211	0x3e27520c	0.16339892
212	0x3e618296	0.22022471
213	0x3e4007d7	0.1875299
214	0xbdce8086	-0.10083108
215	0xbe09b2e2	-0.13447145
216	0x3ca357d0	0.019939333
217	0xbe4b8d8b	-0.19878213
218	0xbdae6f1b	-0.085172854
219	0xbedcfe1d	-0.43162623
220	0xbeacecc8	-0.337744
221	0xbd3cc865	-0.04608955
222	0xbe8ed9e9	-0.27900627
223	0xbeeaee9b	-0.45885167
224	0xbe78bdd9	-0.24291171
225	0xbea91b83	-0.33028802
226	0x3de91b9e	0.11382221
227	0xbec88179	-0.3916128
228	0xbddbf463	-0.107399724
229	0x3e4e25d1	0.20131613
230	0xbd9cbf2b	-0.0765365
231	0xbe5d0f6f	-0.21587919
232	0x3e39e332	0.18153074
233	0x3c7feccb	0.015620421
234	0xbd597064	-0.0530857
235	0x3d63fe5d	0.0556625
236	0x3d121bf1	0.03567118
237	0xbeb83502	-0.35977942
238	0x3e9c0837	0.30475017
239	0x3dbffbee	0.09374224
240	0xbe7d583b	-0.24740689
241	0x3e06b190	0.13153672
242	0xbe23b54d	-0.1598713
243	0xbdc198d0	-0.09452975
244	0xbe5bb75b	-0.21456663
245	0xbdf6426e	-0.12024389
246	0xbc0308ab	-0.007997672
247	0xbe8269fa	-0.2547148
248	0x3cafa8ca	0.02144279
249	0xbcbf23d1	-0.023332508
250	0x3daccd37	0.08437579
251	0x3d97bb5d	0.074087836
252	0x3e1d419e	0.15357062
253	0x3e0fca7c	0.14042085
254	0x3ec5216c	0.3850206
255	0xbe3ba0e6	-0.18323097

layers.3.bias f4 [32]
0	0x3c5fe61a	0.0136657
1	0xbb7c52d5	-0.003850152
2	0x3c963c17	0.0183392
3	0xb9ded275	-0.00042499942
4	0x3aaa102e	0.0012974793
5	0x3ad978aa	0.0016591747
6	0xbc0245dc	-0.007951226
7	0x3c5d54e8	0.013509013
8	0xb9c48f0d	-0.00037490614
9	0xbbd64c40	-0.0065398514
10	0xbb023f48	-0.0019874144
11	0x3ca1ed32	0.019766424
12	0x3cba8d3e	0.022772428
13	0xba848273	-0.0010109678
14	0x3c5a74b8	0.013333492
15	0xba069a18	-0.0005134656
16	0x3d0f7993	0.03502805
17	0xbc9b457b	-0.01895403
18	0xbb1dbb6e	-0.0024068016
19	0x3bafa9b5	0.005360807
20	0x3b92d59d	0.004481031
21	0x395f31a0	0.00021285424
22	0x3cd18cca	0.025579829
23	0xbc1f104d	-0.009708476
24	0xbb1039b1	-0.0022007043
25	0xbba89e66	-0.0051458357
26	0x3c950a86	0.018193495
27	0x3b56ed74	0.0032795342
28	0x3ce82c4a	0.028341431
29	0x3cafaf18	0.021445796
30	0xbc025d58	-0.007956825
31	0xbbba976b	-0.00569432

layers.3.lin.weight f4 [32, 32]
0	0x3ca97ea6	0.020690273
1	0x3d3d5383	0.04622222
2	0x3e0bc356	0.13648733
3	0xbd806923	-0.06270053
4	0x3c3c0663	0.011476132
5	0x3d571abe	0.052515738
6	0x3ea0a5d0	0.31376505
7	0x3e041ea8	0.1290232
8	0xbd267bb3	-0.040645313
9	0xbe789560	-0.24275732
10	0x3cf78ad7	0.030217571
11	0xbe7f5005	-0.24932869
12	0xbe6c0c6b	-0.23051612
13	0xbd8c856a	-0.06861384
14	0xbd30c5ad	-0.04315727
15	0xbe4c7e09	-0.19969954
16	0x3e50b9bc	0.20383352
17	0x3eedbb03	0.4643174
18	0x3e182b6b	0.14860313
19	0x3de192d3	0.110143326
20	0xbd814cf2	-0.06313504
21	0x3dd9ac75	0.10628597
22	0xbe13113c	-0.14362043
23	0x3e9f26fb	0.31084427
24	0xbe838582	-0.25687796
25	0xbd60f94b	-0.054925244
26	0xbdf52ea9	-0.1197179
27	0x3d86f9e5	0.06590632
28	0x3e15268a	0.14565483
29	0xbea8ae4c	-0.32945478
30	0xbe95ddbe	-0.29270738
31	0x3eb7ed5f	0.35923287
32	0xbd2173ec	-0.039417192
33	0x3e856e34	0.2606064
34	0x3f145f6f	0.5795812
35	0x3e781eb6	0.24230465
36	0x3e3e3d05	0.18577965
37	0xbd8ef9b4	-0.06981221
38	0x3e52ee57	0.20598732
39	0xbe2327a8	-0.15933096
40	0x3e80714d	0.25086442
41	0x3ed90833	0.42389068
42	0xbec19e48	-0.37816072
43	0x3e5e698d	0.21719952
44	0xbdcbf3af	-0.09958588
45	0xbe365ed6	-0.17809615
46	0x3ed693c7	0.4190962
47	0xbd51a897	-0.05118617
48	0xbde1363f	-0.10996675
49	0xbd6d41e5	-0.05792417
50	0x3c53b783	0.012922171
51	0xbec2b99b	-0.3803223
52	0x3d723341	0.05913091
53	0xbb6f77c7	-0.0036539899
54	0x3d4eb006	0.050460838
55	0x3e1ba3c5	0.15199192
56	0xbe8052f6	-0.25063294
57	0x3e4cf566	0.20015487
58	0xbdd86414	-0.105659634
59	0x3e102a27	0.1407858
60	0x3e533169	0.20624317
61	0x3d54af36	0.051924907
62	0x3e0ec0a3	0.13940673
63	0xbe4c760c	-0.19966906
64	0xbe820121	-0.25391486
65	0x3e006232	0.12537459
66	0x3d8abb24	0.067739755
67	0x3c28d2be	0.010304151
68	0x3d9d7873	0.076889895
69	0xbdcca71f	-0.09992813
70	0x3ec6d9fc	0.38838184
71	0xbe457210	-0.19281793
72	0xbd5b06f9	-0.053473447
73	0xbe141434	-0.14460832
74	0x3e029b14	0.1275447
75	0xbcea0e4e	-0.028571274
76	0xbed7558a	-0.4205745
77	0x3e8124cc	0.25223386
78	0xbe00d2d7	-0.12580429
79	0x3d865c14	0.06560531
80	0x3dd9f81c	0.10643026
81	0x3e45e95c	0.19327301
82	0xbdfa4621	-0.12220407
83	0x3dfb89e5	0.12282161
84	0xbe862b50	-0.2620492
85	0x3e02c4a8	0.12770331
86	0x3e9f8a89	0.3116038
87	0xbdfb38b2	-0.12266673
88	0xbc6c265d	-0.014413443
89	0xbe8571a6	-0.2606327
90	0xbe8df6dc	-0.277274
91	0xbe27cecc	-0.1638748
92	0x3e12acc2	0.14323714
93	0xbcade1f9	-0.021225916
94	0x3dfc420a	0.123172835
95	0x3e92999e	0.28632826
96	0x3db95497	0.09049337
97	0xbd356505	-0.044285793
98	0xbe587edd	-0.21142145
99	0x3ebbdb03	0.3669053
100	0xbe7fc11b	-0.24976008
101	0x3e5b1651	0.21395232
102	0xbe37ac49	-0.17936815
103	0x3c5c0002	0.013427736
104	0x3e01a762	0.12661508
105	0xbecf7425	-0.405183
106	0xbe33a9a4	-0.17545182
107	0xbec8038f	-0.39065215
108	0xbdd3f2d3	-0.103490494
109	0x3e2f7c40	0.17137241
110	0x3df2e31a	0.118597224
111	0x3e9a9e2b	0.30198798
112	0x3e13c494	0.14430457
113	0xbe1e0961	-0.15433265
114	0xbe6cbdfd	-0.2311935
115	0xbcfa6655	-0.030566374
116	0xbe2d004c	-0.16894644
117	0x3d500e61	0.050794963
118	0x3ea480b6	0.3212945
119	0xbe8d59ad	-0.2760748
120	0x3d0e3f12	0.034728117
121	0x3cfc8f97	0.030830188
122	0xbec5dc2f	-0.3864455
123	0xbe06f071	-0.13177659
124	0xbbcdcbe0	-0.0062804073
125	0x3dddbfba	0.108275846
126	0xbe98a1eb	-0.29811034
127	0x3da0abee	0.07845293
128	0x3e5749c1	0.21024229
129	0x3eb3ce4d	0.35118333
130	0xbeaa5edf	-0.33275506
131	0xbe19d4fe	-0.15022656
132	0x3de4eb7f	0.1117773
133	0xbd503fff	-0.05084228
134	0x3dd54b78	0.10414785
135	0xba907aa3	-0.0011022877
136	0xbc083814	-0.008314151
137	0x3d53f9d9	0.051751945
138	0xbc987307	-0.018609537
139	0xbee8d85f	-0.45477578
140	0xbecdcedc	-0.40196884
141	0x3e0c0662	0.1367431
142	0x3d58a259	0.0528892
143	0x3dfced16	0.12349908
144	0x3e925df2	0.285873
145	0x3e2e0c26	0.16996822
146	0x3e372b46	0.17887601
147	0x3ef8939c	0.48550117
148	0xbe489d1a	-0.1959118
149	0x3d4b9e17	0.049711313
150	0xbdd80004	-0.10546878
151	0x3e2fc427	0.1716467
152	0xbd40fd4a	-0.047116555
153	0xbdc4a354	-0.09601465
154	0xbe1bfcc0	-0.15233135
155	0x3d88a571	0.066721804
156	0xbe5952e8	-0.21223032
157	0xbeb140d0	-0.3461976
158	0xbeb04297	-0.34425804
159	0xbcd89815	-0.026439706
160	0xbcec3377	-0.028833134
161	0x3db6526d	0.0890244
162	0xbe30d481	-0.17268564
163	0xbc4b611d	-0.01241329
164	0x3d38584e	0.04500609
165	0x3e801d8d	0.25022545
166	0xbe297b8b	-0.16551034
167	0x3e8574a6	0.26065558
168	0xbcb002bb	-0.021485677
169	0xbef1a8f9	-0.47199228
170	0xbd792d09	-0.060833964
171	0xbed96142	-0.42457014
172	0xbe4e8928	-0.20169508
173	0xbda15550	-0.078776
174	0x3d9143d7	0.070930175
175	0xbe13f0c9	-0.14447321
176	0xbdbf294f	-0.09334051
177	0xbd99f90e	-0.075182065
178	0xbe0985a5	-0.13429888
179	0x3ea9c471	0.33157685
180	0x3e7c0dac	0.2461459
181	0x3e85b3ba	0.26113683
182	0x3e8613cb	0.26186976
183	0x3e9fbc25	0.3119823
184	0x3cf5b81d	0.029995019
185	0x3d2cb76f	0.042167123
186	0xbdd778fd	-0.105211236
187	0xbcc13216	-0.023583453
188	0x3e263e00	0.16234589
189	0xbe7ed238	-0.2488488
190	0xbe4779ef	-0.19480108
191	0xbe4d7bed	-0.20066805
192	0xbdc7a26d	-0.09747777
193	0x3e27f761	0.16402961
194	0x3ebe8a27	0.37214777
195	0xbdd61ae0	-0.10454345
196	0xbe8ceb44	-0.27523243
197	0xbe4c6d6a	-0.19963613
198	0xbc132a95	-0.00898232
199	0x3e103936	0.14084324
200	0x3c28e0c8	0.010307498
201	0x3f100ffc	0.5627439
202	0xbe80fc94	-0.25192702
203	0x3ebfcdc9	0.3746169
204	0x3c3ff918	0.011717103
205	0xbda38251	-0.0798384
206	0xbe2e7029	-0.17034973
207	0x3e21a098	0.15783918
208	0xbeb47e55	-0.35252634
209	0xbe22cb3a	-0.15897837
210	0x3e358123	0.17725043
211	0xbd396681	-0.04526377
212	0x3e3f4110	0.18677163
213	0xbe640659	-0.22268046
214	0x3e57ec12	0.21086147
215	0xbce31be8	-0.027723268
216	0x3d98d3f6	0.07462303
217	0x3ce08321	0.027406277
218	0x3cade87f	0.021229027
219	0x3e6373a5	0.22212084
220	0xbe688de1	-0.22710373
221	0xbe1aae8f	-0.15105651
222	0xbc634024	-0.013870273
223	0x3d12fb25	0.03588404
224	0xbdf76d73	-0.12081423
225	0xbde5ad8e	-0.112147436
226	0x3dc93c27	0.09825926
227	0xbe17edf2	-0.14836863
228	0x3d7c6d8a	0.061627902
229	0x3e2e3e22	0.1701589
230	0x3e71a267	0.23597108
231	0x3e0f44e2	0.1399112
232	0x3e8cdab3	0.27510604
233	0x3d31c38e	0.043399386
234	0x3ce5be8f	0.028044967
235	0xbeac07f0	-0.33599806
236	0xbe804858	-0.25055194
237	0x3e2f520b	0.1712114
238	0x3e0e6698	0.13906324
239	0xbdec5dcf	-0.1154133
240	0xbbeb0dd3	-0.007173279
241	0x3ec796cd	0.3898224
242	0xbda28dfc	-0.079372376
243	0x3eff9a44	0.49922383
244	0xbe8ee556	-0.27909344
245	0x3e486bb9	0.19572343
246	0x3eab36d2	0.33440262
247	0xbdc5e57a	-0.0966291
248	0xbe76bb38	-0.24094856
249	0xbe015afc	-0.12632364
250	0xbe6e1057	-0.2324842
251	0xbe0fc144	-0.14038569
252	0xbd81b628	-0.06333572
253	0xbdb83572	-0.08994569
254	0xbddca2f3	-0.107732676
255	0x3eb64ce0	0.35605526

layers.4.bias f4 [2]
0	0x3dd38ee9	0.10329992
1	0xbdba7f7f	-0.09106349

layers.4.lin.weight f4 [2, 32]
0	0x3eafedf9	0.34361246
1	0xbc7e0091	-0.015503065
2	0x3f17a17e	0.5923079
3	0x3f0cbf67	0.54979557
4	0x3e9d2149	0.30689457
5	0x3e5d0b36	0.21586308
6	0xbdf4d3b1	-0.119544394
7	0x3e847930	0.2587371
8	0x3ea9f0f2	0.3319164
9	0xbee2fc61	-0.44333175
10	0x3e739c78	0.23790157
11	0x3ec0f950	0.3769021
12	0x3e7d0a82	0.2471104
13	0x3e5b8439	0.21437158
14	0x3f0c4aaa	0.5480143
15	0xbd761c4f	-0.06008559
16	0x3f1f27a3	0.62169856
17	0xbf0661ee	-0.5249318
18	0xbed63f85	-0.41845337
19	0x3f1d8f69	0.6154695
20	0x3f2dacd1	0.6784182
21	0xbd7eda7d	-0.062220085
22	0x3f17b740	0.5926399
23	0xbe50fc3e	-0.20408723
24	0xbea0b853	-0.31390628
25	0xbea2d448	-0.31802583
26	0x3ee5c7b5	0.44878927
27	0x3d7930ec	0.06083767
28	0x3ec5b7b8	0.3861673
29	0x3f3398c5	0.7015498
30	0xbeaab3b1	-0.3334022
31	0xbecb08ce	-0.39655155
32	0xbef842ea	-0.4848855
33	0x3e1f7835	0.15573199
34	0xbe84d469	-0.25943306
35	0x3e7a2c53	0.24430971
36	0xbe9a8653	-0.30180606
37	0xbf0910e6	-0.5354141
38	0x3e82f32c	0.2557615
39	0xbf4ecdb3	-0.8078262
40	0xbe4fe1db	-0.20301001
41	0x3e305c21	0.17222644
42	0xbc348912	-0.011019008
43	0xbee60509	-0.44925717
44	0xbf1aa3ad	-0.60406
45	0xbe18027c	-0.14844698
46	0xbe30b8a5	-0.17257936
47	0xbe707938	-0.23483741
48	0xbf1a2aa9	-0.60221344
49	0x3f277e45	0.65427047
50	0x3e6dfab1	0.23240162
51	0xbe6686dc	-0.22512382
52	0xbea2b73b	-0.3178042
53	0xbf1eefef	-0.6208486
54	0xbef2998b	-0.4738277
55	0x3ec56588	0.38554025
56	0x3f212ea0	0.6296177
57	0x3dd00837	0.10157817
58	0xbf01c47d	-0.5069044
59	0xbf18048e	-0.5938195
60	0xbf027a3e	-0.50967777
61	0xbed0211e	-0.40650266
62	0x3ec24c1d	0.37948695
63	0x3e01862d	0.1264884

bns.0.weight f4 [32]
0	0x3f663f29	0.89940125
1	0x3f5c90ff	0.86158746
2	0x3f750388	0.95708513
3	0x3f634a27	0.8878502
4	0x3f9a4bc3	1.2054371
5	0x3f700d4a	0.9377028
6	0x3f8dc75d	1.1076466
7	0x3f827547	1.019204
8	0x3f59e442	0.8511392
9	0x3f887957	1.066203
10	0x3f5dc213	0.8662426
11	0x3f811628	1.0084887
12	0x3f967baa	1.1756489
13	0x3f8d3f97	1.1035031
14	0x3f90101d	1.1254917
15	0x3f81912a	1.0122426
16	0x3f8142cd	1.0098511
17	0x3f8ff3aa	1.1246235
18	0x3f80e6db	1.0070451
19	0x3f91a058	1.1377058
20	0x3f924fba	1.1430581
21	0x3f837cc3	1.0272449
22	0x3f7bc8aa	0.98353064
23	0x3f944d5f	1.1586112
24	0x3f85f079	1.0464011
25	0x3f802fed	1.0014626
26	0x3f81c121	1.0137063
27	0x3f88a5df	1.067562
28	0x3f688a32	0.9083587
29	0x3f734bd0	0.95037556
30	0x3f86dc2e	1.0535944
31	0x3f6af22f	0.9177579

bns.0.bias f4 [32]
0	0x3d23ff18	0.0400382
1	0xbc74abb0	-0.014933512
2	0x3e5791d4	0.21051723
3	0xbe5a7702	-0.2133446
4	0x39834ed2	0.00025044993
5	0xbcc4e907	-0.024036897
6	0x3dfbb362	0.12290074
7	0x3e0350ae	0.12823746
8	0xbdd85f7f	-0.105650894
9	0x3e8bcdc8	0.27305436
10	0xbe0a8823	-0.13528495
11	0x3d960600	0.07325363
12	0x3ce50398	0.027955815
13	0x3d470377	0.04858729
14	0x3e605f5e	0.2191138
15	0x3daa9704	0.08329585
16	0xbd145b70	-0.036220014
17	0x3e4d8cf5	0.20073302
18	0xbd75819b	-0.059938055
19	0xbda66fbb	-0.0812678
20	0x3d643328	0.05571285
21	0xbd235687	-0.03987744
22	0xbd937a19	-0.07201023
23	0x3dd1548f	0.102212064
24	0xbd0eb086	-0.034836315
25	0x3d6cfda3	0.057859074
26	0xbbab5790	-0.005228944
27	0xbd1cd83b	-0.03829215
28	0x3df716dc	0.12064907
29	0x3e36e189	0.17859472
30	0xbdb27df6	-0.087154314
31	0xbc1e37fb	-0.0096569015

bns.0.running_mean f4 [32]
0	0xbf591d2a	-0.84810126
1	0xbf8c6561	-1.0968438
2	0x3ea3d534	0.319986
3	0x3f7ff94a	0.9998976
4	0x3f10e45f	0.56598467
5	0xc005b41b	-2.0891178
6	0xbf7af417	-0.980287
7	0xbe9a000f	-0.3007817
8	0xbd97334b	-0.0738283
9	0xbdff311b	-0.12460538
10	0xbf841dd8	-1.0321608
11	0xbfa96812	-1.3234885
12	0x3f3ac832	0.72961724
13	0xbfa2f7c7	-1.2731866
14	0xbec470e0	-0.38367367
15	0x3f8c5bfc	1.0965571
16	0xbfdc7dd4	-1.72259
17	0xbd263059	-0.04057345
18	0xbf1c5e42	-0.61081326
19	0xbf18a90c	-0.59632945
20	0xbe42fa55	-0.19040807
21	0xbecf9ab5	-0.4054772
22	0x3f4bcc36	0.79608476
23	0x3fc216d4	1.5163217
24	0x3f938e8d	1.1527878
25	0xbe618825	-0.22024591
26	0xbced3b7c	-0.028959028
27	0xbfcd9914	-1.6062341
28	0x3f30b068	0.69019175
29	0x3f4be22c	0.79641986
30	0xbffc12ac	-1.9693198
31	0xbeb79423	-0.35855207

bns.0.running_var f4 [32]
0	0x401aae0a	2.4168725
1	0x400d9e49	2.212786
2	0x403a2ed5	2.9091084
3	0x40d68798	6.704052
4	0x4003c57d	2.0589287
5	0x4014c410	2.3244667
6	0x40209808	2.5092793
7	0x404ed24f	3.2315862
8	0x402c19e5	2.6890805
9	0x401b14e6	2.4231505
10	0x401cd801	2.4506838
11	0x400be032	2.1855588
12	0x405fe78f	3.4985082
13	0x403686ae	2.8519702
14	0x4023fb99	2.5622313
15	0x4034b601	2.8236086
16	0x400a537d	2.1613457
17	0x402534c2	2.581345
18	0x400e2a45	2.22133
19	0x401f3468	2.4875736
20	0x40350fce	2.8290896
21	0x40267102	2.6006474
22	0x401af7e6	2.4213805
23	0x403abf5e	2.9179301
24	0x40262372	2.5959134
25	0x407405b5	3.8128483
26	0x3fe39d05	1.7782294
27	0x4055c121	3.3399127
28	0x401b4ff3	2.4267547
29	0x4003b88d	2.058139
30	0x40183a7d	2.3785698
31	0x40846a82	4.1380014

bns.1.weight f4 [32]
0	0x3f7b7aad	0.98234063
1	0x3fa777c6	1.3083427
2	0x3f6fcd49	0.93672615
3	0x3f519d46	0.81880605
4	0x3f642cff	0.8913116
5	0x3f5b819b	0.8574464
6	0x3f9293a6	1.1451309
7	0x3f914f21	1.1352273
8	0x3f6de9b0	0.92934704
9	0x3f743c8c	0.9540489
10	0x3f7ee667	0.99570316
11	0x3f73846d	0.9512394
12	0x3f948774	1.1603837
13	0x3f7d993b	0.99061936
14	0x3f939b55	1.1531779
15	0x3f6709df	0.9024944
16	0x3f852803	1.0402836
17	0x3f7f6d14	0.99775815
18	0x3f7fa7bb	0.9986531
19	0x3f8e56f7	1.112029
20	0x3f612ba2	0.87957203
21	0x3f612756	0.87950647
22	0x3f6ddf79	0.9291912
23	0x3f892799	1.0715209
24	0x3f869039	1.0512763
25	0x3f771af1	0.96525484
26	0x3f3a5ed6	0.7280096
27	0x3f920ee9	1.14108
28	0x3f8131c2	1.009331
29	0x3f850ca2	1.039448
30	0x3f7d978b	0.9905936
31	0x3f957fbf	1.167961

bns.1.bias f4 [32]
0	0xbd1dd90d	-0.038537074
1	0x3db37036	0.08761637
2	0x3e129e27	0.14318143
3	0xbddf4156	-0.10901134
4	0xbd628dfc	-0.055311188
5	0xbd68987a	-0.056786038
6	0xbe114923	-0.14188056
7	0xbdaf0dbd	-0.08547542
8	0xbc7e4a89	-0.0155207
9	0x3e808b87	0.2510645
10	0x3e91bc64	0.28464043
11	0x3e7409fd	0.23831935
12	0x3ea72d92	0.32651955
13	0xbd0a7081	-0.0337987
14	0xbe4d178e	-0.20028517
15	0xbe11b564	-0.14229351
16	0x3d83ab72	0.06429185
17	0xbe3a9327	-0.18220197
18	0xbe8d7a32	-0.2763229
19	0x3eccdef4	0.4001385
20	0x3e1e9a2e	0.15488502
21	0x3dad95d0	0.0847584
22	0x3dfd7f63	0.12377813
23	0xbe6c80a3	-0.23095946
24	0x3e06e953	0.13174944
25	0x3e96cae9	0.29451683
26	0xbe579c0d	-0.21055622
27	0xbe0d0bdf	-0.1377406
28	0xbd9e8255	-0.077397026
29	0xbeb1dfa6	-0.34740943
30	0xbdce07f7	-0.10060113
31	0x3c3f4bfd	0.011675832

bns.1.running_mean f4 [32]
0	0xbe90869a	-0.28227693
1	0x3aaaa01b	0.0013017686
2	0xbf54811a	-0.83009493
3	0x3ecc5e50	0.39915705
4	0xbf637ec4	-0.88865304
5	0xbf3b629c	-0.7319734
6	0xbf4c49df	-0.7980022
7	0xbf4f817d	-0.8105696
8	0x3e967282	0.29384238
9	0x3db3caaa	0.087788895
10	0xbed40a6a	-0.41414195
11	0xbf16d44b	-0.58917683
12	0x3ec3904d	0.3819603
13	0xbd141c20	-0.036159635
14	0xbf7aa253	-0.9790394
15	0xbf6064ce	-0.87653816
16	0xbe7b684d	-0.24551506
17	0x3f6b18ae	0.91834533
18	0xbf8d6acc	-1.1048217
19	0xbf718ec0	-0.94358444
20	0x3e8e89c3	0.2783948
21	0xbec9817c	-0.393566
22	0xbf077acc	-0.5292175
23	0xbf8715a0	-1.0553474
24	0x3d70590a	0.058678664
25	0xbe4c9ff2	-0.1998289
26	0xbf3407cb	-0.7032439
27	0xbe9821fa	-0.29713422
28	0xbf09741a	-0.5369278
29	0xbf229a5a	-0.6351677
30	0xbee9a0cb	-0.45630488
31	0xbf6e97c6	-0.9320034

bns.1.running_var f4 [32]
0	0x3f063581	0.5242539
1	0x3eb2cddf	0.34922692
2	0x3ef071ad	0.46961728
3	0x3ecf32c7	0.40468428
4	0x3f26e74c	0.6519668
5	0x3ec97180	0.39344406
6	0x3f598212	0.84964097
7	0x3f02c8bf	0.51087564
8	0x3e6b58d5	0.22983105
9	0x3ed31535	0.41227117
10	0x3eab2c1f	0.334321
11	0x3ea0f665	0.31437984
12	0x3f339a50	0.7015734
13	0x3f1c534a	0.6106459
14	0x3ec2553d	0.37955657
15	0x3f6e6225	0.93118507
16	0x3f844c99	1.0335876
17	0x3f0c7366	0.54863584
18	0x3f397166	0.7243866
19	0x3ee5be56	0.44871777
20	0x3f47c967	0.7804169
21	0x3f49a588	0.78768206
22	0x3f29f0ad	0.6638287
23	0x3f6c4ac9	0.92301613
24	0x3ee48e56	0.44639844
25	0x3f0a1a34	0.5394623
26	0x3ed179a6	0.40913123
27	0x3edf98b7	0.436712
28	0x3f02281b	0.50842446
29	0x3ea09c06	0.31369036
30	0x3e889b81	0.2668114
31	0x3f13eddd	0.57784826

bns.2.weight f4 [32]
0	0x3f5f6ed6	0.872785
1	0x3f6bd7d7	0.9212622
2	0x3fa670df	1.3003196
3	0x3f6ae4f2	0.9175559
4	0x3f69f12d	0.9138363
5	0x3f841cf9	1.0321342
6	0x3f60e8d7	0.87855285
7	0x3f4c0ff6	0.79711854
8	0x3f638b39	0.8888431
9	0x3fa61ec6	1.2978141
10	0x3f79530e	0.97392356
11	0x3fa19dae	1.2626245
12	0x3f789d53	0.9711506
13	0x3f86b42e	1.0523736
14	0x3f493ca1	0.7860814
15	0x3f72104a	0.94556105
16	0x3f81608a	1.0107586
17	0x3f9e21e7	1.2354096
18	0x3f5210fb	0.8205716
19	0x3fac0ffd	1.3442379
20	0x3f8dc6dc	1.1076312
21	0x3f8fff90	1.1249866
22	0x3f88ae98	1.0678282
23	0x3f5ea577	0.8697123
24	0x3f62542d	0.8840969
25	0x3f80100f	1.0004901
26	0x3f8983d1	1.0743352
27	0x3f571b99	0.84026486
28	0x3f69b621	0.9129353
29	0x3f4ac423	0.7920553
30	0x3f61a653	0.88144416
31	0x3f61a0e7	0.8813614

bns.2.bias f4 [32]
0	0xbd0cc189	-0.034364257
1	0x3b971e7a	0.0046117874
2	0xbe236b85	-0.15958984
3	0xbcf68ec5	-0.030097375
4	0xbe9f6dea	-0.31138545
5	0xbd98a44b	-0.074532114
6	0x3e370b53	0.17875414
7	0xbd5f4ef4	-0.054518655
8	0xbd289dad	-0.041165996
9	0xbe272570	-0.16322875
10	0x3e024b94	0.12724143
11	0xbe18fecf	-0.14940952
12	0xbdb10e5b	-0.08645316
13	0x3d968c26	0.0735095
14	0xbe8b6fad	-0.2723364
15	0xbc9d492c	-0.01919993
16	0x3e0070dd	0.12543054
17	0x3e3a6e3e	0.18206117
18	0xbe90a402	-0.28250128
19	0x3e223f62	0.15844491
20	0xbccfa14b	-0.025345465
21	0xbda7ff99	-0.08203048
22	0xbc89fa8b	-0.016843101
23	0x3dc0fc05	0.09423069
24	0xbe0e9cd0	-0.13927007
25	0xbe02ceab	-0.1277415
26	0xbe76b7bc	-0.24093527
27	0xbe8ea3a1	-0.27859214
28	0xbdab81f4	-0.08374396
29	0xbe233fcd	-0.15942307
30	0xbe37c806	-0.17947397
31	0xbd315414	-0.043293074

bns.2.running_mean f4 [32]
0	0xbe899963	-0.26874837
1	0x3f1c77c4	0.6112025
2	0xbf9556c4	-1.1667104
3	0xbd9eaedd	-0.07748196
4	0xbe19f043	-0.15033059
5	0x3f414cad	0.7550762
6	0xbf8c97f1	-1.0983869
7	0xbef54103	-0.47901163
8	0xbef3287d	-0.47491828
9	0xbf5ccb27	-0.86247486
10	0xbf491296	-0.78543985
11	0xbf47aa93	-0.7799465
12	0x3eb486f1	0.35259202
13	0xbf886ec5	-1.0658804
14	0xbf6065e8	-0.87655497
15	0xbef1ece6	-0.47251052
16	0xbf92a186	-1.1455543
17	0xbf95ea97	-1.1712216
18	0xbf07a8b4	-0.52991796
19	0xbf9fe845	-1.2492758
20	0xbf3c73a2	-0.7361394
21	0x3f04705f	0.51733965
22	0xbf412da9	-0.75460297
23	0xbe836364	-0.25661767
24	0x3f5b44ab	0.85651654
25	0xbf890fe3	-1.0707973
26	0xbed6a514	-0.4192282
27	0x3f515e0e	0.8178414
28	0x3e9fe767	0.31231233
29	0xbe85dc84	-0.26144803
30	0xbf426dff	-0.7594909
31	0x3ef7a5ee	0.48368782

bns.2.running_var f4 [32]
0	0x3f35cb56	0.7101339
1	0x3e7948b4	0.2434414
2	0x3ed82cd0	0.4222169
3	0x3f7f018d	0.9961174
4	0x3e3eb53d	0.18623824
5	0x3e87585b	0.26434597
6	0x3f010ad7	0.50407165
7	0x3ec4e0af	0.3845267
8	0x3ec82459	0.3909023
9	0x3e8f5a51	0.27998593
10	0x3f041beb	0.516051
11	0x3e74ffdf	0.23925732
12	0x3e91bed6	0.2846591
13	0x3ee9b7ae	0.4564795
14	0x3eb71195	0.35755602
15	0x3ecbbfea	0.39794856
16	0x3eb433a8	0.3519566
17	0x3ea31fd3	0.31860217
18	0x3eae175b	0.34002194
19	0x3e974252	0.29542786
20	0x3ecec386	0.40383548
21	0x3e49071f	0.19631623
22	0x3f0e1193	0.55495566
23	0x3ee7fd81	0.45310596
24	0x3ec0c9f2	0.37654072
25	0x3f01e704	0.50743127
26	0x3ea4d9ee	0.32197517
27	0x3ebe6289	0.3718455
28	0x3ef02934	0.46906435
29	0x3e971235	0.29506078
30	0x3ec41960	0.3830061
31	0x3f2c1508	0.6721959

bns.3.weight f4 [32]
0	0x3f9d4059	1.2285262
1	0x3f79b627	0.9754357
2	0x3fa75be5	1.3074919
3	0x3f85709f	1.0424994
4	0x3fb8faf7	1.4451588
5	0x3fa240cd	1.2676026
6	0x3f8a0029	1.0781299
7	0x3fc1a89c	1.512958
8	0x3fb7dff9	1.4365226
9	0x3f9c6f11	1.2221395
10	0x3f84eb38	1.0384283
11	0x3fc4be73	1.537062
12	0x3f9d8601	1.230652
13	0x3fa83cf9	1.3143607
14	0x3fbc86fb	1.4728693
15	0x3f676a59	0.9039665
16	0x3fa0a020	1.2548866
17	0x3fa7f6c4	1.3122182
18	0x3f95251f	1.1651953
19	0x3ff14467	1.8849
20	0x3fa681de	1.3008382
21	0x3fabbe10	1.3417377
22	0x3f9ff6e4	1.249722
23	0x3f8521e6	1.040097
24	0x3fafa592	1.3722403
25	0x3f91615f	1.135784
26	0x3fa9d0a1	1.3266793
27	0x3fd5f6d5	1.6715952
28	0x3fb0582e	1.377691
29	0x3fb361e0	1.4014244
30	0x3f857ea0	1.0429268
31	0x3f81bd0c	1.0135818

bns.3.bias f4 [32]
0	0x3e8c4b3b	0.27401146
1	0xbd84f910	-0.064928174
2	0x3eb0b5ed	0.34513798
3	0x3e3ee2a4	0.18641144
4	0x3eed6adc	0.4637059
5	0x3ea42f9b	0.3206757
6	0xbd9cd86a	-0.07658465
7	0x3ec5767f	0.38566968
8	0x3ea5839c	0.32326972
9	0xbd8f32eb	-0.06992134
10	0x3c13ad84	0.009013537
11	0x3ee9a159	0.4563091
12	0x3e88027f	0.26564404
13	0x3e56be37	0.20970999
14	0x3efb16c5	0.4904081
15	0xbd987a3e	-0.07445191
16	0x3e8b027c	0.27150333
17	0xbd8cd9c9	-0.06877477
18	0xbd8c592b	-0.06852945
19	0x3f3aa5f8	0.729095
20	0x3e955ffe	0.291748
21	0x3f0c96ea	0.54917777
22	0x3e9705fb	0.2949675
23	0xbd80f517	-0.06296747
24	0xbc99b6da	-0.018763948
25	0xbcc39dcc	-0.023878954
26	0x3ea7b3d4	0.32754385
27	0x3f1705c5	0.5899318
28	0x3ec26799	0.37969664
29	0x3ea66432	0.32498318
30	0xbd8a6de3	-0.067592405
31	0xbdb52b15	-0.08846108

bns.3.running_mean f4 [32]
0	0x3e912875	0.2835118
1	0x3eb14dbf	0.34629628
2	0x3e58cc69	0.21171726
3	0xbec23534	-0.37931216
4	0x3cefba7e	0.029263731
5	0xbd896f86	-0.067107245
6	0x3d738155	0.059449513
7	0x3eca92cf	0.3956513
8	0x3e46b7f1	0.19406106
9	0xbd2ac0ca	-0.041687764
10	0xbe58aad1	-0.21158911
11	0x3f18117e	0.5940169
12	0x3e2a52b5	0.16633113
13	0x3de4274f	0.1114031
14	0x3e550d41	0.20805837
15	0xbe3a1d9b	-0.18175356
16	0x3e5e7b21	0.21726657
17	0xbd9e333c	-0.07724616
18	0x3e2d4f7f	0.16924857
19	0x3ec57988	0.38569283
20	0x3ea8a62f	0.32939288
21	0xbe755f49	-0.2396213
22	0x3ef69b3d	0.48165312
23	0x3ee34e90	0.44395876
24	0x3d076eb3	0.033064555
25	0x3e2c974a	0.16854587
26	0x3e9d32ee	0.3070292
27	0x3dfb8d6e	0.12282835
28	0x3f4f3d99	0.80953366
29	0x3e19599f	0.14975594
30	0x3e945076	0.28967637
31	0x3e4bdc7b	0.19908325

bns.3.running_var f4 [32]
0	0x3e82d214	0.25550902
1	0x3f644ef6	0.89182985
2	0x3e855682	0.26042563
3	0x3e945f8d	0.2897915
4	0x3ee7c379	0.4526632
5	0x3e903334	0.28164065
6	0x3eea44c9	0.45755604
7	0x3f15fb8e	0.58586967
8	0x3e823495	0.25430742
9	0x3e44c416	0.19215426
10	0x3ec94269	0.3930848
11	0x3e8a7215	0.27040163
12	0x3e9eb31f	0.30996034
13	0x3f07ce58	0.5304923
14	0x3e9104ca	0.28323966
15	0x3e9c6815	0.30548158
16	0x3f527b58	0.8221946
17	0x3e7c7ced	0.2465703
18	0x3ea55766	0.32293242
19	0x3f39b70d	0.7254494
20	0x3f8eb537	1.1149052
21	0x3efdce33	0.4957138
22	0x3ef0475e	0.4692945
23	0x3f4942d5	0.786176
24	0x3ee7eb02	0.45296484
25	0x3ec17d01	0.37790683
26	0x3e987d80	0.2978325
27	0x3ea695fc	0.32536304
28	0x3e6b5190	0.22980332
29	0x3e12dd41	0.14342214
30	0x3f0121fb	0.50442475
31	0x3ee61971	0.44941285
