saved_models/elliptic_GAT_s5.pt (torch, 310141 bytes, 41 tensors)

bns.0.weight f4 [128]
000000 5d da 80 3f 34 4d 88 3f 6f d2 74 3f b0 07 7a 3f
       1.0066639 1.064856 0.95633596 0.9766798
000010 77 de 87 3f 6f 8a 8a 3f 84 e6 6e 3f 0a b7 80 3f
       1.0614766 1.0823497 0.9332049 1.0055859
000020 a4 5d 6f 3f 33 e3 84 3f a9 04 7b 3f f4 eb 83 3f
       0.9350226 1.0381836 0.98053986 1.0306382
000030 e0 55 7f 3f db ee 93 3f 71 81 83 3f cb a5 7d 3f
       0.9974041 1.1557268 1.0273877 0.99081105
000040 82 36 89 3f 07 66 86 3f b8 8b 7c 3f b0 da 86 3f
       1.071976 1.0499886 0.98650694 1.0535488
000050 38 f7 84 3f 87 cb 76 3f 60 82 8e 3f 63 70 83 3f
       1.0387945 0.9640431 1.1133537 1.0268673
000060 25 e4 8d 3f 76 eb 86 3f 5d 1b 75 3f b9 6d 87 3f
       1.1085249 1.0540607 0.9574488 1.058036
000070 cf 6e 7d 3f 7d b7 6c 3f c8 c0 76 3f 53 8f 8f 3f
       0.98997205 0.9246748 0.9638791 1.1215614
000080 51 59 87 3f 0c e0 73 3f 58 a0 6a 3f 8a 29 7a 3f
       1.0574132 0.95263743 0.91650915 0.97719634
000090 87 c7 81 3f 5d 5b 80 3f 10 4f 88 3f dd a8 85 3f
       1.0139016 1.0027882 1.0649128 1.0442158
0000a0 6f 16 84 3f db 7d 82 3f 5d cb 85 3f 89 db 86 3f
       1.0319346 1.0194658 1.0452687 1.0535747
0000b0 0f 08 83 3f 1d 53 69 3f 94 19 76 3f 8f d4 73 3f
       1.0236834 0.91142446 0.9613278 0.95246214
0000c0 15 60 66 3f d0 32 87 3f a0 0f 73 3f f2 29 8b 3f
       0.8999036 1.0562382 0.94945717 1.0872176
0000d0 92 2b 89 3f a7 df 82 3f 7d 0a 80 3f 5e d1 73 3f
       1.0716422 1.0224503 1.0003201 0.95241344
0000e0 2c 35 89 3f 2a ce 88 3f 4e 01 82 3f ef 88 6f 3f
       1.0719352 1.0687916 1.0156648 0.9356832
0000f0 75 aa 84 3f ef eb 74 3f 33 96 79 3f 91 8f 87 3f
       1.0364519 0.95672506 0.9749481 1.0590688
000100 be cb 70 3f 73 6b 86 3f 8b b4 8a 3f 96 83 7d 3f
       0.94060886 1.0501541 1.0836347 0.9902891
000110 29 3d 83 3f a2 6f 80 3f 95 c9 7f 3f 2a 34 80 3f
       1.025304 1.0034068 0.99916965 1.0015919
000120 e8 1d 87 3f 85 af 74 3f 47 9e 6e 3f b2 9b 63 3f
       1.0556002 0.9558032 0.9321026 0.8890945
000130 aa ba 8c 3f e2 a0 83 3f 6f 38 6a 3f 73 64 86 3f
       1.0994465 1.0283473 0.9149236 1.0499405
000140 ce fa 70 3f e7 1f 93 3f fa 17 8e 3f 53 54 74 3f
       0.941327 1.1494111 1.1101067 0.9544117
000150 83 e2 8c 3f 95 07 78 3f c0 89 89 3f 53 d9 7f 3f
       1.1006626 0.9688657 1.0745163 0.99940985
000160 52 5a 87 3f fe 36 88 3f c4 c3 7d 3f 0b c0 79 3f
       1.0574439 1.0641782 0.9912684 0.9755866
000170 d7 6e 87 3f 4a 0b 87 3f 07 ed 86 3f 47 0e 75 3f
       1.0580701 1.055032 1.0541085 0.9572491
000180 ed 7e 75 3f 9c 7c 7a 3f 1a 09 8e 3f cc d4 70 3f
       0.958968 0.9784639 1.1096528 0.940747
000190 cc 8e 72 3f ed f5 86 3f d2 8f 6c 3f fd 94 6e 3f
       0.9474914 1.05438 0.9240695 0.9319609
0001a0 a6 90 8b 3f 56 5a 7e 3f 64 87 6e 3f 21 f5 81 3f
       1.0903518 0.9935659 0.9317534 1.0152932
0001b0 9a 55 77 3f 10 61 8f 3f 3e c9 87 3f 3a ca 65 3f
       0.9661499 1.1201496 1.0608289 0.897617
0001c0 5e bf 84 3f 3a b9 80 3f 9e fc 75 3f 9e b1 85 3f
       1.0370901 1.0056527 0.9608859 1.044483
0001d0 8b c7 89 3f 16 31 38 3f 6e 31 87 3f 4e 94 87 3f
       1.0764021 0.719499 1.056196 1.0592134
0001e0 30 ae 7e 3f a6 fa 89 3f 39 aa 71 3f f8 1b 92 3f
       0.9948454 1.0779617 0.94400364 1.1414785
0001f0 81 23 76 3f f9 f8 77 3f 50 75 84 3f 80 57 82 3f
       0.96147925 0.9686428 1.0348301 1.0182953

bns.0.bias f4 [128]
000000 bf e8 89 bc 4f 0d f5 3c 99 6d 8f 3d 67 88 9b bd
       -0.016834615 0.029913573 0.07003326 -0.07594376
000010 97 3f f0 3d f9 7a 05 3d 4a 4e 04 be 47 be 11 bd
       0.11730879 0.03258798 -0.1292049 -0.035581853
000020 2a 39 9b bc 50 3c c4 3b be 9d 32 3d 18 a5 82 bc
       -0.018948156 0.005988635 0.043607466 -0.015947863
000030 a4 18 ad bd c8 1c 9e 3d bf 75 8a bd 59 a7 7d 3d
       -0.084519655 0.07720333 -0.067607395 0.061927173
000040 e5 69 db 3d 2e 4a 1b bc 54 c7 09 be ea 38 26 3e
       0.10713557 -0.009478135 -0.13454944 0.16232648
000050 1c bd d4 3d 39 78 3f bd 52 bc d2 3d bb f6 b5 bd
       0.10387632 -0.046745513 0.102898255 -0.08884951
000060 cd e4 15 bd 22 b4 5f bd 2c 77 49 bd cc 43 42 3d
       -0.036595155 -0.054615147 -0.049185917 0.047427937
000070 55 03 8a 3d e1 0e a5 bd ae 8d af bc 6e fb 0a 3e
       0.06738917 -0.080594786 -0.021429863 0.13572475
000080 c0 86 cc 3b d0 95 93 bd 34 e8 1c bd cc 13 b1 3d
       0.0062416494 -0.07206309 -0.038307384 0.08646354
000090 fc 0a 12 bd 03 7c 1d 3e 4a d9 24 3d bc cd 28 3d
       -0.035655007 0.15379338 0.040246285 0.04121183
0000a0 23 d2 fd 3c f7 de b6 bd 8e 8f 85 3d 96 8d f7 bc
       0.03098399 -0.08929246 0.065215215 -0.03021888
0000b0 1b 56 24 3d bf b3 a6 bd 7b df a0 bd ee a2 ee bc
       0.04012118 -0.081397526 -0.078551255 -0.029130425
0000c0 f8 e2 b4 bd 96 27 1a 3d 14 78 19 3b 3c 34 a2 3d
       -0.08832353 0.03763541 0.002341752 0.07920119
0000d0 4a e5 b9 3d e8 55 c4 3d 63 30 c9 3c 52 76 3c 3d
       0.090769365 0.09586698 0.024559205 0.046011277
0000e0 64 d4 c5 3d e6 8d 5b 3d b8 e0 9f bd 31 72 5a 3d
       0.09659651 0.05360212 -0.078065336 0.053331558
0000f0 d2 c6 32 3d f4 5b a6 3d b4 2c 78 bd b6 4a 90 bd
       0.04364664 0.081230074 -0.060589507 -0.070455
000100 e1 da b1 bd cc 8c eb 3c 4b c6 cc bc db 83 93 bd
       -0.08684326 0.02875366 -0.024996897 -0.07202884
000110 57 a8 f7 3c af 60 ba bd e2 dd 6d 3b a4 5b 28 3e
       0.030231638 -0.09100472 0.0036295583 0.16441208
000120 2a 73 90 bd 11 9a 9e bd 6b ce 05 3e 02 d8 47 bd
       -0.07053216 -0.077442296 0.13067023 -0.048789985
000130 e8 24 bc 3d 80 f7 4e bd ce 20 0b bd 1b 26 11 bd
       0.09186727 -0.050529003 -0.033966832 -0.03543673
000140 3e 16 74 bb 54 62 fc 3c ed 75 e3 bd 5b 28 e7 bb
       -0.0037244703 0.030808605 -0.11106477 -0.0070543713
000150 16 aa 09 3d 34 88 a8 bb 5f 28 91 3d d9 1b f2 bb
       0.033609472 -0.00514319 0.07087778 -0.0073885736
000160 cc d9 79 bc fd b3 37 3d 99 8e 51 bd d7 e1 9a bd
       -0.015249681 0.044849385 -0.051161382 -0.07562607
000170 fb 5c f6 bb 05 e9 9d 3d b3 44 b4 3d 69 66 0e 3d
       -0.0075184084 0.077104606 0.08802166 0.034765635
000180 fe 9a 42 3b 3f 9a 4a bd f3 9c 89 bc 7c 74 1b 3d
       0.0029694433 -0.049463507 -0.016798472 0.037952885
000190 b7 3f 96 3d ec 85 89 3d e2 14 17 bd 5f 38 60 bd
       0.073363714 0.06714997 -0.03688515 -0.05474126
0001a0 c0 b7 a9 3d 7c 22 61 bc 23 50 0b bc f2 84 02 be
       0.08287001 -0.013741132 -0.008502993 -0.12746027
0001b0 36 19 ec 3b 9b 82 82 3c 4f 57 1d bd b3 8d 3a 3d
       0.007205154 0.015931418 -0.038413342 0.04554529
0001c0 64 f0 8a 3d 3a 17 7e bd 40 e7 dc bc e2 9c 4e bd
       0.06784132 -0.06203387 -0.026965737 -0.050442584
0001d0 1d a9 7a bc 51 17 cc 3c 1a d0 6c bd 3a 20 3c 3d
       -0.015299109 0.024913462 -0.05781565 0.04592917
0001e0 e3 68 f3 bc 6f f1 76 3d 1b 8c 3e bd 30 9f bc 3d
       -0.0297131 0.060288843 -0.046520334 0.0921005
0001f0 d5 71 dd 3c 25 b3 1a 3d 61 85 f7 bc e1 b0 8a 3d
       0.027031818 0.0377685 -0.030214967 0.06772018

bns.0.running_mean f4 [128]
000000 91 ae 56 3f 9f 22 08 3e 2b 16 47 3f 3c 79 b8 be
       0.8386012 0.13294457 0.777682 -0.36029994
000010 42 79 41 be ab 1a 63 3f d2 4a e5 3d 15 ff 5a bf
       -0.18893912 0.8871257 0.111959115 -0.85545474
000020 63 28 6b 3f 57 39 25 3e 58 dc 0c 3d 52 9a 02 bf
       0.918585 0.16135155 0.034389824 -0.51016724
000030 c1 fe 34 3f 49 7c 18 3f f1 20 38 3f 0b 9e 28 3f
       0.70701224 0.59564644 0.71925265 0.65866154
000040 8f b7 64 3d 04 44 0b bf 6b c3 74 3f 64 92 56 bf
       0.055839118 -0.5440066 0.95610684 -0.83817124
000050 91 6f 99 bf 99 94 3d 3f ab 29 78 be 60 50 54 3f
       -1.1987172 0.7405487 -0.24234645 0.8293514
000060 5a 66 c6 be b5 28 30 3f 69 d2 68 bc d7 db 42 3f
       -0.38749963 0.68812114 -0.014210322 0.761167
000070 ce f7 52 3f 05 a7 96 3e 6d 6d 15 be 5b 08 bc be
       0.8240937 0.294243 -0.14592524 -0.36725125
000080 d4 ef 9d bf 27 a3 16 3f 32 87 30 bf 55 da 0b be
       -1.2338815 0.588427 -0.6895629 -0.13657506
000090 eb 91 77 3f 4a 6c 8c 3f 16 d5 2b 3f 36 3d 63 bf
       0.9670703 1.0970547 0.6712202 -0.88765275
0000a0 5a 98 6c 3f 88 67 a3 3e fb 89 43 bf 5b ed 72 3f
       0.9241997 0.31914926 -0.76382416 0.94893426
0000b0 54 d6 d2 3d 40 e2 03 3f 65 e7 6c 3e f2 f5 27 3e
       0.10294786 0.51517105 0.23135145 0.16402414
0000c0 a7 65 7c bf 87 77 20 3f 81 36 39 bf d2 cc 52 bf
       -0.9859261 0.62682384 -0.7234879 -0.8234378
0000d0 32 1f 13 bf 15 99 55 3f 0e fe 89 be 4e 02 43 3f
       -0.57469475 0.8343671 -0.2695164 0.7617539
0000e0 86 41 23 3f 46 cf 82 bf bb fd 77 3f 0a 46 e0 be
       0.63771856 -1.0219505 0.96871537 -0.43803436
0000f0 4e e2 4d 3e 08 00 4c bf 99 d1 6f 3f 19 14 aa bd
       0.2010586 -0.7968755 0.93679196 -0.083046146
000100 70 ce 66 bd 1a d7 11 3d c5 ee 06 3d 60 bb 1e be
       -0.056349218 0.035605527 0.032942552 -0.15501165
000110 7a 24 ee be c8 5d cd 3e 76 c9 6c 3d 74 3b 17 3f
       -0.46512204 0.40110612 0.057809316 0.59075093
000120 c3 c0 9b bd f1 c7 5f bd 16 e3 97 bd b9 bf 04 3f
       -0.07605126 -0.05463404 -0.0741636 0.51855046
000130 73 71 85 3e 2b 96 d0 bd b2 0c b1 be 8e b0 88 3e
       0.26063117 -0.10184892 -0.34579998 0.266972
000140 fa 8d be 3e 74 00 3c 3f 7e fe fc 3d 4e 1b 10 3e
       0.37217695 0.7343819 0.12353228 0.14072916
000150 22 5f bd be dc c6 e3 3b 04 d5 87 bf 0a 67 46 be
       -0.36986643 0.006951196 -1.0611882 -0.19375244
000160 e0 69 eb be a7 8e 01 3f 46 cd 0c be dc 39 d8 bd
       -0.45979214 0.50608295 -0.1375018 -0.10557911
000170 cd 54 0e bf 09 68 8c 3e ef df 7c bd 33 44 fa 3d
       -0.55598146 0.27423123 -0.061736997 0.12220039
000180 55 24 33 3f d2 f8 e6 bf 34 1d e6 3f f4 19 b8 3f
       0.69977313 -1.8044684 1.7977662 1.438292
000190 d6 09 e1 be 29 4a 2c 3e 39 61 1e 3f c3 e6 9f 3f
       -0.43952817 0.16825165 0.618671 1.2492298
0001a0 d2 5c 83 bf 0d c9 12 3e 71 21 13 bf 8e 7a 20 40
       -1.0262702 0.14334507 -0.574729 2.5074801
0001b0 9f ce 6e bf 4b b8 46 be e3 79 01 3f e8 0a d2 bf
       -0.9328403 -0.1940624 0.5057661 -1.6409578
0001c0 e7 40 94 3f 12 13 35 bf f0 36 ed be 5e 3d 88 3f
       1.1582307 -0.70732224 -0.46330976 1.0643728
0001d0 46 91 90 3e 4f 8d 87 3f d9 6e 60 3f e5 c9 a1 3f
       0.28235835 1.0589999 0.8766914 1.2639738
0001e0 da b3 73 bf e9 21 9a bf f2 03 b7 bf cd 9d 0f 3f
       -0.95196307 -1.2041599 -1.4298079 0.5610016
0001f0 34 4f bd 3e e5 94 49 3f 61 d4 10 bf bd 94 1d 3f
       0.3697449 0.7874282 -0.56574064 0.6155508

bns.0.running_var f4 [128]
000000 4b 6f 1d 40 4e 82 7d 40 90 ed d7 3f dc b9 f6 3f
       2.4599178 3.9610782 1.6869373 1.927547
000010 72 56 d5 3f 0a 99 bc 3f c6 5f 07 40 ed 70 b8 3f
       1.6667006 1.4734204 2.1152205 1.4409462
000020 34 16 e8 3f b0 88 93 3f 07 d9 d1 3f ab dd a6 3f
       1.8131776 1.1526089 1.6394356 1.3036398
000030 49 7c db 3f 48 03 01 40 6d 9b ec 3f 34 bf 35 40
       1.7147304 2.0158253 1.8484932 2.839795
000040 1f 49 f7 3f ba 6b 70 3f 3c ac 15 40 37 0c 0c 40
       1.931919 0.9391438 2.3386374 2.1882455
000050 b3 2c f2 3f c9 0b 9d 3f 1c ee b8 3f cf f4 0e 40
       1.8919891 1.2269222 1.4447665 2.233692
000060 13 3f b0 3f bc d0 0e 40 64 d3 90 3f df e1 b8 3f
       1.3769249 2.2314901 1.1314511 1.444393
000070 1f e5 16 40 0c 0c b4 3f de f8 90 3f 3b c7 aa 3f
       2.3577344 1.4066176 1.1325948 1.334205
000080 56 db 8d 40 fd 6f 94 40 3d 4e b9 40 53 80 af 40
       4.4330244 4.6386704 5.7908006 5.4844146
000090 d3 ef c0 40 bb 24 7e 40 b6 f6 95 40 06 0e c8 40
       6.0292754 3.9709918 4.686366 6.251712
0000a0 4d 5f c3 40 b4 e2 c4 40 c1 a5 2a 40 f1 9a 24 40
       6.1053834 6.1526737 2.6663668 2.5719569
0000b0 b4 3e 0b 41 32 65 44 40 c2 e6 f6 3f 7b 34 a5 40
       8.702808 3.0686765 1.9289172 5.1626563
0000c0 c0 0f 80 40 70 60 93 40 d5 d1 95 40 ab b8 ab 40
       4.0019226 4.605522 4.6818643 5.3662925
0000d0 16 6e 65 40 48 8a 8e 40 96 55 bb 40 ce fe 39 40
       3.584844 4.45438 5.8541975 2.906177
0000e0 bf 81 dc 40 47 ca d2 40 1f 86 d7 40 ba 05 6d 40
       6.890838 6.587192 6.735122 3.7034745
0000f0 bb a7 1e 40 72 6f 9a 40 e2 e9 05 40 5e 53 28 40
       2.4789875 4.826104 2.0924 2.6300883
000100 51 f2 1c 40 ab 8b 21 40 dd ef c1 3f a7 9b 58 40
       2.4522898 2.5241497 1.5151325 3.3845003
000110 53 8f 1f 40 68 03 52 40 a4 2c 4e 40 6a 96 d2 40
       2.4931228 3.281458 3.2214746 6.580861
000120 5e 0c 8c 40 fb 41 ea 40 87 95 dd 3f 31 19 a8 40
       4.3765097 7.3205543 1.7311257 5.253075
000130 ba dc 8b 40 6d cf 5f 40 88 67 2a 40 3a 5f d9 40
       4.370694 3.4970353 2.662569 6.7928743
000140 55 f3 c5 40 09 87 1f 40 1f 24 17 41 ad 54 a1 40
       6.1859536 2.492617 9.446319 5.0415864
000150 2c 4e 58 40 e8 08 5f 40 92 1e 6d 40 d4 50 c0 3f
       3.3797712 3.4849186 3.7049909 1.5024667
000160 e1 1b 4c 40 6e af 11 40 a7 75 48 40 48 ea 28 40
       3.1892016 2.2763324 3.132181 2.6392994
000170 00 ad 43 40 a0 bd 12 40 08 de cd 3f 48 6b a8 40
       3.057434 2.2928238 1.6083384 5.263096
000180 3b ef 19 40 f2 88 60 40 58 7f 12 41 28 07 88 40
       2.4052265 3.5083585 9.15609 4.2508736
000190 d6 ae bc 40 ab 41 24 40 28 b9 34 40 bd 68 a6 40
       5.8963423 2.566508 2.823801 5.2002854
0001a0 62 a2 25 40 ea 7b b7 40 65 42 99 40 eb 1f 1f 41
       2.588036 5.733876 4.789355 9.945292
0001b0 d3 d0 9f 40 d2 7c 42 40 c9 fb 74 40 b1 04 09 41
       4.994241 3.0388684 3.8278677 8.563645
0001c0 72 6d 1b 40 a0 fa 3f 40 3d fe c3 3f 11 9b 7b 40
       2.428555 2.999672 1.5311962 3.9313395
0001d0 0b c1 43 40 75 81 66 40 b0 e7 07 40 23 8d 7e 40
       3.0586574 3.6016514 2.123516 3.9773643
0001e0 88 3a 0f 40 f7 45 46 40 01 d2 5a 40 b6 98 1e 40
       2.2379475 3.0980203 3.4190676 2.4780707
0001f0 d4 4b f5 3f c9 89 df 40 fd 42 78 40 77 a6 40 40
       1.9163766 6.9855695 3.8790886 3.0101602

bns.1.weight f4 [128]
000000 a1 91 8b 3f f6 6d 87 3f 72 75 84 3f 82 be 85 3f
       1.0903817 1.0580432 1.0348341 1.0448763
000010 3b a8 8f 3f b1 ac 7f 3f a0 1b 8c 3f cb a6 85 3f
       1.1223215 0.9987288 1.094593 1.0441526
000020 89 11 87 3f ec 2d 84 3f 5c 0d 86 3f 71 90 6f 3f
       1.0552226 1.0326514 1.0472827 0.93579775
000030 eb 17 75 3f 98 72 71 3f e4 ab 6f 3f 28 56 70 3f
       0.9573962 0.9431548 0.9362166 0.93881464
000040 c0 d1 8c 3f fc a0 8d 3f e9 f7 7f 3f fd 2b 83 3f
       1.1001511 1.1064754 0.99987656 1.0247799
000050 0d e7 81 3f da 58 7f 3f c5 47 6c 3f c2 6d 83 3f
       1.0148636 0.9974495 0.9229701 1.026787
000060 e0 de 95 3f bb b5 6e 3f 1d 9d 63 3f 94 e6 80 3f
       1.1708641 0.9324605 0.8891161 1.0070367
000070 84 60 80 3f a2 2d 89 3f 6a 96 86 3f d4 6f 8b 3f
       1.0029454 1.0717051 1.0514653 1.0893502
000080 2d 47 76 3f d6 f1 88 3f 6c 30 8b 3f 99 8b 67 3f
       0.96202356 1.0698802 1.0874152 0.90447384
000090 ac bd 71 3f dd f1 74 3f de 04 8e 3f 46 ae 7a 3f
       0.9443004 0.95681554 1.1095235 0.9792217
0000a0 0e ae 81 3f 2b 06 73 3f 85 7d 64 3f 90 02 81 3f
       1.0131242 0.94931287 0.8925403 1.0078907
0000b0 04 b6 6e 3f a6 b3 7c 3f bc 88 7a 3f 50 57 92 3f
       0.93246484 0.9871162 0.9786489 1.1432896
0000c0 a8 5a 7d 3f a2 c2 71 3f c9 f6 8e 3f 79 b2 89 3f
       0.98966455 0.9443761 1.1169063 1.075759
0000d0 2a ae 7b 3f 7b 9b 77 3f 94 18 72 3f 3f 07 69 3f
       0.9831263 0.9672162 0.94568753 0.9102668
0000e0 ff d8 83 3f 2e db 87 3f 39 15 81 3f b0 87 85 3f
       1.0300597 1.0613763 1.0084602 1.0432034
0000f0 8a a6 79 3f 2e 5c 84 3f 84 b1 89 3f 59 df 94 3f
       0.97519743 1.0340631 1.0757298 1.163066
000100 62 ed 73 3f e5 0a 78 3f 5d fa 81 3f b0 81 69 3f
       0.9528409 0.96891624 1.015453 0.9121351
000110 b4 b1 7f 3f e6 44 7d 3f 61 18 6b 3f 4f 76 73 3f
       0.9988053 0.98933256 0.91834074 0.951024
000120 27 97 7c 3f 1a 19 95 3f 42 73 89 3f e5 cb 87 3f
       0.9866814 1.1648285 1.0738299 1.0609099
000130 d4 d6 6f 3f 5c 95 71 3f f3 ae 82 3f ce db 80 3f
       0.93687177 0.9436853 1.020964 1.0067079
000140 40 18 7e 3f 71 e8 85 3f 41 21 85 3f b2 dd 7a 3f
       0.9925575 1.046156 1.0400773 0.9799453
000150 06 70 6a 3f a2 e5 81 3f 0f 17 77 3f 72 ff 84 3f
       0.91577184 1.0148203 0.9651956 1.0390456
000160 c7 75 74 3f 11 3e 8e 3f e4 98 92 3f de 3e 6f 3f
       0.95492214 1.1112691 1.1452909 0.934553
000170 e6 88 89 3f 91 1a 89 3f bc ab 87 3f de 85 87 3f
       1.0744903 1.0711232 1.0599284 1.0587728
000180 20 93 71 3f 53 31 6e 3f c7 fa 71 3f 05 08 81 3f
       0.9436512 0.9304401 0.9452328 1.0080572
000190 5e 2b 74 3f 4f 2c 82 3f d5 17 8b 3f db 21 71 3f
       0.95378673 1.0169772 1.0866648 0.94192284
0001a0 7b 74 84 3f 8d 3a 86 3f 39 85 8c 3f 66 91 70 3f
       1.0348047 1.0486618 1.0978156 0.9397186
0001b0 d6 26 87 3f b1 3b 87 3f 14 57 86 3f ea d2 82 3f
       1.0558727 1.0565091 1.0495324 1.0220616
0001c0 89 42 79 3f 26 67 8f 3f ba a8 81 3f 96 77 8e 3f
       0.9736715 1.1203353 1.0129616 1.1130245
0001d0 76 f8 78 3f 90 bf 80 3f 7b dc 7e 3f 50 d8 89 3f
       0.9725412 1.005846 0.99555176 1.0769138
0001e0 06 a3 7a 3f 66 fc 87 3f a2 88 86 3f e7 d9 89 3f
       0.97905004 1.0623901 1.0510447 1.0769624
0001f0 37 bc 70 3f 46 76 74 3f a9 9d 86 3f dc fa 8a 3f
       0.94037193 0.9549297 1.0516864 1.0857806

bns.1.bias f4 [128]
000000 e5 6d f8 3d d4 60 a9 3c a3 f6 bb 3d 2c a4 0e 3e
       0.12130336 0.020676054 0.091779016 0.13929814
000010 d0 34 ac 3c 6c 1d 0c bd 49 9b b6 3d 1c f8 42 bd
       0.021021277 -0.034207746 0.08916337 -0.047599897
000020 88 25 89 3d e9 0e 04 3e b8 a7 e6 3c cb 84 1d bd
       0.06696612 0.12896313 0.028156146 -0.03845672
000030 6b 9e c3 bc 3a bb 5a bc 5e 8a 55 3d 57 bc 2a bd
       -0.02387925 -0.013350302 0.05213391 -0.04168352
000040 a5 ad 65 bd db 08 93 3b bf 1f 8f bd ea c8 8c 3d
       -0.056073803 0.0044871396 -0.06988477 0.06874259
000050 c0 40 ce 3c 4e 0e 64 bd 92 11 ee bd b2 d5 ed 3c
       0.02517736 -0.055677705 -0.11624445 0.029032562
000060 0e 4c 0e bd ad bd 07 be 0b 63 c6 bd dc cb 02 be
       -0.0347405 -0.1325595 -0.0968686 -0.12773079
000070 20 3b 2a 3c 8f d3 a1 3d 57 43 f6 3c 78 b5 14 bd
       0.010390073 0.0790168 0.030061407 -0.036305875
000080 6f d3 bc 3d 6d ba dd 3d 82 ef 10 3e 68 21 15 be
       0.09220015 0.108265735 0.14153865 -0.14563525
000090 6b 97 20 bd f5 56 f1 bc 0e 8e 2b 3d cb b1 2b bd
       -0.039206903 -0.02946041 0.04188352 -0.041917603
0000a0 1e 5f be bc d8 8f 63 3d 86 1f 8e bd 83 60 a2 3c
       -0.023238715 0.055557102 -0.06939606 0.019821411
0000b0 72 0b d2 bc f4 02 eb 3d b8 6f 5d bd 15 d7 2c 3d
       -0.025640223 0.11475173 -0.05406162 0.042197306
0000c0 a1 3f 0e bd 56 d2 35 3d a1 14 ad 3d fa c7 1f bd
       -0.03472865 0.044390045 0.084512 -0.039009072
0000d0 c2 18 bf bd 48 c4 92 bd 87 fd e4 3c 2e c9 af bd
       -0.09330894 -0.07166344 0.027952923 -0.08583294
0000e0 7a 8e 65 bd ab 69 2a 3d f2 7f 09 bb b2 00 4f bd
       -0.05604408 0.04160468 -0.0020980802 -0.050537772
0000f0 ad fc 17 bd e2 0f a0 3b 0f ce 36 3d a6 cb 5a 3e
       -0.037106205 0.004884706 0.044630107 0.21366748
000100 c5 41 4d 3e 38 46 5c 3d b8 03 6d 3c 5d 8a b5 bd
       0.2004462 0.053777903 0.014466219 -0.08864281
000110 be a9 be bd 52 cf 8c 3d fc 5d 64 bb 6a cc 5f bd
       -0.093097195 0.06875481 -0.0034846058 -0.054638304
000120 7f c5 a1 bd f8 95 d8 bb 96 5a d3 3b f7 36 38 3d
       -0.078989975 -0.0066096745 0.0064500077 0.044974294
000130 f5 a9 40 3c ca 2c bd bd 8e 90 03 3c f9 9f 06 be
       0.011759271 -0.092370585 0.00803007 -0.13146962
000140 53 1b 71 bd b8 37 15 bd e4 af 47 bc b3 10 62 bd
       -0.05886395 -0.03643009 -0.012187932 -0.055191707
000150 1c 5a 78 bd 0b d8 22 bd 87 34 57 bd e0 90 c9 ba
       -0.06063281 -0.039756816 -0.05254033 -0.0015378259
000160 b4 4b 9f 3d db 00 f3 3c dc 6a d1 bd fb a7 5c 3d
       0.07778111 0.029663494 -0.1022546 0.053871136
000170 62 30 1d 3d aa ac 7e 3c d7 87 14 3d a7 9e a3 3d
       0.03837622 0.015544096 0.03626236 0.07989245
000180 8d 5f 80 bd 91 cb 66 3d 0c 0e 21 be 4f 6f dc bd
       -0.06268225 0.05634648 -0.15728015 -0.10763418
000190 14 7a 67 bd ad 31 4d bd d5 6b bf 3c 2d c6 25 3d
       -0.056512907 -0.050096203 0.023366848 0.0404722
0001a0 ce 29 d8 bd 1e 91 cb 3d ea 41 b3 bc 83 f1 3f bd
       -0.105548486 0.09939788 -0.021882016 -0.046861183
0001b0 21 8a f1 bc a1 b9 ad 3d 09 97 c2 3d 2c a0 80 3e
       -0.02948481 0.084826715 0.09501464 0.251222
0001c0 4a 0d 73 3c fc ff 52 bb 59 04 39 bd 96 a8 15 3d
       0.014834711 -0.0032196036 -0.045170162 0.03653773
0001d0 93 2b 61 bd b2 9c 8a bd d3 a3 5b bd d2 10 d7 bd
       -0.054973196 -0.067681685 -0.05362303 -0.10501255
0001e0 2e 8b f3 3d f2 22 f1 3d 08 51 b7 3d 81 f3 46 3d
       0.11891781 0.117742434 0.08951002 0.048572067
0001f0 67 ed 8d bd 09 d4 50 bd 29 0d c9 bd 43 c9 e1 3b
       -0.069300465 -0.050983462 -0.09816963 0.0068904473

bns.1.running_mean f4 [128]
000000 20 0a c2 3e 01 3d 77 3e d5 40 17 3e 5b 80 4e 3b
       0.3789835 0.24144365 0.14770825 0.0031509611
000010 1a c6 be 3d 37 67 b5 3b 3f bc 0f 3f 54 0a aa be
       0.093151286 0.005535986 0.56146616 -0.33211005
000020 d2 e9 fa be af f9 d0 bd 95 a5 60 3e 0c e1 ac be
       -0.49006516 -0.10203873 0.21938165 -0.33765447
000030 10 90 c5 3d d2 4b 1a bf 60 6a 23 bf 78 79 ca be
       0.09646618 -0.6027194 -0.6383419 -0.39545798
000040 a4 ac ac 3e 6f c0 74 be ae 8d df 3e 7f f1 a6 3a
       0.33725464 -0.23901533 0.4366278 0.0012736766
000050 f4 44 99 bd ca e2 e7 3e e4 87 33 3e f3 22 20 bd
       -0.07483855 0.45290214 0.17532307 -0.03909583
000060 c6 f5 20 3e 51 a9 84 bd 44 ef 5e 3e 6a 5b cd 3e
       0.15718755 -0.06477607 0.2177096 0.40108806
000070 1e 23 b3 3d 80 bc a3 3c a0 ca c2 3e 3a 40 a0 3e
       0.087469324 0.019987345 0.38045216 0.31299
000080 09 9d 1d bf 1c ec 58 3e 54 e7 60 be 35 2c 8e be
       -0.6156774 0.21183819 -0.21963245 -0.27768102
000090 db 37 94 be 31 a8 5d bd 4c 0b c0 be 50 1b e9 be
       -0.28948864 -0.054115478 -0.3750862 -0.4552865
0000a0 90 26 57 3e 9a 6f a1 be f3 1d f1 3d 2c 42 8a bd
       0.21010804 -0.31530458 0.117732905 -0.067509025
0000b0 ad 7f d1 bd 4f 80 4f be d3 3b ae 3e 34 52 a3 3e
       -0.1022943 -0.2026379 0.34030017 0.31898654
0000c0 db 43 0a be f0 e6 2f bf 21 13 91 be 09 68 82 3e
       -0.13502447 -0.6871176 -0.28334907 0.25469998
0000d0 e4 59 13 3f 8b f6 90 3e dd 4f 9c be 4e 43 21 3f
       0.5755904 0.28313097 -0.3052968 0.62993324
0000e0 3c 8c 3a 3f a1 10 2d bf d6 81 a9 bd ec 08 6b 3e
       0.7287023 -0.676035 -0.08276717 0.22952622
0000f0 17 e1 69 3e 11 a7 be 3d 5f 81 a1 bb 18 a9 55 be
       0.22839771 0.09309209 -0.0049287523 -0.20865285
000100 34 1b 2a 3e a9 32 ed bd f5 28 01 bf 75 39 a5 be
       0.1661194 -0.11581928 -0.5045312 -0.322704
000110 f5 45 1f bd e5 fd f5 bc e1 2e 02 bf b7 79 25 be
       -0.038885076 -0.030028293 -0.5085278 -0.16159712
000120 67 b1 fa 3e ee e5 d6 3e 7b 5f 52 3e 43 45 94 3e
       0.48963472 0.41972297 0.20544235 0.28959092
000130 86 e3 e8 be ae ff ad bd ad cf d7 be f0 05 1c 3e
       -0.45486087 -0.08496033 -0.42150632 0.1523664
000140 b0 06 4b 3d 26 06 93 3e 0e 95 54 3d e0 00 f8 3d
       0.049566925 0.28715628 0.051899962 0.12109542
000150 bd 19 4e 3e 0e e1 e7 3e 47 51 c5 be de 80 9c be
       0.20127006 0.4528889 -0.38538572 -0.30567068
000160 ea 39 d5 3e 90 a0 11 bd 2d 61 71 3c f0 4c 35 3d
       0.41645747 -0.035553515 0.014732641 0.044262826
000170 51 03 98 3e ae a0 7e 3e 19 ca 0e be 57 52 c0 bd
       0.2969003 0.24865982 -0.13944282 -0.09390705
000180 d8 ef 1c be b8 5c 98 3d e5 40 59 be 2d 64 1d 3d
       -0.15325868 0.0743956 -0.21216162 0.038425613
000190 81 6c d7 bb 82 73 e6 bd d6 54 5e be 7d b6 89 3e
       -0.006574214 -0.112525 -0.2171205 0.2689704
0001a0 d0 ed 5c be 23 64 41 3e 04 64 21 3f 37 71 0c bf
       -0.21575093 0.18885855 0.63043237 -0.5486025
0001b0 42 7d e8 be 30 85 27 3e 1d 35 63 3d 49 64 26 be
       -0.45408064 0.16359401 0.055470575 -0.16249193
0001c0 14 29 24 3f 19 f9 26 be bc 93 ab 3d f4 a7 54 be
       0.6412518 -0.1630596 0.083777875 -0.20767194
0001d0 46 00 dc 3e 7e ef 8d 3e 40 25 4a be d1 e0 7d 3e
       0.4296896 0.2772178 -0.19740772 0.24792792
0001e0 e9 7e ca 3d 1a 61 18 3e e7 b6 38 bd 7d dd f7 be
       0.098874874 0.14880791 -0.045096304 -0.4841117
0001f0 82 68 09 3e 65 89 17 be ee 00 b9 3e 4b 69 96 3e
       0.13418773 -0.14798506 0.36133522 0.29377207

bns.1.running_var f4 [128]
000000 b9 6c a5 3f 8b f3 ec 3f 8f 6b e7 3f 0b dd 77 40
       1.2923805 1.8511823 1.8079699 3.8728664
000010 90 de 02 40 f2 e9 f4 3f dd b8 6c 3f 27 72 55 3f
       2.0448341 1.9133894 0.9246958 0.8337731
000020 da 3c 52 3f 3c 28 fd 3f 09 4e cd 3f 10 c3 d7 3f
       0.821241 1.9777904 1.603944 1.6856403
000030 50 dd 80 3f 5f 69 9c 3f 03 82 eb 3f b9 b7 87 3f
       1.0067539 1.2219657 1.8399051 1.0602943
000040 31 47 9b 3f 8a 67 06 40 04 37 0b 40 99 ea ee 3f
       1.2131101 2.1000695 2.175233 1.8665344
000050 35 11 d6 3f 85 80 b9 3f f6 f0 3b 3f 79 1e e1 3f
       1.6724001 1.4492346 0.7341455 1.7587425
000060 32 9d 86 3f da 6a 80 3f c2 5e a2 3f 33 4a 9c 3f
       1.0516722 1.0032609 1.2685168 1.2210144
000070 d6 74 cf 3f 7b e3 b9 3f 6a eb f6 3f 7a 1c 01 40
       1.620753 1.4522547 1.9290593 2.017363
000080 e8 b4 d9 3f d0 b7 56 3f f0 65 a6 3f e9 f3 05 40
       1.7008333 0.83874226 1.2999859 2.093012
000090 87 01 ab 3f 64 91 50 40 0f dd 04 40 d0 f4 53 40
       1.3359841 3.258874 2.0759923 3.3118172
0000a0 89 56 25 40 fd 92 c3 3f 92 23 15 40 9a 5d c9 3f
       2.5834067 1.5279232 2.330296 1.573169
0000b0 cf d8 0b 40 dd ea 90 3f 95 7e 9f 3f 8b 97 70 40
       2.185108 1.1321675 1.2460505 3.7592494
0000c0 cc 6d b5 3f 86 db b2 40 39 9c 4c 40 30 4b c9 3f
       1.4174132 5.5892973 3.197035 1.572607
0000d0 11 11 6a 40 0a cd 91 3f 7a d3 e3 3f 27 10 64 40
       3.6572917 1.1390698 1.7798913 3.5634859
0000e0 4b 62 04 40 67 d5 ec 3f fa 8e 02 40 b5 ba e2 3f
       2.0684993 1.8502625 2.0399766 1.7713228
0000f0 ca 32 0f 40 3c b0 ec 3f 90 82 1c 40 cd 43 1e 40
       2.237475 1.8491282 2.445469 2.4728882
000100 58 aa 3a 40 52 0e 00 40 83 02 e7 3f 87 23 33 3f
       2.916647 2.000874 1.8047642 0.69976085
000110 e4 1e b1 3f 6b 5c 86 3f a3 b5 7a 3f e5 50 98 3f
       1.3837552 1.0496954 0.97933406 1.1899687
000120 43 13 21 3f 49 aa 40 3f 3a 4c cf 3f 78 02 0e 40
       0.62920016 0.75259835 1.6195138 2.2189007
000130 ac f2 33 3f 14 60 40 3f 35 18 89 3f 17 e0 d6 3f
       0.7029216 0.75146604 1.0710512 1.6787137
000140 bd 43 39 3f 56 10 61 3f 44 95 65 3f c6 a7 94 3f
       0.72368985 0.8791555 0.89680886 1.16137
000150 ea 0e 35 3f 43 b6 ae 3f a2 52 5f 3f 59 d9 9e 3f
       0.7072588 1.3649372 0.8723546 1.2410079
000160 2e 36 a0 3f 15 d4 24 40 59 74 39 3f 9a 67 a1 3f
       1.2516534 2.5754445 0.7244316 1.2609742
000170 d3 27 9d 3f d0 77 6a 3f bc b2 6b 3f 3a 54 e5 3f
       1.2277778 0.9158907 0.920696 1.7916329
000180 e3 6d 39 3f a7 ad 27 40 c1 a9 bc 3f cd ea e3 3f
       0.724333 2.619974 1.4739305 1.780603
000190 a9 5d 05 40 d8 6e 10 40 d5 87 29 40 ac f9 97 3f
       2.0838416 2.2567654 2.6489155 1.1873069
0001a0 a9 b6 b1 3f 7f 56 22 40 63 04 d5 3f 24 d5 02 40
       1.3883868 2.5365293 1.6641964 2.044259
0001b0 d7 64 96 3f 5a 07 c4 3f d8 93 9f 3f df 82 f9 3f
       1.1749524 1.5314744 1.2466993 1.9493064
0001c0 ab d8 87 3f 86 3b 3a 40 02 d4 fb 3f 95 24 f7 3f
       1.0612997 2.909883 1.9674075 1.9308039
0001d0 b8 66 cd 3f 3e f4 03 40 2b d5 70 40 18 3b 84 3f
       1.6046972 2.0617824 3.7630107 1.0330534
0001e0 17 8b e1 3f 6e 9b 88 3f 87 89 24 3f 8c fd 82 3f
       1.7620572 1.0672433 0.6427235 1.0233626
0001f0 48 1f c2 3f 2e 8c df 3f 9f 58 43 40 30 99 bd 3f
       1.5165796 1.7464654 3.052284 1.4812374

bns.2.weight f4 [128]
000000 b7 e6 85 3f 8f 89 71 3f b2 eb 87 3f dd 88 81 3f
       1.0461034 0.9435052 1.0618804 1.0119892
000010 e4 f2 83 3f 2b 82 82 3f c6 17 86 3f e6 fc 70 3f
       1.0308499 1.0195974 1.0476005 0.9413589
000020 c7 91 78 3f 36 bd 86 3f 60 0c 78 3f 1e d6 6f 3f
       0.9709744 1.0526493 0.9689388 0.9368609
000030 92 e3 77 3f 01 81 87 3f 47 cf 84 3f cc 41 88 3f
       0.9683162 1.0586244 1.0375756 1.064508
000040 7a e5 70 3f d9 ea 8a 3f 1c 09 8b 3f 01 f6 73 3f
       0.94100153 1.085292 1.0862155 0.9529725
000050 e1 93 80 3f 25 94 68 3f f3 b5 81 3f d8 1c 7c 3f
       1.0045129 0.9085105 1.0133651 0.9848151
000060 05 21 8a 3f ad 69 81 3f 5b c2 80 3f a5 ef 7b 3f
       1.0791327 1.0110375 1.0059313 0.98412544
000070 1d 67 78 3f 25 eb 7d 3f ce 1a 67 3f 28 aa 80 3f
       0.9703234 0.9918693 0.90275276 1.0051928
000080 f1 9c 6f 3f eb 1e 89 3f 6c b8 87 3f 1f 46 82 3f
       0.9359885 1.071256 1.0603156 1.0177649
000090 4e e9 7c 3f b2 34 88 3f 82 9d 77 3f 37 39 80 3f
       0.98793495 1.0641081 0.9672471 1.001746
0000a0 e5 a4 85 3f cf 9c 8b 3f 5a bf 83 3f 25 9b 79 3f
       1.0440947 1.0907229 1.0292771 0.97502357
0000b0 79 24 84 3f c6 14 73 3f 5f e2 6f 3f 42 1f 71 3f
       1.032363 0.9495357 0.9370479 0.9418832
0000c0 63 e2 7c 3f 6a e3 71 3f 73 8a 6e 3f 8e 5b 81 3f
       0.9878294 0.9448763 0.93180007 1.0106065
0000d0 c7 6a 85 3f d4 18 6a 3f 0d a6 84 3f 3b 7f 7f 3f
       1.0423211 0.91444135 1.0363175 0.99803513
0000e0 93 82 72 3f 51 d2 6c 3f 1d bf 77 3f c9 8e 7b 3f
       0.9473049 0.9250842 0.9677599 0.9826475
0000f0 b7 d8 8f 3f 11 2c 7a 3f e3 ec 75 3f 5a 47 81 3f
       1.1238011 0.9772349 0.96064585 1.00999
000100 5c 5c 86 3f e5 66 86 3f 70 15 77 3f 51 20 6d 3f
       1.0496936 1.0500151 0.96517086 0.92627436
000110 6d e8 62 3f 78 0c 81 3f a9 da 70 3f 30 a9 84 3f
       0.88635904 1.008193 0.9408365 1.0364132
000120 6f f2 88 3f ab 1d 77 3f 9a ff 80 3f 20 ca 8a 3f
       1.0698985 0.96529645 1.0078003 1.0842934
000130 96 72 79 3f 9a 57 81 3f b2 58 91 3f f5 ec 8c 3f
       0.9744047 1.0104859 1.1355193 1.1009814
000140 ef 03 77 3f 06 25 89 3f 34 17 82 3f 51 0b 71 3f
       0.9649038 1.0714424 1.0163331 0.9415789
000150 c7 ac 7d 3f 54 f5 81 3f 12 bd 6f 3f 50 87 85 3f
       0.9909176 1.0152993 0.93647873 1.0431919
000160 14 ef 82 3f 26 9b 7c 3f ef 85 85 3f cc d2 77 3f
       1.0229211 0.9867424 1.0431498 0.96806026
000170 15 92 81 3f 50 7b 72 3f 4a 81 83 3f c7 7d 70 3f
       1.0122706 0.9471941 1.0273831 0.9394192
000180 b1 9d 87 3f 9a 2a 6f 3f 3a f5 92 3f 68 e2 83 3f
       1.0594999 0.9342438 1.1481087 1.0303469
000190 2d 75 97 3f 43 d8 87 3f c3 d1 8a 3f aa 62 84 3f
       1.1832634 1.0612873 1.0845264 1.034261
0001a0 29 90 84 3f 2c 67 80 3f b2 67 66 3f 2a ba 86 3f
       1.0356494 1.0031486 0.90001976 1.0525563
0001b0 65 23 65 3f e4 7d 80 3f a0 c2 92 3f 99 46 82 3f
       0.8950713 1.0038419 1.1465645 1.0177795
0001c0 2e d4 76 3f 97 fa 6f 3f 8d 8c 85 3f 0c 9b 88 3f
       0.9641751 0.93741745 1.0433518 1.0672317
0001d0 40 af 82 3f c9 97 86 3f 23 25 83 3f 22 53 8f 3f
       1.0209732 1.0515071 1.0245708 1.1197245
0001e0 08 3e 6e 3f 27 a9 6f 3f 84 a5 7e 3f f2 30 83 3f
       0.930634 0.9361748 0.99471307 1.0249312
0001f0 29 11 93 3f 85 cf 72 3f 62 26 79 3f 98 91 85 3f
       1.1489612 0.948479 0.9732419 1.0435057

bns.2.bias f4 [128]
000000 e2 a6 84 3d b0 15 c9 bd e7 a4 93 bd 0d 51 95 bd
       0.06477143 -0.0981859 -0.07209187 -0.0729085
000010 65 05 6e bc fc fe 13 3e 76 7a c6 3d 25 98 36 bd
       -0.014527653 0.14452738 0.09691326 -0.04457869
000020 f6 4b a1 bd 45 2d 00 3e d8 15 01 3e ba b0 0b 3c
       -0.078758165 0.12517269 0.12605989 0.008526022
000030 2b a3 36 bd a1 93 0b 3d bf 4f 17 3c d8 22 91 bd
       -0.044589203 0.034076337 0.009235322 -0.07086724
000040 69 e7 3c bd 26 54 a9 bd 56 61 41 3c c1 a6 0e be
       -0.046119127 -0.08268003 0.011802992 -0.13930799
000050 22 38 55 3d 53 86 91 bd 27 7d 05 3e cd e8 e1 bd
       0.052055486 -0.071056984 0.13036023 -0.11030731
000060 86 34 d9 3d fd 4f ae 3c 10 b6 95 3d c8 1c 14 bd
       0.10605721 0.021278376 0.07310116 -0.03616026
000070 f1 12 02 bc 7b 6f d2 bc c8 a5 90 bd 0b 22 bc 3c
       -0.007939086 -0.025687924 -0.0706287 0.022965452
000080 3d ee bb bd a3 8a d6 3d bc 84 72 3d d6 13 c2 bc
       -0.091763 0.104756616 0.059208617 -0.0236911
000090 d7 82 2b 3e 32 c6 59 bd 2a e9 c3 bd a3 df 85 bd
       0.1674913 -0.05316753 -0.09565957 -0.06536796
0000a0 59 0d 72 bd 0f a1 0f 3e 1b 31 d4 3c d4 9e 2f bd
       -0.05909476 0.14026283 0.025902322 -0.04287608
0000b0 63 54 f7 bc 7e 92 ed 3c 47 bd a7 bd f7 ba 9c 3c
       -0.030191606 0.029000517 -0.08190399 0.01913212
0000c0 ea 8b 68 bd ce 3f 1e bd 7e f3 88 bd a0 ae ab 3d
       -0.056774057 -0.038635068 -0.066870674 0.083829165
0000d0 d0 d4 cd bc c2 1e ca 3b f5 0e a5 bd fd bc ce bd
       -0.025125891 0.0061682174 -0.080594935 -0.100946404
0000e0 8d 7a 3f bd 1a 37 df 3c a7 a2 44 bd 28 4a 08 3e
       -0.046747733 0.027247954 -0.04800668 0.13309538
0000f0 e7 57 56 3e 03 fb 06 bc c1 dd 0f bd 40 c2 3e 3d
       0.2093197 -0.008238557 -0.03512359 0.04657197
000100 fa 38 eb 3d 0c 8a c8 ba be 03 5d bd dc a0 69 bd
       0.11485477 -0.001529993 -0.053958647 -0.057038173
000110 dc 63 2c bd b9 f8 69 bd 07 44 42 bd ba 40 f7 3c
       -0.04208742 -0.057121966 -0.047428157 0.030182231
000120 5e d9 d1 3d c9 ba 07 bd ef 7d 42 3d 74 e8 89 bd
       0.102465376 -0.033137117 0.04748338 -0.0673379
000130 99 7b 46 3e 87 89 9e 3c 3a 04 ba ba 7d 12 06 3c
       0.19383086 0.019352688 -0.0014191933 0.008183119
000140 82 c5 7f 3d 7e 67 54 3e 07 7e bf 3c 2e 75 a3 3c
       0.062444218 0.20742604 0.023375524 0.019953337
000150 c8 ea 2e bd 44 8b 82 3c d5 fa ff bc 4c 07 05 3d
       -0.042704374 0.015935548 -0.031247536 0.032477662
000160 9b 0f 0f bd a9 62 a9 3d fc 3b 00 3d a3 cf c3 3c
       -0.034926992 0.08270771 0.031307206 0.02390272
000170 39 27 57 3d fe eb 83 3d 1e de 70 3d 48 40 90 bd
       0.05252764 0.06441496 0.058805577 -0.07043511
000180 93 33 2c be 6a 7a 21 3a 83 09 3c bc 4d 7d 80 3d
       -0.16816549 0.0006159904 -0.011476877 0.06273899
000190 8d 9a 6b bc 74 a9 bb 3c d5 10 59 3d a3 ba b1 bc
       -0.0143801095 0.02290795 0.052994568 -0.02169544
0001a0 b5 06 08 3d 0d 32 8f bb a9 19 57 bb 48 03 f0 3c
       0.03320952 -0.00436998 -0.003282169 0.02929844
0001b0 89 e9 87 bc 6e ba 97 bd c3 f3 b2 bc 11 b0 17 3d
       -0.01659085 -0.074086055 -0.02184475 0.037033144
0001c0 6b 1d eb bd 41 11 4e bd 13 f6 df 3d 4d 91 e7 3d
       -0.114802204 -0.050309423 0.10935607 0.11307011
0001d0 fe 85 5c ba 47 ec f8 3d d6 5d 1f 3d ca f9 a1 bc
       -0.00084123004 0.12154441 0.03890785 -0.019772429
0001e0 1e 12 b0 bd 5e de 50 bd e9 53 89 3d 28 cb 83 3d
       -0.085972056 -0.050993316 0.06705458 0.06435233
0001f0 a0 67 a1 3b aa 4c 74 bd 67 21 88 bd e4 5b ee bc
       0.004925683 -0.059643425 -0.06646996 -0.029096551

bns.2.running_mean f4 [128]
000000 6f 26 98 ba 68 4a 60 bf 6b 9a 7f bd 31 0c 84 3d
       -0.0011608134 -0.87613535 -0.062403124 0.06447638
000010 53 ba f4 3e 38 aa c9 be 9b 7f a6 3d 40 da 0b be
       0.47798404 -0.3938768 0.081298076 -0.13657475
000020 f3 35 dd 3e fb 0b 37 3e 4d 04 0e be 0b 01 22 bf
       0.43205222 0.17875664 -0.13868828 -0.6328284
000030 7b 2b 32 3e 94 83 bd be 61 79 74 be 52 3c 08 3d
       0.17399399 -0.3701445 -0.23874427 0.03326065
000040 53 e0 3b 3e 96 55 e9 3e 53 bc 25 be 94 8a f8 3e
       0.18347292 0.4557311 -0.16185121 0.48543227
000050 46 dc 52 3e 7c 28 29 3e bb dd 72 be 12 d1 1b 3f
       0.2059184 0.1651935 -0.23717396 0.6086589
000060 5e 88 cb 3e 25 c4 f5 3d e2 6a db be 79 6d cc 3d
       0.39752477 0.12000302 -0.42854983 0.09981818
000070 f7 42 c2 3e f6 63 00 bf d8 d9 4a 3e 2f 1b c5 3e
       0.37941715 -0.5015253 0.19809663 0.38497302
000080 8e d9 93 3d 39 0e ae be 0b 3d 90 3e ab af 80 3f
       0.0721923 -0.33995226 0.28171572 1.005361
000090 6a 51 1a bf fb 0e 4e 3f 87 6f 14 3e ce 0a 73 3f
       -0.6028048 0.8049161 0.1449567 0.9493836
0000a0 ff e9 17 bf 6b dc 28 3f 60 a9 81 bf 90 20 e6 3e
       -0.59341425 0.6596133 -1.0129814 0.44946718
0000b0 37 e7 01 3f 88 76 3b bf e1 ed 21 3f cf 7f 48 bf
       0.5074343 -0.7322774 0.632536 -0.7832002
0000c0 8e 6a 48 bf a8 80 31 bf ee 8e 6d 3e 27 d4 56 3f
       -0.7828759 -0.6933694 0.23199055 0.8391747
0000d0 b1 f4 99 bf 0d e9 16 bf ca 35 72 3f 6f 01 fb 3e
       -1.2027799 -0.5894936 0.94613326 0.4902453
0000e0 85 9c 89 bf 75 ad 2b bf b0 3b 6e 3f 30 95 40 bf
       -1.0750891 -0.6706155 0.93059826 -0.7522764
0000f0 05 d1 d7 3d bd 3a 45 be 41 45 e2 be d2 c6 06 bf
       0.10537914 -0.19260688 -0.44193462 -0.52647126
000100 27 e8 19 3e fe b0 40 be a7 80 a8 be 5a 11 f4 3e
       0.15029965 -0.18817517 -0.32910654 0.47669488
000110 17 b7 9d bd 74 b7 17 bc c7 0d 80 be c2 e6 49 bb
       -0.07700937 -0.009260047 -0.2501051 -0.0030807708
000120 33 22 33 3e c5 c8 ac bd 69 3a 83 3e f2 ba 21 3e
       0.17493515 -0.08436731 0.256305 0.1579397
000130 3b bd 85 3e 8c 06 2d bf 79 ac 41 bd 49 b3 ec be
       0.26120934 -0.67588115 -0.047283623 -0.46230534
000140 f3 47 c1 3e 64 2f d6 bd b1 f6 dc bd ed 0f c3 be
       0.37750205 -0.10458258 -0.1078924 -0.38098088
000150 e8 ea af bd 82 d7 20 3e 1b 65 9c bc d6 b4 5c 3e
       -0.08589727 0.1570721 -0.01909118 0.21553358
000160 61 75 d4 3e a4 43 0a bf 59 fd 8d 3c d4 cc 2b be
       0.41495803 -0.5400946 0.01733272 -0.16777354
000170 0e 33 08 3f 80 d2 24 be f7 3f ae 3e d6 7d b4 3d
       0.53202903 -0.16095924 0.34033176 0.08813064
000180 5c f6 5a 3e 8d ab d0 be 94 56 84 be 24 66 56 3e
       0.21383041 -0.40755883 -0.25847304 0.20937401
000190 c5 c1 d1 be 82 23 84 3d 9a aa 20 be 69 aa ea 3d
       -0.40968147 0.06452085 -0.1569008 0.114582844
0001a0 dd d2 4c 3e 05 70 d8 bb fc 9b e6 be e0 72 f7 be
       0.20002313 -0.0066051506 -0.45040882 -0.4832983
0001b0 70 ce 6c be 39 60 ad 3e 06 5c 0f 3d e5 50 28 be
       -0.23125625 0.33862475 0.03499987 -0.16437109
0001c0 4b 2a 94 3e 22 ab 86 3e 78 b7 cc 3e 9b 85 8b bd
       0.28938517 0.2630244 0.39983726 -0.068125926
0001d0 c9 01 9a bd 19 a9 35 3e a1 1d ae bd 07 5b 88 3e
       -0.07519872 0.17740287 -0.08501745 0.26631948
0001e0 77 ee 2c 3f c3 35 01 bf ce 25 1a be d5 b7 7e bb
       0.6755137 -0.5047266 -0.15053484 -0.0038866897
0001f0 af 87 20 3e 6f b4 a4 3d f1 72 04 3d bd 67 31 3e
       0.15676759 0.080422275 0.03233618 0.1732473

bns.2.running_var f4 [128]
000000 e3 fc 35 40 61 74 8b 3f 00 d7 0d 40 49 71 86 40
       2.84356 1.0894891 2.2162476 4.2013288
000010 c3 91 51 40 22 74 08 40 87 e5 cb 40 1f c6 ff 3f
       3.2745216 2.1320882 6.3717685 1.9982337
000020 db c8 30 40 ea 27 35 40 9c 54 a4 3f 9e 31 ad 3f
       2.7622592 2.8305612 1.2838321 1.3530767
000030 71 4c d8 3f fa 2d de 3f 24 c9 7c 40 48 43 bf 3f
       1.6898328 1.7357781 3.9497766 1.4942408
000040 60 51 8f 3f 6c 9e 65 40 81 ba 54 40 50 f5 ed 3f
       1.1196709 3.5877943 3.3238833 1.8590488
000050 80 66 69 40 e4 60 a9 3f 16 0e 0a 40 ed 3f 6b 3f
       3.646881 1.3232694 2.1571097 0.9189442
000060 43 a9 fb 3f 4b 08 23 40 d3 46 5e 3f 3b 93 25 40
       1.966103 2.5473812 0.8682682 2.5871112
000070 19 d6 6d 40 ca 29 69 3f 9d 39 d1 40 a3 fa 4e 40
       3.7161925 0.9107939 6.538283 3.2340477
000080 8d c5 b0 3f 21 2f fb 3f d4 3d 97 3f 24 a1 9b 40
       1.3810288 1.9623758 1.1815743 4.8634205
000090 7b bb 4d 40 c8 96 16 40 88 9c 32 40 21 f0 50 40
       3.214568 2.352953 2.790804 3.2646563
0000a0 2f af d3 40 33 cb 86 3f e7 ae 1d 41 ef f6 55 40
       6.6151347 1.0530761 9.855201 3.3431966
0000b0 0b 66 01 40 64 04 3e 40 cb e7 4c 40 d4 7d 1e 40
       2.0218532 2.969018 3.2016475 2.47643
0000c0 77 bb ab 3f a1 25 8f 40 31 8a e3 3f 71 26 9b 40
       1.3416585 4.4733434 1.7776548 4.8484426
0000d0 99 8d de 40 5b d1 13 40 c0 5e a3 40 00 d9 23 40
       6.954785 2.309653 5.105316 2.5601196
0000e0 5f 24 08 40 d0 80 1e 40 e6 51 eb 40 c8 5d fb 3f
       2.12722 2.476612 7.3537474 1.9637995
0000f0 7b 15 a5 3f dc ed f0 3f 67 6e 42 40 5f 0a 9d 3f
       1.289718 1.8822589 3.0379884 1.226879
000100 47 4a 13 40 16 a1 a9 3f 65 ab 83 3f 50 57 76 40
       2.3014085 1.3252285 1.028668 3.8490791
000110 68 5e b7 3f 85 d3 b6 3f 63 96 13 40 97 93 9d 3f
       1.4325686 1.4283301 2.3060539 1.2310666
000120 85 52 f3 3f f2 13 a4 3f e2 a7 06 40 50 45 34 40
       1.9009558 1.2818587 2.1039968 2.8167305
000130 51 f6 19 40 9b 89 ae 3f ac ca a1 40 08 10 8e 40
       2.405659 1.3635744 5.05599 4.439457
000140 14 13 41 3f b5 9f 19 3f ff 8f 85 40 1f ab 3d 40
       0.75419736 0.6000932 4.1738276 2.9635694
000150 18 85 99 3f f2 b4 bc 40 d7 b9 00 40 7d 96 17 40
       1.1993742 5.897088 2.0113428 2.36856
000160 5c b6 3d 40 e8 a3 6b 3f aa 5f d9 3f d1 b2 10 40
       2.9642553 0.92046976 1.6982319 2.260914
000170 5e 8b c6 3f 56 da af 3f d8 22 b0 3f cb e9 be 3f
       1.5511281 1.3738506 1.3760633 1.4915098
000180 12 ea 8b 3f 1e a3 0b 40 5f 10 33 40 d9 57 75 40
       1.0930808 2.181831 2.7978742 3.8334868
000190 c7 7e 00 40 a6 d1 f2 40 51 7f 70 3f a6 98 27 40
       2.0077379 7.588092 0.9394427 2.618692
0001a0 34 4c 95 3f 9b 7d 0e 40 48 f3 78 3f b3 e7 8c 3f
       1.166388 2.2264163 0.9724622 1.1008209
0001b0 a2 24 f0 3f c5 7f c7 3f ae 22 26 40 b3 d1 31 40
       1.876118 1.5585867 2.5958667 2.778424
0001c0 8e 3b f8 3f 9f a0 bd 3f d4 d0 b8 3f 49 00 ca 3f
       1.9393175 1.4814643 1.4438729 1.5781337
0001d0 de 84 08 40 5b db 6e 40 26 87 15 40 e1 e3 70 40
       2.1331096 3.7321384 2.3363738 3.7639086
0001e0 73 19 0e 40 db f3 94 3f 2f 39 0a 40 bf 7b bb 3f
       2.2203033 1.1636919 2.1597402 1.4647139
0001f0 1b ce 8f 40 b8 c9 04 40 87 67 e2 3f fb d8 f9 3f
       4.4939094 2.074812 1.7687844 1.9519342

bns.3.weight f4 [128]
000000 98 f5 99 3f 39 50 5e 3f 17 64 66 3f 4e 7a 7f 3f
       1.2028074 0.8684116 0.89996475 0.99796
000010 ca 4b 90 3f c5 89 87 3f f2 8b 64 3f 93 64 70 3f
       1.1273129 1.0588919 0.8927604 0.93903464
000020 42 84 5f 3f 7c 9f 86 3f ed cb 8d 3f 30 e6 8f 3f
       0.87311184 1.0517421 1.1077858 1.1242123
000030 44 95 6f 3f af 1b 8d 3f 48 a6 78 3f 91 44 71 3f
       0.93587136 1.1024073 0.97128725 0.9424525
000040 1d 31 86 3f 50 86 62 3f 80 c9 7a 3f a4 f4 8e 3f
       1.0483738 0.88486195 0.97963715 1.1168408
000050 4f 74 5a 3f 79 b1 88 3f 60 aa 62 3f c4 6a 6c 3f
       0.8533372 1.067916 0.8854122 0.9235041
000060 92 11 91 3f ce 63 8f 3f 3c 02 6a 3f a0 d1 96 3f
       1.1333487 1.1202333 0.9140966 1.1782722
000070 79 7e 6b 3f 4a 10 7b 3f 44 9b 8f 3f 54 80 94 3f
       0.91989857 0.9807173 1.1219258 1.1601663
000080 73 24 94 3f ca 72 6b 3f 07 77 66 3f 16 bc 8c 3f
       1.1573623 0.9197203 0.9002537 1.0994899
000090 95 44 66 3f 09 13 6a 3f f1 d8 6e 3f 6a f6 6e 3f
       0.899484 0.91435295 0.93299776 0.9334475
0000a0 f2 f4 68 3f d9 af 51 3f b7 b3 94 3f 83 fb 7c 3f
       0.90998757 0.8190895 1.1617345 0.98821276
0000b0 02 fb 73 3f 6f b0 6b 3f a8 f8 8b 3f ef 1a 67 3f
       0.9530488 0.9206609 1.0935259 0.9027547
0000c0 13 38 90 3f d6 c3 68 3f bd ee 6d 3f 45 f0 96 3f
       1.1267112 0.9092382 0.9294241 1.1792074
0000d0 86 6f 71 3f 4f 73 97 3f 4c 1c 95 3f c5 c3 64 3f
       0.94310796 1.1832064 1.164926 0.8936122
0000e0 b4 cc 65 3f 3d 82 93 3f 81 b4 7b 3f 74 02 85 3f
       0.8976548 1.152412 0.983223 1.0391374
0000f0 6d 0b 64 3f 18 c5 8e 3f 8f ec 67 3f de 5a 67 3f
       0.89079934 1.1153898 0.90595335 0.9037303
000100 1a 30 63 3f 62 47 93 3f ac b0 65 3f e2 2c 96 3f
       0.8874527 1.1506159 0.89722705 1.1732447
000110 3e cc 6b 3f 8c 07 6a 3f c1 14 95 3f 03 63 68 3f
       0.92108524 0.91417766 1.1646959 0.9077608
000120 31 4c 90 3f ad 12 6b 3f 9a 03 8f 3f bb 0a 8e 3f
       1.1273252 0.9182537 1.1172974 1.1097025
000130 79 3a 91 3f f3 e2 66 3f 48 eb 6b 3f 5e c3 99 3f
       1.134597 0.9019005 0.92155886 1.2012746
000140 f2 aa 6b 3f 77 ce 6a 3f e3 b1 75 3f 1b f8 9d 3f
       0.92057717 0.9172129 0.9597456 1.2341341
000150 d1 ba 90 3f 42 8b 94 3f f9 13 68 3f ec 3f 57 3f
       1.1307012 1.1604998 0.90655476 0.8408191
000160 d3 e6 67 3f 1d 0c 8e 3f f0 8f 94 3f 5f 7d 69 3f
       0.90586585 1.1097447 1.1606426 0.91206926
000170 d1 39 66 3f f5 62 96 3f 74 07 91 3f 0a 27 93 3f
       0.8993197 1.1748949 1.13304 1.1496289
000180 a4 45 93 3f ca 17 72 3f f7 fe 8e 3f f9 47 8b 3f
       1.1505628 0.9456755 1.1171559 1.0881339
000190 ab d0 6c 3f 6f 3d 8c 3f 45 0d 96 3f 14 0b 6a 3f
       0.925059 1.0956248 1.17228 0.91423154
0001a0 74 de 6b 3f 0f b7 a0 3f 17 dc 65 3f 9d b2 91 3f
       0.9213631 1.2555865 0.89788955 1.1382633
0001b0 7c 17 99 3f 95 8b 6d 3f 0b 14 8f 3f 79 67 9c 3f
       1.1960292 0.9279111 1.1177992 1.2219077
0001c0 3c 7c 90 3f ee ef 8c 3f 52 dc 7c 3f c6 bb 67 3f
       1.1287913 1.1010721 0.9877368 0.90520895
0001d0 d2 2c 8d 3f 6d 2b 5a 3f d1 04 68 3f 46 af 66 3f
       1.1029303 0.8522251 0.9063235 0.90111196
0001e0 4a 62 69 3f 16 05 8c 3f 33 c6 6d 3f 23 11 8d 3f
       0.911656 1.0939052 0.92880553 1.1020855
0001f0 a5 43 66 3f 4f 1a 94 3f 9f cf 6b 3f 70 8f 8c 3f
       0.8994697 1.1570529 0.9211368 1.0981274

bns.3.bias f4 [128]
000000 c0 39 39 3e 6a 37 05 be 4f 9a e3 bd 62 1f 21 3e
       0.18088436 -0.1300942 -0.111134164 0.15734628
000010 25 20 1e 3e 0f a6 28 3e 6a 69 eb bd ae f4 f4 3c
       0.1544195 0.16469596 -0.114947155 0.029901829
000020 cd 3d f6 bd 79 37 12 3e 50 66 16 3e 04 4a 1e 3e
       -0.12023506 0.14278974 0.14687467 0.15457922
000030 72 bd 19 bd 61 2e 29 3e 7a 85 25 3e a0 be ea 3d
       -0.037534185 0.16521598 0.16164199 0.1146214
000040 97 37 04 3e 0f 34 f4 bd 35 11 22 3e 43 29 1a 3e
       0.12911831 -0.11923992 0.15826876 0.15054803
000050 48 c4 e6 bd 2a db 4a 3e 7c 5c c8 bd 3d 76 bb bd
       -0.112679064 0.19810167 -0.09783265 -0.091534115
000060 70 e8 2b 3e 9c 9a 1a 3e 9e fd d9 bd 13 85 3d 3e
       0.16787887 0.15098041 -0.10644077 0.18507795
000070 3a 8d fc bd 7a 65 0d 3e 41 a6 15 3e 9f c9 1d 3e
       -0.12331624 0.13808241 0.14614202 0.15408944
000080 e6 0c 1b 3e 13 e1 f0 bd f1 fa c9 bd 0c d5 45 3e
       0.15141639 -0.117616795 -0.098623164 0.19319552
000090 b0 15 c6 bd ed 7f f5 bd a7 6d 95 bd 23 e5 16 bd
       -0.09672105 -0.119872905 -0.07296305 -0.036839616
0000a0 9a 4d f8 bd 04 2f 8b bd 63 6e 1f 3e 1d 78 03 3e
       -0.12124176 -0.06796077 0.15569453 0.12838788
0000b0 ea 1e 96 3b b0 0f 62 bb e0 de 33 3e dd 1d d5 bd
       0.004581322 -0.0034494214 0.17565489 -0.104060866
0000c0 ae 94 20 3e 09 9d f3 bd cc a1 e8 bd fd 2b 4f 3e
       0.15681717 -0.118951865 -0.11358985 0.20231624
0000d0 ae 6f df bc 67 89 0a 3e 1f f5 12 3e a1 01 ec bd
       -0.027274933 0.13528977 0.14351319 -0.11523748
0000e0 c9 62 e3 bd 9f 6f 2e 3e 7d a3 c4 bc 3b 61 42 3e
       -0.11102826 0.17034768 -0.024003739 0.18982403
0000f0 55 6d 69 bc 55 60 1b 3e d4 db db bd ab d6 dc bd
       -0.014247258 0.15173467 -0.10735288 -0.10783132
000100 24 61 00 be 92 fd 33 3e 31 45 f2 bd 9f f5 0c 3e
       -0.12537056 0.17577198 -0.118296035 0.13765572
000110 91 da 78 bd 6d bc 98 bd 57 1c 27 3e 26 e8 16 be
       -0.060755316 -0.07457814 0.16319405 -0.14736995
000120 ca 19 20 3e 2f 40 fa bd 7e e3 18 3e 38 0e 1b 3e
       0.15634838 -0.12219273 0.14930531 0.15142143
000130 d3 46 16 3e b4 40 f9 bd af d6 d9 bd 0b a7 0b 3e
       0.14675455 -0.12170544 -0.10636651 0.1363794
000140 3d 8d e5 bd 3f da 96 bd fd 87 9a bc 49 db 1d 3e
       -0.1120858 -0.07365846 -0.018863672 0.15415682
000150 98 2f 1d 3e 60 58 30 3e 31 b9 e8 bd 3c 87 f2 bd
       0.15350187 0.17221212 -0.113634475 -0.118422
000160 e4 94 ba bd 18 94 3e 3e 23 4f 20 3e 45 e1 c7 bd
       -0.0911043 0.18611181 0.15655188 -0.09759764
000170 be 48 ba bd d5 dd 53 3e 04 f1 1e 3e 6a 33 4f 3e
       -0.09095906 0.20690091 0.15521628 0.20234457
000180 e8 8a 1f 3e 2b e2 14 3e 7a 40 29 3e af 44 14 3e
       0.15580332 0.14539401 0.16528502 0.14479326
000190 ab 3d 92 bd e0 09 8e 3e d9 aa 22 3e 97 6c bf bd
       -0.071406685 0.2774191 0.15885486 -0.09346884
0001a0 f0 17 f3 bd 6c af 50 3e 19 00 ec bd 15 43 3d 3e
       -0.118698 0.20379418 -0.11523456 0.18482621
0001b0 b4 f9 1c 3e 4c ac 90 3c 04 7c 1c 3e 46 73 81 3e
       0.15329629 0.017660283 0.15281683 0.2528326
0001c0 75 94 34 3e 45 15 29 3e 31 ec b1 3d 51 d1 f4 bd
       0.17634757 0.1651202 0.08687628 -0.119539864
0001d0 d5 dc 6e 3e 3a 69 f4 bd 39 51 cd bd 50 d0 cf bd
       0.23326428 -0.11934133 -0.100252576 -0.10147154
0001e0 68 fa d7 bd 02 0d 24 3e 37 c4 6e 3d 04 03 19 3e
       -0.10545808 0.16020587 0.058292594 0.14942557
0001f0 9b 80 e6 bd a1 c0 48 3e 81 5f 62 bd e6 90 1b 3e
       -0.11254998 0.19604732 -0.05526686 0.15191993
