saved_models/ogb-arxiv_GPR_s4.pt (torch, 23898 bytes, 5 tensors)

lin1.weight f4 [32, 128]
0	0xbe65843b	-0.22413723
1	0x3efa87e3	0.48931798
2	0x3dc8c074	0.098023325
3	0xbec2bb61	-0.38033584
4	0xbc74227c	-0.0149008
5	0xbf1685b9	-0.58797795
6	0xbdc25873	-0.094895266
7	0xbd8880a5	-0.06665162
8	0x3edc0158	0.42969775
9	0xbe67987d	-0.22616763
10	0xbe5bf7ac	-0.21481198
11	0xbdedfebb	-0.116208516
12	0xbe6d7179	-0.23187818
13	0x3f211dc1	0.62936026
14	0xbee48648	-0.44633698
15	0x3e6fb97e	0.23410603
16	0xbec01955	-0.37519327
17	0xbcba29d1	-0.022725018
18	0x3f597bdb	0.84954613
19	0xbdf36283	-0.11884024
20	0xbe04240c	-0.12904376
21	0xbe819a06	-0.25312823
22	0x3e425587	0.18977939
23	0x3e039d45	0.12852962
24	0xbe6713e0	-0.22566175
25	0x3e11fdbb	0.14256947
26	0x3ed60eee	0.41808265
27	0xbd8b4bd2	-0.06801571
28	0x3e8f4af1	0.27986863
29	0x3de7247b	0.11286255
30	0xbe4913b5	-0.19636424
31	0xbe89bdb5	-0.26902547
32	0xbda30155	-0.079592384
33	0x3ec75f1c	0.3893975
34	0x3e8753bb	0.2643107
35	0x3eb2a165	0.3488876
36	0xbe697d43	-0.2280169
37	0x3e6c1081	0.2305317
38	0x3e0355d6	0.12825713
39	0x3ef6dc49	0.4821494
40	0x3c477f91	0.01217641
41	0x3cdf067c	0.027224772
42	0x3df24547	0.1182962
43	0xbd030f47	-0.03199699
44	0x3d82541b	0.06363698
45	0x3d5bb3a6	0.053638123
46	0xbd588d00	-0.052868843
47	0xbe797ff5	-0.24365218
48	0xb90a2bbf	-0.00013177002
49	0x3e32fb3c	0.17478651
50	0xbddf013e	-0.10888909
51	0xbeca2112	-0.39478356
52	0xbe37f960	-0.17966223
53	0xbe9b20b2	-0.30298382
54	0xbec884b5	-0.39163747
55	0x3e07df30	0.13268733
56	0xbebeb12a	-0.3724454
57	0xbece7b21	-0.40328315
58	0xbe686b32	-0.22697142
59	0x3e7bd37c	0.24592394
60	0xbd24a164	-0.040192977
61	0xbe5480f3	-0.20752315
62	0xbe823bc8	-0.25436234
63	0x3dcb7b49	0.09935624
64	0x3dd43c5e	0.103630766
65	0xbdd8f683	-0.105938934
66	0xbf03df3a	-0.5151249
67	0x3e885e62	0.26634508
68	0xbb4274b7	-0.0029671618
69	0xbef63ec4	-0.4809476
70	0xbee3ffe5	-0.4453117
71	0x3e99f2f9	0.30068186
72	0xbce98092	-0.02850369
73	0x3e54d654	0.20784885
74	0xbc0ceb4a	-0.008601019
75	0xbdb18653	-0.086681984
76	0x3e9ebf13	0.31005153
77	0x3e4cfaf4	0.20017606
78	0xbe8ae697	-0.2712905
79	0x3d67958b	0.0565391
80	0xbdc31ab3	-0.09526577
81	0xbf019638	-0.5061984
82	0xbc148c28	-0.009066619
83	0x3e39bdeb	0.18138854
84	0xbecf7291	-0.40517095
85	0xbeab06cd	-0.33403626
86	0x3dab72f5	0.08371536
87	0xbec8fee0	-0.39256954
88	0x3c5a77c7	0.013334221
89	0xbd64ba3b	-0.055841666
90	0x3e8e4026	0.27783316
91	0x3e3a7e08	0.1821214
92	0x3e1f5563	0.15559916
93	0xbd82b5a0	-0.063822985
94	0x3d05359d	0.032521833
95	0xbd7fb687	-0.06242993
96	0xbed78d86	-0.4210016
97	0xbd6ca727	-0.057776596
98	0xbb5f6a92	-0.003409062
99	0xbde6c57c	-0.11268136
100	0x3f4d2f27	0.80150074
101	0x3e3f0c56	0.1865705
102	0xbe222294	-0.15833503
103	0xbeb841ab	-0.359876
104	0xbd3735cf	-0.04472905
105	0x3cfe1f14	0.031020679
106	0x3eaf1d88	0.34202218
107	0xbd32910e	-0.043595366
108	0xbebde93b	-0.37092003
109	0x3ca37950	0.019955307
110	0x3e613864	0.21994168
111	0xbe55e0e9	-0.20886578
112	0xbe9c9792	-0.3058439
113	0xbe6cbc6a	-0.2311875
114	0x3de56b12	0.11202063
115	0x3ec8b39b	0.39199528
116	0x3e9e05bd	0.30863753
117	0xbc84e441	-0.016222121
118	0xbe374205	-0.17896278
119	0x3ef96f79	0.4871786
120	0x3d0c73bb	0.034290057
121	0xbec01735	-0.37517706
122	0x3c519852	0.012792664
123	0xbe57aa43	-0.21061043
124	0xbd60412c	-0.054749653
125	0xbf149467	-0.58038944
126	0x3ef81e86	0.48460788
127	0x3e91e189	0.28492382
128	0x3f003e11	0.50094706
129	0xbea3449b	-0.3188828
130	0x3bcb602d	0.0062065334
131	0xbdd8a8ed	-0.10579095
132	0xbe869da1	-0.26292136
133	0x3c98cedd	0.018653328
134	0x3f08f1b2	0.534938
135	0xbf3d3039	-0.73901707
136	0xbdeb25f9	-0.11481852
137	0x3ea5dd50	0.3239541
138	0x3c74a0a2	0.014930876
139	0xbeb2e048	-0.34936738
140	0x3f24e757	0.64415497
141	0xbf21e4f2	-0.6323997
142	0xbda93982	-0.08262922
143	0x3e081c62	0.13292077
144	0xbf547941	-0.8299752
145	0x3e37e29a	0.17957535
146	0x3e0d2f73	0.13787632
147	0x3e195b86	0.1497632
148	0x3e0b3478	0.13594234
149	0x3e85ba4e	0.26118702
150	0x3b07fab4	0.0020748796
151	0x3f039318	0.5139632
152	0x3deedc5d	0.11663125
153	0x3eec533c	0.46157253
154	0x3d8de2b6	0.06928007
155	0xbdc5346c	-0.09629139
156	0x3e444b72	0.19169405
157	0xbd83e64d	-0.06440411
158	0x3e5a650c	0.21327609
159	0x3ebcc7df	0.3687124
160	0xbdecf540	-0.11570215
161	0xbdc6abfe	-0.09700774
162	0x3ccc6bb4	0.0249537
163	0xbf0dc38d	-0.5537651
164	0x3ebf478c	0.37359273
165	0xbf04d2ae	-0.5188397
166	0xbc22ec54	-0.00994404
167	0x3ee8b255	0.45448557
168	0x3edbd769	0.42937782
169	0xbf2c7c7d	-0.67377454
170	0xbf1c323b	-0.61014146
171	0x3e864b62	0.26229388
172	0xbe5be8f1	-0.21475579
173	0x3e1424bd	0.1446714
174	0xbce216aa	-0.027598698
175	0xbe9458e7	-0.28974077
176	0x3e164609	0.14675154
177	0x3e68d692	0.22738102
178	0xbdc7834e	-0.09741841
179	0x3d854750	0.065077424
180	0xbacf0cb0	-0.0015796628
181	0x3cab350f	0.020899324
182	0x3dfe49c3	0.12416413
183	0xbbecbb55	-0.00722448
184	0x3d91d729	0.07121117
185	0xbd7b0027	-0.061279442
186	0x3e32d48a	0.1746389
187	0xbeb967b8	-0.36211944
188	0xbe0e28c2	-0.13882735
189	0x3ef947c8	0.48687577
190	0x3e1632ea	0.1466786
191	0xbdc410a7	-0.09573489
192	0xbd32cb84	-0.04365112
193	0x3e8a9a69	0.2707093
194	0xbf1516d6	-0.5823797
195	0x3e96014c	0.29297864
196	0xbe027ee9	-0.12743725
197	0xbec7d158	-0.39026904
198	0x3d4f6cd1	0.050640885
199	0x3ee8b01f	0.4544687
200	0xbf0d05fb	-0.5508725
201	0xbf0fd38a	-0.5618216
202	0x3dce3344	0.10068372
203	0xbe833a08	-0.25630212
204	0xbe866017	-0.26245186
205	0x3f0321a1	0.5122319
206	0x3d842872	0.06453027
207	0xbdc5e89f	-0.096635096
208	0xbf0e1552	-0.5550128
209	0x3e9e2c5c	0.3089322
210	0x3dea5585	0.11442093
211	0xbeee243d	-0.46512023
212	0x3eecfc47	0.46286222
213	0x3ea4a09c	0.32153785
214	0xbdd6a22a	-0.10480149
215	0x3e2f24d8	0.17103899
216	0x3d1a90b2	0.03773565
217	0xbd1e21a9	-0.03860632
218	0x3d7dbc24	0.061947003
219	0xbe67bc52	-0.22630432
220	0x3f4009a3	0.75014704
221	0x3b25049a	0.0025179745
222	0xbf007725	-0.501818
223	0xbeaab365	-0.33339992
224	0x3e9541ab	0.29151663
225	0x3e8efb19	0.27925947
226	0x3e6b6af9	0.22990026
227	0x3e17fcdf	0.14842556
228	0x3d8b8a24	0.068134576
229	0x3e6bf1c4	0.23041445
230	0xbe75767a	-0.23970976
231	0x3ed48bf0	0.41513014
232	0x3e32e3e7	0.1746975
233	0xbd575925	-0.05257525
234	0x3e2414af	0.16023515
235	0xbd4d40ac	-0.050110504
236	0x3eed4e9d	0.4634904
237	0xbe2113ea	-0.15730253
238	0x3d029875	0.031883676
239	0xbf381afe	-0.71916187
240	0x3e4fcb72	0.20292452
241	0x3e824bfd	0.254486
242	0x3eeaad27	0.4583523
243	0x3f27c002	0.65527356
244	0xb9f8b78f	-0.00047439008
245	0x3eec049e	0.46097273
246	0xbf0fdd02	-0.56196606
247	0x3d9980f2	0.074952975
248	0xbe949415	-0.29019228
249	0x3f2ab88b	0.6668784
250	0x3ebbe14a	0.3669532
251	0xbeb1f4c7	-0.34757063
252	0x3f0254e4	0.5091078
253	0x3f1aa46f	0.60407156
254	0xbe43bc13	-0.19114713
255	0x3df6e296	0.120549366

lin1.bias f4 [32]
0	0x3d9f62bf	0.07782506
1	0x3e125ff5	0.14294417
2	0xbd68a041	-0.056793455
3	0xbbb68f8e	-0.0055713123
4	0x3dcc0100	0.09961128
5	0x3cf74296	0.030183118
6	0xbdfd45c1	-0.1236682
7	0xbd27d134	-0.040970996
8	0x3d78e782	0.060767658
9	0xbdb594f7	-0.088663034
10	0xbd803263	-0.062596105
11	0x3c2bc41a	0.010483766
12	0xbdb3cd56	-0.08779399
13	0xbdb25f5d	-0.08709595
14	0xbde8e88d	-0.113724805
15	0x3e0efa7a	0.13962737
16	0xbde07af5	-0.10960952
17	0x3c8594f4	0.016306378
18	0x3dd5a1a1	0.10431219
19	0x3d942ef9	0.07235522
20	0xbd22f57b	-0.03978489
21	0xbd0128fc	-0.031533226
22	0x3d925aa2	0.07146193
23	0xbda90687	-0.08253198
24	0x3dea8980	0.11452007
25	0xbc3c3352	-0.011486845
26	0xbddd8e33	-0.10818138
27	0xbe042898	-0.1290611
28	0x3d2c92ba	0.042132117
29	0xbcd6ec11	-0.026235612
30	0x3dd5f4ce	0.104470834
31	0x3d87a4a0	0.066231966

lin2.weight f4 [40, 32]
0	0xbdd2495c	-0.102678984
1	0xbd068921	-0.03284562
2	0xbe168121	-0.14697696
3	0x3e2300d4	0.15918285
4	0xbf42966f	-0.76010793
5	0x3e73073c	0.23733228
6	0xbcbae7e9	-0.022815662
7	0x3ddcb6c8	0.1077705
8	0xbef899c9	-0.4855483
9	0x3debb3e1	0.115089186
10	0xbd582ed6	-0.05277904
11	0xbdb8bc46	-0.09020285
12	0xbd23a087	-0.039948013
13	0xbe43f8c1	-0.19137861
14	0x3da8cb0e	0.082418546
15	0xbe243780	-0.16036797
16	0xbe2bb31d	-0.16767545
17	0x3ca7513b	0.020424476
18	0xbf1be9bc	-0.60903525
19	0x3e653730	0.22384334
20	0xbec54032	-0.3852554
21	0x3f49b83b	0.7879674
22	0x3e93975f	0.28826424
23	0xbeb15bee	-0.3464045
24	0x3f0c099c	0.5470216
25	0x3e15c304	0.14625174
26	0xbe1fe697	-0.15615307
27	0xbde4f3a3	-0.111792825
28	0xbec3f75f	-0.38274667
29	0x3c9726ee	0.01845118
30	0xbad9b69f	-0.0016610211
31	0xbdedba04	-0.11607745
32	0x3e228526	0.15871105
33	0xbe868e47	-0.26280424
34	0xbd99c9a7	-0.07509165
35	0x3eb4ff2b	0.35350928
36	0x3f08ca3c	0.53433585
37	0x3ed4b442	0.41543776
38	0x3d503c1b	0.05083857
39	0x3decf431	0.11570013
40	0x3e85f9b8	0.26167083
41	0xbd7b37a9	-0.06133238
42	0xbe3b48f9	-0.18289556
43	0xbc7fd692	-0.015615122
44	0x3db96b33	0.0905365
45	0xbdbe2974	-0.0928525
46	0xbdd5ef0d	-0.10445986
47	0xbf403c22	-0.75091755
48	0xbccf6c5d	-0.025320226
49	0x3cd68928	0.026188448
50	0xbe0b82ae	-0.13624069
51	0xbf2c299e	-0.67251
52	0x3dfbe2f8	0.1229915
53	0xbe43e810	-0.19131494
54	0x3dbb9b58	0.09160489
55	0x3d977ccc	0.0739685
56	0x3f000ab8	0.50016356
57	0xbe830fbc	-0.25597942
58	0x3c959b25	0.018262455
59	0xbdef9544	-0.11698392
60	0x3d601c5a	0.05471454
61	0x3d99c3d5	0.07508055
62	0x3ddd8318	0.1081602
63	0xbf37a47f	-0.71735376
64	0xbe3b769d	-0.18306966
65	0x3e9608b3	0.29303512
66	0x3e0d2646	0.13784131
67	0xbe3e27dd	-0.18569894
68	0xbeb1e91c	-0.3474816
69	0xbe408bb2	-0.1880329
70	0xbdeb1b22	-0.114797845
71	0xbde18e31	-0.11013449
72	0xbbb0ce5b	-0.0053956932
73	0x3dd5c973	0.10438814
74	0x3e6a4c4d	0.22880669
75	0x3e6f4f90	0.23370194
76	0xbd57204c	-0.052521035
77	0x3d54b324	0.051928654
78	0xbd400c25	-0.046886582
79	0x3eeeba66	0.46626586
80	0xbc83c68f	-0.016085891
81	0xbd73cb7e	-0.059520237
82	0x3eb78ebd	0.35851088
83	0xbe9acd47	-0.3023474
84	0xbdb9f6e8	-0.09080297
85	0xbe9e9948	-0.3097632
86	0xbe5c9a06	-0.2154313
87	0x3e8f4112	0.27979332
88	0xbea73e90	-0.3266492
89	0x3ef5f87a	0.48041135
90	0x3bdc7636	0.006727959
91	0x3dd70b8d	0.1050025
92	0x3da1845a	0.07886572
93	0x3db27647	0.08713966
94	0x3e918b3f	0.2842655
95	0x3d001156	0.031266533
96	0x3d1773ea	0.03697578
97	0x3e57250a	0.21010223
98	0xbe51c05d	-0.20483537
99	0x3d29cafa	0.04145334
100	0xbef4d2b1	-0.47816995
101	0x3f0d3892	0.55164444
102	0xbd7e7e80	-0.06213236
103	0x3c3f7072	0.011684524
104	0xbdd9594d	-0.10612736
105	0xbd16f5e5	-0.036855597
106	0xbdf14e6f	-0.11782538
107	0xbcb75d99	-0.022383498
108	0x3d80a35b	0.062811576
109	0x3b065265	0.0020495888
110	0xbcfb9930	-0.030712694
111	0xbca6fd8c	-0.020384572
112	0x3d271832	0.04079456
113	0xbe3c1bf8	-0.18370044
114	0x3e0566fc	0.13027567
115	0xbd0ee25b	-0.03488384
116	0x3d8eb3fd	0.06967924
117	0xbe84340d	-0.25820962
118	0x3ea5e557	0.32401535
119	0xbf179d14	-0.5922406
120	0xbeb12a85	-0.34602752
121	0xbf028ef3	-0.50999373
122	0xbdb3991c	-0.08769438
123	0x3d96ee22	0.07369639
124	0x3ecb1707	0.39666006
125	0xbc03fbe1	-0.008055658
126	0xbec4de1f	-0.38450715
127	0xbe820c15	-0.25399843
128	0x3e94fb03	0.29097757
129	0xbe46bbc5	-0.19407566
130	0x3dd1518b	0.10220631
131	0x3f296131	0.6616393
132	0x3f1af6bb	0.6053273
133	0x3e67aea6	0.22625217
134	0xbc27beba	-0.010238344
135	0xbe45feae	-0.19335434
136	0xbc659c40	-0.014014304
137	0x3e1613dd	0.14656015
138	0x3e3eaeda	0.18621388
139	0xbd3ebf1a	-0.046568967
140	0xbdb4264b	-0.08796366
141	0xbd2cab79	-0.042155717
142	0x3c72d31d	0.014820841
143	0x3eef1c33	0.46701202
144	0xbd4dcf9b	-0.050246816
145	0xbdb76821	-0.08955408
146	0x3e825ce9	0.2546151
147	0xbef5eeb4	-0.4803368
148	0xbee87a7b	-0.45405945
149	0xbf19fb9b	-0.60149544
150	0xbe500cc6	-0.20317373
151	0xbe3a189c	-0.1817345
152	0x3db40942	0.08790828
153	0xbe625f09	-0.22106566
154	0xbd2504f1	-0.040287916
155	0xbd86943d	-0.06571243
156	0x3bff6a6a	0.007794668
157	0xbdc46d8f	-0.09591209
158	0x3f00365d	0.5008295
159	0xbe2cc2b7	-0.16871153
160	0x3f079373	0.52959365
161	0xbceff9dd	-0.029293949
162	0x3ddc7b18	0.10765666
163	0xbe10f2e3	-0.14155154
164	0xbdf20bdb	-0.118186675
165	0xbddc8dfc	-0.10769269
166	0x3d9d9c5e	0.0769584
167	0xbcb5416a	-0.022125918
168	0x3e956358	0.29177356
169	0x3c9c536e	0.019082751
170	0x3e393cc5	0.18089588
171	0xbdd50eb0	-0.10403192
172	0xbdacf7e3	-0.08445718
173	0x3c675b81	0.014120937
174	0xbd05ebe0	-0.03269565
175	0xbd722307	-0.059115436
176	0x3d63c776	0.055610143
177	0x3e23646e	0.1595628
178	0x3c872e76	0.016501646
179	0x3bbc0cbe	0.0057388237
180	0x3edc1d0f	0.4299092
181	0xbe5d0389	-0.2158338
182	0xbf39abc6	-0.7252773
183	0xbeba385b	-0.3637112
184	0x3b423ba1	0.0029637592
185	0xbdc7abac	-0.09749541
186	0x3e004215	0.12525208
187	0x3dd827f5	0.10554496
188	0xbd0ca97b	-0.034341317
189	0x3d699314	0.05702503
190	0x3f1a45df	0.60262865
191	0x3f136e81	0.5759049
192	0xbde2550e	-0.11051379
193	0x3ed7dad6	0.42159146
194	0xbe95538d	-0.29165307
195	0x3d493d0f	0.049130496
196	0x3d95ae73	0.07308664
197	0x3eb1301f	0.34607026
198	0x3de19580	0.11014843
199	0xbe45234a	-0.19251743
200	0x3f1f67ee	0.6226796
201	0x3b5249f1	0.003208753
202	0xbbaad3a6	-0.0052132187
203	0xbe5179e4	-0.20456654
204	0xbe4611f0	-0.1934278
205	0x3cf17485	0.029474506
206	0xbd89205a	-0.06695624
207	0xbef65d22	-0.4811793
208	0xbe3b722c	-0.18305272
209	0x3d55b691	0.052176062
210	0xbeba888d	-0.36432305
211	0xbeda8cc3	-0.42685518
212	0xbdfa3c4d	-0.12218533
213	0xbeb5781b	-0.35443196
214	0x3ef5514d	0.4791359
215	0xbf4e38be	-0.8055533
216	0xbee58490	-0.448277
217	0x3e193cae	0.14964554
218	0x3d653809	0.055961642
219	0xbe3e697e	-0.1859493
220	0x3ed1e5af	0.40995547
221	0xbdd9ce19	-0.10635013
222	0xbf3a45c6	-0.72762716
223	0xbf0ced27	-0.55049366
224	0xbe45339b	-0.19257967
225	0x3e990204	0.2988435
226	0xbda102ec	-0.078618854
227	0xbe9938c2	-0.29926115
228	0xbe6d35cc	-0.23165053
229	0xbe372130	-0.17883754
230	0xbe4e540e	-0.20149252
231	0xbe1c350e	-0.15254614
232	0xbf7eca04	-0.99527
233	0x3d4f4945	0.050606985
234	0xbd9800cb	-0.07422026
235	0x3db38200	0.0876503
236	0xbe0ba586	-0.13637361
237	0xbe4c9f61	-0.19982673
238	0xbe117fee	-0.14208958
239	0xbe9e7cc8	-0.30954576
240	0x3d98090c	0.074236006
241	0xbbffada3	-0.0078026815
242	0xbdcc10a1	-0.09964109
243	0x3e40008b	0.18750207
244	0x3ea1ba44	0.31587422
245	0x3ec0a92a	0.37629062
246	0xbd2dffc2	-0.042480238
247	0x3de13733	0.109968565
248	0x3ebf2a64	0.3733703
249	0xbe83a76e	-0.25713676
250	0x3c219c68	0.00986395
251	0x3cf9c94c	0.030491494
252	0x3e60d5ed	0.21956606
253	0x3d0c30e3	0.03422631
254	0xbeab30ef	-0.3343577
255	0x3e335fef	0.17517065

lin2.bias f4 [40]
0	0xbe16dec3	-0.14733414
1	0xbe98c533	-0.2983795
2	0x3e3d683b	0.18496792
3	0x3e647466	0.22310027
4	0xbd552091	-0.05203301
5	0x3ea87373	0.3290058
6	0x3efaa443	0.48953447
7	0x3d7c7018	0.06163034
8	0x3d4e3fd2	0.050353833
9	0x3cfeb6d5	0.03109304
10	0x3eb8a865	0.36065975
11	0x3da86bf0	0.082237124
12	0x3c048904	0.008089308
13	0x3e2a7026	0.16644344
14	0xbd8d40c9	-0.068971224
15	0xbb2d4db9	-0.0026444031
16	0x3e407459	0.18794383
17	0x3e408581	0.18800928
18	0x3dd7d980	0.10539532
19	0x3b2bf22a	0.002623687
20	0x3e94cbaf	0.29061648
21	0x3d480159	0.04882941
22	0x3dc6edb8	0.0971331
23	0x3f04681a	0.51721346
24	0xbe04152c	-0.12898701
25	0xbe3af627	-0.18257962
26	0xbe396a4b	-0.18106954
27	0x3e786d7c	0.24260515
28	0xbe0dfd60	-0.13866186
29	0x3d732feb	0.05937187
30	0xbe618edb	-0.22027151
31	0xbe9a164b	-0.30095133
32	0xbdac3b54	-0.084097534
33	0x3d660fc7	0.05616739
34	0x3d99855a	0.07496138
35	0xbe313ca4	-0.17308289
36	0xbe41aad3	-0.1891282
37	0xbe4874f3	-0.19575863
38	0x3dea2bdf	0.11434149
39	0x3e63556f	0.22200559

prop1.temp f8 [11]
0	0x3fdf86d04bb7d76a	0.49260337251995756
1	0x3fd569075acb4a07	0.3345354448948971
2	0x3fd8d21055f5d323	0.3878212775664897
3	0x3fd83ddbafb69ee1	0.37877552184589375
4	0x3fd8f1ab55412b46	0.3897503216327788
5	0x3fd910d2d201f26e	0.3916518259864351
6	0x3fd949f031b42029	0.39513783315533374
7	0x3fd961599e9e1fc6	0.396566777134009
8	0x3fd972d7a5e7c349	0.3976344223183799
9	0x3fd977b2a6628477	0.3979307770587818
10	0x3fe6c5a50be6ae41	0.711626551861123
