saved_models/arxiv/directed_ogb-arxiv_GAT_s7.pt (torch, 94924 bytes, 14 tensors)

bns.0.weight f4 [128]
000000 45 3a 6c 3f 47 d3 79 3f 86 15 90 3f c7 48 96 3f
       0.9227641 0.9758801 1.1256568 1.174096
000010 9a 68 7a 3f 2a 10 6c 3f a9 44 7e 3f 79 44 83 3f
       0.9781586 0.92212164 0.9932352 1.0255271
000020 cf 26 86 3f ff 3c 73 3f 11 6e 91 3f d3 33 84 3f
       1.0480593 0.9501495 1.1361715 1.0328315
000030 e2 43 73 3f 9e 3f 70 3f df d5 70 3f db 2c 6b 3f
       0.95025456 0.9384707 0.9407634 0.9186532
000040 6b 8f 6b 3f 8b ef 6d 3f 20 bf 7a 3f 41 05 92 3f
       0.92015713 0.9294364 0.97947884 1.1407853
000050 b5 ca 76 3f 97 f6 82 3f 73 1b 79 3f 2f 18 61 3f
       0.96403056 1.0231503 0.9730751 0.87927526
000060 a2 12 90 3f 90 11 68 3f ba 48 75 3f a7 fc 72 3f
       1.1255686 0.906518 0.95814097 0.94916767
000070 9d d7 72 3f 55 b9 80 3f 02 79 7a 3f 4c 15 75 3f
       0.9486025 1.0056559 0.97840893 0.9573562
000080 e5 56 8b 3f 16 ca 74 3f 52 b8 65 3f a9 93 81 3f
       1.0885893 0.9562086 0.89734375 1.0123187
000090 80 85 7a 3f 6b 9b 7e 3f 15 2a 7e 3f 05 b3 82 3f
       0.97859955 0.994559 0.9928296 1.0210882
0000a0 67 3a 8e 3f cc c9 8e 3f 1d 9c 69 3f 61 37 4b 3f
       1.1111573 1.1155334 0.91253835 0.79381377
0000b0 aa 3a 82 3f 6d d8 8d 3f 22 d5 90 3f 32 f1 68 3f
       1.0174153 1.1081673 1.1315043 0.90993035
0000c0 5d ab 68 3f 87 cc 87 3f 72 d5 69 3f d5 12 79 3f
       0.9088648 1.0609292 0.91341317 0.9729436
0000d0 e8 28 7f 3f 09 f7 91 3f e1 6d 76 3f 0a 99 6c 3f
       0.99671793 1.1403514 0.9626141 0.9242102
0000e0 b5 ba 72 3f 6b a0 6d 3f c5 15 8e 3f b4 99 95 3f
       0.9481614 0.92822903 1.1100394 1.1687531
0000f0 3a 0e 6c 3f d7 15 79 3f dd 64 93 3f 0d 49 6f 3f
       0.9220921 0.9729895 1.1515156 0.9347084
000100 00 a6 86 3f 6a 8b 6e 3f 89 56 87 3f 64 8b 8f 3f
       1.0519409 0.9318148 1.0573283 1.1214414
000110 b3 60 88 3f d1 76 5f 3f fb 97 85 3f fa 77 6e 3f
       1.065451 0.87290674 1.0437006 0.9315182
000120 82 8e 69 3f 6a 07 8b 3f a5 a0 8b 3f 6e 1c 6b 3f
       0.91233075 1.0861638 1.09084 0.91840255
000130 89 42 5d 3f ec aa 8b 3f a1 0a 8f 3f 02 bc 8d 3f
       0.8642965 1.0911536 1.1175119 1.1073
000140 a0 b7 8a 3f fa 78 7b 3f d8 76 6b 3f 27 d2 6c 3f
       1.0837288 0.9823147 0.91978216 0.9250817
000150 47 94 8b 3f ea ce 74 3f 9e 8e 82 3f bd af 8c 3f
       1.0904626 0.95628226 1.0199773 1.0991131
000160 3e 0a 80 3f b1 0d 72 3f a5 be 85 3f 5e 55 83 3f
       1.0003126 0.9455214 1.0448805 1.0260427
000170 44 21 83 3f df e8 74 3f 9d cb 77 3f 16 00 7b 3f
       1.0244527 0.95667833 0.96795064 0.98047006
000180 94 e9 90 3f 8e 0c 72 3f 5b 36 87 3f d2 79 6b 3f
       1.1321282 0.94550407 1.0563463 0.9198276
000190 c2 b0 90 3f 4a 2e 54 3f 4c c8 68 3f 76 eb 67 3f
       1.1303942 0.8288313 0.9093063 0.9059366
0001a0 c1 05 81 3f 40 9b 69 3f 43 ab 86 3f 45 7b 63 3f
       1.0079881 0.9125252 1.0521015 0.8885997
0001b0 c1 21 7c 3f d7 4c 65 3f b7 f2 94 3f 0c be 8c 3f
       0.98489004 0.89570373 1.1636571 1.0995498
0001c0 bc b3 75 3f a3 22 7e 3f 48 1f 73 3f 55 1a 73 3f
       0.9597738 0.992716 0.94969606 0.94962054
0001d0 13 46 68 3f 76 84 79 3f 05 55 82 3f 66 94 63 3f
       0.90731925 0.97467744 1.0182196 0.88898313
0001e0 a4 1d 82 3f 2d a6 82 3f af 6d 69 3f 8f 61 8c 3f
       1.0165296 1.0206963 0.9118299 1.0967273
0001f0 80 6d 75 3f 2e 49 6c 3f a1 b6 87 3f b8 11 6f 3f
       0.9587021 0.92299163 1.0602609 0.9338641

bns.0.bias f4 [128]
000000 51 83 24 3c e2 41 f8 3d bc 4e 4d 3e c7 c1 24 3e
       0.010041074 0.12121941 0.20049566 0.16089545
000010 7b 7a 86 3d 65 7a 06 be e7 a9 60 3d 6e 24 32 3e
       0.0656633 -0.13132627 0.05484953 0.1739671
000020 ba 53 81 3e ae 06 1a bd 39 98 39 3e 9e 3e 56 3e
       0.2525919 -0.037604026 0.18124475 0.20922324
000030 d8 8b 46 bd 0c 64 69 3e 6b d4 91 bc c8 3b e9 bd
       -0.04847321 0.22792071 -0.017801484 -0.113883555
000040 92 51 39 3e d8 ab 6d 3e 17 66 80 3e 2b b9 83 3e
       0.18097523 0.23210084 0.25077888 0.2572721
000050 1b 53 2a bd bf 81 bf 3d 64 3b b7 bd 89 c8 19 be
       -0.04158316 0.09350919 -0.08946875 -0.15017904
000060 82 f3 48 3e 0e 06 2b be 97 93 85 3d 9d 57 98 3c
       0.19624141 -0.16701528 0.06522291 0.018596465
000070 a9 3c c5 3d f3 3d 9a bc 35 cc 52 3e 32 7a f7 bc
       0.09630711 -0.018828368 0.20585711 -0.030209634
000080 13 52 26 3e 64 1e be 3d 50 be e9 bd 5a a3 c6 3d
       0.16242246 0.0928314 -0.11413252 0.096991256
000090 5d 46 2f be a8 18 7d 3e 24 02 f4 bd 35 5d 99 3d
       -0.17116685 0.24716437 -0.11914471 0.07488481
0000a0 7e dc d9 3c 4a 41 b1 3d c2 b7 c8 bd 92 a3 f7 bd
       0.026594397 0.08655031 -0.09800674 -0.120917454
0000b0 1c 58 5b 3e e2 25 83 bd 4c 5e 4b 3e 4e 9b c1 bd
       0.2142033 -0.0640371 0.1986019 -0.0945345
0000c0 db a6 d4 bd bb 29 1e 3e 31 28 3f be b5 2e ed bd
       -0.10383388 0.15445606 -0.18667676 -0.11581174
0000d0 38 ad e5 3b 2e 0d fa 3c 85 b0 89 3d 71 59 77 3d
       0.0070091747 0.030523863 0.067231216 0.060388032
0000e0 1d 91 c0 bc 26 65 37 3e f0 4d 24 3e f5 fb 16 3e
       -0.023506695 0.17909679 0.16045356 0.14744551
0000f0 4b b3 bc bd ea 0d d4 3d 73 9a 43 3e b2 fd 32 be
       -0.09213885 0.103542164 0.19101886 -0.1747959
000100 8d b9 59 3e 2d 7c 24 3d ab 42 60 3e 1d 36 4f 3d
       0.21262188 0.040157486 0.21900432 0.050588716
000110 50 cf cf 3d 5e 71 ff bd 95 e5 2e 3e d9 80 da bd
       0.101469636 -0.12472795 0.17079766 -0.10669107
000120 95 ed c6 bd 32 2f 40 3e 73 59 44 3e de 8b b6 bd
       -0.09713284 0.18768004 0.19174747 -0.08913396
000130 29 52 60 3e 58 fc 19 3e a2 fe 92 3e c9 cd 3f 3e
       0.21906342 0.15037668 0.28709894 0.18730845
000140 ba 13 74 3e 3c bf 14 be d1 29 ea bd 5c 10 3a 3e
       0.2383565 -0.14526075 -0.11433757 0.18170303
000150 55 40 27 3e 10 15 42 be 18 29 cb bd 19 93 5a 3e
       0.16333134 -0.18953347 -0.099199474 0.21345176
000160 6b 90 21 be f7 d8 25 bc 9b 3d 64 3e 05 8f d0 3d
       -0.15777747 -0.010122529 0.22289126 0.10183529
000170 1a 06 5d 3d fc 65 3e bb d5 27 1d be 65 14 4c 3b
       0.053960897 -0.0029052487 -0.15347226 0.0031140086
000180 d3 ce 30 3e e0 30 9e 3d de 52 08 3e a8 26 2c 3e
       0.17266397 0.07724166 0.13312861 0.16811621
000190 cc 79 34 3e a1 e3 1a be bb d4 7b bd 28 2a 1c bd
       0.17624587 -0.15125896 -0.061482172 -0.03812614
0001a0 a0 f3 95 3c f3 32 8b bd bb 28 3f 3e f0 c9 ea bd
       0.018304646 -0.06796827 0.18667881 -0.11464298
0001b0 e3 ff 2c 3e 75 a2 3b 3e 49 18 37 3e a6 f9 2c 3e
       0.16894488 0.18323691 0.17880358 0.16892108
0001c0 48 6d 10 be 68 e3 b2 bd 32 93 b1 bd 99 78 32 3e
       -0.14104187 -0.087347806 -0.086706534 0.17428817
0001d0 5e 69 e5 bd 34 7a d8 3d c5 d6 02 3e d3 d6 f7 bd
       -0.11201738 0.105701834 0.1277724 -0.12101521
0001e0 f2 18 6c bd 12 2d 72 3e 24 e3 1d bd e5 b2 2f 3e
       -0.057640977 0.23650005 -0.038546696 0.17158087
0001f0 fa 3f 57 bd 26 32 0b be b7 21 5c 3e d0 06 55 3e
       -0.052551247 -0.13593349 0.21497236 0.2080338

bns.0.running_mean f4 [128]
000000 7a 84 94 3e b2 58 d1 3d 1c 70 86 be 46 56 c8 be
       0.29007322 0.102219954 -0.26257408 -0.3912832
000010 31 60 ca be 4f ae 13 bf eb a3 92 be d1 2a 77 be
       -0.39526513 -0.5768785 -0.28640684 -0.24137427
000020 2d 72 a3 3d cf 7b 0d be b1 7e 93 be f7 35 9a 3e
       0.07980762 -0.1381676 -0.28807595 0.30119297
000030 b5 4c 2e 3d c3 5c 07 bf 7e 78 aa 3e f8 d4 31 be
       0.042553622 -0.5287592 0.33295053 -0.17366397
000040 52 88 67 3e 4d a7 da 3e 5b b6 71 be 16 83 a2 3e
       0.22610596 0.42705765 -0.2360472 0.31740636
000050 44 68 f4 3d bd 91 1a be ae d2 1f bd a1 e3 a9 3e
       0.119339496 -0.15094657 -0.03901928 0.3318148
000060 0e f9 85 bd 19 40 0e bf cf b3 7a 3d 14 8d ba be
       -0.06541644 -0.55566555 0.061206635 -0.3643576
000070 bc 43 83 be 83 cd 01 bf 56 a9 e5 3d ea 4d 88 be
       -0.25637615 -0.5070421 0.11213939 -0.26621944
000080 25 32 b2 bc 48 41 c0 be 00 a4 04 bf d4 23 ac be
       -0.021752426 -0.37549806 -0.51812744 -0.33621085
000090 46 15 33 3e a1 a8 8a 3e 01 31 e5 be d6 fc a6 3e
       0.17488584 0.2708178 -0.4476395 0.32614774
0000a0 0c 81 5b 3e 43 51 25 3d d1 e6 15 be 02 53 23 be
       0.21435946 0.0403607 -0.1463883 -0.15949634
0000b0 79 cf ca bc c5 3b 09 bf 36 06 0c 3e eb 29 a9 bc
       -0.024757134 -0.53606826 0.13674244 -0.02064987
0000c0 41 eb 3f bd 21 20 bb bc eb 65 c7 be f9 c7 a0 be
       -0.046855215 -0.022842469 -0.38944945 -0.31402567
0000d0 d3 bd c7 be 5c c3 2c be 2d 35 50 be f1 3f c1 3c
       -0.39012012 -0.16871399 -0.20332785 0.02359006
0000e0 d7 68 c1 be f5 73 a0 3e 3b 17 99 be 39 8c 96 bd
       -0.377753 0.31338468 -0.29900536 -0.07350964
0000f0 84 7b eb bd cd 3a a5 bc e1 b4 84 be a2 ee b7 3d
       -0.11498168 -0.02016964 -0.2591925 0.089810625
000100 a5 a3 c5 3e 42 60 74 3e 7e e0 92 3e 48 ff 31 be
       0.38601413 0.23864844 0.286869 -0.17382538
000110 cc a3 48 be f7 a3 b6 3d bf 07 e3 bd 61 13 c9 3d
       -0.19593734 0.089179926 -0.11085462 0.09818149
000120 95 57 90 bd 24 ce 7b bc 48 7d 95 3e 98 f0 04 bf
       -0.07047955 -0.015368972 0.29197145 -0.51929617
000130 c0 71 10 3f 33 ae 34 be b2 30 af 3e 6a cb c0 bc
       0.5642357 -0.17644577 0.3421684 -0.023534495
000140 b4 5d 2e 3e 2a f3 ae 3e 2c 5d 6f be 04 73 95 be
       0.17027932 0.34169894 -0.23375386 -0.29189312
000150 16 bf fd 3e d1 4c fc ba 2b 44 34 be db 45 88 be
       0.4955985 -0.0019248967 -0.17604129 -0.26615795
000160 59 04 a7 bd 8c db 07 be 83 af 56 be 45 b1 8c 3d
       -0.08155126 -0.13267344 -0.2096539 0.06869749
000170 73 2a 44 3e 2d a4 e6 3d 5a c7 bd be b9 24 a0 3d
       0.19156818 0.11261783 -0.37066156 0.07819504
000180 91 25 06 3e 9d 17 fb 3b 59 1a d6 be c1 a9 11 3e
       0.13100268 0.007662727 -0.41816977 0.14224912
000190 9c 6b a3 3e ce 70 3c be 22 f4 ec bd d4 ce 01 3e
       0.31918037 -0.18402407 -0.11570002 0.12676555
0001a0 5f f3 37 be a8 d8 00 3d 2a ff 05 3e da b2 c8 3e
       -0.17963932 0.03145662 0.13085619 0.39198953
0001b0 b6 5c e4 bd fd 31 ce 3d a6 f8 d3 3e 89 1a dd 3b
       -0.11150496 0.10068128 0.4140064 0.006747548
0001c0 22 93 0d 3e cb f2 b2 be e9 97 3c be 44 8e 74 bc
       0.13825658 -0.3495086 -0.18417324 -0.014926497
0001d0 d9 ae 85 bd a1 ac 98 be a1 1d 9a 3e 1c 9b bc be
       -0.0652749 -0.29819205 0.3010073 -0.3683709
0001e0 b4 4e 89 bd bf 8b 32 3e 32 53 8c bc a0 86 4e 3e
       -0.067044646 0.17436121 -0.017129514 0.20168543
0001f0 c5 5b 46 3e a1 24 95 be 98 65 74 be 79 ba 6b 3e
       0.19370945 -0.29129508 -0.2386688 0.23020352

bns.0.running_var f4 [128]
000000 4e 6d 45 3d 21 97 96 3d 5f 80 9e 3d 57 de 87 3d
       0.048199944 0.07353044 0.077393286 0.06634205
000010 c6 78 88 3d e2 27 b1 3d 44 9e 70 3d 30 e5 57 3d
       0.06663661 0.08650185 0.058744684 0.052708805
000020 97 ed 66 3d 28 9d 87 3d 6e 5e 3a 3d e6 5d 60 3d
       0.056378927 0.06621772 0.04550021 0.05477705
000030 b2 b4 3e 3d 6b 97 ae 3d 73 01 8e 3d ec 90 6d 3d
       0.046559043 0.085249744 0.0693387 0.057999536
000040 aa d2 3b 3d 5d e2 a0 3d 16 ce 37 3d a7 2d 3b 3d
       0.0458552 0.07855675 0.044874273 0.045697834
000050 72 3e 44 3d ec d2 56 3d e5 14 8d 3d e3 8f 96 3d
       0.047911115 0.052447245 0.06888751 0.07351663
000060 88 7b 6e 3d e9 76 c0 3d 18 7e 6b 3d b3 10 7a 3d
       0.058223277 0.0939768 0.0574933 0.061051082
000070 e7 7d 70 3d 04 c8 80 3d 60 8d 69 3d 15 af 46 3d
       0.05871382 0.0628815 0.05701959 0.048506815
000080 04 30 80 3d b2 00 a1 3d 0d 3f 7b 3d 8e 2f 88 3d
       0.06259158 0.07861461 0.061339427 0.06649695
000090 20 b9 b2 3d 88 ad 2f 3d 68 fd 90 3d e0 92 4e 3d
       0.08726716 0.0428901 0.070795834 0.05043304
0000a0 05 e9 46 3d 10 2f 52 3d 67 e7 66 3d 97 b0 98 3d
       0.04856207 0.051314414 0.056373026 0.07455557
0000b0 28 e5 9f 3d f1 dc 9a 3d 24 63 50 3d 2e 64 87 3d
       0.0780738 0.075616725 0.050875798 0.06610905
0000c0 5a 34 8e 3d f5 60 9f 3d eb 0b 8c 3d 87 72 52 3d
       0.06943579 0.07782165 0.06838211 0.051378753
0000d0 3f 32 94 3d c4 6e 59 3d 89 3e 36 3d 2f 4f 9c 3d
       0.07236146 0.05308415 0.044493232 0.076322906
0000e0 f4 d7 80 3d 64 f8 67 3d b9 97 85 3d f8 0d 6f 3d
       0.0629119 0.056633368 0.065230794 0.05836293
0000f0 86 57 83 3d 21 fa 8c 3d c9 e0 8d 3d 55 dc 9c 3d
       0.06413178 0.06883646 0.0692764 0.076592125
000100 02 ae 52 3d 9f b6 58 3d 93 1e 4e 3d 2a cb 54 3d
       0.051435478 0.052908536 0.050322127 0.051951565
000110 77 9f b4 3d 8a b1 50 3d 88 5c 6c 3d a5 ad 65 3d
       0.08819478 0.050950564 0.057705432 0.056073803
000120 e6 43 79 3d 3c cb ae 3d 54 5f 8b 3d 12 21 8c 3d
       0.06085577 0.08534858 0.06805292 0.06842245
000130 a9 c0 b6 3d 63 12 92 3d 27 1d 5c 3d b2 a9 94 3d
       0.08923466 0.07132413 0.05373874 0.07258929
000140 9d ff 96 3d f9 cf 82 3d aa b1 90 3d f1 bc 8c 3d
       0.07372973 0.06387324 0.07065137 0.06871975
000150 05 7d 73 3d f6 11 84 3d c0 15 76 3d e9 3d 77 3d
       0.0594454 0.06448738 0.060079336 0.060361777
000160 56 28 a5 3d f3 ae 4e 3d 79 19 a3 3d 7f 06 6b 3d
       0.08064334 0.050459813 0.07963843 0.057379242
000170 b4 0f 85 3d 9b c3 60 3d 3c 4f 9c 3d 87 49 35 3d
       0.06497136 0.054874044 0.076323 0.044259574
000180 73 ad 81 3d e0 be 75 3d 0d 1b 8b 3d 8b 05 84 3d
       0.06331911 0.059996486 0.06792269 0.0644637
000190 74 1d 5f 3d eb 92 b8 3d cf 4f 47 3d d8 16 8a 3d
       0.054471448 0.090123974 0.048660096 0.06742638
0001a0 08 a8 53 3d 8c 19 97 3d 39 53 a7 3d 35 e8 82 3d
       0.05167392 0.073779196 0.0817017 0.06391946
0001b0 13 23 8d 3d cd 54 75 3d 0b 53 4f 3d 65 63 80 3d
       0.068914555 0.059895325 0.050616305 0.06268958
0001c0 fb b2 b9 3d 6d d5 8a 3d d9 8e 4c 3d 89 7b 8f 3d
       0.09067341 0.06778989 0.049940918 0.07005984
0001d0 2d a2 73 3d 79 fa 87 3d 4d d0 52 3d 61 91 62 3d
       0.059480835 0.06639571 0.051468182 0.055314425
0001e0 4b 72 88 3d 91 09 8d 3d ea 1f 41 3d 90 5a a4 3d
       0.06662425 0.0688659 0.047149576 0.08025086
0001f0 94 c1 9e 3d da 3d 71 3d 43 9c 44 3d b3 6b 74 3d
       0.07751766 0.058896877 0.048000585 0.059673022

convs.0.att_src f4 [1, 4, 32]
000000 e4 27 95 be 22 9d e8 be 00 43 7e bd d8 f2 b8 3c
       -0.29131997 -0.45432383 -0.062075615 0.022576734
000010 c7 7f 09 bd 7b 91 2d 3e 90 a1 20 bf ae 1c 8e bd
       -0.033569124 0.16950028 -0.62746525 -0.06939064
000020 28 8a 3b bd 41 75 61 3e a0 df b0 be d2 33 36 3f
       -0.045786053 0.22017385 -0.34545612 0.7117282
000030 89 04 cf be 9f 03 02 3e f1 25 b8 bd 0e 9a cb bd
       -0.40433148 0.12696694 -0.08991612 -0.09941493
000040 18 98 36 3e 5d 23 0d 3f 15 95 fd be 21 2d 6f 3e
       0.17831457 0.55132085 -0.49527803 0.23357059
000050 96 2b 05 be 38 f7 82 3e 79 a2 62 be 20 0d ef 3e
       -0.13004908 0.25579238 -0.22132291 0.466897
000060 80 59 b4 3e b7 ed cb be 7f 61 af 3e 70 06 01 bc
       0.35224533 -0.398298 0.3425407 -0.00787507
000070 8b 0f 35 3e 44 12 1a 3e 87 46 c7 bd 24 3a 01 3e
       0.1768171 0.1504603 -0.09730249 0.12619835
000080 1f 9b a7 be 13 22 d0 be dc ba 9f 3e a4 7c 75 bd
       -0.32735536 -0.40650997 0.3119725 -0.05993332
000090 21 0b 89 3e e1 1c a0 3e 08 ac b7 3d 8e e6 86 3e
       0.26766303 0.31272033 0.08968359 0.26347774
0000a0 d9 c4 49 be df 44 2c bf 87 51 bd be f1 5d ce 3e
       -0.19703998 -0.6729259 -0.36976263 0.40306047
0000b0 dc 59 df be f9 7e 7e 3e 37 d4 76 be 3b 71 ad 3c
       -0.43623245 0.24853124 -0.24104391 0.021172157
0000c0 87 4f a6 3e a0 50 0a bf 91 d3 40 be bc d6 f3 be
       0.3248255 -0.54029274 -0.18830706 -0.47624767
0000d0 0c 09 90 be 95 33 4c be 83 19 b7 3c a7 57 ef bd
       -0.28131902 -0.19941552 0.022351032 -0.1168664
0000e0 03 9e 1f be c9 cd 9e 3e 3b 1b 12 be d4 ec ff 3c
       -0.1558762 0.31016377 -0.142682 0.031240858
0000f0 8d 67 93 bd 36 e5 c7 3e c3 96 54 bd 91 1b 1c 3f
       -0.07197485 0.39042062 -0.05190159 0.60979563
000100 da 4a 5c 3e 9a aa 06 bf df a9 aa 3e 00 34 af be
       0.21512929 -0.5260407 0.33332726 -0.3421936
000110 52 bf 7f bd 43 29 3e 3d f2 72 91 be a6 a8 a6 bd
       -0.062438317 0.04642607 -0.2840801 -0.08137636
000120 65 6a ae be 46 62 33 3f 88 38 0b 3f 4f 6f 86 3e
       -0.34065548 0.7007183 0.54383135 0.26256797
000130 74 99 20 3e 54 c8 95 bd 5d ae 7a 3e 43 db d0 be
       0.15683538 -0.073136 0.24480577 -0.40792283
000140 44 61 d4 3c 0d 5d 96 be 82 dd 23 be e9 66 20 bf
       0.025925286 -0.29367867 -0.16002467 -0.6265703
000150 b3 5a 8a 3e c6 24 06 3f b3 61 c7 be c0 51 a1 3d
       0.27022323 0.5239986 -0.38941726 0.07876921
000160 2f ef a2 3e 74 00 32 bf f4 6c 4d 3e be b5 db 3e
       0.31823108 -0.6953194 0.20061094 0.42912096
000170 bf f1 33 3f 54 d5 97 be bb d3 9a be f0 3a a9 3e
       0.7029075 -0.29654944 -0.30239663 0.33052778
000180 eb 49 bd bd ed 46 32 3f d7 67 11 bf 0f eb bf be
       -0.09242614 0.69639474 -0.5679907 -0.37484023
000190 59 cb 2d 3f 8c 17 c3 3e 1d 9a 9d 3e f6 cc 24 3b
       0.6788841 0.38103902 0.30781642 0.002514658
0001a0 0e c0 16 bf cb a9 3d 3d 68 ee 00 bf a3 f6 f6 3d
       -0.588868 0.046304505 -0.5036378 0.12058761
0001b0 46 e9 61 bd 94 37 dd 3e ba 93 f8 3e 9e f1 d5 be
       -0.055154108 0.43206465 0.48550206 -0.41785902
0001c0 c3 f8 87 bd 08 c4 dc 3e 72 04 59 3e 8f 3c c3 3d
       -0.066392444 0.4311831 0.21193102 0.09533035
0001d0 5a 19 10 be d5 62 cc 3e b9 7e cb 3d e8 e2 24 bf
       -0.14072171 0.39919153 0.0993628 -0.6440873
0001e0 61 36 68 be e6 70 10 3c d5 3b b5 3e 3c eb 45 bd
       -0.22676994 0.00881598 0.3539721 -0.04832004
0001f0 57 94 97 3e 76 6d 3e be 28 a8 d0 bd 44 54 4a 3e
       0.29605362 -0.18596444 -0.10188323 0.19758707

convs.0.att_dst f4 [1, 4, 32]
000000 c3 d5 56 3b 28 fe 85 be 8e 00 99 be 28 5c be bd
       0.003278122 -0.26170468 -0.29883236 -0.09294921
000010 91 32 ba be 94 cb 2d be b9 e5 33 be 7e e1 0e be
       -0.36366704 -0.1697219 -0.17568101 -0.13953206
000020 3b 5c ea 3d e7 a1 62 be a8 29 9f 3e 64 b3 9e be
       0.11443373 -0.22132073 0.3108647 -0.3099624
000030 e3 f8 ed 3e 12 4c 2f be 40 6b 54 be 51 63 68 3e
       0.46478948 -0.17118862 -0.20744038 0.22694136
000040 f0 14 d9 bd 58 40 45 3e fa ad 74 bd 2e 8b 99 3e
       -0.10599697 0.19262826 -0.05973623 0.29988998
000050 88 6d 45 be 62 9e 69 be 86 fd 90 be 00 38 06 3f
       -0.19280064 -0.22814324 -0.28318423 0.524292
000060 e2 25 64 be 1e 39 ac be 65 07 41 3e 05 d7 2f 3e
       -0.22280076 -0.33637327 0.18850477 0.17171867
000070 03 69 4f be 44 1c bf bd 8d c3 d7 3e 80 4a 14 be
       -0.20254903 -0.09331563 0.4214138 -0.14481544
000080 bc b9 ff be f9 94 a8 3d a6 0a e9 3e 75 ed 1a 3e
       -0.49946392 0.08231539 0.45515937 0.15129645
000090 94 aa 89 3e ce de 38 3d 9a b7 8a 3e 46 9f f5 bd
       0.26887953 0.045134358 0.27093202 -0.119932696
0000a0 66 3b 96 be c3 03 fc be 1d f7 89 3e c8 66 82 3e
       -0.29342192 -0.4922162 0.26946345 0.2546904
0000b0 c7 2a 96 be 8b b1 89 be 0c e5 f4 be e6 c1 70 be
       -0.29329512 -0.26893267 -0.47831 -0.23511466
0000c0 f0 32 ac 3e 18 b1 1d be d4 14 b8 3e dc 1b 13 3e
       0.33632612 -0.15399587 0.3595339 0.14366096
0000d0 b1 2c 96 3e 6b 26 e1 be aa a6 b0 3e 9e 07 06 bf
       0.29330972 -0.43974623 0.34502155 -0.5235537
0000e0 7e 2b 95 bd 19 95 29 be 62 d1 f8 be df cb 96 bc
       -0.07283686 -0.16560782 -0.48597246 -0.01840776
0000f0 84 3b e2 bd c7 7d 00 3f 89 db 86 bb 15 32 da 3e
       -0.11046508 0.5019192 -0.004115526 0.42616335
000100 20 db 77 be 0a 9f 90 3d 49 31 1c 3c 2e 8b 13 be
       -0.24204683 0.07061584 0.009533235 -0.14408562
000110 ef 0d b1 be 37 8a 99 3e 82 3f 83 3e 6d c5 11 3e
       -0.34580943 0.29988262 0.2563439 0.14235468
000120 0e cc 25 be ca 93 a7 3e cd 10 e8 3e 9e e0 97 be
       -0.16191122 0.32729942 0.45325318 -0.29663557
000130 4d c5 08 3f ea 97 ab 3c 96 30 b6 3e 11 21 13 be
       0.5342606 0.020946462 0.35583943 -0.14368083
000140 8e 46 1a 3b e0 25 63 be a9 e1 a7 be dc 90 79 be
       0.002354059 -0.22182417 -0.32789353 -0.24371666
000150 5e 48 32 be dd 88 94 be cc d3 7f be 26 d7 e5 be
       -0.17410418 -0.29010668 -0.24983138 -0.44890708
000160 e5 e4 b2 3d 5b d4 e5 3e 7f e7 a8 3e 48 3c 5a be
       0.087350644 0.44888577 0.32989118 -0.21312058
000170 3b ab c5 3e fd 84 56 3e c2 ca c0 be fd 3b b9 3d
       0.386072 0.20949169 -0.37654692 0.09044645
000180 4b 4a ae 3e d1 46 fc 3e 91 e3 ca be e9 2b 05 bf
       0.34041056 0.4927278 -0.39626744 -0.52020127
000190 21 25 94 3e 21 f1 39 3e fa ea 4c bd 1b 5c 46 be
       0.28934577 0.1815839 -0.05002878 -0.19371073
0001a0 48 f7 38 be b9 01 22 bd ab 2f 3c 3e 1f ed ff bc
       -0.1806308 -0.039552424 0.18377559 -0.031240998
0001b0 a9 29 74 3e 68 ef b5 bd 64 db 90 3c 23 56 8e 3d
       0.23844017 -0.08883554 0.017682739 0.06950023
0001c0 22 fd ef 3e c5 09 04 bf d7 d8 f3 be f7 23 2b be
       0.46872813 -0.5157741 -0.47626373 -0.16712938
0001d0 43 f0 2a be ca 7a 7c 3e 76 a3 4e 3e 02 44 02 3e
       -0.16693215 0.24656215 0.20179543 0.12721255
0001e0 01 2c c0 be 31 e4 08 3e 48 73 13 3d b7 c3 e1 3e
       -0.37533572 0.13368298 0.035998613 0.4409463
0001f0 9f 4e 23 3e ac 1b 9f be af 3a 1b be 0f d6 0b be
       0.1594796 -0.310758 -0.15159105 -0.13655876

convs.0.bias f4 [128]
000000 e9 de 5b bc bb f8 73 3c d3 3d 2a bd 7f 14 0b bd
       -0.013419845 0.014890845 -0.041562866 -0.033955093
000010 f8 e9 b5 3c b4 17 d1 bc 93 c4 22 3d 89 e8 03 bd
       0.022206292 -0.025523998 0.03973825 -0.032204185
000020 a3 4f 8e bb bf f8 94 bc 04 22 97 3c fe 70 67 3c
       -0.0043429895 -0.018185018 0.018448837 0.0141260605
000030 73 c3 ad bc 81 90 ac 3b 24 51 0f bc 78 f5 b0 3c
       -0.021211362 0.0052662496 -0.008747373 0.021601424
000040 32 f8 73 3b 3b de 22 3c 9c 1c cd 3b 8b f5 a5 3b
       0.0037226793 0.009940679 0.006259514 0.0050646714
000050 65 93 31 3d b4 e4 00 bc 4a 0d 30 3c 76 a0 52 bd
       0.043353457 -0.007867027 0.010745356 -0.05142256
000060 14 7d 02 3d a3 e7 98 3c fa b6 6b 3b db e6 e3 3c
       0.031857565 0.01866514 0.0035967217 0.027820041
000070 c1 b4 e4 3c 94 48 5d bc 05 25 c1 bc c2 08 70 3b
       0.027918221 -0.0135060735 -0.023577223 0.0036626314
000080 cc 86 94 bb 12 30 0a bd 64 a9 5c bc 1b 08 7d bc
       -0.0045326706 -0.03373725 -0.01346812 -0.015443827
000090 35 23 a4 3b 4c 7a a7 bc 09 2b 2a bd 54 23 8d bc
       0.00500908 -0.020444058 -0.041544948 -0.01722876
0000a0 b7 b0 47 3c 0b e4 c0 3c 89 a2 32 3d 5b 3e b3 bc
       0.012188128 0.02354624 0.043612037 -0.02188032
0000b0 e3 7f 12 3d 55 87 93 bc f1 34 e6 3c e7 2c 51 bd
       0.035766494 -0.018008867 0.028101416 -0.051068213
0000c0 84 67 27 3d 4d 06 f5 bc eb 37 a3 3c 5b 59 25 3d
       0.040870205 -0.029910231 0.019924125 0.04036842
0000d0 7f bc 89 3c ef 97 15 bd 14 e4 36 3d ac 3c 08 3c
       0.016813515 -0.03652185 0.044651106 0.008315247
0000e0 7b 42 e2 bb 67 5f 04 bd 4e 2f 44 bd 6b 2f 2e bd
       -0.0069048977 -0.032317545 -0.047896676 -0.04252569
0000f0 06 84 04 3d be fa 30 3c e0 f2 c7 bc de 74 1c bd
       0.03235247 0.010801969 -0.024407804 -0.03819739
000100 ef 23 05 3c 5c b3 5c bc 49 77 ed bb c6 e1 cf 3c
       0.008126243 -0.013470497 -0.007246886 0.025376212
000110 2d a6 b7 bc 6c fe 89 bd 06 7d 0e bd 13 a9 8b 3c
       -0.022418106 -0.0673798 -0.0347872 0.017048394
000120 f6 2f 9a 3b a8 c5 74 3c 3e 2e 08 bc 83 c1 68 3b
       0.0047054244 0.014939703 -0.008311806 0.0035515733
000130 96 ab 46 bc 9d 35 20 3c 49 1e 5f 3c 26 7b fe bc
       -0.01212587 0.009778407 0.01361806 -0.031064581
000140 69 ef 90 3c 61 7d fd 3c 6c 4d 34 3b 35 a4 f0 3c
       0.017692285 0.030943574 0.0027511967 0.029375175
000150 51 78 9c 3c 4e c6 e1 3c 6b 86 c8 3c 38 1c 20 3c
       0.01910034 0.02756038 0.024478158 0.009772353
000160 ec f3 54 3c 2d 7c 9d bb 36 50 5b bb 58 b7 15 3d
       0.012997609 -0.0048060627 -0.0033464557 0.036551803
000170 b7 30 e3 bb 51 de 08 3d c7 c1 c9 3b 10 2c 3d 3c
       -0.0069332975 0.033415142 0.0061571333 0.01154615
000180 cd 48 66 3d 84 b1 14 3d 9f 05 68 bc 5a 3a 36 3d
       0.056221772 0.036302105 -0.014161496 0.044489242
000190 98 25 41 3d a3 dc 03 3b 2e 57 22 bd e6 93 1f bd
       0.047154993 0.0020120523 -0.039633922 -0.038959406
0001a0 64 75 99 bc 05 d6 a0 3c f5 13 99 bc 06 b7 93 3c
       -0.018732734 0.019633302 -0.018686274 0.018031608
0001b0 4e 29 ca bc fc 14 ec 3c 41 59 53 3d 7b ff 8b 3c
       -0.024677899 0.0288186 0.05159879 0.017089596
0001c0 82 cd 9f bb 82 11 38 bc 1b 7d 3c 3c d0 e1 0f 3d
       -0.0048767934 -0.011234643 0.011504437 0.03512746
0001d0 91 86 12 3d 8c 9d a0 bc 6b bb f1 3c 7b a3 0e 3d
       0.035772864 -0.019606374 0.029508313 0.034823876
0001e0 1a cc 79 3c 2d 31 04 ba d5 d1 9e bc 66 db 2f 3d
       0.0152464155 -0.0005042728 -0.019387165 0.042933844
0001f0 52 78 05 bc d3 a9 35 bc 45 ae 46 3a c9 57 0e bd
       -0.008146362 -0.0110878525 0.0007579069 -0.034751687

convs.0.lin_src.weight f4 [128, 128]
000000 a9 c0 20 3c b0 4c f0 3d 4b 46 01 3e 59 cc 9c 3d
       0.009811559 0.11733377 0.12624471 0.07656164
000010 b9 cb 02 be 7e f9 d5 bc af 2d fb bd 0c 71 9b 3d
       -0.12773027 -0.026119944 -0.12264573 0.07589921
000020 76 b0 03 3e 2c fa b0 3d cd 71 fa 3c 3e f8 83 3d
       0.12860283 0.086414665 0.030571843 0.06443833
000030 29 08 ae 3d 3f 45 65 bd 6c b0 19 3e 18 88 bf 3e
       0.0849765 -0.05597424 0.15008706 0.3740852
000040 00 cc 12 3d 36 ba 3c 3c f1 40 a1 3d 41 e2 71 be
       0.03583908 0.0115190055 0.07873715 -0.23621465
000050 de 90 66 be 9a 5f e8 bd 63 07 3b 3d 2b 40 a9 bc
       -0.225162 -0.113463596 0.04566134 -0.02066048
000060 a0 6c 25 3c 06 b9 a0 be 0a 10 0e 3e d4 a5 3a 3e
       0.010096699 -0.31391162 0.13873306 0.18227321
000070 43 78 3d 3c 49 62 24 be a0 2f 20 3d c5 05 0d 3d
       0.011564317 -0.16053118 0.03910792 0.03442933
000080 94 8d ac bd 94 7f 8f be e7 a1 5c 3d a8 1f 24 be
       -0.084254414 -0.28027022 0.05386534 -0.16027701
000090 1d de ac bd a5 d8 e1 bd 84 3c 09 3e 36 4d c8 bd
       -0.08440802 -0.1102765 0.13401991 -0.09780352
0000a0 2c f2 e7 3c 26 b0 06 bc 56 e5 0c 3e 4b 0c 05 be
       0.028313719 -0.008220708 0.1375936 -0.1299297
0000b0 69 b9 4c be 93 27 94 bd e6 fc 28 bd 72 87 83 bd
       -0.19992603 -0.07234111 -0.041256808 -0.064223185
0000c0 47 45 d6 bd ba 15 3c be 82 b5 9a 3d af de 20 3e
       -0.10462432 -0.18367663 0.07554151 0.15709947
0000d0 6c 98 ea bd a6 f7 e5 bd d2 34 53 be 11 b8 3a be
       -0.114548534 -0.11228876 -0.20625618 -0.18234278
0000e0 26 48 22 3d a5 eb 31 be 70 74 20 be 53 7b fa 3d
       0.039619587 -0.17375048 -0.15669417 0.122305535
0000f0 fd 4d 87 3d 45 ca 34 3e a4 27 09 be 63 aa 7a bc
       0.06606672 0.17655285 -0.13394028 -0.015299412
000100 53 67 2c 3e 68 87 7f 3c d2 4a 98 be 42 30 81 3b
       0.1683629 0.015596248 -0.29744583 0.0039425204
000110 29 41 22 3d 22 26 b7 bd 35 92 ae bd 97 2f 99 3d
       0.039612923 -0.0894282 -0.085239805 0.0747978
000120 bc 89 3b 3d 3d 5b 04 be bf 15 49 3e 78 75 73 bd
       0.04578565 -0.1292543 0.19637202 -0.0594382
000130 4b d2 9e bd 22 ac 48 3e d4 cf d7 3d d8 b7 28 3e
       -0.07754954 0.19596913 0.10537687 0.16476381
000140 74 db 26 3e 91 b3 8d 3d a9 87 36 bc 8e 07 03 3e
       0.16294652 0.06919015 -0.011140742 0.1279585
000150 9b 28 36 3e de de 8a bd 60 20 f7 bd 80 48 54 3e
       0.17788927 -0.0678079 -0.12066722 0.20730782
000160 96 5c 63 bd d1 3e 1e bd 73 90 41 bd d7 bc 3b be
       -0.05550822 -0.038634125 -0.047256898 -0.18333755
000170 97 93 91 3e c5 f7 16 3e 52 c4 fe bd b7 76 2c 3d
       0.28432915 0.14742954 -0.12439789 0.042105403
000180 ce ee 2f bc b0 7e b4 bd 09 f3 52 3e 9b 2b 89 bd
       -0.010738088 -0.08813226 0.20600523 -0.0669777
000190 d7 78 ab 3d b1 6d c3 3d ac 43 ca bd 2c 46 46 be
       0.08372658 0.09542406 -0.09876189 -0.19362706
0001a0 df 5a 9d 3c 96 eb 84 3e 7f d6 00 be b2 a1 73 3b
       0.01920837 0.25960988 -0.12581824 0.0037175235
0001b0 17 1d 89 3e aa d4 3c bd dc 4c 8c 39 d9 6e c1 bc
       0.26780006 -0.04610125 0.00026760146 -0.023612427
0001c0 24 68 80 3d 59 6d 55 3e 58 06 0c 3e da 05 a8 bb
       0.06269863 0.20842494 0.13674295 -0.0051276507
0001d0 9c d8 08 bd ba 2d ab ba 95 8a 0f bd 40 80 47 bc
       -0.0334097 -0.0013059892 -0.03504427 -0.012176573
0001e0 3b 31 a9 3d d7 fd 09 be 42 ab ff 3d 54 a9 8a 3e
       0.08261343 -0.13475738 0.12483837 0.27082312
0001f0 95 d8 66 bc 95 51 73 3e d9 60 b9 bd a0 4c ca 3b
       -0.014089723 0.2376159 -0.09051675 0.006173685
000200 dd 1a 46 3e 8c a1 ca bd b0 54 00 bd 3b 99 94 bd
       0.19346185 -0.09894094 -0.031330764 -0.07255789
000210 58 41 58 3e a3 8f 18 bd 76 96 aa 3d e7 a9 4a be
       0.21118677 -0.037246358 0.083294794 -0.19791375
000220 61 43 99 3d 2a 15 78 be a2 f4 e3 3c 6b 03 51 be
       0.07483555 -0.24226823 0.027826611 -0.2041146
000230 f5 fc 64 bd b3 53 0b 3d 7c 92 14 be 7e f8 2b 3e
       -0.0559053 0.03401537 -0.14509004 0.16794011
000240 f6 cc 58 3d 95 75 4e bc 5a de 5c 3e d0 28 05 be
       0.05292984 -0.012601276 0.21569195 -0.1300385
000250 4c 88 84 3c a0 46 3f be 6d 33 c7 37 12 c3 7b 3d
       0.016178273 -0.18679285 2.3746596e-05 0.06146533
000260 00 30 f0 bd df be ba bd e8 0a 4a 3e e7 63 2b 3e
       -0.11727905 -0.09118437 0.19730723 0.16737328
000270 77 76 a8 3d 1d 96 70 3c 5f 39 69 be 20 77 bb bc
       0.082257204 0.014684227 -0.22775792 -0.022883952
000280 f7 8c 11 3e d5 b2 39 3e 37 7d 02 ba c5 80 9f 3e
       0.1421393 0.18134625 -0.0004977765 0.3115293
000290 7c 3e 1c be 20 93 65 bc 20 94 9f bc 1b d9 03 be
       -0.15258211 -0.014012128 -0.019479811 -0.12875788
0002a0 dc 46 74 be f6 d7 0d 3e 88 18 03 bc c4 33 dc 3d
       -0.23855156 0.13851914 -0.008001454 0.10752061
0002b0 5e d7 01 be 3e bf ff bb 08 99 0d bd 2b 0b c4 3c
       -0.12679812 -0.0078047803 -0.03456977 0.023931107
0002c0 32 14 32 be b5 4f 9f 3d dc 75 28 bd 00 ba fa bd
       -0.17390516 0.07778875 -0.041128024 -0.12242508
0002d0 da 64 18 be a4 09 e1 bd 53 12 d9 bd 07 3f a0 3d
       -0.14882222 -0.10988167 -0.10599198 0.078245215
0002e0 6c 4f 06 3e 44 5a 5b be 8d b8 d4 bc cc 1c 42 3e
       0.13116235 -0.21421152 -0.025966907 0.18956298
0002f0 09 ef 2e be bf 97 88 bd 33 9a b2 bd 02 a1 1c 3e
       -0.17083372 -0.06669568 -0.087208174 0.15295795
000300 6a d8 34 3e 9d e1 01 be e3 47 0b be c7 ae 4a 3e
       0.1766068 -0.12683721 -0.13601641 0.19793235
000310 03 62 f8 3d 70 29 37 be a0 d0 0f 3d 32 64 33 bc
       0.12128069 -0.17886901 0.03511107 -0.010949181
000320 ee bf af 3d 70 2c 5e 3b 09 6b 95 3d 46 db e7 bd
       0.085815296 0.0033900999 0.07295806 -0.1132112
000330 5c 26 86 bd da c3 f4 3d 13 85 65 3c b0 e5 de bb
       -0.06550285 0.11951418 0.014008778 -0.006802283
000340 f9 c1 84 bd 74 ec c8 3d d8 8e 07 bd 74 02 11 be
       -0.0648231 0.09810725 -0.03309521 -0.14161092
000350 73 46 5a be 24 ab dc bc f5 07 29 3c cb 7c 59 bd
       -0.21315937 -0.026937075 0.0103168385 -0.053097527
000360 75 6b 5e 3d b5 b9 7e 3d b5 b1 9d 3d 3d ab 9e bd
       0.054301698 0.062188823 0.076999106 -0.07747505
000370 ad 70 57 3e 8d 05 8b bb f7 5f 97 3e 5b 97 0b be
       0.21039076 -0.004242605 0.29565403 -0.13631956
000380 c1 04 28 3e 5e 37 1e 3e 52 0b 93 bb 24 b0 76 bd
       0.16408063 0.15450808 -0.0044874335 -0.060226575
000390 92 b0 1b 3a 19 57 7f 3e 7d fd db 3d f1 2c 8a bd
       0.0005939092 0.24935569 0.107417084 -0.06746853
0003a0 c9 5e 81 be 93 92 d4 bc 1f 18 b0 bd bc 73 23 3e
       -0.25267628 -0.025948798 -0.08598351 0.15962118
0003b0 8b f3 77 3e cc ad 39 3d 5d c4 63 3e 56 a4 2c be
       0.24213998 0.04533176 0.22242875 -0.16859564
0003c0 7d 10 09 bd bf 76 43 be f2 a2 b2 3c 41 a8 84 3d
       -0.03346299 -0.19088267 0.021806214 0.064774044
0003d0 a9 e4 25 bd 3a fd 90 3d ce 19 5e be 49 49 d2 bd
       -0.04050127 0.07079549 -0.21689531 -0.10267884
0003e0 38 5f ec bc 9e 29 35 3e cb cf 60 bb 18 7f 5a 3c
       -0.028853998 0.17691657 -0.0034303542 0.013335966
0003f0 d7 85 11 be 08 e6 07 be e8 b9 a6 3d 3c 00 92 3d
       -0.14211212 -0.13271344 0.081409276 0.07128951

convs.0.lin_dst.weight f4 [128, 128]
000000 a9 c0 20 3c b0 4c f0 3d 4b 46 01 3e 59 cc 9c 3d
       0.009811559 0.11733377 0.12624471 0.07656164
000010 b9 cb 02 be 7e f9 d5 bc af 2d fb bd 0c 71 9b 3d
       -0.12773027 -0.026119944 -0.12264573 0.07589921
000020 76 b0 03 3e 2c fa b0 3d cd 71 fa 3c 3e f8 83 3d
       0.12860283 0.086414665 0.030571843 0.06443833
000030 29 08 ae 3d 3f 45 65 bd 6c b0 19 3e 18 88 bf 3e
       0.0849765 -0.05597424 0.15008706 0.3740852
000040 00 cc 12 3d 36 ba 3c 3c f1 40 a1 3d 41 e2 71 be
       0.03583908 0.0115190055 0.07873715 -0.23621465
000050 de 90 66 be 9a 5f e8 bd 63 07 3b 3d 2b 40 a9 bc
       -0.225162 -0.113463596 0.04566134 -0.02066048
000060 a0 6c 25 3c 06 b9 a0 be 0a 10 0e 3e d4 a5 3a 3e
       0.010096699 -0.31391162 0.13873306 0.18227321
000070 43 78 3d 3c 49 62 24 be a0 2f 20 3d c5 05 0d 3d
       0.011564317 -0.16053118 0.03910792 0.03442933
000080 94 8d ac bd 94 7f 8f be e7 a1 5c 3d a8 1f 24 be
       -0.084254414 -0.28027022 0.05386534 -0.16027701
000090 1d de ac bd a5 d8 e1 bd 84 3c 09 3e 36 4d c8 bd
       -0.08440802 -0.1102765 0.13401991 -0.09780352
0000a0 2c f2 e7 3c 26 b0 06 bc 56 e5 0c 3e 4b 0c 05 be
       0.028313719 -0.008220708 0.1375936 -0.1299297
0000b0 69 b9 4c be 93 27 94 bd e6 fc 28 bd 72 87 83 bd
       -0.19992603 -0.07234111 -0.041256808 -0.064223185
0000c0 47 45 d6 bd ba 15 3c be 82 b5 9a 3d af de 20 3e
       -0.10462432 -0.18367663 0.07554151 0.15709947
0000d0 6c 98 ea bd a6 f7 e5 bd d2 34 53 be 11 b8 3a be
       -0.114548534 -0.11228876 -0.20625618 -0.18234278
0000e0 26 48 22 3d a5 eb 31 be 70 74 20 be 53 7b fa 3d
       0.039619587 -0.17375048 -0.15669417 0.122305535
0000f0 fd 4d 87 3d 45 ca 34 3e a4 27 09 be 63 aa 7a bc
       0.06606672 0.17655285 -0.13394028 -0.015299412
000100 53 67 2c 3e 68 87 7f 3c d2 4a 98 be 42 30 81 3b
       0.1683629 0.015596248 -0.29744583 0.0039425204
000110 29 41 22 3d 22 26 b7 bd 35 92 ae bd 97 2f 99 3d
       0.039612923 -0.0894282 -0.085239805 0.0747978
000120 bc 89 3b 3d 3d 5b 04 be bf 15 49 3e 78 75 73 bd
       0.04578565 -0.1292543 0.19637202 -0.0594382
000130 4b d2 9e bd 22 ac 48 3e d4 cf d7 3d d8 b7 28 3e
       -0.07754954 0.19596913 0.10537687 0.16476381
000140 74 db 26 3e 91 b3 8d 3d a9 87 36 bc 8e 07 03 3e
       0.16294652 0.06919015 -0.011140742 0.1279585
000150 9b 28 36 3e de de 8a bd 60 20 f7 bd 80 48 54 3e
       0.17788927 -0.0678079 -0.12066722 0.20730782
000160 96 5c 63 bd d1 3e 1e bd 73 90 41 bd d7 bc 3b be
       -0.05550822 -0.038634125 -0.047256898 -0.18333755
000170 97 93 91 3e c5 f7 16 3e 52 c4 fe bd b7 76 2c 3d
       0.28432915 0.14742954 -0.12439789 0.042105403
000180 ce ee 2f bc b0 7e b4 bd 09 f3 52 3e 9b 2b 89 bd
       -0.010738088 -0.08813226 0.20600523 -0.0669777
000190 d7 78 ab 3d b1 6d c3 3d ac 43 ca bd 2c 46 46 be
       0.08372658 0.09542406 -0.09876189 -0.19362706
0001a0 df 5a 9d 3c 96 eb 84 3e 7f d6 00 be b2 a1 73 3b
       0.01920837 0.25960988 -0.12581824 0.0037175235
0001b0 17 1d 89 3e aa d4 3c bd dc 4c 8c 39 d9 6e c1 bc
       0.26780006 -0.04610125 0.00026760146 -0.023612427
0001c0 24 68 80 3d 59 6d 55 3e 58 06 0c 3e da 05 a8 bb
       0.06269863 0.20842494 0.13674295 -0.0051276507
0001d0 9c d8 08 bd ba 2d ab ba 95 8a 0f bd 40 80 47 bc
       -0.0334097 -0.0013059892 -0.03504427 -0.012176573
0001e0 3b 31 a9 3d d7 fd 09 be 42 ab ff 3d 54 a9 8a 3e
       0.08261343 -0.13475738 0.12483837 0.27082312
0001f0 95 d8 66 bc 95 51 73 3e d9 60 b9 bd a0 4c ca 3b
       -0.014089723 0.2376159 -0.09051675 0.006173685
000200 dd 1a 46 3e 8c a1 ca bd b0 54 00 bd 3b 99 94 bd
       0.19346185 -0.09894094 -0.031330764 -0.07255789
000210 58 41 58 3e a3 8f 18 bd 76 96 aa 3d e7 a9 4a be
       0.21118677 -0.037246358 0.083294794 -0.19791375
000220 61 43 99 3d 2a 15 78 be a2 f4 e3 3c 6b 03 51 be
       0.07483555 -0.24226823 0.027826611 -0.2041146
000230 f5 fc 64 bd b3 53 0b 3d 7c 92 14 be 7e f8 2b 3e
       -0.0559053 0.03401537 -0.14509004 0.16794011
000240 f6 cc 58 3d 95 75 4e bc 5a de 5c 3e d0 28 05 be
       0.05292984 -0.012601276 0.21569195 -0.1300385
000250 4c 88 84 3c a0 46 3f be 6d 33 c7 37 12 c3 7b 3d
       0.016178273 -0.18679285 2.3746596e-05 0.06146533
000260 00 30 f0 bd df be ba bd e8 0a 4a 3e e7 63 2b 3e
       -0.11727905 -0.09118437 0.19730723 0.16737328
000270 77 76 a8 3d 1d 96 70 3c 5f 39 69 be 20 77 bb bc
       0.082257204 0.014684227 -0.22775792 -0.022883952
000280 f7 8c 11 3e d5 b2 39 3e 37 7d 02 ba c5 80 9f 3e
       0.1421393 0.18134625 -0.0004977765 0.3115293
000290 7c 3e 1c be 20 93 65 bc 20 94 9f bc 1b d9 03 be
       -0.15258211 -0.014012128 -0.019479811 -0.12875788
0002a0 dc 46 74 be f6 d7 0d 3e 88 18 03 bc c4 33 dc 3d
       -0.23855156 0.13851914 -0.008001454 0.10752061
0002b0 5e d7 01 be 3e bf ff bb 08 99 0d bd 2b 0b c4 3c
       -0.12679812 -0.0078047803 -0.03456977 0.023931107
0002c0 32 14 32 be b5 4f 9f 3d dc 75 28 bd 00 ba fa bd
       -0.17390516 0.07778875 -0.041128024 -0.12242508
0002d0 da 64 18 be a4 09 e1 bd 53 12 d9 bd 07 3f a0 3d
       -0.14882222 -0.10988167 -0.10599198 0.078245215
0002e0 6c 4f 06 3e 44 5a 5b be 8d b8 d4 bc cc 1c 42 3e
       0.13116235 -0.21421152 -0.025966907 0.18956298
0002f0 09 ef 2e be bf 97 88 bd 33 9a b2 bd 02 a1 1c 3e
       -0.17083372 -0.06669568 -0.087208174 0.15295795
000300 6a d8 34 3e 9d e1 01 be e3 47 0b be c7 ae 4a 3e
       0.1766068 -0.12683721 -0.13601641 0.19793235
000310 03 62 f8 3d 70 29 37 be a0 d0 0f 3d 32 64 33 bc
       0.12128069 -0.17886901 0.03511107 -0.010949181
000320 ee bf af 3d 70 2c 5e 3b 09 6b 95 3d 46 db e7 bd
       0.085815296 0.0033900999 0.07295806 -0.1132112
000330 5c 26 86 bd da c3 f4 3d 13 85 65 3c b0 e5 de bb
       -0.06550285 0.11951418 0.014008778 -0.006802283
000340 f9 c1 84 bd 74 ec c8 3d d8 8e 07 bd 74 02 11 be
       -0.0648231 0.09810725 -0.03309521 -0.14161092
000350 73 46 5a be 24 ab dc bc f5 07 29 3c cb 7c 59 bd
       -0.21315937 -0.026937075 0.0103168385 -0.053097527
000360 75 6b 5e 3d b5 b9 7e 3d b5 b1 9d 3d 3d ab 9e bd
       0.054301698 0.062188823 0.076999106 -0.07747505
000370 ad 70 57 3e 8d 05 8b bb f7 5f 97 3e 5b 97 0b be
       0.21039076 -0.004242605 0.29565403 -0.13631956
000380 c1 04 28 3e 5e 37 1e 3e 52 0b 93 bb 24 b0 76 bd
       0.16408063 0.15450808 -0.0044874335 -0.060226575
000390 92 b0 1b 3a 19 57 7f 3e 7d fd db 3d f1 2c 8a bd
       0.0005939092 0.24935569 0.107417084 -0.06746853
0003a0 c9 5e 81 be 93 92 d4 bc 1f 18 b0 bd bc 73 23 3e
       -0.25267628 -0.025948798 -0.08598351 0.15962118
0003b0 8b f3 77 3e cc ad 39 3d 5d c4 63 3e 56 a4 2c be
       0.24213998 0.04533176 0.22242875 -0.16859564
0003c0 7d 10 09 bd bf 76 43 be f2 a2 b2 3c 41 a8 84 3d
       -0.03346299 -0.19088267 0.021806214 0.064774044
0003d0 a9 e4 25 bd 3a fd 90 3d ce 19 5e be 49 49 d2 bd
       -0.04050127 0.07079549 -0.21689531 -0.10267884
0003e0 38 5f ec bc 9e 29 35 3e cb cf 60 bb 18 7f 5a 3c
       -0.028853998 0.17691657 -0.0034303542 0.013335966
0003f0 d7 85 11 be 08 e6 07 be e8 b9 a6 3d 3c 00 92 3d
       -0.14211212 -0.13271344 0.081409276 0.07128951

convs.1.att_src f4 [1, 1, 40]
000000 90 26 0a 3e 2f 54 f0 3d a9 b7 91 3e 88 58 eb bd
       0.13491273 0.11734807 0.28460434 -0.11491495
000010 e0 45 34 be de f7 a9 be b2 81 95 3e 84 39 94 3e
       -0.1760478 -0.3319692 0.29200512 0.2895013
000020 ea f6 df 3d 62 c3 a1 3d 66 30 98 3d 8f 16 31 3e
       0.10935767 0.078985944 0.07431106 0.17293762
000030 c2 97 1b 3f 05 be b8 be 66 5a 20 3d 13 29 cf bc
       0.6077844 -0.36082473 0.03914871 -0.02528814
000040 54 1d 45 be 43 e8 49 3e b3 35 87 3e 04 c2 93 3e
       -0.19249469 0.19717507 0.26408157 0.2885896
000050 5f ca 89 3e d8 c2 2f 3e cf ca fe 38 ad 64 cb be
       0.2691221 0.1716417 0.0001214944 -0.39725247
000060 31 9e 25 be 0a 1d 15 3e 7e 05 4f be 76 f1 40 be
       -0.16173626 0.14561859 -0.20216939 -0.1884211
000070 57 61 07 bd 3c f8 ee 3d 73 a9 0c 3e e6 eb f2 3e
       -0.033051815 0.11668441 0.13736515 0.474456
000080 5b c4 f2 3d ba 02 63 3e 66 5e 40 3e a0 f8 91 3e
       0.11853858 0.22169009 0.1878601 0.28509998
000090 7a c6 ab bd 4b be 30 3e f7 69 d0 3c e9 8e ac bd
       -0.08387466 0.17260091 0.025441153 -0.084256954

convs.1.att_dst f4 [1, 1, 40]
000000 6c e4 fa bd 72 d6 19 3d 70 7b 02 3e ab b1 90 3e
       -0.12250599 0.037558027 0.127424 0.2826055
000010 1c 32 24 be e5 6b a6 3e db b8 31 3e ac 04 15 3f
       -0.1603474 0.32504192 0.17355673 0.58210254
000020 20 f9 d7 3d c5 d0 91 3d 0c d8 5c 3e 8c e8 f0 bc
       0.10545564 0.07119898 0.2156679 -0.029407762
000030 88 f2 79 3e 1f b4 13 be fa db 4f 3c 7d ee a2 3e
       0.24408925 -0.1442418 0.012686724 0.31822577
000040 60 b0 af be ba 35 81 3c 90 cc fb 3d 15 01 a4 3e
       -0.3431425 0.01577269 0.122948766 0.32032076
000050 83 6e 28 be 54 89 64 be 41 8d 84 be 3f f4 05 3e
       -0.16448407 -0.22318012 -0.25889018 0.13081454
000060 fa 5d 3d be a3 89 3d bd 24 64 71 3e fe 7c d0 3e
       -0.1849288 -0.04627384 0.23573357 0.4072036
000070 39 45 4b 3e 78 70 03 3f 80 3f 1a be 84 e7 83 be
       0.19850625 0.5134349 -0.15063286 -0.2576257
000080 e9 a8 88 3d 5a d1 84 3e 43 dd 4c be 17 9c 1d 3d
       0.06672842 0.25940973 -0.2000628 0.038478937
000090 73 2a ea be 63 e0 78 3d 37 bb 58 bd f0 3f 34 bc
       -0.4573551 0.060760867 -0.052912917 -0.011001572

convs.1.bias f4 [40]
000000 0e 42 fb bd 3f 3b 02 be ba 62 ed 3d cd 52 36 be
       -0.12268458 -0.12717913 0.11591096 -0.17805023
000010 f8 61 e0 3d 4f b1 55 3e 4f 22 4e be aa ed 8c bd
       0.10956186 0.20868419 -0.20130275 -0.06881268
000020 35 d2 f9 3d 4b 01 3e 3e 94 c8 0f 3e 66 fd fa bd
       0.12198297 0.1855518 0.14041358 -0.12255363
000030 44 dc 08 be 80 82 f1 bd 89 1d 12 be 74 a2 08 be
       -0.13365275 -0.11792469 -0.1426908 -0.13343221
000040 0e 5d 5e be 38 ec d4 bd b7 64 f3 bd e2 98 eb bd
       -0.21715185 -0.10396618 -0.11884444 -0.115037695
000050 ed 44 a8 bd f3 5a b7 bd 27 29 1a be ea b8 73 be
       -0.082162715 -0.08952894 -0.15054761 -0.23801008
000060 ea f9 b4 3d 05 09 06 be af 39 d1 bd 29 fb 2f be
       0.0883673 -0.13089378 -0.102160804 -0.17185654
000070 7c b8 0c 3e 75 a0 dc bd 01 ad 17 be 0c 99 05 be
       0.1374225 -0.10772792 -0.1481209 -0.13046664
000080 d5 f2 e8 bd 62 ed 0a be d5 7f 48 3e 00 b1 01 be
       -0.113744415 -0.13567117 0.19580014 -0.12665176
000090 3f bf 04 be 67 bd 0e be a0 71 61 be 1f 1e 32 3d
       -0.1296358 -0.13939439 -0.22016001 0.043485757

convs.1.lin_src.weight f4 [40, 128]
000000 02 dc bb bd 51 19 14 be 0f 13 2a be f0 c9 aa 3d
       -0.091728225 -0.14462782 -0.16608833 0.08339298
000010 81 14 19 3d dc 84 a1 bc f8 0c 15 3e 47 46 98 be
       0.03737307 -0.019716673 0.14555728 -0.29741117
000020 c2 7a 9e bd 62 9b 89 bd 0d 83 c3 3c 9f cb 5c bd
       -0.07738258 -0.0671909 0.0238662 -0.053905126
000030 16 28 f3 bc d5 c3 0c 3e 2b ce 06 be b2 56 a2 3c
       -0.0296822 0.13746579 -0.13164584 0.01981673
000040 a5 b0 20 3d c1 91 03 be 68 ef b1 3d 03 47 41 3d
       0.03923096 -0.1284857 0.08688241 0.047186863
000050 63 7f 92 be 2a ad 8f bc 8c 08 18 3e 26 e2 a8 be
       -0.28612813 -0.017538626 0.1484701 -0.32985038
000060 c5 9e a3 3b c9 7a 39 be 41 75 38 3e 74 c3 80 3e
       0.004993292 -0.18113245 0.18013479 0.2514912
000070 79 63 14 be 56 c4 ce bd 00 39 c4 3d b2 97 af 3c
       -0.14491071 -0.10096042 0.095811844 0.021434639
000080 c6 77 cd bd 81 f2 be bd be ad 83 3d e8 04 4d be
       -0.100326106 -0.09323598 0.06429623 -0.20021403
000090 1d 03 23 bd 27 83 13 be 79 47 84 be b9 02 0b 3e
       -0.03979789 -0.144055 -0.2583578 0.13575257
0000a0 e7 3c 81 be a7 6d 51 bd 56 8c 41 3e ff 01 09 be
       -0.25241777 -0.051129963 0.1890119 -0.13379668
0000b0 98 43 1c be 5a f4 0c be d7 75 98 3d 30 43 ba 3d
       -0.1526016 -0.13765088 0.07444351 0.09094846
0000c0 a7 19 6a bc 98 c8 7f bb 07 64 73 bd 6b 6d 96 3c
       -0.014288343 -0.0039029475 -0.059421565 0.018362721
0000d0 5d 3e 12 be 86 0e c4 3d cf 5c da 3c a2 10 3d bc
       -0.14281602 0.095730826 0.026655583 -0.01153961
0000e0 ce 28 27 3e 3e 99 60 be f0 32 68 bd fa fb ac bd
       0.1632416 -0.21933457 -0.056689203 -0.08446498
0000f0 cf 23 b9 3d f1 0c d3 bd 1b da 50 bd 6c 52 5d be
       0.09040033 -0.10305203 -0.05098925 -0.21613473
000100 42 db 7c 3b 8e 53 83 bd c2 e8 4f be 57 4f 78 bd
       0.0038582836 -0.06412421 -0.20303634 -0.06062254
000110 82 7d 03 be 06 66 08 3e 6e a3 b7 bc 5d e5 b3 3d
       -0.12840846 0.13320169 -0.022416797 0.08783982
000120 6f 36 04 3e 07 0b 13 be 67 df 0c 3e 7a c2 88 be
       0.1291139 -0.14359675 0.13757096 -0.26710874
000130 ee 35 ae bd d6 94 f9 bd f8 d9 80 bc e1 40 fc bd
       -0.0850638 -0.12186591 -0.015728936 -0.12317062
000140 c8 6b 11 bd b2 63 6c be 6d d2 a6 bd 75 ac 99 3b
       -0.03550318 -0.23084906 -0.08145604 0.004689748
000150 3d 08 17 3e 61 f7 48 be 11 28 52 3d 1b 3d 0d 3d
       0.14749236 -0.19625618 0.05130774 0.034482103
000160 af a6 a3 3d 6a 65 72 3c 06 cb 51 bd 07 dd 0a be
       0.07990777 0.014794687 -0.05121901 -0.13560878
000170 1a 14 82 bb 25 f6 90 be e0 82 ef bd 7c b8 31 be
       -0.0039696814 -0.28312793 -0.11694884 -0.17355531
000180 57 81 42 be a8 2b 57 be a2 58 4c be 0c ba 3a bc
       -0.18994652 -0.21012747 -0.19955686 -0.011396896
000190 eb 43 a1 be bb 8f 8e be 39 1c 88 bc c2 d7 c5 3d
       -0.3149713 -0.27844033 -0.01661502 0.09660293
0001a0 f8 47 1a 3d 7e ff 51 be 4d d6 2f 3d 3c 8e 4d bd
       0.03766629 -0.20507619 0.042928983 -0.050184473
0001b0 04 bd 89 be b1 15 32 3d 07 d9 16 be 0c 2a c2 be
       -0.2690202 0.043477718 -0.14731227 -0.37922704
0001c0 3f 4c 47 be 25 23 ab 3d a1 86 8f be a2 62 51 be
       -0.1946268 0.08356313 -0.280324 -0.20447782
0001d0 be 1b 45 be 67 f5 4b 3d 5f 2c 8c 3d 29 24 e1 bd
       -0.19248864 0.04979458 0.068444006 -0.10993225
0001e0 eb ab ea 3a a1 2a ae bd 99 13 d2 3d 33 09 05 bb
       0.0017904019 -0.085042246 0.10257644 -0.0020299673
0001f0 03 97 88 be 96 3c 43 bd 07 ea 48 be c0 f0 a6 bc
       -0.26677713 -0.0476652 -0.19620524 -0.02037847
000200 37 fe 31 bc a3 de 36 bd cd a1 91 be 3e 90 b8 be
       -0.010863832 -0.044645917 -0.28443757 -0.36047548
000210 f7 76 b7 bd c0 a1 af 3d ff fb 33 be 0d 6e 49 3d
       -0.089582376 0.08575773 -0.17576598 0.04917722
000220 ce ab a0 bd 88 66 82 bd 26 96 84 be 6c b4 49 be
       -0.07845269 -0.063672125 -0.25895804 -0.19697732
000230 4a ed ab bd 7d a3 ba be 79 dc 17 be 0c df 3a be
       -0.08394869 -0.36452857 -0.14830197 -0.18249148
000240 90 7f f8 bd ac b9 23 bd 6a f2 e5 bd 3a 16 a8 be
       -0.121337056 -0.039971992 -0.112278774 -0.32829458
000250 f3 53 3b bd 3a eb 6d bd a8 ac 95 3d f2 73 de 3d
       -0.045734357 -0.058085658 0.07308322 0.108619586
000260 a0 4e 0b bd 1d 09 84 bd 58 7a da bc b0 47 c0 bd
       -0.03401053 -0.06447051 -0.026669666 -0.09388673
000270 0f 6a 64 bd c8 dc 33 be 6e 7c cf bd 22 30 e0 bc
       -0.055765208 -0.1756469 -0.10131155 -0.027366702
000280 8f e9 58 be 28 f2 9f 3d 79 34 13 be b3 a9 f4 bd
       -0.21182846 0.078098595 -0.14375485 -0.1194643
000290 69 57 51 be 88 0d b4 bd 41 07 72 bd 86 a2 38 bd
       -0.204435 -0.087916434 -0.05908895 -0.04507687
0002a0 84 ff a3 be da 03 15 be 78 2a 31 bd 79 39 94 3d
       -0.3203088 -0.1455225 -0.043253392 0.072375245
0002b0 89 f0 28 bd 67 de 3f be 76 cb 8d be df 28 8f 3c
       -0.041245017 -0.18737184 -0.2769429 0.017475544
0002c0 aa ae c5 3d 26 28 13 3d fd 9a 85 bd 9f 7f a7 3d
       0.09652455 0.03592696 -0.06523702 0.08178639
0002d0 06 4d 31 be da 97 c4 bd 76 e5 db bd 5d 43 c4 3d
       -0.17314538 -0.09599276 -0.107371256 0.09583161
0002e0 dd e5 1f be a7 5d 0c be f2 8d 68 bd 81 37 b7 bc
       -0.1561503 -0.137076 -0.056775995 -0.022365334
0002f0 dc 49 aa 3b 18 a0 35 bd ac 0d 14 3e 9a 16 77 be
       0.005196793 -0.04434213 0.1445834 -0.24129716
000300 77 58 4a bc 06 3c 6b be 1f 4a b0 bd 34 80 d1 bd
       -0.012350193 -0.22972116 -0.086078875 -0.10229531
000310 e7 b9 59 bd 11 05 9b bd 18 a9 60 bd 1b fe 38 3e
       -0.053155806 -0.07569326 -0.05484876 0.18065684
000320 8e 8d d8 3d 89 25 73 3e 05 77 04 3e 17 57 89 bd
       0.105738744 0.23744787 0.12936027 -0.06706064
000330 58 06 87 be dc 3e 3e be e1 a8 7b bd 7a 0e 5e 3e
       -0.26372027 -0.18578666 -0.061440352 0.2168521
000340 1b c3 13 bd 8f c8 11 3d a2 85 70 3d 3d ad 75 be
       -0.03607474 0.03559166 0.058721192 -0.23991866
000350 65 49 f8 bd 12 87 5a be 33 84 99 be c8 17 cc 3d
       -0.12123374 -0.21340588 -0.29983672 0.099654734
000360 0e 42 f8 bd 07 8e 96 bc 52 5d 9f be ca 9e af bd
       -0.12121974 -0.01837827 -0.31125885 -0.085752085
000370 5d d3 94 3a 96 c2 43 3e 64 03 b3 3c 65 f6 a4 be
       0.0011354495 0.19117197 0.021852203 -0.32219234
000380 b9 1d 8a be a3 47 71 bd 99 22 bc 3b c7 83 04 3e
       -0.26975802 -0.05890621 0.005741429 0.12940894
000390 95 c6 85 3c d3 62 26 be 14 04 92 be 49 de 46 bd
       0.016330043 -0.16248636 -0.28518736 -0.04855183
0003a0 80 1d b5 be c7 30 3f be 46 db 86 3e 22 7d 53 3d
       -0.3537407 -0.18670951 0.26339167 0.051633008
0003b0 d3 37 82 be 0f 25 58 3d 4c 2d 9a be e1 7b 55 3e
       -0.25433215 0.052769717 -0.30112684 0.20848037
0003c0 6a e7 25 3d 3b e7 c6 bd 79 d6 1b be 2c 71 8c be
       0.040503897 -0.097120725 -0.15218534 -0.27430093
0003d0 a5 db 2f 3e e3 b4 16 be eb e9 3d be 11 f8 30 bd
       0.17173631 -0.1471744 -0.18546264 -0.043205325
0003e0 0e 84 07 bd 0d 9a b3 3d 8b 3d 13 be ba 44 94 3b
       -0.03308492 0.08769617 -0.14378946 0.0045247944
0003f0 43 5e bf bd 24 bb bc bd a2 03 5d bd 14 65 13 bd
       -0.09344151 -0.09215382 -0.053958543 -0.035985067
