saved_models/arxiv/directed_ogb-arxiv_SAGE_s7.pt (torch, 47995 bytes, 10 tensors)

convs.0.lin_l.weight f4 [32, 128]
000000 e9 53 bc 3d 47 08 2f 3e 95 82 9e 3d 74 91 42 bd
       0.09195692 0.17093001 0.0773975 -0.047501996
000010 12 6e 80 bc 2c bc 68 bd 28 79 86 3c 4b b1 3b bd
       -0.015677486 -0.05682008 0.016415194 -0.045823377
000020 71 54 c0 3d 22 5b be 3c d0 a1 4d be 3d da 60 3d
       0.09391106 0.023236815 -0.20081258 0.05489563
000030 f7 12 98 3c 1b 23 f7 3b e0 4a a8 3c 69 f1 23 3c
       0.01856373 0.0075420267 0.020543516 0.010006287
000040 c0 c9 d3 3c cc 79 14 bd 68 67 02 3e 59 50 13 bd
       0.025853038 -0.036248967 0.12734759 -0.035965297
000050 b6 04 45 bd 6b 8e 4f 3d 52 ff 59 3d dd 94 7a bd
       -0.048100196 0.05067293 0.053222008 -0.061177123
000060 38 68 30 bd 96 19 a1 bd f9 e3 e9 bd d8 8d d9 3d
       -0.04306814 -0.07866208 -0.114204355 0.10622758
000070 1a ac 44 bb ef c9 14 bd ae 08 74 3d 84 e1 45 3e
       -0.0030009807 -0.03632539 0.05957859 0.19324309
000080 fe 3a e3 3c ba 18 75 3a 72 5d ba bd 71 94 9f 3c
       0.02773809 0.0009349693 -0.090998545 0.019479962
000090 ff cb 8c bd 87 3d 24 3d ff c7 4c bd 96 38 ba 3c
       -0.06874847 0.04009774 -0.04999542 0.02273206
0000a0 36 38 81 3c 96 c4 b5 bd e7 83 5e bd d0 5c 44 be
       0.015773874 -0.088753864 -0.05432501 -0.1917603
0000b0 59 08 85 3d 4d ae f2 bc a0 ca 14 bd 46 61 61 3d
       0.06495733 -0.029624129 -0.03632605 0.055024408
0000c0 15 44 77 bd 49 f6 b3 3d 02 14 bb 3d bb 99 0e be
       -0.060367662 0.087872095 0.091346756 -0.13925831
0000d0 32 5a 0e 3d 6f 0c a1 3d f8 1f 8c bd eb 03 88 bb
       0.034753986 0.078637 -0.06842035 -0.0041508577
0000e0 3a e8 aa 3c b8 1f f9 3c 9e 48 85 be 70 42 85 bd
       0.020862687 0.030410632 -0.26031965 -0.065068126
0000f0 9d 3f 03 bd 93 e2 bb bd b4 4e 34 3d 01 1b 17 3e
       -0.03204309 -0.09174075 0.04402037 0.14756395
000100 c5 ef 4e be 61 03 f3 bc be 51 93 bd ae 47 89 bd
       -0.20208652 -0.029664697 -0.071933255 -0.06703125
000110 0f 34 b4 bc d5 9e 85 bd 6a d1 5b bd 12 e5 0a be
       -0.02199748 -0.065244354 -0.05366651 -0.13563946
000120 5b 4f 0b be 91 86 bf bc 27 c7 7a 3e 04 34 77 bd
       -0.1360449 -0.023379596 0.24490033 -0.06035234
000130 0d 2c 08 3d 76 a0 04 be fd ea 50 bd ea 7b bd 3d
       0.033245135 -0.12951836 -0.051005352 0.0925215
000140 3e 26 ed bc 4a fb c5 3d da 9c 21 3d eb 3c c7 3d
       -0.0289489 0.0966707 0.039456226 0.09728416
000150 08 00 97 3c 74 26 0f bb 84 d8 93 bd 6f e0 cd bd
       0.018432632 -0.0021842988 -0.072190315 -0.10052573
000160 5b 27 b2 bd 5a 09 3a bd ee 4e bd bd ba 7c 35 be
       -0.08698913 -0.045419075 -0.0924357 -0.1772336
000170 5d f7 2b bd c4 85 0e be 8d 50 22 be 09 d1 53 3d
       -0.04198395 -0.13918215 -0.1585104 0.051713023
000180 d4 51 d9 bd 85 f0 dd bd 82 fc 13 3d 4b c8 37 3c
       -0.106113106 -0.10836891 0.036129482 0.011217187
000190 bd e0 85 bd d0 f0 93 bb 87 6f a6 3d d8 18 79 bd
       -0.06537006 -0.004514791 0.08126741 -0.06081471
0001a0 15 0e 84 3d c7 5c d3 3c 49 ef 87 3c 69 a3 95 bc
       0.064479984 0.025801076 0.016593592 -0.018266397
0001b0 68 e2 e0 bd 0a 1e 9d 3d 57 0f ae bd 16 d2 84 3d
       -0.109806836 0.07671745 -0.084990196 0.06485383
0001c0 d0 2f 12 bd ba a3 1f 3c cb 29 24 bd b3 b9 1c bd
       -0.03569013 0.009743625 -0.04007892 -0.038263034
0001d0 99 84 e7 bc c9 0f 50 bc e3 6c bd bd 0b 14 4b bd
       -0.02826147 -0.012699076 -0.09249284 -0.04957966
0001e0 9a a2 60 3d bd 42 10 3d 57 73 ea 3c f7 13 63 bc
       0.05484257 0.035219897 0.028619451 -0.01385974
0001f0 14 86 c2 bd 67 66 8e 3c 4a 37 8d 3c 30 d0 8d bd
       -0.094982296 0.017382814 0.017238278 -0.06924474
000200 60 36 0f 3d de df 6d 3d 08 4e a8 3d 61 12 20 be
       0.034963965 0.058074825 0.08218008 -0.15632011
000210 36 81 8e 3d 85 68 ae bd 48 17 1d 3d b5 7a df 3d
       0.06958239 -0.08516029 0.03835228 0.109120764
000220 64 1b 6b 3d 63 90 1b be ae b7 e0 bd 4a ca cd bc
       0.05739917 -0.15191798 -0.10972534 -0.025120873
000230 45 1b 32 be 1a 78 1f bb eb 10 cb bc 1f 9d a1 3d
       -0.17393215 -0.002433306 -0.02478834 0.078912966
000240 d2 8d db bd ba 13 40 3d f7 8f 85 3a a1 99 be bd
       -0.107204095 0.046893813 0.001019 -0.09306646
000250 b7 30 2e bd ea 6e f6 bd 38 a1 bc 3d 85 3f e7 bc
       -0.042526927 -0.12032874 0.092104375 -0.02822853
000260 80 94 c3 3b 68 55 1b be 19 dc e4 3c 18 3e 13 3d
       0.0059686303 -0.15169299 0.027936982 0.03594789
000270 03 e7 ba 3d e2 e9 b5 bd 79 a5 3b 3c fa 7c 0e 3d
       0.09126093 -0.088825 0.011453026 0.034787156
000280 85 3d 99 3b a1 f4 97 3d 88 a1 93 bd f2 62 33 3d
       0.004676523 0.07419706 -0.07208544 0.043795533
000290 0c 2f 0a be 7e 9a fd 3d ba 6f b5 3d 65 64 e0 3c
       -0.1349451 0.12382983 0.08859201 0.027391622
0002a0 e9 ff 6f bd 6b 6e d5 3d fe 42 c2 3c 91 56 e2 bd
       -0.058593664 0.10421451 0.023713585 -0.110516675
0002b0 11 b5 6b bd 58 5a 7b bd e2 af 4b 3d c9 74 3c be
       -0.057545725 -0.061365455 0.04972828 -0.18403925
0002c0 92 36 14 3d 59 ef 60 3b 18 8e b0 3d fe 29 17 be
       0.036184855 0.003432235 0.08620852 -0.14762112
0002d0 49 28 d1 bc e2 52 8f 3c 7c 83 83 bd a9 4d 6c 3d
       -0.025531905 0.017495576 -0.06421563 0.05769125
0002e0 6a e8 03 3c c8 c2 c4 bd 6b 0c 57 bb 36 15 02 3e
       0.008051017 -0.09607464 -0.0032813798 0.12703404
0002f0 b1 cd 3f bd a8 71 68 bd 57 ca 84 bd a5 8d 3e 3d
       -0.046827022 -0.056749016 -0.06483906 0.0465218
000300 76 e1 b4 3d cd 41 d3 bd 3e ec aa bd 79 76 bf bc
       0.08832066 -0.10315285 -0.08345841 -0.023371922
000310 02 84 11 3d a2 0d a6 bd 84 44 80 3c a0 ca 00 3e
       0.035526283 -0.08108069 0.01565767 0.12577295
000320 b1 df 9e bd 6d 2d 8e 3d 53 13 4f 3d 29 f2 96 bd
       -0.077575095 0.06942258 0.05055554 -0.07370407
000330 f1 52 0d 3d e4 03 f0 bc 86 12 92 3d dc 8b 0e bd
       0.034502927 -0.02929873 0.07132439 -0.03480135
000340 1b 45 d7 3d 1b 3e b3 3b 72 6b 4a 3d f2 52 2f bc
       0.10511228 0.00547005 0.049418874 -0.010700928
000350 64 2f 44 bd a7 e7 51 bd cc bd b8 3d 5e 14 01 bd
       -0.047896758 -0.05124631 0.09020576 -0.031513564
000360 a1 fe 2c bc f1 51 84 bd 09 0e 0e bd e7 38 96 3d
       -0.010558755 -0.064609416 -0.034681354 0.07335072
000370 bd 0c 57 bd 18 5c 91 bd e8 12 6e bd 6c e6 f0 bd
       -0.052502383 -0.070976436 -0.0581235 -0.117626995
000380 6a 34 d3 bb b3 fa a3 3b e3 bc 9b bd 41 a3 2e bd
       -0.006445457 0.005004251 -0.07604387 -0.04263616
000390 5b 24 70 3c 85 0a 0d 3d c9 73 e1 3d 22 b8 fc 3b
       0.014657105 0.03443386 0.110084124 0.00771238
0003a0 eb e6 25 bd 3e 71 3e bd 25 e2 94 3d 43 c9 d8 3c
       -0.040503424 -0.046494715 0.07269696 0.026463157
0003b0 19 4f 07 3c 3c fc d9 bc a6 4a d3 3d 13 1f 85 bd
       0.008258604 -0.026609533 0.103169724 -0.065000676
0003c0 aa 24 2d bc 5e be a5 bd 6b 43 ef 3d 4a 23 bf 3d
       -0.010567823 -0.0809295 0.11682781 0.09332903
0003d0 f2 0f 90 bd b4 2e 01 be 54 27 ec 3c 62 90 ee 3d
       -0.07034291 -0.12615472 0.028827347 0.116486326
0003e0 6a 02 ae bc f4 95 e9 bd 5d 70 42 3d 49 27 08 3d
       -0.021241385 -0.114055544 0.04747044 0.03324059
0003f0 21 ff 3d be d7 2c 22 be d0 2b 48 3e 62 d0 a7 bd
       -0.18554355 -0.15837418 0.19547963 -0.08194043

convs.0.lin_l.bias f4 [32]
000000 2d 0b bf bc 55 51 1d 3d 6f 9c 89 3d 46 c7 9f 3c
       -0.023320759 0.038407642 0.067192905 0.0195042
000010 c4 a8 18 bd a6 c3 1f 3b 9f e5 55 bd 4f 3c 23 3d
       -0.037270322 0.002437809 -0.052220937 0.039852437
000020 92 f7 96 3d e3 a7 2a 3d f7 3e 66 3d 55 bf 9a 3d
       0.07371439 0.041664016 0.05621239 0.07556025
000030 4b eb 6d b6 a1 1d e2 3c 4b 7a e5 3c 32 06 47 3c
       -3.545271e-06 0.027602019 0.028012415 0.012147473
000040 96 b1 d9 bc 17 f3 80 3d b6 19 84 3c 3c cd b3 bd
       -0.026573937 0.06296366 0.016125541 -0.0877938
000050 5c 28 c9 bd be 56 b3 bd 13 13 9c 3d be d6 ed 3c
       -0.09822151 -0.08756779 0.076208256 0.029033061
000060 85 b1 03 3c 70 49 97 bd fd de 04 3c 67 1c 59 3d
       0.008037929 -0.07387054 0.008109805 0.053005602
000070 01 56 2b bd ff a0 8f bd f4 97 bc 3c 2a e1 37 bd
       -0.041830067 -0.070131294 0.023021676 -0.044892468

convs.0.lin_r.weight f4 [32, 128]
000000 e3 33 ac 3c 81 63 b9 3d d6 22 06 be b7 52 6a bd
       0.021020835 0.09052182 -0.13099226 -0.05720779
000010 ba 3a 34 be e8 97 00 3e 8a a9 9d 3d a5 f4 b6 bd
       -0.17600527 0.12557948 0.07698353 -0.08933381
000020 09 fb c3 3d 94 87 48 3b c7 eb 33 be 54 cb 87 3e
       0.095693655 0.003059839 -0.1757041 0.26522315
000030 af 2f 89 3d 9e 7b 86 bd 5d 10 f2 3d 72 d1 f6 3d
       0.06698548 -0.06566547 0.11819527 0.12051667
000040 b8 de 2b be ab 4e a4 3e 64 4b 0d 3e 31 e2 1b 3e
       -0.16784179 0.3209127 0.1379829 0.15223004
000050 23 55 6c bd 53 5f a4 be cf ae 36 3e b4 72 08 3e
       -0.05769838 -0.32103977 0.17840122 0.13325006
000060 da 68 0c 3e 78 38 43 3d 5c 8e c4 bd e6 7c 03 3e
       0.13711873 0.047661275 -0.095974654 0.12840614
000070 e0 48 bd bd 67 94 b4 bd c8 3d be 3d 47 80 80 bd
       -0.092424154 -0.08817368 0.092891276 -0.06274467
000080 c8 b3 e8 bd 21 dd de bd 6d df 2c 3e d9 d0 d2 3d
       -0.113624156 -0.10882021 0.16882105 0.10293741
000090 eb 36 21 3e 28 24 0f be 2e 38 24 be 51 a5 4e be
       0.15743606 -0.13978636 -0.16037056 -0.2018025
0000a0 3a 8d 5f be 1d 51 4c be 71 f2 1a be d2 08 15 3d
       -0.21831217 -0.19952817 -0.15131547 0.036385365
0000b0 23 6f 0c 3e 4e 76 4b be 89 40 39 be 51 06 76 bd
       0.1371427 -0.19869348 -0.18091024 -0.060064618
0000c0 4d 62 bb bd b8 0a 77 be 94 73 b0 3d f5 62 42 be
       -0.09149609 -0.24125183 0.08615795 -0.18983062
0000d0 ac 43 aa 3d 4c ce 3b 3e fa de 31 3e 1a 35 41 be
       0.08313689 0.18340415 0.17370215 -0.18867913
0000e0 6d 13 d3 3d 31 d2 33 3e fe c2 11 3e 71 39 95 3d
       0.103064395 0.1756065 0.1423454 0.07286347
0000f0 b2 f2 3f be 6d b8 92 bb 7d c6 94 3e 15 26 cd 3c
       -0.18744925 -0.0044775517 0.29057685 0.025042573
000100 6c 99 22 3e 42 78 97 be 3d 3c 41 3e 95 a9 25 3e
       0.15878838 -0.29583937 0.18870635 0.16177972
000110 45 5b f0 3b 4f 50 5b bd 12 0b 72 3e 50 e4 57 be
       0.007335099 -0.053543385 0.23637035 -0.21083188
000120 7b 30 8e bd 4f f0 9b ba f1 17 6a 3e 4f ad 16 3e
       -0.06942841 -0.0011897179 0.22860695 0.1471455
000130 74 f2 1b be d1 a9 66 be 5a fa d4 bd 3c bc 08 3e
       -0.15229207 -0.22525717 -0.10399313 0.13353056
000140 56 ad 0c be dc 5f 51 3e bb 4b 51 3e ed 5d ba 3c
       -0.13737997 0.20446724 0.20439045 0.022749865
000150 58 98 39 3d dc 30 9d bd bd 72 6b bd 4e e8 99 be
       0.045311302 -0.07675335 -0.05748247 -0.30060047
000160 db e2 48 be 06 0a 9b 3d ec 6d 44 be 51 eb 64 be
       -0.19617788 0.07570271 -0.19182557 -0.22355391
000170 38 30 77 3e 78 55 2c bd 5e d3 b7 be 12 74 72 3c
       0.24139488 -0.042073697 -0.35903448 0.014798181
000180 ec 73 9b be b8 8c 53 3e 6c f6 8e 3d 8f fd 06 be
       -0.3036188 0.20659149 0.06980595 -0.13182662
000190 a4 2c 90 bd c0 af c4 3d f0 fb cd bd 90 12 bf 3d
       -0.070397645 0.09603834 -0.10057819 0.093297124
0001a0 c8 2c c6 bd cd 9c e3 bd 6f 22 1c bd ec ab ac 3d
       -0.0967651 -0.11113892 -0.038118776 0.08431229
0001b0 d9 70 21 3d 2b ff 1d 3b 36 01 1b 3e ee 27 26 3c
       0.03941426 0.002410839 0.1513718 0.010141356
0001c0 e4 ab 1c bc 53 9a 17 3e 09 24 ac 3e 47 70 1d 3d
       -0.009562466 0.14804964 0.33621243 0.038437154
0001d0 96 fe 8b be 33 04 7f 3e 98 e0 88 be 7b 25 6c be
       -0.2734267 0.24903946 -0.2673385 -0.23061173
0001e0 2b 04 df 3d fb 45 19 bd e4 ed f0 bd 7c e5 e5 3d
       0.10889467 -0.037420254 -0.11764124 0.11225411
0001f0 e9 63 38 be f6 a0 0e 3d a1 06 07 3e d6 50 39 3e
       -0.18006863 0.034821473 0.13186122 0.18097243
000200 b7 ef 5c bc d5 97 0c 3e 05 00 a1 3d 1a 02 a2 bd
       -0.013484887 0.13729794 0.07861332 -0.07910557
000210 53 6e 9f 3c 28 91 02 be c0 5c 66 be 55 ba 04 be
       0.019461786 -0.12750685 -0.22496319 -0.12961705
000220 38 a4 11 3e c3 61 42 be 7c 6b 67 be 4d 40 71 ba
       0.142228 -0.18982606 -0.22599596 -0.0009203002
000230 1a 3a f4 bd b4 0f 3c 3e fc 36 37 be 40 c2 1c 3e
       -0.119251445 0.18365365 -0.17892069 0.15308475
000240 91 c7 6e be 76 8f 05 3e 36 e2 9a 3e f7 05 2b be
       -0.23318316 0.13043007 0.3025071 -0.16701494
000250 1f fb 6d be 6d 7d 90 bd c4 86 14 3e dc b5 b0 3d
       -0.23240326 -0.07055173 0.14504534 0.08628437
000260 9b 4f 30 be b1 10 25 be b3 31 58 3e 31 ac 9a bc
       -0.17217867 -0.16119649 0.21112709 -0.018880935
000270 bf c7 40 3e ac c7 79 be 7d db 61 be fb 62 bc 3d
       0.18826197 -0.24392575 -0.22056384 0.091985665
000280 66 30 67 3d 23 83 15 3d a2 a2 db bd 5f 6c 46 3e
       0.05644264 0.036502015 -0.10724379 0.19377278
000290 6b c2 4c be 5c 4f 15 3e ae 6c 10 3e 77 53 21 3e
       -0.1999604 0.14581054 0.14103958 0.15754496
0002a0 1f a2 64 3e 4c ca 36 3c 1b 23 24 3e bd 5c e0 bd
       0.2232747 0.01115663 0.16029017 -0.109551884
0002b0 b7 80 c9 bd 9a 2a 82 3d 9d 4e 2e 3e ed 91 ec bc
       -0.098390035 0.06355782 0.17022176 -0.028878177
0002c0 11 f9 8a be 9f 86 76 3c 4f 6f 3b 3e 6f 7a 55 be
       -0.27143148 0.015046745 0.1830418 -0.20847486
0002d0 e1 64 3d bd 81 ba 9d bd 17 fc d8 bd 63 a5 b8 3d
       -0.046238784 -0.077015884 -0.10594957 0.0901592
0002e0 e5 07 a1 bd 60 fe 56 be 5b 8e 25 be 72 84 66 3e
       -0.07862834 -0.20995474 -0.16167586 0.22511461
0002f0 d5 c1 89 bd 33 13 59 be 2f e9 cc bd 4b e6 7d 3e
       -0.06726424 -0.2119873 -0.10005414 0.24794881
000300 ed fc 0c 3e 52 7f 63 be 1d 48 44 be 8f fe 52 be
       0.13768359 -0.22216538 -0.19168134 -0.20604919
000310 7c 7f 48 3e 37 7a f7 bd 79 bc 9a 3d 74 77 1c 3e
       0.19579881 -0.120838575 0.075554796 0.15279943
000320 31 41 87 bd ef 10 ab 3e 17 33 38 3e a7 88 1d bd
       -0.06604231 0.33411357 0.17988239 -0.0384604
000330 51 0a 64 3e 24 3f c4 bc 7d fd 74 3d 6e cb 31 3e
       0.2226956 -0.023955889 0.059812058 0.17362759
000340 a6 6e 85 3d 36 da 31 be 2f dd 06 3e 88 80 2e be
       0.06515245 -0.17368397 0.13170312 -0.17041218
000350 0a c6 39 be 7b 72 e7 37 44 88 8f 3e 85 94 1b 3d
       -0.18141952 2.7590655e-05 0.2803365 0.037983436
000360 28 fc 98 be fe 55 ef bd ee 0d 46 3e dc a2 0e 3d
       -0.2987988 -0.116863236 0.19341251 0.034823284
000370 a9 dc 33 be b4 54 21 be 20 f1 60 3d d2 fb 40 bd
       -0.17564644 -0.15754968 0.054917455 -0.047115155
000380 4e 57 f8 bd b6 28 86 3e a1 2b 9c bd 2a d7 75 bd
       -0.12126027 0.26202935 -0.07625509 -0.06001965
000390 38 7a 8b 3e 41 0f c0 3d 4e 54 50 be 06 d9 fb bd
       0.27241683 0.093779095 -0.2034466 -0.12297253
0003a0 66 a0 3f be 56 69 3f 3e b2 4f b3 3d 1f fe 41 3d
       -0.18713531 0.18692526 0.08755435 0.04736149
0003b0 1e 79 8a 3d e4 5d b2 3d e6 94 5a 3e 1a 22 1c be
       0.067613825 0.087093145 0.21345863 -0.15247384
0003c0 8f b6 37 be 54 58 cf bd 8c 7a 5e 3e 3b 5c 8c 3e
       -0.17940734 -0.10124269 0.21726435 0.27414116
0003d0 11 2e 00 be 7d b2 43 be 3e 42 65 be 77 8c 41 3e
       -0.12517573 -0.19111057 -0.2238855 0.1890124
0003e0 9c 66 95 bd e3 c4 e7 bd 6a c1 26 3e 2c 06 18 be
       -0.07294962 -0.1131685 0.16284719 -0.14846104
0003f0 75 97 06 be db db c9 bd 9e 08 f4 3d 0e 4b 74 be
       -0.13143714 -0.09856387 0.11915706 -0.23856756

convs.1.lin_l.weight f4 [40, 32]
000000 25 74 20 be 2e 07 0f be 0e 41 97 bc c8 ca 2d be
       -0.15669306 -0.13967583 -0.018463638 -0.16971886
000010 a3 20 f9 bd c9 e2 a6 3d 4e 44 b7 bd f2 0d 93 bd
       -0.12164428 0.081487246 -0.08948575 -0.07180394
000020 2b bc 06 be 4b ed 06 be 95 ae 47 3d bb 64 8a be
       -0.13157718 -0.13176458 0.04875048 -0.27029976
000030 8d 7a 27 3d 39 22 ad 3d 0f 97 0b be 7c 82 52 3e
       0.040888358 0.08453793 -0.13631843 0.20557588
000040 02 40 83 be 0a a9 92 bc 9c 65 8e 3d a2 19 74 3d
       -0.25634772 -0.01790287 0.06952974 0.059594758
000050 a5 e2 3e be bf 9e 7a be 8d 01 53 be cd e9 88 3d
       -0.18641146 -0.2447462 -0.2060606 0.06685219
000060 51 60 60 be 1e 3b 1c be 58 ef 4e 3b 08 c0 0a 3e
       -0.21911742 -0.15256926 0.0031575765 0.13549817
000070 95 83 56 be cd 1f f3 bd dd 43 27 3e 7f a1 b0 bc
       -0.20948632 -0.118713 0.16334482 -0.021561382
000080 2e c3 3c be 1b 84 ec 3d c4 97 27 3d 8d 86 50 bd
       -0.1843383 0.115486346 0.04091622 -0.050909568
000090 40 33 4a bd e7 8d 93 bd 48 99 a4 3c c8 46 d6 bd
       -0.049365282 -0.072048 0.020092621 -0.10462719
0000a0 13 c4 8d be cf 40 3b be a7 ed cc 3b 65 cc 88 bc
       -0.27688655 -0.18286441 0.0062539163 -0.016699025
0000b0 11 3e f0 bd 63 9c 82 be cc b9 8a be d5 cc 7d be
       -0.11730588 -0.2550994 -0.27094877 -0.24785168
0000c0 cb 14 b3 3d 6f 76 61 3d 7a 2a 8a bd 68 cf c7 bd
       0.087442 0.055044588 -0.06746383 -0.097563565
0000d0 e4 dc 25 bd 21 25 39 be ca 51 49 3e 29 62 34 be
       -0.04049386 -0.1808057 0.19660106 -0.1761557
0000e0 c6 4c 56 be b7 38 4e be e7 31 78 be bb ea dd bc
       -0.20927724 -0.20138822 -0.24237786 -0.027089467
0000f0 4b 0e 68 be ba 34 99 3c a7 92 61 bd 8f cd ed 3d
       -0.22661702 0.0187019 -0.0550715 0.11611473
000100 2d 6c b4 bd f2 8b 34 be f9 68 f7 3d ce 7d 34 be
       -0.088096954 -0.1763151 0.12080569 -0.17626116
000110 b5 e1 76 be f0 58 1c bd c3 f6 ec bd 0a 08 db 3d
       -0.24109538 -0.038170755 -0.115705036 0.10694893
000120 73 43 f7 3d b8 69 52 3e 81 f5 99 3e cb 14 54 be
       0.12073412 0.20548141 0.30070117 -0.20711057
000130 85 4f b1 3e 43 85 5d be bc 0a b6 3b d9 88 51 be
       0.3463098 -0.21632867 0.005555479 -0.2046236
000140 80 7b 32 be 67 bc 61 be f1 60 fc bc 02 c1 91 3d
       -0.17429924 -0.22044526 -0.030807944 0.071168914
000150 a0 ce 15 bd 58 eb 1a be f8 9c 73 bd c9 44 72 be
       -0.036574006 -0.15128839 -0.05947587 -0.23659052
000160 9b e7 c4 3e 0f 07 ad 3d 27 84 8e 3d 6a 15 2d be
       0.3845795 0.08448612 0.069588 -0.169027
000170 21 0a a8 3e 4f 1d 65 3e 58 72 c9 bd 79 7e 51 be
       0.32820228 0.22374462 -0.098362625 -0.20458402
000180 e4 01 7c 3e 3b 6b f4 bc 31 1e e1 bd 14 e2 4d 3e
       0.24610096 -0.029836288 -0.10992087 0.20105773
000190 d4 1a 03 be 32 4f db bd 75 69 df bd 52 63 b5 be
       -0.12803203 -0.10708465 -0.10908786 -0.35427338
0001a0 13 2c 58 3e 72 88 7d be 88 76 8f 3e 23 9f 34 3e
       0.21110563 -0.24759081 0.2802012 0.17638831
0001b0 ac 39 e7 3e c0 21 6b be 80 4b 75 be ff 01 84 be
       0.45161188 -0.22962093 -0.23954582 -0.25782773
0001c0 91 9f ed 3e fe b5 43 bd 1b 90 ba be 70 f9 69 bd
       0.46410802 -0.047780983 -0.3643807 -0.057122648
0001d0 19 d3 31 be 5a ad 67 3d b7 e8 65 3e 79 2f d7 bd
       -0.17365684 0.056561805 0.22452055 -0.105071016
0001e0 32 f2 f0 be 3f 43 f9 bd 8b 03 29 be a0 57 1f 3e
       -0.4705978 -0.12171029 -0.16505258 0.1556077
0001f0 71 d5 22 3e b4 88 ae bd 60 72 e7 bd af 93 78 be
       0.15901734 -0.08522168 -0.11301112 -0.24275087
000200 5d e6 d7 3d d5 c1 cc 3d d2 99 b4 be 37 c8 45 3d
       0.10541985 0.09997908 -0.35273606 0.048286643
000210 f8 12 7f bd 75 63 ab be 4f 68 42 3d db 29 b9 3e
       -0.06227395 -0.33474317 0.047462758 0.36164746
000220 d1 39 fe bd 88 6a 28 3d 78 1c 3c be 81 e3 15 be
       -0.12413371 0.04111722 -0.18370235 -0.14637567
000230 79 13 13 3e e7 f2 02 bc 94 63 8e 3d d1 7a 91 3e
       0.14362897 -0.007992483 0.06952587 0.28414014
000240 c5 0e de bc 58 5a 75 3c ff a1 ac bd 03 49 26 be
       -0.027106652 0.014975153 -0.08429336 -0.1623879
000250 f8 8c 7e be c8 f9 6a 3e fb 3d 70 3e 02 1f de bd
       -0.24858463 0.22946846 0.23461144 -0.10845758
000260 2e 41 46 3e d9 0a 6d be af b4 38 3d 98 18 31 3e
       0.19360802 -0.2314867 0.04509419 0.17294538
000270 73 ec a0 bd 25 fe 95 3d d3 cc 97 be 7d 9f b3 3d
       -0.07857599 0.07323865 -0.29648456 0.08770654
000280 25 3a 1c 3e 72 d7 d4 3e 73 e4 c0 3d 12 1a 28 bd
       0.15256555 0.41570622 0.09418573 -0.041040488
000290 8b 37 b6 bd 3f 66 ca 3d c5 d7 59 be d6 fe cb 3e
       -0.08897313 0.09882783 -0.21273716 0.39842862
0002a0 37 e5 1a be 79 31 4f be fc ee 70 3d 51 cf 31 3e
       -0.15126501 -0.20233716 0.058821663 0.17364241
0002b0 af 74 9d bd c7 48 cc 3d 8d 9a 46 be a9 3a e0 3d
       -0.07688271 0.09974819 -0.19394894 0.109486885
0002c0 a9 80 fd 3d 1b ca 09 be 2b f9 41 3c 59 48 8a be
       0.123780556 -0.13456003 0.011839191 -0.27008322
0002d0 a9 34 ca 3d dd ff 31 be 24 4c d3 be d9 64 61 3e
       0.098733254 -0.1738276 -0.41269028 0.22011127
0002e0 63 8b 09 3e cb 03 37 3e 5c 9a ea be dd e3 18 3d
       0.13432078 0.1787254 -0.45820892 0.037326682
0002f0 ed b6 45 bd 52 f3 93 bd c3 79 38 be cc 06 7e be
       -0.048270155 -0.07224144 -0.18015198 -0.2480728
000300 8c eb 51 3e d9 c6 fb bd 90 6e ad 3d 4b 5b 80 3e
       0.2050001 -0.122937866 0.08468354 0.2506965
000310 5e 35 7b be 8c 03 64 be c1 b9 de 3d 21 92 ab 3d
       -0.24532077 -0.22266978 0.108752735 0.08377481
000320 0a 41 9d 3e 81 38 5a be f9 cd 62 3e f4 d5 58 3e
       0.30713683 -0.21310617 0.22148885 0.21175367
000330 41 03 44 3e 9e 2c 14 be ce 99 43 bd c6 fc 15 bc
       0.19141866 -0.14470145 -0.0477541 -0.009154504
000340 05 a1 94 3e 8f 09 3d 3d f0 15 5b be 20 69 48 3d
       0.29029098 0.046151694 -0.21395087 0.04892838
000350 09 4f 9f bc 33 13 bd bd 36 c1 b6 bd 48 60 81 be
       -0.019446867 -0.092321776 -0.08923571 -0.2526877
000360 f3 3e f0 3a 38 54 ac bd 8a 96 0b be 26 ed a9 3a
       0.0018329307 -0.08414501 -0.13631645 0.0012964352
000370 8f a8 1a 3d 13 02 20 3d b8 0e 8f be 77 83 9a be
       0.037758406 0.039064478 -0.27940917 -0.30178425
000380 ed 2e 07 3d ab be 7f 3c 4f b7 df 3d 33 d1 c8 bd
       0.033003736 0.015609424 0.10923635 -0.098055266
000390 03 ed 87 bd fd 2b 69 3e 70 2f 65 be 49 55 97 3d
       -0.06637003 0.22770686 -0.22381377 0.07389314
0003a0 0d 6d 39 bc 2a 63 02 3d e1 e2 e7 3d 94 c5 0f be
       -0.011317504 0.03183285 0.113225706 -0.14040214
0003b0 28 99 ea 3c 2c 31 d4 bb 0d 2e ea bd f9 c3 02 be
       0.028637484 -0.0064755883 -0.11434565 -0.1277007
0003c0 6c 67 b9 bd 7d 60 c2 bc a1 1b 32 bd 8c 8e 50 3e
       -0.09052929 -0.02372765 -0.04348338 0.20366877
0003d0 4e 0a 0d be 3c 06 53 be 27 05 e9 3d 15 fd 86 bd
       -0.13773462 -0.20607847 0.11377936 -0.0659124
0003e0 59 76 b2 3a a0 95 22 bd aa da 13 3e 6d e7 f2 bc
       0.0013615593 -0.039693475 0.14438882 -0.029651368
0003f0 38 e3 8a bd 7b c4 c4 bd 7a 79 49 3e c2 c9 21 be
       -0.0678162 -0.09607788 0.19675246 -0.15799621

convs.1.lin_l.bias f4 [40]
000000 08 ff d2 bd e5 7c 6d be 73 b5 d2 3c 73 22 37 3e
       -0.103025496 -0.23192175 0.025721287 0.17884235
000010 53 02 3f bd c6 6d 9c 3d 43 0d 94 3c 5d 35 34 bd
       -0.046633076 0.07638125 0.01807273 -0.043996204
000020 35 79 97 bd 29 3d 3c 3e 74 aa 73 3c 31 2f d3 bd
       -0.07396165 0.18382706 0.014872182 -0.103117354
000030 6f af 95 be 10 ef 0a bc 05 4c 94 3d a7 b2 f1 3d
       -0.29235408 -0.0084798485 0.07241062 0.11801653
000040 6e 88 dc bd 10 bb 36 be 9a a2 e1 bd 0e 5e 51 be
       -0.107682094 -0.17844796 -0.11017342 -0.20446035
000050 16 12 07 3e 0d 28 1a be 32 72 de bd 29 a6 cb be
       0.13190493 -0.1505434 -0.10861625 -0.39775208
000060 0e 3e 5d be 5c 73 5e be 68 eb 88 3d 87 99 0c be
       -0.21605703 -0.21723694 0.06685525 -0.13730441
000070 45 ae 76 3e de d6 6d bd 73 24 05 bd 6b be 1f be
       0.24089916 -0.05806624 -0.032505464 -0.15599982
000080 a4 6e 0b be 96 fc 2a 3d 1b ac 0d 3e ab 17 97 be
       -0.13616425 0.04174479 0.13835184 -0.29510245
000090 c4 ec be bc 28 66 5d be c0 8a 08 3d 94 3d b7 bd
       -0.023306258 -0.21621001 0.033335447 -0.08947292

convs.1.lin_r.weight f4 [40, 32]
000000 bb 1b 87 be 24 bf 1f be c4 f8 1e bd 6c b1 df bd
       -0.26388344 -0.15600258 -0.03881146 -0.109225124
000010 3a cc 51 3d 99 d0 65 3d 5f 04 2c bd e4 2a a5 be
       0.051220156 0.056107137 -0.041996356 -0.32259285
000020 23 1a 04 be 30 40 6f bd 5d 92 10 be dd 59 57 be
       -0.12900595 -0.058410823 -0.14118333 -0.21030374
000030 77 79 cb bd 27 bb 9f 3c fe bc 37 be 26 5c da 3d
       -0.09935277 0.01949842 -0.17943189 0.10662107
000040 88 1b dd bc 5b 10 58 be e2 eb d4 bc f1 4f 68 3d
       -0.026990667 -0.21099989 -0.025991384 0.056716863
000050 af 0d a1 be 7f 1f 26 be 18 41 b7 3c d1 7f c5 be
       -0.31455752 -0.16222952 0.022369906 -0.3857408
000060 b9 7c 77 be 45 7a 1c be bf 22 d8 3d 94 ff 9d 3d
       -0.24168672 -0.15281017 0.10553502 0.07714763
000070 3b 73 64 be 63 5d 0f be f8 9e 95 3d b8 51 14 3d
       -0.22309582 -0.14000468 0.073057115 0.036210746
000080 9d fd 1a be 48 4a 92 bd 82 4d 6c bc 22 34 6d be
       -0.15135808 -0.07143074 -0.014422776 -0.23164418
000090 30 9f 24 3c 3f 3c 40 be 73 86 34 be 11 79 fc bc
       0.010047719 -0.18772982 -0.17629413 -0.030819448
0000a0 4a 21 9b be 9f fa a3 bd 47 2c 97 3c be 9d 80 be
       -0.30298835 -0.080067866 0.01845373 -0.25120348
0000b0 a4 43 54 be e9 b6 8e be 90 78 38 3d 41 1b 60 bd
       -0.20728928 -0.27873924 0.045036852 -0.05471349
0000c0 af e3 71 3d f6 50 b1 3d fa 94 30 be d7 cd ef bd
       0.059055027 0.0865802 -0.1724433 -0.11709183
0000d0 1e 47 75 be 64 34 35 3d 9a bc 28 3e 11 53 f8 bd
       -0.2395291 0.044239417 0.16478196 -0.12125219
0000e0 55 67 09 bd ec fe 33 be 27 e8 58 be 17 a8 1a bd
       -0.03354581 -0.17577714 -0.21182309 -0.03775796
0000f0 a7 a7 aa bc 17 e7 a6 be 4d a1 2e be d3 63 17 be
       -0.020831896 -0.32598183 -0.17053719 -0.14784174
000100 b5 08 6b 3e a3 03 f0 bd 00 f5 65 3e bb 3a 62 be
       0.2295254 -0.11719444 0.22456741 -0.22092716
000110 44 75 68 be b7 07 91 bd 2d 40 84 be 1a 7a 7b 3e
       -0.22700983 -0.070815496 -0.25830212 0.24558297
000120 bb cb d8 3e 70 9a 04 3d 74 3f cb 3e 93 4f a2 be
       0.42342934 0.032373846 0.39696848 -0.31701335
000130 cb 2f 46 3e aa 98 8d be 9e 38 15 3d 71 c2 84 be
       0.19354169 -0.27655536 0.036430947 -0.25929597
000140 30 02 4f be ca 46 7c be ca 66 59 3d 05 53 45 3e
       -0.20215678 -0.24636379 0.053076543 0.1926995
000150 41 79 8c 3e 52 68 2b be 6e 41 a7 3d b2 34 8e be
       0.2743626 -0.16739014 0.081667766 -0.27774578
000160 61 8b ff 3e be 73 10 3e 07 78 33 bc 01 92 5a be
       0.49911025 0.14106652 -0.01095391 -0.21344759
000170 eb 45 c1 3e 51 bb fe 3b 9d d7 10 3c e4 aa 93 be
       0.37748656 0.0077737947 0.008840469 -0.28841317
000180 0a cc e6 bd 37 c2 b2 be 44 ea ea be d8 a3 8c 3e
       -0.11269386 -0.349138 -0.45881855 0.27468753
000190 90 5e b4 be 4d 5f a8 be 62 e0 06 be c9 45 d0 bd
       -0.35228395 -0.3288521 -0.13171533 -0.101695605
0001a0 c1 2a d3 3e 52 77 d2 be 06 d2 80 3e 0f da 4b 3e
       0.41243556 -0.4110666 0.25160235 0.19907402
0001b0 85 2e 18 3e eb fd 38 be 3a 33 54 be 0a d4 b5 be
       0.14861496 -0.18065612 -0.20722666 -0.35513335
0001c0 01 6e 4e 3e 8d 19 3b 3d d2 c1 b4 be a4 a0 cb be
       0.2015915 0.045678664 -0.35304123 -0.39770997
0001d0 b2 61 8a be c1 58 d9 bd 30 a7 c3 3d 64 a0 7a be
       -0.2702766 -0.106126316 0.09553373 -0.24475247
0001e0 fc 5d 53 be 35 ec 60 be 61 e5 0b bc 87 13 14 be
       -0.20641321 -0.21965106 -0.008538575 -0.14460574
0001f0 5f d1 79 be a6 38 45 3d 2a df 8a be 4e 01 f5 bd
       -0.24396275 0.048149727 -0.27123386 -0.119631395
000200 fc ae db 3c 76 9f 89 3d 33 aa dc be 42 70 1f be
       0.026816837 0.06719868 -0.43098602 -0.15570167
000210 07 20 23 be 4a 51 4b be 8e 33 86 3e 54 5e ee 3e
       -0.15930186 -0.19855228 0.26211208 0.46556342
000220 73 c1 62 be 93 7a 5f be b6 a1 73 be 17 b3 c6 bd
       -0.22144108 -0.21824102 -0.23792157 -0.097021274
000230 ee 47 98 3b a2 a8 c3 be 09 58 f2 bd f3 82 4c 3e
       0.0046472466 -0.38214594 -0.118331976 0.19971828
000240 ab 8a 7a 3e 22 f5 57 3e 2a e9 a6 be 0d 2e ad be
       0.2446696 0.21089604 -0.32599765 -0.33824196
000250 9b 3d d0 be a6 42 8b bd e2 e3 e4 3e de 60 61 3e
       -0.40672 -0.067998216 0.4470511 0.22009608
000260 3b 74 c9 3e 32 6d dd 3d 57 1b 78 bc 50 2a b6 3e
       0.3934649 0.10811843 -0.015143237 0.35579157
000270 33 05 c4 be 8e 65 06 3e e3 8d e5 bd 79 b2 8f 3e
       -0.38285217 0.13124678 -0.11208703 0.2806585
000280 30 12 72 3d ea 0e e4 3e 2d be e9 3b 78 d4 1e 3e
       0.059099376 0.4454263 0.0071332664 0.15510738
000290 e0 49 14 be c4 5f 99 3d cc 98 56 be 9b 3e 17 3e
       -0.14481306 0.07488969 -0.20956725 0.14769976
0002a0 2d 02 93 be 0c 71 6f be 6a 51 c7 3e ed b2 e0 3e
       -0.28712597 -0.23382968 0.38929302 0.4388651
0002b0 01 42 e8 3c 02 70 e1 bd ea 29 49 be 38 d2 cf 3e
       0.028351786 -0.11007692 -0.19644895 0.40590072
0002c0 8e 49 75 3e 05 1d 97 be 4e da 7f bd 93 4b 7d be
       0.2395384 -0.29514328 -0.06246405 -0.2473586
0002d0 e3 2f 72 bd 2d b8 67 be 68 19 29 be 06 83 01 3f
       -0.0591277 -0.22628851 -0.16513598 0.5059055
0002e0 a8 f6 69 3d 4b c3 0a bd 02 3b eb be 7d 7a 4e 3d
       0.057119995 -0.033877652 -0.45943457 0.050409783
0002f0 c6 49 6d be b4 49 70 bd 5f ad 60 be 67 ab 9e be
       -0.23172674 -0.05866404 -0.21941136 -0.30990145
000300 34 bd d3 3d 6e d8 97 be 42 b4 de bc 5a 21 bc 3d
       0.10338822 -0.2965731 -0.027185563 0.09186049
000310 04 e8 1a be 23 e4 65 be 71 26 06 3c f2 22 1c be
       -0.1512757 -0.22450309 0.008187876 -0.15247706
000320 3a 52 7b 3d 11 b2 fc bd f0 f2 8c 3e fa 7f 83 3e
       0.061357714 -0.12338651 0.27529097 0.25683576
000330 42 0a 00 bd b5 9d c4 be a6 e9 32 be 63 1c 7d bc
       -0.031259783 -0.3840157 -0.17471942 -0.015448662
000340 c1 60 6f 3e 34 bb df 3d 80 4f 19 bd 35 0a c1 3d
       0.23376752 0.10924378 -0.037429333 0.09425775
000350 ef e0 5d be c3 97 93 be 77 fa 95 be b9 60 cc bc
       -0.21667837 -0.28826723 -0.29292652 -0.024948465
000360 ee 2b 93 be 02 97 dc bc ad c4 77 be 23 a1 41 be
       -0.28744453 -0.026927475 -0.2419612 -0.18909125
000370 69 fe 36 3d cf c3 6b 3c 1b 27 a6 bd f3 2f 9b be
       0.04467622 0.014389946 -0.081129275 -0.3031002
000380 c5 d1 81 be e9 a5 42 be 44 5b 73 3e 6b 57 68 bd
       -0.25355354 -0.19008602 0.23765284 -0.056723993
000390 35 85 91 bc 5a f3 11 be 81 a4 62 be 40 5a e8 bc
       -0.017763713 -0.14252988 -0.22133066 -0.028363347
0003a0 d3 f9 3a be d6 b9 70 be 60 b0 e9 bc df c8 8d bc
       -0.18259363 -0.23508391 -0.028526485 -0.017307697
0003b0 77 d7 1c be a4 62 aa 3d 58 52 74 be 36 c7 c6 bd
       -0.15316568 0.083195955 -0.23859537 -0.09705965
0003c0 79 c3 07 3d 7d 85 46 bd a1 f5 3b be ac 6b 1c 3d
       0.0331454 -0.048467148 -0.18355419 0.03818862
0003d0 bc 2f 8d bc 6f 75 3d be 3a 80 2f be 6d df c4 bd
       -0.017234676 -0.18501829 -0.17138758 -0.096129276
0003e0 07 3c dc bd eb ee 90 3c f6 49 9d bd fa e3 f0 bd
       -0.10753637 0.01769205 -0.076801226 -0.11762233
0003f0 ea 0e 8d bd 91 68 f9 bd 2c 42 90 3d a1 df e5 bc
       -0.0688761 -0.121781476 0.07043871 -0.028060736

bns.0.weight f4 [32]
000000 86 9e 78 3f 70 44 9d 3f 0e 95 a1 3f 4d 7e a7 3f
       0.9711689 1.228651 1.2623613 1.3085419
000010 24 cb 96 3f f8 c0 a3 3f 6c 75 9f 3f 6c 95 a1 3f
       1.1780744 1.2793264 1.2457709 1.2623725
000020 eb 57 9a 3f 3d ac a5 3f c9 e6 9e 3f cd ef a3 3f
       1.205808 1.2943188 1.241418 1.2807556
000030 f3 5c 9d 3f 92 3d a1 3f 92 cb 9c 3f 2d 35 97 3f
       1.2293991 1.2596915 1.2249625 1.1813103
000040 9f b7 97 3f 7e 7d 97 3f 7f 09 96 3f 6d 3e a2 3f
       1.1852912 1.1835172 1.1721648 1.2675301
000050 f9 52 a0 3f 4a 9d 92 3f c2 ba 9a 3f 96 1c 9a 3f
       1.2525321 1.1454251 1.2088244 1.2039974
000060 5f 6c a5 3f 62 ca 98 3f ce ad a5 3f 8d 2f 9e 3f
       1.2923697 1.1936762 1.2943666 1.2358261
000070 64 83 a8 3f 85 37 88 3f de 96 a2 3f ce ff 9c 3f
       1.3165097 1.0641943 1.2702291 1.2265565

bns.0.bias f4 [32]
000000 97 0e f1 bd 4e 0b 69 3e 9e 4f 4f 3e 39 e1 7e 3e
       -0.11770361 0.22758219 0.20245215 0.24890603
000010 3c 20 22 3e 87 8c 86 3e 3b b5 43 3e f2 6d 73 3e
       0.15832609 0.2627909 0.19112103 0.2377241
000020 cc 41 16 3e 42 a8 6c 3e 0f cd 14 3e 96 3c 69 3e
       0.14673537 0.2311106 0.14531349 0.22777018
000030 4c dd 1b 3e 17 20 7f 3e 01 b1 5f 3e 52 12 09 3e
       0.15221137 0.24914585 0.21844865 0.13385895
000040 33 68 c4 3d 9e 45 02 3e 70 cd 17 3e 97 b4 3e 3e
       0.09590187 0.1272187 0.14824462 0.18623577
000050 92 1c 6a 3e fa f5 13 3e f3 37 23 3e 26 d0 52 3e
       0.22862461 0.14449301 0.15939312 0.20587215
000060 ac 35 79 3e 70 7f 35 3e 6f a3 5b 3e bf b4 4d 3e
       0.2433688 0.17724395 0.21449064 0.2008848
000070 e8 62 85 3e cc d6 8e ba 54 4a 70 3e 54 ec 68 3e
       0.26052022 -0.0010897755 0.23465854 0.22746402

bns.0.running_mean f4 [32]
000000 31 44 23 bf 3f 6b 97 3e 02 97 1b be 7d b0 a8 bd
       -0.63775927 0.2957401 -0.15194324 -0.082367875
000010 54 71 35 3e 37 85 99 bb 57 9a 89 be 5b 48 cf bd
       0.17719012 -0.00468507 -0.26875564 -0.101212226
000020 9b ef da bd e5 e5 df be 72 82 14 be a5 d9 23 be
       -0.10690232 -0.43730083 -0.14502886 -0.16000994
000030 17 6c fd bd ea 26 40 3e 0e 10 ba 3e ec 68 80 be
       -0.12374132 0.18764845 0.36340374 -0.2508005
000040 9b 80 22 bf a2 3d 67 be 64 92 cb be 82 f0 77 3d
       -0.63477486 -0.22582105 -0.39760125 0.0605321
000050 34 5e 09 3e 61 e4 6f be 9f c0 00 3e 33 43 81 be
       0.13414842 -0.23426963 0.12573479 -0.2524658
000060 1a 39 5a 3d ba 0b 2e 3e 69 28 d3 bd 2d c4 7a 3d
       0.053277113 0.16996661 -0.10310442 0.061222244
000070 4d a5 74 bd 9e a4 29 be b8 4b 27 3e 78 9e 6a 3d
       -0.059727956 -0.16566703 0.16337478 0.057280034

bns.0.running_var f4 [32]
000000 73 64 d9 3d c8 e8 96 3e 18 b1 a4 3d 41 54 a5 3d
       0.10614862 0.29474473 0.080415905 0.08072711
000010 9e 7d 11 3e 00 32 8d 3d 57 4a e3 3d f6 8f 96 3d
       0.14208075 0.06894302 0.110981636 0.07351677
000020 3b c8 fc 3d ff 14 87 3d ea 73 ab 3d a0 ab ee 3d
       0.123428784 0.065958016 0.08371718 0.116538286
000030 0d 1e ca 3d 8a 55 cf 3d 08 fc eb 3d 5e 29 9c 3d
       0.09869013 0.10123737 0.115226805 0.07625078
000040 56 a0 2a 3e cd 4f dd 3d ed 5a f4 3d d3 d5 8f 3d
       0.16662726 0.108062364 0.11931405 0.070232056
000050 62 17 b4 3d 19 0f 16 3e a1 5a 93 3d 17 2a d6 3d
       0.087935224 0.14654197 0.071950205 0.10457247
000060 6d 6c 93 3d 8f 6b 80 3e f7 c2 d4 3d 3f ad 97 3d
       0.07198415 0.2508206 0.10388749 0.07406091
000070 44 21 84 3d 59 6f 9e 3d 9e 3d b5 3d b8 5f 45 3e
       0.064516574 0.07736082 0.08849643 0.19274795
