saved_models/arxiv/ogb-arxiv_SAGE_s5.pt (torch, 47814 bytes, 10 tensors)

convs.0.lin_l.weight f4 [32, 128]
000000 8c a4 25 be 74 76 b5 bb cf 19 8d bc 1c da b0 ba
       -0.16176051 -0.0055378024 -0.01722422 -0.0013492736
000010 6c 6d 24 3e 6e ed ed 3d 6a ab 93 bd 5c 67 48 3e
       0.16057366 0.11617552 -0.07210429 0.19570678
000020 45 89 df 3b df 06 32 3d 7b 8a 94 3d 1f ae b8 bd
       0.0068217837 0.043463584 0.072529756 -0.09017586
000030 a0 08 80 bc bf 9f 69 3e 93 c0 ba bd c6 e3 cc 3d
       -0.015629113 0.22814845 -0.09118762 0.10004382
000040 5d 35 5d 3d ac fc 11 bc 60 8d 27 bd 12 83 a5 3d
       0.05400597 -0.008910339 -0.04090631 0.0808164
000050 ce d2 e6 3d 0a 69 51 3d 2b 5e 4f 3d 57 04 04 3e
       0.112706766 0.051125564 0.050626915 0.1289228
000060 7d 68 41 3d 00 2a 42 3d 03 21 89 bd 64 da 33 bd
       0.04721879 0.047403336 -0.066957496 -0.043909445
000070 9f 65 12 3e 0a 99 6d be fa 65 9c bc 58 48 ac bd
       0.14296578 -0.23202911 -0.019091595 -0.08412236
000080 40 c1 b0 be 5d 00 93 3c 60 59 7b bd f2 a3 0b 3e
       -0.34522438 0.01794451 -0.06136453 0.13636759
000090 da 20 39 3e 9c 31 24 3e ca 0f 36 3e 40 e6 53 be
       0.18078938 0.1603455 0.1777946 -0.20693302
0000a0 57 65 22 3e 53 f1 77 be 07 4d 40 bc b7 ea 02 be
       0.1585897 -0.24213152 -0.011737115 -0.12784849
0000b0 23 3e a5 3c 26 ed 27 bc 1c 95 71 3d 0b 89 09 be
       0.02017123 -0.010249412 0.058980092 -0.13431184
0000c0 d3 b4 a8 3d 9d 9c 20 3e 48 d5 84 bd 35 0b 9d 3d
       0.082376145 0.15684743 -0.06485993 0.07668153
0000d0 45 f7 68 3e db ec 91 3e 77 01 75 3c 4c 85 e0 3d
       0.22750576 0.2850102 0.0149539625 0.10962924
0000e0 50 ad 04 3e 9c 60 a8 bc 2d 00 11 3c bb c6 e0 3d
       0.12956738 -0.02055388 0.00885014 0.10975405
0000f0 d5 6b 6a bd c1 b2 0f 3e 48 e8 6e bd 33 c8 a9 3a
       -0.057231743 0.14033033 -0.05832699 0.0012953341
000100 cd 3d 60 be 46 ae 68 bd e8 8a f1 bc 14 81 89 bd
       -0.21898575 -0.056806825 -0.029485181 -0.06714073
000110 ca b3 03 be df 6c ac 3d db ee 33 be fe 1b f1 3d
       -0.12861553 0.08419203 -0.17571585 0.11772917
000120 a3 b1 08 bd 58 2c 28 be ca 2c 4a 3d 7f 98 a5 bd
       -0.033372533 -0.16423166 0.04935912 -0.08085727
000130 13 09 f2 bc a0 15 26 bd f4 7d 38 be d2 81 5d be
       -0.029545343 -0.040547967 -0.18016797 -0.21631554
000140 b7 45 47 be b8 ee 32 be 9b d0 f2 bc 0b 70 be bc
       -0.19460188 -0.17473876 -0.029640486 -0.023246786
000150 a7 84 34 be 67 1c a8 bd 76 fb c4 bd f4 8c 17 be
       -0.17628728 -0.08208542 -0.09618275 -0.14799863
000160 03 ca 39 bd b9 d2 21 3e 1c ae 12 be 0b bf 6d 3e
       -0.04535867 0.1580304 -0.1432423 0.23217408
000170 f7 a4 b4 3d 8a 59 2f bd ab 63 08 bc 89 b4 80 ba
       0.08820527 -0.04281 -0.008324544 -0.0009819429
000180 ea ab 41 bb cf e1 34 3d 8f e0 c6 bd f2 84 90 3d
       -0.0029551932 0.04416066 -0.097108 0.07056607
000190 c5 54 6e 3e a4 68 cf 3c eb a4 3e 3b 40 f9 27 be
       0.23274525 0.025318451 0.0029089998 -0.16403675
0001a0 e9 9e 4b 3d 57 03 4c 3d 84 28 f7 3d 5d 59 a8 bc
       0.049712095 0.049807873 0.120682746 -0.020550424
0001b0 c6 6b 76 3d 20 06 82 bc af c6 42 3e 40 d0 99 bd
       0.060161375 -0.015872061 0.19021104 -0.07510424
0001c0 fb af 40 3d 73 73 e1 bd f3 de 01 be e1 54 ce bc
       0.047042828 -0.11008348 -0.12682705 -0.025186958
0001d0 c3 e1 55 be 5c 24 7e 3d ce 02 d3 3d 17 43 0f 3e
       -0.20886903 0.062046394 0.10303269 0.13990436
0001e0 09 07 b7 bd 93 e0 5c 3e ca e0 1e 3e 27 5e 93 3d
       -0.08936889 0.21570043 0.15515438 0.071956925
0001f0 a4 ed 34 be 57 36 e9 bd a8 75 77 bd 7d 59 f1 bc
       -0.17668778 -0.11387318 -0.06041494 -0.029461617
000200 86 9d 23 be 56 00 20 3d 62 c8 90 39 b6 77 ad 3c
       -0.15978059 0.03906282 0.00027615117 0.021175247
000210 86 2c 8e bd 7e a3 0a be 3b 5a ea bd 1d d8 61 be
       -0.06942086 -0.1353893 -0.11442991 -0.22055097
000220 4c 93 fa 3d a1 38 42 3d b4 32 2b be d7 4f 9c 3d
       0.12235126 0.047417287 -0.1671856 0.07632416
000230 c7 7d f0 bd a7 31 3d 3e e7 b1 2c be a9 e8 ad bc
       -0.1174274 0.18475972 -0.1686474 -0.021229105
000240 0e d4 8d bd 8f e4 d1 bd 1e 7e d9 bd c5 b5 df bd
       -0.06925212 -0.10248672 -0.10619758 -0.10923342
000250 36 34 08 3d f3 fb cc 3d 85 a9 0a bd 20 2e 3a bd
       0.033252917 0.10008993 -0.033853073 -0.045454144
000260 7e 16 4c bd 1e 9e 66 3d f3 aa 59 3d fb bf ed bc
       -0.049826138 0.056303136 0.053141546 -0.029022207
000270 ca 56 89 3e 52 1d d7 bd 44 3a c8 bd 47 50 88 bb
       0.26824027 -0.10503639 -0.09776738 -0.0041599604
000280 cd 90 85 bc 47 92 5d 3d 16 4b 2e bd 50 47 34 3e
       -0.016304398 0.05409458 -0.042552076 0.17605329
000290 d6 a2 b6 bc 53 ee 1f 3e 3b cf 71 3d 3b 82 03 3e
       -0.022294443 0.15618257 0.05903552 0.12842648
0002a0 f9 b0 bb 3d 7e e0 64 3d 99 8c a6 3d 23 d6 0e 3e
       0.09164614 0.055878155 0.081322856 0.13948874
0002b0 62 cf 85 bd f1 9a b0 bd 05 c9 0a be 10 b1 1f be
       -0.06533696 -0.08623303 -0.13553245 -0.15594888
0002c0 c8 d4 1c be 0c b3 da bd 18 e3 2e be 1e c3 ea bd
       -0.15315545 -0.10678682 -0.17078817 -0.11462997
0002d0 ae 9a e7 bd c3 93 08 3e 4c 0c 07 be 10 93 93 3c
       -0.113088 0.13337617 -0.13188285 0.01801446
0002e0 e4 54 e1 bd 65 b6 cd bd 35 61 68 bd 4b 21 48 3c
       -0.1100252 -0.100445546 -0.05673333 0.012214969
0002f0 e3 ee 3d 3d e2 39 3b be 41 7b 96 bd e1 2f 14 3e
       0.0463704 -0.182838 -0.073477276 0.1447139
000300 64 c7 1b be 18 44 0a be 62 c2 0f 3d 02 bd 12 bd
       -0.1521278 -0.13502538 0.035097487 -0.035824783
000310 7c 8c 97 3d f0 1a 15 be a5 48 75 be 72 c8 4d ba
       0.07399842 -0.14561057 -0.23953493 -0.0007849998
000320 55 4b bb 3b 7f 84 23 3e f0 cf 7e 3e fb c9 b4 bc
       0.0057157674 0.15968512 0.2488401 -0.022068968
000330 eb 03 8d 3d 40 bc 64 3e 3b 0b 57 bc 1e 9f e1 3d
       0.06885513 0.22337437 -0.013125236 0.11016677
000340 b3 7a ac 3c c0 3d b2 be e0 96 8c bb b8 53 43 3e
       0.021054601 -0.34812737 -0.0042904466 0.19074905
000350 85 95 b2 3d 04 2b e9 3c 40 6f 51 3d 27 a6 63 bd
       0.08719925 0.028462894 0.051131487 -0.055578377
000360 75 26 92 bd fd 83 45 bd 78 9a 1a 3d ab ba 2f be
       -0.07136241 -0.048221577 0.03774497 -0.17161052
000370 fe 6e 6a be a9 62 23 bd e7 23 6b 3d bf fb 1b be
       -0.22893903 -0.03988901 0.057407286 -0.15232752
000380 4b d7 8d be 7b 14 a0 3d cd 5c 79 bd 5e 89 23 be
       -0.27703318 0.07816406 -0.060879517 -0.1597037
000390 69 a3 7b 3e a3 4b 78 3b 17 9f 66 bd 34 86 29 be
       0.24574055 0.003788688 -0.056304064 -0.165551
0003a0 07 d0 26 be 3d 91 c0 3d 33 18 39 bc 5d eb 7d 3e
       -0.16290294 0.09402702 -0.011297273 0.24796815
0003b0 da 83 c9 3d 57 07 1a 3d ab b8 5f 3e c4 50 2d bd
       0.09839602 0.037604656 0.21847789 -0.042313352
0003c0 e6 e8 2b be 7b 19 fa bd 3f 47 05 3e b9 65 98 3d
       -0.16788062 -0.12211891 0.1301546 0.07441277
0003d0 35 d7 66 be 7c 68 24 be b6 b5 bd 3b 36 c4 4e 3c
       -0.22543032 -0.16055483 0.005789484 0.0126200225
0003e0 bd 0f 1f 3e 0f bc ff 3d 15 24 16 bd 65 e2 f6 bd
       0.15533347 0.12487041 -0.036655504 -0.120549
0003f0 ac e1 fa bd f7 eb c1 bd e7 0b 25 bd 65 2d e1 bd
       -0.12250075 -0.09468835 -0.040294554 -0.109949864

convs.0.lin_l.bias f4 [32]
000000 3a b9 94 bc 4a 2b 52 bc 92 13 10 bd 8e 10 b0 bb
       -0.01815473 -0.012827704 -0.035174914 -0.005373067
000010 cc 19 d0 3c 4c 6e c5 bc 96 ba 7e bd a9 14 e3 bc
       0.025402926 -0.024100445 -0.06218966 -0.027719812
000020 59 69 3b 3d 35 7a e4 bd c1 2f 3d 3c 9f cf 98 3d
       0.045754764 -0.11156122 0.01154703 0.074614756
000030 35 f4 36 3a 70 21 87 3d 84 1c 73 bc dd 0f e9 3c
       0.00069791387 0.065981746 -0.014838342 0.028449947
000040 50 f0 8c bd 40 df 81 bd dc 3c bc bd 80 b7 4d 3c
       -0.068817735 -0.0634141 -0.091912955 0.012555957
000050 d7 e2 4b bd 81 e4 d7 3d 53 3e be 3c 9e d0 25 bd
       -0.04977688 0.105416305 0.023223078 -0.040482156
000060 bb 37 5c 3c 6f 58 a2 3d 7a e6 7d 3d 3e 68 ea 3c
       0.013441022 0.079270236 0.061987378 0.02861416
000070 8a 9c ac bb 89 cc 9b 3d 25 8e 73 bd f8 5d 41 3d
       -0.0052676843 0.07607371 -0.05946173 0.047208756

convs.0.lin_r.weight f4 [32, 128]
000000 35 20 6c 3d 55 f3 32 3d 0c c4 0c 3e c8 6b 5e bc
       0.057647903 0.04368909 0.13746661 -0.013575502
000010 50 1d 78 3d 83 d4 00 3e 74 ea 10 3e e9 f4 ba 3d
       0.06057483 0.12581067 0.14151937 0.09128744
000020 98 67 95 bc 73 28 98 bd fb 35 00 b9 17 e2 c2 3d
       -0.018237874 -0.0742959 -0.0001222714 0.095157795
000030 61 55 5f 3e bb a2 8f 3e a2 9c 95 bc 20 88 2f 3e
       0.21809913 0.2805384 -0.018263165 0.17141771
000040 d7 82 9c 3d 19 f0 f7 3c 01 3e 9d 3d 86 f2 83 bd
       0.07642143 0.030265855 0.07677842 -0.06442742
000050 c7 89 b9 bd 02 c9 53 3e 6e 0b c4 3c d0 e0 07 be
       -0.09059482 0.20682147 0.023931231 -0.13269353
000060 f2 90 20 3d 97 52 93 3e d3 98 34 bc 26 77 96 be
       0.03920073 0.2877395 -0.011022764 -0.29387778
000070 1a 08 03 3e 66 44 5a be 61 9a de bd 1d 7b 0c be
       0.12796059 -0.21315154 -0.10869289 -0.13718839
000080 23 f9 63 be ac 5f 17 3e 7f fb b5 bb b1 b2 e5 3d
       -0.22263007 0.1478259 -0.0055536623 0.11215723
000090 19 40 17 3e b4 4d 08 be 4b 38 04 3e 1a 2d 86 3c
       0.14770545 -0.13310891 0.12912099 0.016378928
0000a0 52 34 0f 3e 7e 8e c5 3c e5 e8 8a bd fe 52 8c bb
       0.13984802 0.024115797 -0.06782702 -0.0042823544
0000b0 b2 e5 49 bd 9e ea 2b bd ea b8 16 3d 07 c8 8e bd
       -0.04929132 -0.041971795 0.03679744 -0.06971746
0000c0 7c 57 44 3e a4 d3 3f be 98 2a 13 be 6a d1 1b 3b
       0.19173998 -0.18733078 -0.14371717 0.0023775944
0000d0 45 35 0e 3e e1 3e 07 3e 18 8b 21 bd ae c1 8e bb
       0.13887508 0.1320758 -0.03943929 -0.0043565845
0000e0 b8 d4 18 3e d4 0d 8d bd 67 fb 8c bc 21 bf 13 bc
       0.14924896 -0.06887403 -0.017209722 -0.009017737
0000f0 e1 d3 78 bc 1a d7 6d bd 99 a5 93 bd b7 3d ec 3c
       -0.015187235 -0.058066465 -0.072093196 0.028838022
000100 c5 1f 17 be 8c 7e 35 be 9a 8b 1c 3e 72 07 8d bc
       -0.14758213 -0.17724055 0.15287629 -0.017215464
000110 8b 10 53 be 04 82 94 bd 2c 04 d4 bd d4 be 02 3e
       -0.2061178 -0.07251361 -0.10352358 0.12768108
000120 59 a6 d8 bd 5b 8e 53 be 31 b0 97 3d e8 dd 96 3c
       -0.10578603 -0.20659773 0.07406653 0.01841636
000130 14 c8 d8 bc 7b 08 81 3c d5 50 77 be 4d 7e fc 3c
       -0.026462592 0.015751114 -0.24151929 0.030821944
000140 f7 ae 61 be 07 d0 f0 bd 20 a8 bd bd 9e 41 f0 bc
       -0.220394 -0.11758428 -0.09260583 -0.029328164
000150 3f 79 c4 bd a2 98 08 be 27 3e 28 be 61 a7 63 bd
       -0.09593438 -0.13339475 -0.16429959 -0.055579547
000160 db 2c a2 3e 93 fa ec bd ea 7e 39 be 7a 88 3a 3e
       0.31674847 -0.11571231 -0.1811482 0.18216124
000170 81 06 6d 3d 5e 81 f7 bd c3 82 1c 3d 1a a0 10 be
       0.05786753 -0.12085222 0.03821064 -0.14123574
000180 be 14 39 be 63 f2 f8 3c 93 40 16 3e ad 9d 97 3e
       -0.18074319 0.030389016 0.1467307 0.29612485
000190 16 76 32 3e e2 dc 28 3e d4 1c 86 bc a6 a1 07 be
       0.17427859 0.1649051 -0.016371168 -0.13245258
0001a0 42 ca a3 be 15 0b 74 bd 16 87 04 3e cc c5 d5 bc
       -0.31990248 -0.05958088 0.12942156 -0.026095293
0001b0 61 37 62 3d 6c 18 18 be c8 33 51 3d 03 2e fb bd
       0.055228595 -0.14853066 0.051074773 -0.122646354
0001c0 85 c2 bd bc 15 c6 93 bc 73 44 40 bd c7 08 10 be
       -0.023164043 -0.018038789 -0.04694028 -0.14065848
0001d0 7e 71 f6 bd a1 3a 91 bc 8d c3 fa 3d f0 f1 8a bd
       -0.12033366 -0.017728152 0.122443296 -0.06784427
0001e0 57 39 41 bc 4f 88 b8 3c 72 64 7e 3c 56 3f 45 bc
       -0.011793456 0.022525935 0.015526878 -0.012039026
0001f0 b4 24 07 be 3a 64 22 bd 14 1a a3 3d c6 0e c0 3c
       -0.13197595 -0.039646365 0.079639584 0.023444545
000200 e8 99 c9 3c 66 65 63 bd 7e 6a 2d bd 16 c2 ce 3c
       0.024609521 -0.055516623 -0.042337887 0.025239032
000210 fe 4f cc bd c4 e5 d0 bd 7d 17 6b be 0a 4b 0f be
       -0.09976195 -0.10200074 -0.22958179 -0.13993469
000220 40 31 ae 3d 20 78 0a 3e 2b 0e a5 3c c3 36 9e bd
       0.085054874 0.13522387 0.020148357 -0.07725289
000230 22 9b 2c be ed 94 59 3e ce 12 99 bd 17 3e 5e bd
       -0.16856053 0.21248217 -0.0747429 -0.054258432
000240 c8 30 42 3e 49 0d 0a be f3 06 04 bc 56 fb 25 be
       0.18963921 -0.1348163 -0.008058297 -0.16209158
000250 07 17 ca bd 80 9b 0b bd 5b e5 b4 3d 7f e4 55 bd
       -0.09867673 -0.034083843 0.088328086 -0.052219864
000260 f2 08 10 be c7 43 04 3d 64 81 a1 bd 1a db a0 bc
       -0.14065912 0.0322912 -0.078860074 -0.019635726
000270 4b 9e 02 3e fb 31 e0 bd 39 be 03 bd bf e8 a4 bd
       0.12755696 -0.10947033 -0.032163832 -0.08052205
000280 12 4a 4e be d8 3c bc 3d ab 30 6f bb 00 63 3b 3e
       -0.20145443 0.091912925 -0.0036497514 0.18299484
000290 a8 a7 a4 3c 89 bd 08 3e ba dd 41 3c 5a 8d 91 3d
       0.020099476 0.13353552 0.011832649 0.07107039
0002a0 b8 b4 0d 3e 37 4a a1 3d 91 62 f3 3c 51 a8 6d 3d
       0.1383847 0.078754835 0.029710086 0.058021847
0002b0 da 13 49 be cb a8 ba bd 46 9d 26 be a7 7b 28 be
       -0.19636479 -0.09114226 -0.16270933 -0.1645342
0002c0 37 19 6e be 5c 2a 25 bd 60 da 17 be c1 51 de bc
       -0.23251806 -0.0403236 -0.14829397 -0.027138593
0002d0 51 4a 13 be 09 f8 3f 3a 5b 80 1a 3d 89 0d 28 3d
       -0.14383818 0.0007323032 0.037720066 0.041028533
0002e0 95 ef cc bd 73 b4 b2 bc b4 ec 92 bd 76 a9 08 bd
       -0.10006634 -0.02181456 -0.07174054 -0.033364736
0002f0 c4 b0 03 3e a9 e2 ef bd 22 b7 8c be b2 d9 42 3e
       0.128604 -0.11713154 -0.2748347 0.19028357
000300 32 ef c3 bd 05 7e 25 bd 8c de a2 3d 98 13 69 3c
       -0.09567107 -0.040403385 0.07952604 0.014225863
000310 4c 4b 82 3d 9f 80 bf bd 61 a6 13 be eb 4d 5e 3c
       0.06362018 -0.093507044 -0.14418937 0.013568382
000320 be 57 84 bd 07 ff 13 3e e7 a9 29 3e d1 4b 79 be
       -0.06462048 0.14452754 0.16568719 -0.24345328
000330 e5 93 30 3b 58 aa 1f 3e 8c d9 0c bc 0d 19 fe 3d
       0.002694362 0.15592325 -0.008596789 0.12407122
000340 95 e5 a5 bc 7a af b0 be c1 b4 b3 3d 5d 90 1e 3e
       -0.020251075 -0.34508878 0.087747104 0.15484758
000350 9d 24 79 3e 6e 32 83 be e0 ef e0 3d 73 c2 83 bd
       0.24330373 -0.25624412 0.109832525 -0.064335726
000360 23 3b 2c be b7 b3 f0 bd 84 41 df bc f0 b1 4f be
       -0.16819434 -0.11753028 -0.02725292 -0.20282722
000370 1a 98 a0 be 39 ca 17 3e 2d 45 54 bd 57 87 1b be
       -0.31366044 0.14823236 -0.051823784 -0.15188347
000380 42 01 15 be ce e3 13 3e 9f 10 82 3c 2b d5 ca be
       -0.14551261 0.1444237 0.015877066 -0.3961576
000390 42 c1 1d 3e 4d 3a 81 3d a5 9f 15 3b 4c 3a cd bd
       0.15405753 0.06309948 0.0022830751 -0.10020885
0003a0 2e 6f a6 bc 62 1e a5 3d ab 45 aa 3d 3a 92 1a 3e
       -0.020316686 0.08062436 0.08314069 0.15094844
0003b0 d0 f1 32 3d 69 82 10 be 3b e8 18 3e 58 ac a4 3d
       0.04368764 -0.14112248 0.14932339 0.080406845
0003c0 20 23 54 be ff 19 00 be 74 31 60 3c 04 31 91 3d
       -0.20716524 -0.12509917 0.013683666 0.07089427
0003d0 f5 ae 10 be df 68 b1 bd 88 58 e0 3c c4 c2 0b be
       -0.14129241 -0.08662581 0.027385965 -0.13648516
0003e0 97 47 9c 3e f4 ee 72 3e f3 f2 42 bd 59 3e 56 bd
       0.3052337 0.23723966 -0.047594976 -0.052305553
0003f0 9d 22 7a be c0 73 38 bd 37 0b 0b be a5 99 b0 be
       -0.24427266 -0.045032263 -0.13578497 -0.3449222

convs.1.lin_l.weight f4 [40, 32]
000000 9d 1f 16 be 22 d3 25 be 85 f3 0c bc 5f ed 34 be
       -0.14660497 -0.16193822 -0.008602981 -0.17668675
000010 2e b5 23 be af 07 1b be f7 f9 a2 bc ce 45 57 3e
       -0.15987083 -0.1513965 -0.019894583 0.21022722
000020 4f 0e 78 3e 3f c6 74 be 4e 7e a6 3b 4b 1b 4e bd
       0.24224208 -0.2390375 0.0050809747 -0.050318997
000030 f1 5a 58 bd fd 34 95 bd fc 1c 7e 3e 91 ca 8f be
       -0.052821103 -0.07285497 0.24815744 -0.28084233
000040 44 50 d2 bd 9f 16 28 3e a0 1d 40 3d 7c 7d 0c bc
       -0.10269216 0.1641488 0.046903253 -0.00857484
000050 91 f4 8e be b7 06 0f be 42 94 01 be 58 ce 1e 3e
       -0.27920964 -0.13967405 -0.12654212 0.15508401
000060 5d 29 b3 be b4 35 8f bc 44 61 34 3e a1 09 9b bd
       -0.34992495 -0.017481662 0.17615229 -0.07570196
000070 6e 58 18 bd 2b 83 9f be ee ea 0c be 25 33 72 3d
       -0.037193708 -0.3115476 -0.13761494 0.059130806
000080 d2 be 45 3e f9 67 7f 3e 0a 60 b9 bb 37 65 43 3d
       0.19311073 0.24942006 -0.0056572007 0.047703948
000090 ea 22 fb 3d a0 8a 74 bd 68 23 68 3c f8 f9 1f 3d
       0.12262519 -0.059702516 0.014168598 0.03905675
0000a0 64 f1 f1 3d da f6 6d bc c6 f9 9b be d7 44 4f be
       0.1181362 -0.014524186 -0.30464 -0.20241104
0000b0 a8 4d 10 be ce 50 1b be f5 89 9b 3d 01 20 ad 3c
       -0.14092124 -0.15167543 0.075946726 0.021133425
0000c0 25 33 fa bc e4 76 22 bd 65 45 f0 3c 4f 27 b6 be
       -0.030541966 -0.039664164 0.029329965 -0.35576865
0000d0 fc 43 8c 3d ce 21 2b 3d 26 f6 89 bd 0f 7f cd 3d
       0.068489045 0.041780286 -0.06736402 0.10034
0000e0 79 08 89 be 88 de a5 be 65 fe 32 bd 4c 25 8f 3d
       -0.26764277 -0.3239634 -0.04369964 0.06989536
0000f0 48 72 ba 3d de 5c f7 bd 8b 22 44 be af d2 9d be
       0.09103829 -0.1207826 -0.19153802 -0.308248
000100 fc 07 db bd af 35 b9 bd 2a 1e 74 3e a0 77 91 3d
       -0.10694882 -0.090434425 0.23839632 0.07102895
000110 c6 7e 83 3d ae d9 3b be 1a 5d de 3e eb e0 8f be
       0.064206645 -0.18344757 0.43430406 -0.28101286
000120 88 23 e1 bd fd 91 e8 bd be 14 96 bd 16 ef 10 be
       -0.10993105 -0.1135597 -0.07328175 -0.14153704
000130 ce db 80 be 4f cb b0 bd f7 d5 58 be 80 a2 5a bd
       -0.25167698 -0.08632528 -0.21175371 -0.05337763
000140 27 5e 14 be 6f d3 d1 bd 2c 6b 11 be 97 bc 78 bd
       -0.14489041 -0.10245406 -0.14201039 -0.06072673
000150 28 a7 86 be 5c 43 76 bd 4e 1d 4b 3e a7 20 8e 3d
       -0.26299405 -0.060122833 0.19835398 0.06939822
000160 8c 96 c7 bd 32 90 99 be 48 6b ae be 1a 29 5e be
       -0.097455114 -0.29992825 -0.34066224 -0.21695367
000170 33 ab b8 bc 3c 16 14 3e 00 86 bf 3e e6 c8 c3 3e
       -0.022542572 0.14461607 0.3740692 0.3823921
000180 ed a2 c1 3e 6d cc c3 bd 9f 63 d7 3c bf 3b f1 bd
       0.37819615 -0.095604755 0.02629262 -0.11778974
000190 80 76 29 3e bd d5 a7 bd 2e 73 f4 bd cc a3 2d 3e
       0.1654911 -0.08195064 -0.11936031 0.16957015
0001a0 9f 61 7b be 0c c7 6e be b6 2c 57 be 5a 95 ee 3d
       -0.24548958 -0.23318118 -0.2101315 0.1164958
0001b0 3b dc 0d be da 97 58 3d 1d ee 68 be 0a 58 c0 3e
       -0.13853543 0.052879192 -0.22747083 0.37567168
0001c0 98 0c 87 3e ec 82 86 be 3d d9 39 be 4a 71 91 be
       0.26376796 -0.2627176 -0.18149276 -0.28406745
0001d0 9f 19 47 3d 9e 10 a1 be 97 70 cf bd d7 ee ce be
       0.04860842 -0.3145799 -0.10128897 -0.40416595
0001e0 26 11 1f 3e ae 27 43 be cb 60 d0 be 6a 28 f8 3d
       0.15533885 -0.19058105 -0.40698847 0.12117083
0001f0 f8 49 01 bd 8c 94 b1 3e 8c e6 e6 be a6 e6 14 be
       -0.031564683 0.34683645 -0.45097768 -0.1454111
000200 7a 24 e1 3e 7b 38 ba 3e d7 39 4d be 58 5c 8e be
       0.43973142 0.36371216 -0.20041595 -0.27804828
000210 d0 b5 6d 3a ff aa 7e be 8b 41 ec bd b2 ac 09 be
       0.00090679247 -0.24869917 -0.11535939 -0.13444784
000220 70 b2 ac bb ea 8f 8b 3e 8f 4d bc bd ca f2 e7 be
       -0.005270295 0.27258235 -0.09194481 -0.4530242
000230 96 ea c9 3c 0f f3 28 be d3 8e 3b 3d 7c 9a 7e bd
       0.024647992 -0.1649897 0.045790505 -0.062159047
000240 dd 16 16 3e 40 82 f4 3d 78 f6 69 3e e8 fe 16 be
       0.14657159 0.11938906 0.22847927 -0.14745677
000250 cc 22 95 3d 6d d4 7d 3e d0 4d 18 3e 32 e9 b7 3e
       0.072820276 0.24788065 0.14873433 0.359201
000260 75 23 60 be 5a 29 ea be 50 fe c7 bd 01 ab 2c be
       -0.21888526 -0.45734674 -0.09765303 -0.16862108
000270 5f d6 da be ba 3f 5d be e3 b5 36 be 95 48 f9 bd
       -0.42741677 -0.21606341 -0.17842822 -0.12172047
000280 f7 39 30 bd 8e b2 a7 3e 3a 4b 89 be 66 41 48 be
       -0.04302403 0.32753414 -0.26815206 -0.19556198
000290 a6 e2 95 3e a3 95 49 3d 4a 0c a3 3c 57 f6 cb 3e
       0.29274482 0.04921497 0.01990332 0.3983638
0002a0 2c cf 5c 3e e7 d0 24 be d9 e0 9e be 6c c0 74 be
       0.21563405 -0.16095315 -0.3103092 -0.23901528
0002b0 11 cd 86 bc 10 69 c7 be 6a 1d 5e bd f0 c6 58 be
       -0.016455205 -0.38947344 -0.05422727 -0.21169639
0002c0 5c e9 b1 be c0 cd 3b be dc c0 2d be e6 a3 29 be
       -0.34748352 -0.18340206 -0.16968101 -0.16566429
0002d0 80 2d 94 3e 88 2c 8d 3d b2 80 72 bd c2 60 27 3d
       0.28940964 0.06893259 -0.059204765 0.04086376
0002e0 a8 6a 21 3e c0 42 f6 3d 49 9f 31 3d 8b cf 19 be
       0.15763342 0.1202445 0.043364797 -0.15020578
0002f0 fa 3e 63 bd 91 65 59 be aa 0e 9e 3d 7b e8 b1 be
       -0.05547998 -0.21230151 0.07717641 -0.3474768
000300 1a f9 95 3e 0c 7c cd bd bd 5f 72 3e 34 a2 5e be
       0.29291612 -0.10033426 0.23669334 -0.21741563
000310 16 6f c5 3d 08 9b 9e be 4e 0a 0e 3e 8e 3d 2c be
       0.096403286 -0.30977654 0.13871118 -0.16820356
000320 8b 09 b3 be 94 31 82 bd 54 35 ab be 20 a1 d8 3e
       -0.34968218 -0.063571125 -0.33439124 0.4231043
000330 aa 9a 87 be 1d 60 e2 bc 2c 53 d5 be c8 5f c9 3e
       -0.26485187 -0.027633721 -0.41665018 0.39330888
000340 da a5 b6 bd 1f 58 78 be dc 9f 68 bd 37 c3 a3 bd
       -0.089183524 -0.24252366 -0.05679308 -0.07996219
000350 5c e6 59 bd ba 4f 39 be 1a bf 9d bd a2 4f 00 be
       -0.053198203 -0.1809682 -0.07702465 -0.12530378
000360 c1 69 12 3e a7 19 aa be 8b bf 87 be 17 e6 08 3f
       0.14298154 -0.33222696 -0.26513323 0.5347609
000370 ff 74 97 be ab 7e d8 3d 37 19 87 be 00 67 1c be
       -0.29581448 0.10571035 -0.26386425 -0.15273666
000380 17 1d 55 be 6a cc 84 bd 57 fc 3d 3b 59 f6 04 be
       -0.20811878 -0.064843014 0.0028989518 -0.12984599
000390 1f 92 44 3d c5 49 23 3e ad e9 21 ba 9e 95 b0 3e
       0.047990914 0.1594611 -0.0006176483 0.3448915
0003a0 04 0f bd 3e e1 ab 5c 3c 42 25 03 be 74 44 c2 3c
       0.3692552 0.0134687135 -0.12807181 0.023714282
0003b0 d9 28 0c be 2a 4b 19 3d 6f c6 d3 3d 6d e8 e1 bd
       -0.13687457 0.037425198 0.103405826 -0.1103066
0003c0 f0 e0 29 bd b8 89 9b 3d 2b 30 4e be f0 20 1d 3e
       -0.041474283 0.07594627 -0.20135562 0.15344596
0003d0 31 82 04 be ff 1e 9b be 08 85 53 be 19 47 dd be
       -0.12940289 -0.30297086 -0.20656216 -0.43218306
0003e0 28 2a 3d be 35 8a 8c bd 94 dc 49 3c f8 63 25 bd
       -0.18473113 -0.068622984 0.012320656 -0.04037854
0003f0 4c cc cd bd 4c 9f f2 bd 53 fc 9b bd 90 ff bc bd
       -0.10048732 -0.1184679 -0.076164864 -0.09228432

convs.1.lin_l.bias f4 [40]
000000 94 df d2 3c 57 fb c9 bd a8 a1 2c 3e 39 14 1d 3e
       0.025741376 -0.098623924 0.16858542 0.15339746
000010 66 3a c2 bd 61 79 ea 3c 94 c0 10 3d 8f 3a 89 bd
       -0.09483795 0.028622331 0.035339907 -0.06700622
000020 c4 89 4c 3e f9 9d 46 3d ab 01 a5 3d df 99 ba bc
       0.19974428 0.0484905 0.08056959 -0.02277845
000030 ec 3b ea bd 85 e2 3a 3d 30 65 a0 3d fa 84 cc bd
       -0.114372104 0.045626182 0.078318 -0.09986301
000040 2f cd d9 3d 2e 4e 6a be 6a 7a 55 be f1 9c 93 bc
       0.10634839 -0.22881386 -0.20847479 -0.018019171
000050 fa af 85 3d 35 3f 4d be 39 74 e7 3d 3b 11 22 be
       0.065277055 -0.20043643 0.113014646 -0.15826885
000060 d2 4f 12 bd 54 c7 6c be 83 b9 fd 3d 36 c3 a2 bd
       -0.035720654 -0.23122913 0.12388899 -0.0794739
000070 f7 0c e7 3d d0 d7 bc 3d e9 07 4f be fc 10 63 be
       0.1128177 0.092208505 -0.20217861 -0.22174448
000080 36 7f 10 be 1a 35 df 3d 6a 09 ac 3d d1 36 a4 3d
       -0.14111027 0.108988 0.08400233 0.08018268
000090 2e ef 87 bc cf 93 74 be e2 07 2f 3d df 1a 9f bd
       -0.016593542 -0.2388451 0.042732127 -0.07768797

convs.1.lin_r.weight f4 [40, 32]
000000 f3 ec 4b be 85 ca 48 bb 46 6a a2 be 94 de 64 bd
       -0.19914608 -0.003063829 -0.31721705 -0.05587633
000010 25 a8 50 be 3c 7d 75 bd 62 ce b8 be 6f 48 ef 3d
       -0.20376642 -0.059933886 -0.36094958 0.116837375
000020 5c a8 8a 3e b5 14 06 be 9d cc ae 3d 0d 97 d2 3c
       0.27081573 -0.13093837 0.08535121 0.025706792
000030 a6 50 27 bc b6 be 88 bd 9d b1 32 3e 55 73 b0 be
       -0.010212099 -0.06677 0.17450567 -0.3446299
000040 93 2d 95 be ec 8b 28 bd 65 a3 87 bd 0e dc 44 3e
       -0.29136333 -0.041149065 -0.06622962 0.19224569
000050 63 d2 ee bd 80 fa 9b bd dc 2d bf bd fd 95 91 bd
       -0.11661222 -0.076161385 -0.09334919 -0.07108686
000060 b6 55 4d be 22 94 10 3e 19 b1 4e 3e 32 7f a8 be
       -0.20052227 0.14119008 0.20184745 -0.32909542
000070 7a 6e 81 be 05 95 93 be 03 40 05 bd 33 e9 87 3d
       -0.252796 -0.2882463 -0.03253175 0.06636276
000080 8b a6 42 3e 92 58 52 3e 94 db f0 bd 78 21 81 be
       0.19008844 0.205416 -0.11760631 -0.25220847
000090 61 cc dc bd 75 5e 5b bd 64 d8 37 be f0 6c 12 be
       -0.1078117 -0.053556878 -0.1795364 -0.14299369
0000a0 e7 8e ae bc f3 cf 0f 3e 0a 3c b1 bd 70 f0 ca bd
       -0.021308376 0.1404417 -0.0865403 -0.09909141
0000b0 ca 98 e0 bd f7 78 28 3e c2 2a 20 be 70 ec 9f bb
       -0.10966642 0.16452394 -0.15641311 -0.0048804805
0000c0 40 ea 85 3c 13 46 da bd 2d 4d 1c 3e 92 e7 57 be
       0.01634705 -0.10657897 0.15263815 -0.21084431
0000d0 41 05 c3 3d 52 dd f1 3b be cf e8 bd e8 d1 92 3c
       0.095224865 0.0073811198 -0.11367749 0.017922357
0000e0 8d a4 b5 bd 17 5e 8b bd 0b 48 e9 bc b2 ac 15 be
       -0.08869276 -0.068050556 -0.028476736 -0.1461666
0000f0 90 0b cf bd e1 a7 5a bd 77 93 85 be c1 2c fb bd
       -0.10109627 -0.053382758 -0.2608907 -0.122643955
000100 9b 45 03 be a1 8e 79 3b e7 2a c3 3e 5c e6 b2 3d
       -0.12819521 0.0038079398 0.3811867 0.08735344
000110 ff d7 1e 3e f7 f8 2a bd bb 2d e2 3d ca 2e 4c be
       0.15512083 -0.041741338 0.11043879 -0.19939724
000120 73 99 a9 bd e9 d9 77 be 77 22 f7 3b 93 3e 58 be
       -0.08281221 -0.2420422 0.0075419503 -0.2111762
000130 61 47 5b be c7 5c 8f be 64 e2 38 3e a4 41 82 be
       -0.21413948 -0.2800047 0.18055111 -0.25440705
000140 34 01 f1 bc 97 c4 00 be 9a 76 48 be e3 69 0d 3e
       -0.029419519 -0.12574993 -0.19576493 0.13809924
000150 a5 79 23 be 70 50 83 3d b9 75 0c 3e 1b 49 69 3e
       -0.15964372 0.064118266 0.13716783 0.22781794
000160 24 1a a8 3c 6a 01 a7 be 12 e7 94 be 43 91 94 3e
       0.020520277 -0.32618266 -0.29082543 0.29017076
000170 5e c9 22 be d0 ec e2 3d c7 41 a5 3e 3c 83 c5 3e
       -0.15897128 0.11080325 0.32276747 0.38576686
000180 59 63 1d 3e b3 f1 b6 bd b0 cf 5b be ca 9e b8 be
       0.1536993 -0.08932819 -0.21465945 -0.36058646
000190 8d 1b 29 3e 4a ec 48 be d9 10 29 be 50 c7 d8 bd
       0.16514416 -0.19621387 -0.16510333 -0.10584891
0001a0 6e 92 c2 be e6 52 7f be e7 a2 9c be 48 f8 b9 3e
       -0.38002342 -0.24933967 -0.30593035 0.36322236
0001b0 8d 55 5b be 79 00 b0 bd 40 d5 88 be 63 15 ff 3d
       -0.21419354 -0.0859384 -0.26725197 0.12455251
0001c0 fd 00 d8 3d 76 ae b4 be 71 e4 a2 bd a2 f0 28 be
       0.105470635 -0.35289353 -0.07953728 -0.16498044
0001d0 81 5c c4 bd fb 51 a0 be 1e 84 d7 bc 11 53 aa be
       -0.09587956 -0.31312546 -0.026308116 -0.332665
0001e0 03 42 bb bb 34 dd 40 be 66 d9 d1 be 9d ce 47 3e
       -0.0057146563 -0.18834382 -0.40986174 0.1951241
0001f0 9b b0 16 be 8a 5a 93 3e 2a 50 3c be e8 27 c3 be
       -0.14715807 0.28780013 -0.18389955 -0.38116384
000200 aa 58 f8 3e 53 7f 86 3e 53 21 26 bc 22 39 94 be
       0.48505145 0.26269016 -0.010139781 -0.2894984
000210 09 d9 22 3e 56 e5 3f be 5c 3e 17 be 4c f6 3d 3e
       0.15903105 -0.18739828 -0.14769882 0.18550986
000220 0f b7 ab bd ad 11 bf 3d a3 aa c7 bd fe 46 a1 be
       -0.08384525 0.09329543 -0.09749343 -0.31499475
000230 0c 4d c9 3d 9c 01 9f be 0f ed 35 be a1 8d 6a be
       0.09829149 -0.31055915 -0.17766212 -0.2290559
000240 c4 f9 b1 3e fd 54 51 3e 23 3e 28 3c d7 7c c5 be
       0.3476087 0.20442577 0.010268721 -0.38571808
000250 25 fc d8 3e 48 fb 3e 3e 1e e6 77 3e 72 9f c4 3e
       0.4237987 0.18650544 0.24208876 0.38402897
000260 16 6a 05 be 1b fc 35 be d9 b8 27 be 9a 95 d1 3d
       -0.1302875 -0.17771952 -0.16379108 0.10233612
000270 8b 36 85 bd 69 98 03 3d 7a 5b ab be 25 ae a3 bd
       -0.06504544 0.03212777 -0.3346823 -0.079922
000280 3e 49 2b be 9f 9d 8f 3e 04 d2 97 be 65 76 09 3d
       -0.16727158 0.28049943 -0.29652417 0.033560175
000290 35 a3 6e 3e a2 45 b7 3c fb a5 a3 3e 3b 0e e8 3e
       0.23304446 0.02237207 0.3196257 0.45323357
0002a0 66 29 a7 3e 51 7a 4b 3e 61 d8 9c be 00 8a fa bd
       0.32648772 0.19870879 -0.30633834 -0.12233353
0002b0 8f 73 8f 3e 96 d5 98 be 9c e5 c5 be f0 d4 05 be
       0.28017852 -0.29850453 -0.3865174 -0.1306951
0002c0 ca 28 54 be 59 e3 77 bd 59 4e 74 bd 85 74 5c be
       -0.20718685 -0.06051955 -0.05964503 -0.21528824
0002d0 2d 5f f3 3d c7 96 8c 3e b1 01 33 be d8 45 b2 3d
       0.11883388 0.27458784 -0.17481114 0.08704728
0002e0 4d ee bb 3e e1 19 64 3d e7 63 ad 3d 62 7e 60 be
       0.36705247 0.055688743 0.084663205 -0.21923211
0002f0 60 09 a0 be 34 9d ba 3a b0 ee 0f 3c 1d e1 7b be
       -0.31257153 0.0014237524 0.008784935 -0.24597593
000300 5b 5e 71 3e cf 72 d2 bd 8e 84 99 3d fc 4d 2e bd
       0.2357115 -0.10275804 0.07495986 -0.04255484
000310 2a 0f 77 3e a6 e8 92 be 5f c7 19 3d 15 77 9e bd
       0.24126878 -0.28693122 0.03754365 -0.07737557
000320 2a 56 b6 be 6e 4c 4e be 69 d1 2e be b5 ac 80 3e
       -0.35612613 -0.20146343 -0.17072071 0.25131765
000330 db eb 82 be 83 4f 38 be da 0b dc be e2 b8 23 3e
       -0.25570568 -0.17999081 -0.42977792 0.15988496
000340 04 8b 8a be 07 64 5e be 2d 25 8f be 72 69 1f be
       -0.27059186 -0.21717845 -0.2795805 -0.15567568
000350 66 7c 68 be 78 6d ac be 1f d0 7c be 5d 84 d2 be
       -0.22703704 -0.33677268 -0.24688767 -0.4111661
000360 0d 1b 01 3e 3b aa cd be f3 04 ac be 27 98 ad 3e
       0.12607975 -0.40168938 -0.33597526 0.33905146
000370 22 a0 41 be d3 50 cb 3d 37 88 82 bd bb 45 a2 be
       -0.18908742 0.09927525 -0.06373637 -0.31693825
000380 fe b7 bd bc 9a e6 99 bd 87 67 9d bc 3b d2 53 be
       -0.023159023 -0.07514687 -0.019214405 -0.20685665
000390 f4 7a 37 be 0b df 37 be 0e 72 22 3e 28 6e 0b bd
       -0.17917997 -0.17956178 0.15863821 -0.0340406
0003a0 19 7b 86 3e 80 66 73 be d2 55 da bd 83 c2 bd 3d
       0.2626579 -0.2376957 -0.106609 0.09265616
0003b0 09 78 65 be 96 db 3f 3d cf a3 59 bb 27 0d 8c be
       -0.22409071 0.046840273 -0.003320921 -0.27353784
0003c0 64 12 e3 3c d3 f0 f0 3d 51 83 8a be 23 2d 3f bd
       0.02771873 0.117646836 -0.2705331 -0.046673905
0003d0 b1 ff 96 bc f9 2e a0 be 59 ff 5f be 52 5a a3 bd
       -0.01843247 -0.31285837 -0.21874751 -0.079762116
0003e0 2a 46 ba bc ec e2 7e 3d 90 f0 29 3d cc 5d e8 bd
       -0.022738535 0.06222813 0.041489184 -0.11346015
0003f0 1d d7 f5 bd 92 78 f1 3a 00 74 42 3d 4a 0d 2e bd
       -0.1200392 0.0018422774 0.047473907 -0.042493142

bns.0.weight f4 [32]
000000 0a fc a6 3f bb 5c a0 3f 65 85 9c 3f 39 2a ab 3f
       1.3045666 1.2528299 1.2228209 1.337226
000010 56 b0 a6 3f 52 dd a0 3f f7 6f ac 3f a6 68 95 3f
       1.3022563 1.2567542 1.3471669 1.1672561
000020 5d 1f b0 3f ef 04 98 3f 48 f5 a6 3f be 1e 9a 3f
       1.3759571 1.1876506 1.3043604 1.2040632
000030 5e 53 93 3f 51 ac b2 3f 38 24 a1 3f da e7 9c 3f
       1.1509817 1.3958837 1.2589178 1.2258255
000040 05 1e a4 3f f0 2b 94 3f 87 39 90 3f ed 68 9d 3f
       1.2821661 1.1575909 1.1267556 1.2297646
000050 31 7d a8 3f c4 dc 98 3f ab a8 9d 3f ed ab aa 3f
       1.3163205 1.1942372 1.2317098 1.3333718
000060 d1 7c ae 3f d4 f0 a5 3f a2 13 a0 3f fa 3e 8a 3f
       1.3631841 1.296412 1.2505991 1.0800469
000070 09 2c 98 3f 92 9c a4 3f 26 fc ac 3f ee c1 91 3f
       1.1888438 1.2860281 1.351445 1.1387308

bns.0.bias f4 [32]
000000 99 02 7e 3e 6f 90 85 3e e5 92 46 3e 3d 72 93 3e
       0.24805678 0.26086757 0.19391973 0.28798094
000010 cb f0 81 3e 9d db 84 3e 2f 86 94 3e 3b d1 fb 3d
       0.25379023 0.25948802 0.29008624 0.12295767
000020 21 7e a4 3e 9f 76 59 3e 16 54 86 3e 7c 1a 27 3e
       0.3212748 0.21236657 0.26236027 0.16318697
000030 68 e6 36 3e 80 f8 9e 3e 9e 91 37 3e e0 b9 bf 3d
       0.1786133 0.31048965 0.17926642 0.09361625
000040 d0 45 76 3e 39 c9 0e 3e 4f 08 2e 3e e6 bf 1a 3e
       0.24050069 0.13943948 0.16995357 0.15112266
000050 be 30 98 3e a0 89 60 3e e6 ad 28 3e c9 e1 96 3e
       0.29724687 0.219275 0.16472587 0.29469135
000060 04 43 84 3e b5 39 9c 3e 3c f8 70 3e ad 22 b2 bd
       0.2583238 0.30512777 0.23532194 -0.0869802
000070 1e 36 4d 3e 3e 1f 99 3e 38 6d 8a 3e dd 45 0b 3e
       0.20040175 0.29906648 0.27036452 0.1360087

bns.0.running_mean f4 [32]
000000 a1 fa df ba cf aa 5f be f8 80 06 be 37 e4 be be
       -0.0017088243 -0.21842502 -0.13135135 -0.3728349
000010 a2 c6 09 bf ff 8a 43 be fc 77 fc bb f0 69 9e be
       -0.53818715 -0.19095992 -0.007704733 -0.309402
000020 af 9e 61 be ac e3 79 3e d7 89 26 be 21 9b 33 be
       -0.22033189 0.24403256 -0.16263519 -0.17539646
000030 d3 c9 41 bd 29 71 24 be 24 87 7f be 19 ff 97 be
       -0.047311615 -0.16058792 -0.24953896 -0.29686812
000040 94 96 ae 3d df f2 b6 be 2d 43 b7 3d a6 68 e0 be
       0.08524814 -0.3573217 0.0894836 -0.4382984
000050 18 46 25 be b9 85 81 3f 8e 13 33 be 8c 5b 6f 3e
       -0.1614002 1.0118934 -0.17487928 0.23374766
000060 65 20 06 bf 1b 06 a5 be a4 d8 ce 3e 05 c2 04 bf
       -0.5239318 -0.3223122 0.4039966 -0.5185855
000070 bd a4 2c 3e 1a 95 52 be e0 37 d9 bd d0 3e ea be
       0.16859718 -0.2056469 -0.106063604 -0.45751047

bns.0.running_var f4 [32]
000000 b6 72 8a 3d be 6e 01 3e 8e f0 f4 3d 30 ed 98 3d
       0.067601606 0.12639901 0.11959945 0.07467115
000010 c4 df df 3d 43 b6 12 3e 44 fc 8f 3d 84 3f 02 3e
       0.10931352 0.1432734 0.07030538 0.12719542
000020 9a 9f 76 3d 9a c6 33 3e da 43 bb 3d 44 8a 0a 3e
       0.0602108 0.17556229 0.09143801 0.13529307
000030 21 35 49 3e 63 6b d6 3d 02 c9 2e 3e 2f d6 f0 3d
       0.19649173 0.10469701 0.17068866 0.11759602
000040 30 47 da 3d 3d ba 30 3e 8b a1 4d 3e a9 51 0b 3e
       0.10658109 0.17258544 0.20081155 0.1360537
000050 c1 0b b6 3d 4d 84 4a 3e a5 e0 1d 3e a9 0a 76 3d
       0.08888961 0.19777031 0.15417726 0.06006876
000060 79 0a b5 3d 63 c0 8c 3d cc b7 67 3e 98 54 44 3e
       0.08839888 0.06872632 0.22628707 0.19172895
000070 36 da 5b 3e 6e 19 c8 3d 53 ae cc 3d c9 d1 48 3e
       0.2146996 0.09770475 0.09994187 0.19611277
