saved/arxiv_best_wobns_hidden_256/directed_ogb-arxiv_GCN_s9.pt (torch, 175243 bytes, 4 tensors)

layers.0.bias f4 [256]
0	0xbda37b54	-0.07982507
1	0x3cfd1202	0.030892376
2	0x3d253bbc	0.04034017
3	0x3d4c43c6	0.04986932
4	0xbd7c1f5e	-0.06155335
5	0x3c530700	0.012880087
6	0x3da69d75	0.08135501
7	0x3e5718e4	0.21005589
8	0xbd802c8a	-0.06258495
9	0x3d3cb8fa	0.046074845
10	0xbd776602	-0.060400017
11	0xbdc459fb	-0.09587475
12	0xbd75da26	-0.060022496
13	0xbd7f5cad	-0.062344242
14	0xbcc74c3f	-0.02432835
15	0x3d06b122	0.03288377
16	0xbe0bb729	-0.13644089
17	0xbe52b16f	-0.20575498
18	0xbd7b363e	-0.061331026
19	0xbd76ebfc	-0.060283646
20	0xbd86d01e	-0.06582664
21	0xbd6e2484	-0.058140293
22	0x3d86f9e6	0.06590633
23	0xbca13567	-0.019678785
24	0xbdad1967	-0.08452111
25	0x3c3357af	0.010946198
26	0xbcf75fcb	-0.030197045
27	0x3d5335fb	0.05156515
28	0x3cc401f4	0.023926713
29	0x3d39909d	0.04530393
30	0x3cedf519	0.029047536
31	0x3d098c0d	0.03358083
32	0xbc921e9a	-0.017836858
33	0xbd77af33	-0.060469817
34	0xbd643cfd	-0.055722225
35	0x3da874cc	0.08225402
36	0xbd5b2200	-0.05349922
37	0xbd779a1f	-0.060449716
38	0x3b7624f4	0.0037558647
39	0x3d13dbd7	0.036098327
40	0x3dc92525	0.09821538
41	0x3cb6bfb3	0.022308206
42	0xbd4e9050	-0.050430596
43	0x3d02c256	0.031923614
44	0xbd6cc9e1	-0.057809714
45	0xbd351309	-0.044207606
46	0x3d657fd5	0.056030113
47	0xbd36b660	-0.04460752
48	0x3d674185	0.05645897
49	0xbd82ae29	-0.06380875
50	0x3ca9434c	0.020661972
51	0xbd758597	-0.059941854
52	0xbd77f0e1	-0.060532454
53	0xbd0aacdf	-0.03385627
54	0xbcf96f8b	-0.030448696
55	0x3d2e6c7d	0.04258393
56	0xbd7a70cd	-0.06114273
57	0x3cad2a3f	0.021138309
58	0x3d1042cc	0.035219952
59	0xbd6fa80c	-0.05850987
60	0xbd8f4bff	-0.06996917
61	0xbd786029	-0.06063858
62	0x3d126a46	0.03574588
63	0x3d47e68b	0.048803847
64	0x3c085091	0.00831999
65	0x3d33c441	0.043888334
66	0x3d26f048	0.040756494
67	0xbd702171	-0.058625642
68	0xbd9540e4	-0.072877675
69	0xbd7879bf	-0.06066298
70	0xbc314aad	-0.010821027
71	0xbd6b8c4e	-0.05750685
72	0x3d530f03	0.05152799
73	0xbd6ab6e2	-0.057303317
74	0xbd80f922	-0.06297518
75	0xbd77fed7	-0.06054577
76	0xbd80b192	-0.06283869
77	0xbd756c4f	-0.059917744
78	0x3d9598c1	0.07304526
79	0xbc758f3b	-0.014987762
80	0xbd61c39d	-0.055118192
81	0x3cf02e66	0.029319
82	0x3c00be65	0.007857894
83	0xbd6e4ebb	-0.058180552
84	0xbddec978	-0.10878271
85	0x3c8df35e	0.01732796
86	0x3d732aa1	0.059366826
87	0xbcf0e4ce	-0.029405978
88	0x3c9b5e12	0.018965755
89	0xbc651f1d	-0.013984469
90	0xbd14c435	-0.03631993
91	0xbaeef2bc	-0.00182303
92	0x3d619eaa	0.055082954
93	0xbd78fc46	-0.06078746
94	0xbc561bbd	-0.013068137
95	0xbd734466	-0.0593914
96	0xbd807903	-0.06273081
97	0xbbcf8b00	-0.0063337088
98	0xbd157e19	-0.03649721
99	0x3df0b57c	0.117533654
100	0x3cc2f53c	0.023798577
101	0xbd9a9c75	-0.07549373
102	0x3d6366ec	0.055518076
103	0xbd73cad4	-0.059519604
104	0xbdebc779	-0.11512656
105	0xbdfe2855	-0.124100365
106	0x3bd6ecd5	0.0065589943
107	0xbca4ded2	-0.02012578
108	0x3c121e11	0.008918301
109	0xbd6e3fd7	-0.05816635
110	0xbd8d4b98	-0.06899184
111	0xbd77b6e3	-0.06047715
112	0xbd77326e	-0.060350828
113	0xbd6594f0	-0.05605024
114	0x3d7048ad	0.05866306
115	0xbd768752	-0.060187645
116	0xbe138607	-0.14406596
117	0xbd2815e0	-0.041036487
118	0x3d04d81c	0.03243266
119	0xbd364f41	-0.044509176
120	0xbd76ba1e	-0.06023609
121	0xbd815b82	-0.06316282
122	0xbb3c5b7f	-0.002874106
123	0xbec567c4	-0.3855573
124	0xbd946b15	-0.07246987
125	0xbd64b85a	-0.055839874
126	0x3d3a0dd9	0.045423362
127	0xbd758b26	-0.059947155
128	0x39be0ddb	0.00036249947
129	0xbd6c5a69	-0.05770341
130	0xbd54eac2	-0.051981695
131	0xbd6acf42	-0.057326563
132	0x3b5bd6c2	0.0033544754
133	0x3ca7d997	0.020489497
134	0xbe259658	-0.16170633
135	0xbd15a6be	-0.03653597
136	0xbd48915d	-0.048966754
137	0xbe20c647	-0.15700637
138	0xbd70f330	-0.05882567
139	0x3bd9c59f	0.0066458727
140	0x3d35a72a	0.044348873
141	0x3ddca94f	0.107744806
142	0x3b8f9680	0.0043819547
143	0xbd75d460	-0.06001699
144	0x3cb3dace	0.02195492
145	0x3d8d0239	0.068851896
146	0xbd529359	-0.051410053
147	0xbd77304f	-0.060348805
148	0x3bf488f9	0.0074626175
149	0x3d2f8355	0.042849857
150	0x3cee99c8	0.029126063
151	0xbce4e1de	-0.027939733
152	0x3cdd1565	0.02698774
153	0xbdd5295c	-0.10408279
154	0xbadda571	-0.0016910267
155	0xbd766fdb	-0.060165267
156	0x3d53f9b7	0.05175182
157	0xbb77de00	-0.0037821531
158	0xbd7992bb	-0.06093095
159	0xbe09d0c3	-0.13458543
160	0x3dc34917	0.09535425
161	0x3c59fcf4	0.013304938
162	0xbde721e9	-0.11285765
163	0x3d65b924	0.056084767
164	0x3c93cbb2	0.018041465
165	0xbd9312ae	-0.07181297
166	0xbc92fa1d	-0.017941529
167	0xbd7858a2	-0.0606314
168	0xbd31037d	-0.043216217
169	0xbd6111fd	-0.054948796
170	0xbd77c6df	-0.060492393
171	0x3dbdd83a	0.092697576
172	0xbcba129a	-0.022713948
173	0x3d657c4b	0.056026738
174	0x3d8204a9	0.06348545
175	0x3d018e06	0.031629585
176	0xbd504a08	-0.05085185
177	0x3d015171	0.03157181
178	0xbd2403f5	-0.040042836
179	0xbdaddc42	-0.084892765
180	0x3c84a122	0.016190115
181	0x3c80d1ac	0.01572498
182	0xbb1b0d4d	-0.002365905
183	0x3d951f34	0.07281342
184	0xbd1905ea	-0.037359156
185	0x3ba6bc56	0.0050883694
186	0x3d0f3450	0.034962
187	0xbd079fac	-0.03311126
188	0xbd6dc8fb	-0.058052998
189	0x3d2c99fe	0.042139046
190	0xbbf74139	-0.007545617
191	0x3cf3f397	0.029779239
192	0xbd48fe1b	-0.04907046
193	0x3d46960b	0.048482936
194	0xbd75df20	-0.06002724
195	0xbd70e31e	-0.058810346
196	0xbd686181	-0.056733612
197	0x3d8a0376	0.06738941
198	0xbdeb30ba	-0.11483903
199	0xbd432622	-0.04764379
200	0xbd784e9d	-0.060621846
201	0xbb85bc8a	-0.0040813135
202	0xbda0da5c	-0.07854149
203	0xbc9eccd2	-0.019384775
204	0x3d179f9f	0.03701746
205	0x3d8737af	0.06602418
206	0xbd0c9f58	-0.03433165
207	0x3d7568c9	0.059914384
208	0xbd9e9e8e	-0.07745086
209	0xbd02d543	-0.031941663
210	0x3d48a880	0.04898882
211	0xbd3cba33	-0.04607601
212	0xbd81bf52	-0.063353196
213	0xbd7648fa	-0.06012819
214	0x3d3baf53	0.0458215
215	0x3d35af4a	0.04435662
216	0x3d4b33b8	0.04960987
217	0xbd7138f2	-0.058892198
218	0xbd6d55c7	-0.05794313
219	0x3cc98ff8	0.024604782
220	0xbbe903ce	-0.0071110493
221	0x3acc7237	0.0015598004
222	0xbd6f9c7e	-0.058498852
223	0xbc0f0c2c	-0.008730929
224	0xbd75c590	-0.060002863
225	0xbd75c56b	-0.060002726
226	0x3cb348a8	0.021885231
227	0xbd08cbee	-0.033397608
228	0xbd4bac80	-0.049725056
229	0xbc00a365	-0.007851456
230	0xbb1187ef	-0.0022206267
231	0xbd700106	-0.058594726
232	0x3d6396d6	0.05556377
233	0xbd6b6306	-0.057467483
234	0xbd6d3e39	-0.05792067
235	0x3d08224a	0.033235826
236	0xbd6fd8bb	-0.0585563
237	0x3d35e582	0.04440833
238	0x3cc0af3f	0.023521064
239	0x3cc2b8c0	0.023769736
240	0xbd6cb7d6	-0.057792507
241	0x3ccbedb8	0.024893627
242	0xbd741423	-0.059589516
243	0xbd032882	-0.032021053
244	0x3d719351	0.058978382
245	0xbd7af4fa	-0.061268784
246	0xbdd16993	-0.10225215
247	0xba936280	-0.0011244565
248	0x3db15bc7	0.08660083
249	0xbd18502d	-0.037185837
250	0x3cc03ffc	0.02346801
251	0xbd7204f4	-0.059086755
252	0x3cab9a01	0.020947458
253	0x3b846f50	0.00404159
254	0xbd75c6e2	-0.060004123
255	0xbd71709e	-0.05894529

layers.0.lin.weight f4 [256, 128]
0	0x3ddacfcf	0.106841676
1	0x3dcbed42	0.09957363
2	0x3bbffdb9	0.0058591035
3	0x3da124c8	0.078683436
4	0x3e35558e	0.17708418
5	0xbaa5350b	-0.0012604309
6	0x3dff4b74	0.124655634
7	0xbca8e052	-0.020614777
8	0xbc050ac4	-0.0081202425
9	0xbcc4956c	-0.023997031
10	0xbdd3d079	-0.103424974
11	0x3e1239ac	0.14279813
12	0xbe41f73d	-0.1894197
13	0x3b543704	0.0032381425
14	0x3e0d4c29	0.13798584
15	0x3dea63da	0.114448264
16	0xbe43e470	-0.1913011
17	0x3d0584e1	0.032597426
18	0x3e2e8161	0.17041542
19	0x3e21ffbd	0.15820213
20	0x3e27e20f	0.16394828
21	0xbb808dd9	-0.0039231596
22	0x3de2a077	0.110657625
23	0xbe0b204d	-0.1358654
24	0x3e296e68	0.16546023
25	0xbd527a12	-0.051385947
26	0xbe1da6b9	-0.15395631
27	0x3e4164b3	0.1888607
28	0xbd1d290d	-0.038369227
29	0xbe2bce14	-0.16777831
30	0xbd0684e9	-0.032841597
31	0xbd6949b8	-0.05695507
32	0x3e216ffe	0.15765378
33	0xbe303712	-0.17208508
34	0x3e202b3a	0.1564149
35	0x3d0e6d3e	0.03477215
36	0x3d87484f	0.06605589
37	0x3dee79f2	0.11644353
38	0x3d7382e2	0.05945099
39	0xbe352d44	-0.17693049
40	0xbe31086c	-0.17288369
41	0x3de4f11e	0.11178802
42	0xbd438fad	-0.04774444
43	0x3deb8ced	0.11501489
44	0xbe1e2aca	-0.1544601
45	0xbb48a356	-0.0030614934
46	0xbc2e455f	-0.010636657
47	0x3dd18ba8	0.102317154
48	0xbded2a67	-0.11580353
49	0xbdd5ebae	-0.10445343
50	0xb89c8e6d	-7.4651885e-05
51	0xbd1312b7	-0.03590652
52	0xbd2836a7	-0.041067746
53	0xbcdfcd93	-0.027319705
54	0x3d9683d1	0.07349361
55	0xbd9988b7	-0.074967794
56	0x3de87ed2	0.11352314
57	0xbd1a0ff8	-0.037612885
58	0xbc92fd0d	-0.01794293
59	0x3e1d4c87	0.15361224
60	0x3d093e73	0.03350682
61	0xbe15c574	-0.14626104
62	0xbd5340b6	-0.051575385
63	0x3d9ce027	0.07659941
64	0xbde38006	-0.11108403
65	0x3d1f5cc3	0.038906824
66	0xbc899ddc	-0.016798906
67	0x3d33a640	0.04385972
68	0xbe300af4	-0.17191678
69	0x3dbad2b1	0.091222174
70	0x3d2083e7	0.039188292
71	0x3e06fd57	0.13182579
72	0xbdd97089	-0.106171675
73	0x3e0ebdf6	0.13939652
74	0x3dde4137	0.108522825
75	0x3e3efb0b	0.18650453
76	0xbe4a78e7	-0.19772683
77	0xbe483b2d	-0.19553824
78	0xbc1c27ec	-0.0095310025
79	0x3d7b61a5	0.061372418
80	0x3e441b24	0.19150978
81	0x3ce8b68f	0.028407363
82	0xbd93caba	-0.072164014
83	0xbd102ee6	-0.035200976
84	0xbe01d02f	-0.12677072
85	0x3d1afcb7	0.037838664
86	0xbd358ceb	-0.044323843
87	0xbd36eb88	-0.044658214
88	0x3d25b127	0.04045215
89	0x3c7d6802	0.015466692
90	0xbba8485e	-0.00513558
91	0x3e27fa37	0.16404043
92	0xbdfef5e0	-0.12449241
93	0xbd97059e	-0.07374118
94	0xbc1a8eb9	-0.009433442
95	0xbdf947d1	-0.12171901
96	0xbd5e3255	-0.05424722
97	0x3e16d8ba	0.14731112
98	0xbd7d195a	-0.061791755
99	0x3c59556b	0.013264994
100	0x3daa8d5d	0.08327744
101	0xbe3fe270	-0.18738723
102	0x3e1b3cd5	0.15159924
103	0xbcd2685b	-0.025684526
104	0x3d15dbf6	0.036586724
105	0x3d04e79a	0.032447435
106	0x3cd87ea1	0.026427569
107	0x3c9f0109	0.019409673
108	0x3c307667	0.010770417
109	0xbe01f886	-0.1269246
110	0xbbddef22	-0.0067728916
111	0xbdcdb2ec	-0.10043892
112	0x3d2ec818	0.042671293
113	0xbe39d494	-0.18147498
114	0x3a8b7ae7	0.0010641486
115	0xbd93f621	-0.0722468
116	0xbda221a0	-0.0791657
117	0xbd9ab632	-0.07554282
118	0xbbacb92e	-0.0052710986
119	0xbde8ad72	-0.11361207
120	0x3cad840a	0.021181125
121	0x3e1802da	0.14844838
122	0xbe47fc18	-0.1952976
123	0x3e2cd384	0.16877562
124	0xbd6011b4	-0.054704383
125	0xbd8956c1	-0.06706
126	0xbc9c89ae	-0.01910862
127	0x3db883e6	0.09009533
128	0x3cb7059c	0.022341542
129	0xbe3191d9	-0.17340793
130	0x3e2f96cc	0.17147368
131	0x3ea4f2e7	0.3221657
132	0x3eb4d560	0.35319042
133	0xbed68d6b	-0.41904768
134	0xbead747a	-0.33877927
135	0x3e4c38c4	0.1994353
136	0x3dcb7cd7	0.09935921
137	0x3e06c1ba	0.13159838
138	0xbdb657dc	-0.089034766
139	0x3df00db4	0.11721364
140	0xbe6ce891	-0.23135592
141	0x3ea0604a	0.31323463
142	0x3e532a13	0.20621519
143	0xbe9d969c	-0.30778968
144	0xbe49c747	-0.19704925
145	0x3e29e9d8	0.1659311
146	0xbdf145a0	-0.11780858
147	0xbd9d129a	-0.076695636
148	0x3d061c23	0.032741677
149	0x3deef86a	0.11668475
150	0xbcf6c9de	-0.030125555
151	0x3e17b2ed	0.14814349
152	0xbed2cb8e	-0.41170925
153	0x3d45bf5b	0.048278194
154	0xbcc89b35	-0.024488071
155	0xbe6f1db8	-0.2335118
156	0x3d271472	0.040790983
157	0xbd8da8d1	-0.06916965
158	0x3e2d1776	0.16903481
159	0x3e2fca7d	0.17167087
160	0xbd9ccfd6	-0.07656829
161	0x3bb688ca	0.0055705057
162	0xbe681d0b	-0.22667329
163	0x3ea732b0	0.3265586
164	0xbe3d910c	-0.18512362
165	0xbe683758	-0.22677362
166	0xbd3a7054	-0.04551728
167	0xbeb2b142	-0.34900862
168	0x3d8ae21f	0.067814104
169	0x3d969c0a	0.07353981
170	0x3e318ec8	0.17339623
171	0xbe04db20	-0.12974215
172	0xbeaba0b8	-0.33521056
173	0x3de3c171	0.111208804
174	0x3e64aed2	0.22332314
175	0x3d47b5d3	0.048757385
176	0xbc153c80	-0.009108663
177	0x3e0b5557	0.13606773
178	0xbe552e95	-0.20818551
179	0xbeadb5d6	-0.33927792
180	0xbe8b75d1	-0.27238324
181	0xbdbe51cf	-0.092929475
182	0x3ccef14b	0.025261542
183	0x3e369bb4	0.17832834
184	0x3ea98954	0.33112586
185	0xbdce42ec	-0.10071358
186	0x3eadead5	0.33968225
187	0x3e758c2d	0.23979254
188	0xbc8f563e	-0.017497178
189	0xbe957644	-0.29191792
190	0xbdeb3b2d	-0.11485896
191	0xbbce2533	-0.0062910556
192	0xbb121869	-0.0022292382
193	0xbe010652	-0.12600067
194	0x3eaef8e7	0.34174272
195	0xbcf15fe6	-0.029464673
196	0x3e6cb027	0.23114072
197	0xbe74f599	-0.23921813
198	0xbe88e9c6	-0.26740855
199	0xbe4b8f2b	-0.19878833
200	0xbe0e0fe9	-0.13873257
201	0xbe49aede	-0.19695613
202	0x3dacb69e	0.08433269
203	0xbc95b023	-0.018272465
204	0x3e50ca56	0.20389685
205	0x3dd253be	0.10269879
206	0xbebf1673	-0.37321815
207	0xbdeb2a52	-0.11482681
208	0xbe2f9d35	-0.17149813
209	0xbf2fc420	-0.6865864
210	0xbc589378	-0.013218753
211	0xbe5b4f9d	-0.21417089
212	0xbd65ac7f	-0.05607271
213	0x3e044c55	0.12919743
214	0xbce33cd7	-0.027738972
215	0x3d44d12f	0.048051056
216	0x3e119882	0.14218333
217	0xbed69170	-0.41907835
218	0xbe8d69bc	-0.2761973
219	0x3e4af80c	0.19821185
220	0xbe4730b3	-0.19452171
221	0x3e4078c8	0.18796074
222	0x3a31ccd9	0.0006782539
223	0xbde1f6ab	-0.11033376
224	0xbd1e9b3a	-0.038722254
225	0x3ea774bf	0.32706258
226	0xbd8a1590	-0.06742394
227	0x3dec2a9d	0.11531565
228	0x3d252a9b	0.040323835
229	0x3cef01fa	0.029175747
230	0xbdd62e9b	-0.10458108
231	0xbe0f796f	-0.14011167
232	0xbe55ccee	-0.20878956
233	0xbe61d0fe	-0.2205238
234	0x3dcdfa72	0.10057534
235	0x3e9f3a5f	0.3109922
236	0xbdcffa2d	-0.10155139
237	0xbe45562e	-0.19271156
238	0x3dccaeca	0.09994276
239	0xbe95bfb4	-0.2924782
240	0xbea20b28	-0.31649137
241	0x3e3090d6	0.1724275
242	0xbc9f3da1	-0.019438567
243	0xbe8e3ef7	-0.27782413
244	0xbe4c614a	-0.19958988
245	0x3e68500e	0.22686788
246	0x3ea4f0ff	0.32215115
247	0xbdf88fd3	-0.12136807
248	0x3e8ad6d9	0.2711704
249	0x3e0d7df1	0.13817574
250	0x3e7f5e89	0.24938406
251	0x3e0cb9eb	0.13742797
252	0xbe35e26f	-0.17762159
253	0xbe91df67	-0.28490755
254	0xbe93739c	-0.2879914
255	0xbeaa4a78	-0.3325994

layers.1.bias f4 [40]
0	0xbe9238c1	-0.28558925
1	0xbea0152c	-0.31266153
2	0x3eb29f33	0.34887084
3	0xbefd8e1f	-0.49522492
4	0xbcd4536f	-0.02591869
5	0x3e40089e	0.18753287
6	0xbe6e971f	-0.23299836
7	0xbef43fbc	-0.47704875
8	0x3ea6bdbe	0.32566637
9	0xbe1932bf	-0.14960764
10	0x3e256fa9	0.16155876
11	0xbeba356c	-0.36368883
12	0xbe310507	-0.17287074
13	0xbe9f1f7a	-0.31078702
14	0xbe61e285	-0.22059067
15	0xbede75ae	-0.43449157
16	0xbcc60370	-0.024171561
17	0xbe05ad41	-0.13054372
18	0xbdf55515	-0.11979119
19	0xbd63dea1	-0.055632237
20	0xbda5e3cd	-0.0810009
21	0xbec0b0f5	-0.37635008
22	0xbecf68ef	-0.40509745
23	0xbd0e81a2	-0.034791596
24	0x3e07b3fb	0.13252251
25	0xbe48329a	-0.19550553
26	0x3e80c796	0.25152272
27	0xbe28c528	-0.16481459
28	0x3e87787d	0.26459113
29	0xbec220d0	-0.3791566
30	0x3caad970	0.020855635
31	0xbe49bb04	-0.19700247
32	0xbebd9849	-0.37030247
33	0xbe3808c4	-0.17972094
34	0x3df6e8da	0.12056132
35	0xbe2cfdfb	-0.16893761
36	0x3cac07c1	0.020999791
37	0xbe8e5086	-0.2779581
38	0xbdcf88c2	-0.10133506
39	0xbea64b57	-0.32479355

layers.1.lin.weight f4 [40, 256]
0	0xbda80454	-0.082039505
1	0xbf140298	-0.5781646
2	0x3e723611	0.23653437
3	0xbe795595	-0.24349053
4	0xbe3b6646	-0.18300733
5	0xbe056ed8	-0.13030565
6	0xbd898bda	-0.06716128
7	0xbf4e0bfa	-0.80487025
8	0xbe268ab3	-0.16263847
9	0xbe8fe7f3	-0.2810665
10	0x3c620254	0.0137945
11	0xbded1ed5	-0.11578146
12	0xbdb2b024	-0.087250024
13	0xbd16e2ed	-0.036837507
14	0xbd7bbcd8	-0.061459392
15	0xbc4f991a	-0.01267078
16	0xbf5d0f7d	-0.8635176
17	0x3e94c281	0.29054645
18	0xbe20c33f	-0.1569948
19	0xbd5e58ef	-0.054284032
20	0xbf5dc1f0	-0.8662405
21	0xbe017ef7	-0.1264609
22	0xbd8769dd	-0.06611989
23	0xbea10d5b	-0.31455502
24	0xbd94a71f	-0.07258438
25	0xbe87414a	-0.26417
26	0x3d3f4f7f	0.046706673
27	0x3db92a52	0.09041275
28	0xbeaded97	-0.3397033
29	0xbf01c024	-0.5068381
30	0xbd862c01	-0.06551362
31	0xbeaae601	-0.33378604
32	0xbe6f19ae	-0.2334964
33	0x3c0b9382	0.008519055
34	0x3d2265ec	0.03964798
35	0x3b73ebaf	0.0037219336
36	0xbe076d98	-0.132254
37	0xbd8b1875	-0.06791774
38	0x3ea16507	0.3152239
39	0x3daf2877	0.0855264
40	0xbf00a36b	-0.50249356
41	0x3dde6380	0.10858822
42	0xbe250dad	-0.16118498
43	0x3e392216	0.18079409
44	0xbe074713	-0.13210706
45	0x3ede980b	0.43475375
46	0xbe761532	-0.24031523
47	0x3c6b909f	0.014377742
48	0xbd0e7a7f	-0.03478479
49	0xbe3c1679	-0.18367948
50	0xbdc84328	-0.09778434
51	0xbe28fda7	-0.1650301
52	0xbdaf1100	-0.08548164
53	0xbebd3c58	-0.369601
54	0xbf225e5c	-0.6342523
55	0xbd06a239	-0.03286955
56	0xbbec4b1a	-0.0072111012
57	0x3dff42d0	0.12463915
58	0x3ccee303	0.025254732
59	0xbe162192	-0.14661244
60	0x3cf3f7cd	0.029781247
61	0xbde3dadd	-0.11125729
62	0xbdd165ed	-0.10224519
63	0xbcac0926	-0.021000456
64	0xbd8794ad	-0.066201545
65	0xbeb10b74	-0.3457905
66	0xbf1739c2	-0.59072506
67	0xbdf7ff52	-0.12109245
68	0xbe3ea0f6	-0.18616089
69	0xbe06e567	-0.13173448
70	0x3ea63d2b	0.32468542
71	0xbb3085db	-0.0026935253
72	0x3e689cb5	0.22716029
73	0xbc57d840	-0.013174117
74	0x3d54cd6e	0.051953726
75	0xbbbc8e22	-0.0057542482
76	0xbe1e6c87	-0.15471087
77	0x3c75c0e8	0.014999606
78	0x3da97f0c	0.082761854
79	0xbe2092fa	-0.15681067
80	0xbd17763e	-0.036978
81	0x3e43f6f6	0.19137177
82	0x3de59536	0.112101
83	0xba15a7d9	-0.000570891
84	0xbd08a203	-0.03335763
85	0xbec33f3c	-0.38134181
86	0xbe85679c	-0.2605561
87	0xbcc27560	-0.02373761
88	0xbf1a970f	-0.6038675
89	0xbe801218	-0.25013804
90	0xbe382ffe	-0.17987058
91	0x3ce4f1b4	0.027947284
92	0xbdf4de33	-0.11956444
93	0x3d05f003	0.032699596
94	0xbedc872d	-0.4307188
95	0xbcc2dabd	-0.023785943
96	0xbd233956	-0.0398496
97	0xbecc7e9f	-0.39940354
98	0x3ee8bf57	0.4545848
99	0xbf3dd86e	-0.7415837
100	0xbd268dd4	-0.0406626
101	0x3ec3bc4d	0.382296
102	0x3dbb7b61	0.09154392
103	0x3d8587ec	0.06520066
104	0xbf886ddc	-1.0658526
105	0xbeb7cd2b	-0.35898718
106	0x3e7bf322	0.24604467
107	0xbdc6db5d	-0.09709809
108	0x3ddfb95b	0.109240256
109	0xbd991e35	-0.07476465
110	0x3bf15df5	0.007365937
111	0x3d984da9	0.074366875
112	0xbb4c45dd	-0.0031169571
113	0x3d74696b	0.059670847
114	0xbe60b82f	-0.2194526
115	0xbe3c8450	-0.18409848
116	0x3ec7d20a	0.39027435
117	0x3d354fb6	0.04426547
118	0xbe55cb7a	-0.20878401
119	0x3e9b334f	0.30312583
120	0xbbc893c8	-0.0061211325
121	0xbdf05ae8	-0.11736089
122	0xbdee760f	-0.11643612
123	0x3ea6cb25	0.32576862
124	0x3ed2b5b8	0.41154265
125	0xbdea7441	-0.11447955
126	0xbe14c9d6	-0.1453012
127	0x3d5a81a7	0.053346302
128	0x3d71aee7	0.05900469
129	0xbdf4ae59	-0.11947317
130	0x3e28d354	0.16486865
131	0xbe452a14	-0.19254333
132	0x3cb06688	0.021533266
133	0x3ebd8847	0.37018034
134	0xbf15b0fb	-0.58473176
135	0xbd392116	-0.04519757
136	0xbcddd245	-0.027077803
137	0x3f1e3055	0.617925
138	0xbc31bc3c	-0.010848101
139	0xbea9053b	-0.33011803
140	0x3da03566	0.07822685
141	0xbe35df73	-0.1776102
142	0xbdc7ac2e	-0.097496375
143	0xbe2df6ab	-0.16988628
144	0x3e32afd7	0.1744989
145	0xbe3e8e5b	-0.18608992
146	0x3d23b0d9	0.039963577
147	0x3d8a7668	0.067608654
148	0x3e7efae2	0.24900392
149	0xbda04beb	-0.0782698
150	0xbd3ddaa8	-0.046351105
151	0xbe4d7772	-0.20065096
152	0x3e506fec	0.20355195
153	0x3df2cbb1	0.11855257
154	0x3f1634a2	0.5867406
155	0xbdfd9a1a	-0.12382908
156	0x3d4610ee	0.04835599
157	0xbe8ae3cb	-0.27126917
158	0xbe4dfd6a	-0.20116201
159	0xbfb5c3a9	-1.4200336
160	0xbe6df548	-0.23238099
161	0x3d98da30	0.07463491
162	0x3e9d07d1	0.30670026
163	0x3cfd53a4	0.030923672
164	0x3dee283a	0.11628766
165	0xbdc301c8	-0.09521824
166	0xbe06a149	-0.13147463
167	0xbd4496c2	-0.047995336
168	0xbdba8040	-0.09106493
169	0x3ec2cc1e	0.38046354
170	0xbe19ea3a	-0.15030757
171	0x3e6e9963	0.233007
172	0xbe0ecc41	-0.13945104
173	0xbed71a8d	-0.42012444
174	0x3e19f28b	0.15033929
175	0xbe80c030	-0.25146627
176	0x3c92c9db	0.017918518
177	0x3d86f437	0.06589549
178	0x3b69685f	0.0035615189
179	0x3dcfd685	0.10148338
180	0x3ea0351c	0.3129052
181	0xbf109cfc	-0.5648954
182	0xbe72e3fc	-0.23719782
183	0xbe5590ae	-0.20855972
184	0x3d26592c	0.040612385
185	0xbe82ae5a	-0.25523645
186	0xbe9d8ceb	-0.30771574
187	0x3e9ab57e	0.30216593
188	0xbd0c3ec1	-0.034239534
189	0x3d49a7ba	0.049232222
190	0x3de43051	0.11142028
191	0x3db9450e	0.09046374
192	0xbdaf0837	-0.08546489
193	0x3cc4dfa2	0.024032418
194	0x3d375d73	0.044766854
195	0xbe102dd2	-0.14079979
196	0xbd3842ab	-0.044985455
197	0x3e64d002	0.22344974
198	0xbd830dc9	-0.06399114
199	0xbe05c035	-0.13061602
200	0x3d800339	0.06250615
201	0x3e387663	0.18013911
202	0x3e31578b	0.17318551
203	0x3bf6e670	0.0075347945
204	0xbce30698	-0.027713105
205	0xbef2cabc	-0.474203
206	0xbe901104	-0.28137982
207	0xbe34ea4a	-0.17667499
208	0x3eab04cd	0.334021
209	0xbe950696	-0.29106587
210	0x3ceb0b42	0.028691892
211	0xbd888dc1	-0.066676624
212	0xbe03ce16	-0.12871584
213	0xbbe825bf	-0.007084578
214	0xbd7bbd1b	-0.061459642
215	0xbde9e83c	-0.11421248
216	0xbe4eeff7	-0.20208727
217	0xbe3fadbe	-0.18718621
218	0xbcce2d47	-0.025168074
219	0xbdb3462f	-0.08753621
220	0x3c30a77f	0.010782122
221	0x3c04cc4d	0.00810535
222	0xbe21366f	-0.15743421
223	0x3d5a5832	0.053306766
224	0xbba02089	-0.004886691
225	0x3d9049cd	0.070453264
226	0x3df5d20b	0.12002953
227	0x3f0c1ab5	0.5472825
228	0xbc21b0f2	-0.009868847
229	0xbc8a932e	-0.016915884
230	0x3dd2e99b	0.10298463
231	0xbe18475f	-0.14870976
232	0x3e75497e	0.23953816
233	0xbe41bf02	-0.1892052
234	0x3da043db	0.078254424
235	0xbe4316b4	-0.1905163
236	0xbc597ec4	-0.013274852
237	0xbec8ae2e	-0.3919539
238	0xbe0115ff	-0.12606047
239	0xbebb9be0	-0.3664236
240	0xbdc9953b	-0.098429166
241	0xbc7627df	-0.015024154
242	0xbb1328dc	-0.0022454774
243	0xbbdba454	-0.006702939
244	0xbeddb9c5	-0.43305793
245	0x3d91b852	0.071152344
246	0x3e88bc42	0.2670613
247	0x3f0f4bc9	0.55975014
248	0x3e3beec2	0.18352798
249	0xbdead07e	-0.11465548
250	0xbf04acb0	-0.51826
251	0xbd6e07ae	-0.058112793
252	0xbd5d5102	-0.054032333
253	0xbe199837	-0.14999472
254	0xbcff7fd6	-0.031188887
255	0xbda175a4	-0.07883766
