saved/arxiv/directed_ogb-arxiv_SAGE_s3.pt (torch, 47995 bytes, 10 tensors)

convs.0.lin_l.weight f4 [32, 128]
00000000: 5176 ad3b f78e 11be f401 313d f235 33be
00000010: 52b7 823d 6305 ebbd cac1 333d f0a9 27bc
00000020: e4dc 1d3e 9f5c 0abe 6b99 61be e8f6 bc3c
00000030: c54a eebd f041 303d a89d 11bd 2bba 12bc
00000040: 5e0c c5bd ca74 85bc 0fcd 9f3d 4c10 383d
00000050: fa0b 14be ef6a 33bb ff6d 923c 20d4 4e3d
00000060: 59f0 243b 501a 993c c645 083e ca69 dc3c
00000070: 1623 29be 8303 1a3e 5462 6d3d a462 8b3d
00000080: bbca 1f3c ec64 8ebd 6029 063e cf1c 42bd
00000090: 3236 5ebd 215d e43d a8be 40bd d5bb 953d
000000a0: 9260 22bd 37ae a6bd 65b5 92bc adf0 cbbd
000000b0: 0bec 9cbd 6f7a 90bc 3934 2e39 d950 75bd
000000c0: e9d7 4dbd 09d6 92bc 42a9 a33b 2cfc 38bd
000000d0: fc3f 55bb df21 883d 8646 83bd d959 62bd
000000e0: 3bfd 0fbc a916 febd 89cb 19be e81d 5fbb
000000f0: 152f 783d 673f c83d 3ea5 a63c b4ea fb3d
00000100: 1bb9 213e bef2 55bd 6bb7 0fbd d956 83bd
00000110: 5c8a 033d 06b9 063d 12d7 023d 7bd6 883d
00000120: 931a 87bd 3c1f 453d 29b9 f1bc bea4 92bc
00000130: 9635 9c3d 6e6b 9abd a07b 383d 464a 9cbd
00000140: cd4b 2e3d d33c 8139 8762 433d fb7b d5bd
00000150: e914 73bd 3322 d43d 70ab 253d 13a2 ccbc
00000160: 1aca 60bd d5ca 8dbd ff13 b9bd 6c59 2d3d
00000170: f76d 74bc 6f8a babd 30d4 973c 1cd7 6e3d
00000180: 6059 853d 1120 113e 86f2 2bbe fbe7 6c3d
00000190: b3a1 373e 03ed c2bc 9732 abbd e91b 253c
000001a0: d217 8abd e249 a8bc d90a 303e f1c6 87bc
000001b0: 1331 99bd 2c67 6d3d f18c 77bd cd69 a63b
000001c0: 20c3 6bbd 25eb 49bd 13a5 d2bc 4a45 d63d
000001d0: 8cd7 4cbc 00c5 e9bc 0e3c b1bd 0cfe bdbc
000001e0: 9c59 9cbc c182 2fbe 51b8 a1bd 0f6d 9bbd
000001f0: 1255 3fbc 54c9 91bd b35f 053c 7363 42bd
00000200: 291e 303e 414b 003e d827 943d c1e7 5a3e
00000210: b118 18be 5ca7 2ebe 40e9 4a3d f645 7cbd
00000220: 3d70 85bd 7245 423e 395d 7bbe 0b80 2b3e
00000230: d49b 65be 6f2c 833e 96bb 343e f94e 26be
00000240: 0e28 ec3d b8ef 4abc 7aaa 41be b662 4fbe
00000250: 1691 4c3c 6d93 013e f813 8e3d f75c e3bd
00000260: 58a7 abbc 4377 ecbd b1f3 08bd 4096 aebd
00000270: 9742 e1bc 1780 22be dafb 1abe 3a5a 8a3c
00000280: e44c 51bd 991d 013d 2aa3 83be 17d8 b3bd
00000290: f414 973d f94d c4bd 6afe 9b3d fd01 cebd
000002a0: 4fda 73bd 226d ba3d ca9d fbbd ff0b d7bd
000002b0: 0493 5d3c d6e9 7bbe c635 e8bd 9fe1 413e
000002c0: ddff b33a 66f0 10be 72be fdbb 4536 c53d
000002d0: e1f9 16be ffa6 31be 730f 703e 8e54 babd
000002e0: 10b2 813d 615d ccbc 3f05 06be 68af 463d
000002f0: 7616 41bd 337a 043e 8106 76be 3ad9 a03e
00000300: 2928 033d 3619 f8bc 4729 ed3d 11c0 153e
00000310: e2eb 6e3d aa7a 9fbc b4b6 4b3d e236 0dbe
00000320: 9d17 893c bc2f a43d de54 60bd 4f0e e6bc
00000330: e3b2 393e 2469 183b 3475 d1bc 1427 2f3e
00000340: 3a2c b13d ee06 623d b28e 983c d8f6 063e
00000350: 5998 c33d fe65 373e 0a30 49bb d4f7 d6bc
00000360: 1b74 f3bc 3ddd 0fbe fd58 a53d 6e7f 613e
00000370: c151 6f3e 344f 243d 50d7 6fbe d89e 8e3e
00000380: 5d1d 3fbd bd6f 9c3d 5ce3 3a3e 6318 ab3b
00000390: 0f51 84be d3a5 033d 9feb 41be ab53 813c
000003a0: e362 3d3d 30a3 593e d557 58be 9d55 383e
000003b0: 1fdc 203e b7c6 60bc 26b6 f03c 60fa 60bc
000003c0: f59e 40bd cfa5 083e 83bf d53d f350 983d
000003d0: 66c6 a6bc d504 52bd 9069 2dbe 4d0a b93d
000003e0: 4dab ee3d e132 21be 3f2c 58bc 980f aebc
000003f0: 004e c53d 2d60 4c3d d0ff 403e bdde 1dbe
0.0052936454 -0.14214693 0.043214753 -0.17501047 0.06382622 -0.11475637 0.043885984 -0.010233387
0.15416294 -0.13511895 -0.2203118 0.023066953 -0.11635355 0.043031633 -0.035550743 -0.008955519
-0.096214995 -0.01629104 0.07802784 0.044937417 -0.14457694 -0.002737697 0.017874716 0.050495267
0.0025167672 0.018689305 0.13307866 0.026905913 -0.1651729 0.15040402 0.0579551 0.068059236
0.009752925 -0.06952843 0.13101721 -0.047390755 -0.054250903 0.111505754 -0.047056824 0.07311217
-0.039642878 -0.081386976 -0.017908761 -0.09958015 -0.07662209 -0.017636506 0.00016613388 -0.059891555
-0.050254736 -0.017924326 0.0049945423 -0.045162365 -0.0032539358 0.066470854 -0.06409936 -0.055261467
-0.008788402 -0.12406666 -0.15019049 -0.0034044925 0.060591776 0.09777718 0.020342465 0.123006254
0.15793268 -0.05223345 -0.03508703 -0.06413049 0.03211437 0.032891296 0.03194339 0.06681534
-0.065968655 0.04812549 -0.029507237 -0.01790082 0.07627408 -0.07540022 0.045039773 -0.07631354
0.042552758 0.00024650115 0.047701385 -0.10424038 -0.059346113 0.103580855 0.0404467 -0.024979627
-0.05488024 -0.06923453 -0.09037017 0.042321607 -0.014918796 -0.09108435 0.018533796 0.058310613
0.065111876 0.14172389 -0.16791734 0.05783842 0.17932777 -0.023794657 -0.083592586 0.010077455
-0.067428246 -0.020543043 0.17191638 -0.016574355 -0.07480063 0.05795972 -0.060437147 0.0050785304
-0.057559133 -0.049296517 -0.02571348 0.104624346 -0.012502562 -0.02853632 -0.08654033 -0.023192428
-0.019085698 -0.17139722 -0.07896484 -0.07589161 -0.011677997 -0.071184784 0.008140492 -0.047458123
0.17199005 0.12528707 0.07234162 0.2137747 -0.14853169 -0.1705603 0.04953885 -0.061590157
-0.065155484 0.18971804 -0.2454728 0.16748063 -0.22422725 0.25619838 0.17649683 -0.16241063
0.11531077 -0.012386255 -0.18912688 -0.20252499 0.012485763 0.12653895 0.069374025 -0.11101716
-0.02095382 -0.11546185 -0.033435527 -0.08524752 -0.027497573 -0.15869175 -0.15135136 0.016888727
-0.05109872 0.031522367 -0.25710422 -0.0878145 0.07377043 -0.095851846 0.07616885 -0.10058973
-0.059534367 0.09102847 -0.12285955 -0.10500335 0.013523821 -0.2460092 -0.113383815 0.18933724
0.0013732869 -0.14154205 -0.00774365 0.09629492 -0.14743759 -0.1734886 0.23443393 -0.09098159
0.06332791 -0.02494687 -0.13087939 0.048507124 -0.04714056 0.1293724 -0.24025919 0.3141573
0.03202072 -0.030285459 0.11580139 0.14624049 0.058330424 -0.01946767 0.049734786 -0.13790467
0.016734893 0.08016917 -0.054768436 -0.028082995 0.18134646 0.0023256028 -0.025568582 0.17104751
0.08651014 0.05518239 0.01862273 0.13180101 0.095505424 0.1791 -0.00306988 -0.02624122
-0.02971845 -0.1404924 0.08073614 0.22021267 0.2337103 0.040114596 -0.23421979 0.27855563
-0.046658862 0.076385 0.18250793 0.005221413 -0.25843093 0.032140564 -0.18937539 0.015786966
0.046236884 0.21253657 -0.21127255 0.18001409 0.1570897 -0.013719252 0.02938373 -0.013731569
-0.047026593 0.13344501 0.104369186 0.07437315 -0.020358276 -0.05127414 -0.169348 0.09035168
0.11653767 -0.15742065 -0.013194143 -0.02124767 0.09634018 0.049896408 0.18847585 -0.15416999

convs.0.lin_l.bias f4 [32]
00000000: 1385 57bd badd 953d 88f1 57bd f5b3 e2bb
00000010: acab f03c 47d4 a3bc cc74 2c3c de7c 073d
00000020: f888 95bd 49ac abbd 4af1 a7bd 5967 443d
00000030: 304d c03c 5f64 98bd 66e1 36bb 581b 70bd
00000040: d919 54bc f3c7 9b3d 37d4 34bd c7e1 113c
00000050: 8d00 94bc 06d5 1fbd b7b0 35bd e56d 85bb
00000060: 94a1 55bb 0d9c 95bd baf6 1cbd d655 88bd
00000070: a36e 26bd 4b9f 73bb 2821 32bc 3482 80bd
-0.052617144 0.073176816 -0.052720577 -0.006918425 0.029378735 -0.019998683 0.010525893 0.033078067
-0.07301515 -0.0838247 -0.08200319 0.047950123 0.023474306 -0.07441019 -0.0027905344 -0.058619827
-0.012945616 0.07606497 -0.044147696 0.008903927 -0.018066669 -0.039021514 -0.04435798 -0.0040719383
-0.0032597529 -0.07305155 -0.038321234 -0.06656997 -0.040632855 -0.0037173803 -0.010872163 -0.06274834

convs.0.lin_r.weight f4 [32, 128]
00000000: f1ab 21bd a3e5 0b3b 74b3 443e 38c3 d2bd
00000010: aece 173d 5b53 1c3e d609 88be 0661 a3bd
00000020: d601 263e 18c5 eabd 6f4f 86be 0c51 2abe
00000030: ec9a 6abe 71cf c9bc fef1 60bd 377a dc3c
00000040: e627 4cbe f26e 083e 7465 ad3d 05ec 14be
00000050: 8e76 0dbe 724d 49bd 429d ac3d aef2 353e
00000060: dffd 0abe 8e71 d5bd 8d17 ff3d 74db bfbc
00000070: 7a78 78bd e088 96bd d334 073e c096 0a3e
00000080: d385 6b3d 0fd3 63bd 89b1 5a3d de60 133c
00000090: 7bbf 99bd 2a87 283e 2549 0cbe 0697 a63d
000000a0: b927 dd3d caab a1bd 1dbb f23d 5cb8 fcbd
000000b0: 9bb6 5fbe 91ca f53b 9a02 b83d 60c6 0ebc
000000c0: d43e 9abe 1c96 813d 6993 a13d 3fff 29be
000000d0: 7457 89bd 48c7 59bd eb87 4cbe 62c7 5b3e
000000e0: ab87 7f3e 4315 42be eac9 08be 9cdd 5d3d
000000f0: 32c0 a0bd 64f4 3cbe 1ebc 513c dad5 813d
00000100: 7cd6 213e bd0f 5ebd a540 f9bd 94e4 a7bd
00000110: 2cb5 ac3d abc0 45be 208e b93d 7aa9 0a3e
00000120: 2b80 53be 14ef a93e 706d 4dbd 51d3 8c3e
00000130: 96b5 a63d 924e a4bd ed87 5cbc f732 d2bc
00000140: 022e c6bc d1c6 d13d 5085 b33d 2fa3 46be
00000150: 4921 bebe 945f f83d 0aca 363e 6d6c de3d
00000160: 28a8 87be a5cf 17be 0f0f c13d cf36 3f3e
00000170: 53fe 83bd ebcf d8ba 8ed1 063e 42cb 8abd
00000180: 5bcf 31bd 22f6 6e3e 4996 f2bd 13a9 acbc
00000190: d395 273e 45e1 563c 037e 3dbe e8a8 eabc
000001a0: ad27 73be 183e f13d 839c e03d 22a5 1fbc
000001b0: f1b6 b73c cb92 f63d 6914 df3d f7f6 e5bd
000001c0: 38a6 2fbe 3ac7 ecbd 9da4 433e 0521 4a3e
000001d0: 7b06 f4bd fe4b a8bd 8bd7 3dbe adde a83c
000001e0: 6030 30be 1202 5abd be43 0f3d da10 e4bd
000001f0: ad2e d2bd c50c e7bd 3562 0f3e 832a a2bd
00000200: 8afe 223e ea9d d5bd c437 cfbd 74fc 74bc
00000210: 80d4 92be 3059 0dbe 9c14 933d 96d0 08be
00000220: a355 173e 6093 523e f6a2 58be fb0b 8c3e
00000230: a696 23be 857f 35bd e1ed 563e 6929 a23c
00000240: 2382 ca3b 933f a8bd 08da 7cbe 23fa 74be
00000250: 9c34 adbc 9ce7 9cbd b9c0 963e 4235 70bd
00000260: ef82 fabd 836d a4bd 4d83 17bd e831 f0bc
00000270: 420f ba3c dba6 c4bc 45e8 9f3d a0f2 693e
00000280: ac3e fa3c b979 6abd 3186 ee3d 7ffd 383c
00000290: c266 653c adcd afbd b816 b7bd 10ec 0ebd
000002a0: f35b 833d b0fb d73d 4ed5 63bd 45f1 e4bd
000002b0: aa29 66be 9c87 17be 2220 373d acee b5bd
000002c0: 19e6 113e 2efb ebbd 4edc 8e3d fd30 30bd
000002d0: d212 b5bd 3a39 2cbe 9553 2f3e e6ef 2c3d
000002e0: 574b 8a3d 32ca c1bd f50f 9abe 3d04 0f3e
000002f0: 3c6b cdbd 37ab 0ebe d753 243e 2090 8abd
00000300: 803f 9d3d a5e1 e4bd 865d 813e b98b 5e3e
00000310: da1f 343e ec99 80be 8690 bd3c 2c6d fcbd
00000320: b368 903d 4e66 603b e2db 03be 655c fcbd
00000330: 214e 5c3e 478a eebd 3abf 563e 9046 043e
00000340: 4600 a93d 0d55 3c3e 8b5d ad3d fe34 183e
00000350: 1238 003e 998b 0dbe 2022 ddbd cbb4 153e
00000360: 0ee5 5ebe f555 a03d e4db a73d 979d c43d
00000370: e0f7 69bd 991e 34be f8a8 45bd aab2 7c3e
00000380: 1410 37bd 3a36 d9bd 6b81 7d3e 13be 6cbe
00000390: 7302 93be 547e 703c 5349 5fba d84f 0b3d
000003a0: 558a 0a3e 8ee7 883d 4c0d ebb9 bcf4 3a3e
000003b0: 97a9 853d 4bbe 51be 3c60 c93d 870e 593d
000003c0: 775c fbbd b14f a2bd 738b 11be 43eb 193e
000003d0: 071d 0dbe 949d 98bd b115 2cbe 981f 47bd
000003e0: caf7 443d 36b7 65be 3fd4 8bbc fb43 743d
000003f0: 5560 5f3d adf1 243c 65c9 ec3d 5d29 84be
-0.039470617 0.002134659 0.19209081 -0.10291141 0.03706234 0.15266173 -0.26570004 -0.0797749
0.16211638 -0.11463374 -0.26232478 -0.1663248 -0.2291066 -0.024635049 -0.05491828 0.026913745
-0.19937095 0.13323572 0.08466616 -0.1454316 -0.13814756 -0.049146123 0.08428432 0.17768356
-0.13573407 -0.104220495 0.12455664 -0.023420073 -0.06066177 -0.073503256 0.13203745 0.13534069
0.05750067 -0.055621203 0.053391967 0.008995263 -0.07507225 0.16457811 -0.13699777 0.08134274
0.10798592 -0.07894094 0.11852095 -0.12339851 -0.21847002 0.0075009544 0.08984871 -0.0087142885
-0.3012606 0.06327459 0.078894444 -0.16601275 -0.067061335 -0.053168565 -0.19973724 0.21462777
0.24954097 -0.18953423 -0.13358274 0.05416642 -0.07849158 -0.18452603 0.012801198 0.06339617
0.15804476 -0.054214228 -0.12170533 -0.08197895 0.08432993 -0.19311778 0.09060311 0.13541213
-0.20654361 0.33190215 -0.050153196 0.27504972 0.081401035 -0.080227986 -0.013460142 -0.025659068
-0.02419186 0.10242999 0.08765662 -0.19398187 -0.3713477 0.12127605 0.1785051 0.10860524
-0.2649548 -0.14825304 0.094267 0.18673252 -0.06444993 -0.0016541457 0.13165876 -0.067770496
-0.04341064 0.2333608 -0.11845071 -0.021076715 0.16365747 0.013115232 -0.18505101 -0.028644994
-0.23745604 0.117794216 0.10967352 -0.009743961 0.0224261 0.12039717 0.10892565 -0.112287454
-0.17153251 -0.11561437 0.19105764 0.19739158 -0.119152986 -0.08217619 -0.18539254 0.020613993
-0.17205954 -0.05322463 0.034976713 -0.11136027 -0.10262809 -0.112817325 0.14002307 -0.07918265
0.15917411 -0.1043051 -0.10118058 -0.014952768 -0.2867775 -0.13803554 0.07181665 -0.13360819
0.14778762 0.20564032 -0.21155915 0.2735289 -0.15975437 -0.044311065 0.20989181 0.019795137
0.0061800643 -0.08215251 -0.24692547 -0.23923545 -0.02114325 -0.076613635 0.2944391 -0.05864454
-0.12232005 -0.080287 -0.036990453 -0.029320672 0.022712354 -0.024005344 0.07807974 0.2284646
0.030547462 -0.05724499 0.11646689 0.011290907 0.01400155 -0.085841514 -0.0893988 -0.034893095
0.06414022 0.105460525 -0.055623345 -0.11178831 -0.22476831 -0.14797825 0.04470838 -0.08883414
0.14247932 -0.11522518 0.069756135 -0.04301547 -0.0884148 -0.16818705 0.17121728 0.042220972
0.06752651 -0.09462394 -0.300903 0.1396646 -0.10030219 -0.13932501 0.16047607 -0.06765771
0.07678127 -0.11175851 0.25266665 0.21732987 0.17590275 -0.25117433 0.023140203 -0.123255104
0.0705122 0.0034240666 -0.12876847 -0.1232231 0.21514179 -0.11647468 0.20971385 0.12917542
0.08252005 0.1839182 0.084651075 0.14863965 0.12521389 -0.13822784 -0.107975245 0.14619748
-0.21767065 0.07828895 0.08196238 0.096003704 -0.057121158 -0.17589797 -0.048256844 0.2467753
-0.044693068 -0.10606046 0.247564 -0.23119383 -0.28712806 0.0146785565 -0.0008517701 0.03401169
0.13529332 0.066847906 -0.000448326 0.18257421 0.06526487 -0.20482747 0.098328084 0.05299237
-0.12273496 -0.07925356 -0.14213352 0.15031151 -0.13780604 -0.07451931 -0.1680515 -0.048614115
0.048087873 -0.2243317 -0.01706898 0.059635144 0.05453523 0.010067386 0.115618505 -0.25812808

convs.1.lin_l.weight f4 [40, 32]
00000000: c227 5cbe 8c48 413e 1067 60be ee35 993d
00000010: 5fb0 30bd c645 8d3e 01de 17be a9c2 cbbd
00000020: 0250 8f3c 1163 47be 0981 cfbd 03ae ec3d
00000030: b895 46bd fe58 203d ddd5 74bd 07c4 a33d
00000040: f167 ccbd 488a 8dbd 03e3 c53d a044 8a3d
00000050: f9bf 00be b7e5 8cbd 5857 1ebd 0fcc bd3c
00000060: bdd7 463d b5dc 2fbe 89e4 f8bd 8949 48be
00000070: bffb 07bd 6eb6 81be 0b6e 6c3e 195d c7bd
00000080: ad5a 58bd 4511 29be a8cf adbe 24df 50bc
00000090: dc33 173e 6905 7fbe 1c82 013c 4ca7 6a3d
000000a0: e8ce 3abe f635 b23d d969 18be 1127 1cbd
000000b0: ab53 2abe ca1b 0dbe e066 86bc 9c74 b73d
000000c0: 4350 d93c 977c 663d 5b5b 33be 75f0 1cbe
000000d0: cfa0 28be 5e23 7d3d 1458 48be 5f0a 76be
000000e0: 6498 373c 05b8 3dbe 5e9a 8b3e 7432 093d
000000f0: 1d18 acbd 2bda 85be 3b02 133d a2d9 8dbc
00000100: 2f8c 4cbe 0a2b 10be 7996 6d3e ec90 2dbe
00000110: dfb5 fd3b 3672 07be b027 77bd adb5 2d3e
00000120: 15bd 53be 589f 31be d4ce 153e 54b0 44be
00000130: 0d7a bc3e 4170 f0bd d7f7 713e 52fb e13d
00000140: 7051 76be 2747 ef3d ea10 fa3b 0eb0 b9be
00000150: 2a58 53bd f2f7 123e 1ffc ce3b f2bf 973e
00000160: e713 98bd 4c77 5d3e cee1 40bc 1461 86be
00000170: 8801 fa3c 6116 3a3d 64b2 4bbe bcb4 40bc
00000180: a958 7fbd 2f42 91be fb6d 363c 52eb 99be
00000190: 0eca 1b3e fbcb a6bd 2797 673e 1852 55be
000001a0: 0633 4abd 1ceb 92bd 335d f93c f144 ffbd
000001b0: 9bf9 91be 5c8a 4b3d ab5a a2be 1001 bdbd
000001c0: 311f 59bd 1b0f 053d c25e 5cbe 5d49 6d3d
000001d0: e865 983e c4c7 cabe 4242 823e 28b0 42bd
000001e0: 70d8 1fbe 089d 12bd 9b79 6bbd cb97 d43e
000001f0: a2fa 913d 5fd6 6abc 2a4c 90bd 8c27 8cbe
00000200: 6e19 9bbd e9f4 afbe e176 8e3e 0330 753e
00000210: 82f2 d03d 6075 e9bd 9f02 be3c 7dcb b1bd
00000220: 25ad 10be cafa 1d3e 2ada 26be 1056 7dbe
00000230: 7f47 f5bd 5c0c 9cbe b3fb 47be 2eb4 a63e
00000240: fad7 913d 3a83 583e e55a 2c3e 9e28 b7be
00000250: 6620 0dbe b03a 3ebe 9cc8 c73d 1954 bbbd
00000260: 6582 d03e 9c74 a33b 01d2 be3e 0865 3abe
00000270: 5e92 7dbe 2d7c 22be 8e1c 073d 5d1f 163e
00000280: a931 5c3d 8caa 00bd 8888 8a3e 25c2 a73d
00000290: 3aa4 e33d 8ecb e8ba c1ea 24be 08ae e0bd
000002a0: 5a86 e9bd 4ed5 ddbe cedb 60be cd22 34be
000002b0: 370e 84bd 9de7 70bd 647b d73d cd30 be3d
000002c0: 0ed9 58be f17b 8fbe e27f aebd 0877 793e
000002d0: 2c60 f0bd 963f f1bc ee10 a9be 98dc 21be
000002e0: c5ea 653e 1153 32be 2e71 f53e 3877 8c3e
000002f0: 25d9 8c3d 16e9 d53d 29dc 7abd 2d46 e5bd
00000300: 358b b0be ce38 3ebe 4020 b63d 9baf 79be
00000310: 10b3 673e 55e3 f0bc 5b21 ee3e baeb febd
00000320: e616 6cbd af66 17bd 92be d43e e3d8 89bd
00000330: 6f95 47be 2af0 43be 7605 07bf cd4f a8bb
00000340: 4a1f 0ebe 8dda d8be 2ef7 d0be 74ea 53be
00000350: 5131 5c3e ea12 dcbd 0a2f 773e 50ec aa3e
00000360: 1065 89be 08b5 92be ee87 0e3d 0954 bb3e
00000370: 9e9f b43d c368 bbbd 2628 cebe 21de 4fbe
00000380: 8ae1 9bbe 0341 1e3e 081a 463d c8dc 3cbe
00000390: 2509 37be 61eb e83c 0d20 4d3d e42e 54be
000003a0: fbc4 f03d dd17 96be 44af 5b3d 0d94 6d3d
000003b0: 021a 85bd d971 933e e0f3 f5bd bf6f fd3c
000003c0: fd61 e8bc 1215 c2bc aabf 273e f29b 903e
000003d0: d1c1 093e d1e1 b53c efec bcbc 0ec3 4c3d
000003e0: ddc1 b9be b1f3 4dbd d73b 9abe 04dc c03d
000003f0: 1a97 b13c 0d49 a9bd 6bc2 bf3d e374 1abe
-0.21499541 0.1887533 -0.21914315 0.074809894 -0.04313695 0.27592295 -0.14830782 -0.09949238
0.017494205 -0.19471385 -0.101320334 0.115566276 -0.048482627 0.03914737 -0.05977427 0.079963736
-0.09980763 -0.06911141 0.0966244 0.067513704 -0.12573232 -0.06879752 -0.038657516 0.023168592
0.048545588 -0.17174037 -0.121529646 -0.19559301 -0.03319907 -0.25334495 0.23088853 -0.09734554
-0.05282085 -0.16510494 -0.33947492 -0.012748513 0.14765877 -0.24904408 0.007904556 0.057288453
-0.18242991 0.087016985 -0.14884128 -0.038123194 -0.1663348 -0.13780132 -0.016406476 0.08957788
0.02652753 0.056271162 -0.17515318 -0.15326102 -0.16467594 0.061801307 -0.19564849 -0.24027394
0.011205766 -0.18527229 0.2726621 0.03349538 -0.08403037 -0.2614301 0.0358908 -0.01731569
-0.19975351 -0.14078918 0.23201932 -0.16949815 0.007742628 -0.13227162 -0.060340583 0.16963835
-0.20677598 -0.17345941 0.1462968 -0.19207889 0.36811867 -0.11740161 0.236297 0.11034264
-0.24054503 0.11683493 0.007631411 -0.36267132 -0.05159775 0.14352396 0.0063166763 0.2963863
-0.07425671 0.2162754 -0.011772586 -0.2624594 0.030518308 0.0454315 -0.1989227 -0.01176184
-0.062340412 -0.28370807 0.01113462 -0.30062348 0.15213796 -0.08144375 0.22616254 -0.20832098
-0.049365066 -0.0717375 0.030439949 -0.124643214 -0.28510746 0.049692497 -0.317098 -0.09228718
-0.053008262 0.03248511 -0.21520522 0.057931293 0.29765248 -0.39605534 0.25441176 -0.047531277
-0.15609908 -0.035794288 -0.05748902 0.4152206 0.071278825 -0.014333337 -0.07045777 -0.27373922
-0.0757321 -0.3436654 0.27825072 0.23944096 0.10202505 -0.11399341 0.02319461 -0.086813904
-0.1412855 0.154277 -0.1629416 -0.24739861 -0.119765274 -0.3047818 -0.1952961 0.3255934
0.071212724 0.21143809 0.16831549 -0.35773176 -0.1378189 -0.18577075 0.0975506 -0.091469
0.40724483 0.004988266 0.37269595 -0.18202603 -0.24762866 -0.15867682 0.032986216 0.14660402
0.053758297 -0.031412646 0.2705729 0.08191327 0.11115308 -0.0017760859 -0.16105177 -0.10970694
-0.11402579 -0.433268 -0.21958849 -0.175914 -0.06448024 -0.058814634 0.10521582 0.09286652
-0.2117655 -0.28024247 -0.085204855 0.24361813 -0.11737093 -0.029449265 -0.3302073 -0.15806806
0.22452839 -0.174145 0.47937912 0.27434707 0.068773545 0.10444848 -0.061245117 -0.111950256
-0.34481207 -0.18576357 0.0889287 -0.24383394 0.226269 -0.029405275 0.46509823 -0.12447305
-0.057639025 -0.03696316 0.41551644 -0.06730821 -0.19490598 -0.19134584 -0.5274271 -0.005136466
-0.13879123 -0.4235424 -0.40813583 -0.20694906 0.21503188 -0.10745795 0.24139038 0.33383417
-0.26834917 -0.2865374 0.0347976 0.3658755 0.08819507 -0.09150841 -0.40265006 -0.20299579
-0.3044551 0.15454488 0.04836467 -0.18443596 -0.17874582 0.02843255 0.050079394 -0.20721012
0.11756321 -0.2931508 0.053633943 0.05800252 -0.06499101 0.28797796 -0.12009406 0.030937074
-0.028367037 -0.023691688 0.16381708 0.28243977 0.13452841 0.022202404 -0.023062197 0.049990706
-0.36280718 -0.05028123 -0.3012378 0.09416965 0.021678496 -0.082658865 0.09363254 -0.15083651

convs.1.lin_l.bias f4 [40]
00000000: 3095 2f3e c652 943d 54bf 6ebd a68a a53c
00000010: 3b92 1c3d 1d97 97bc e048 adba 6a0c a6bd
00000020: c385 1cbe bbd3 093e 3ae6 c7bc d22e 113e
00000030: 5ffc 77be 0014 31bd 9a14 4d3c 5e24 0a3e
00000040: 91fd cc3d 687e abbd 8ef8 86be 135f 8bbe
00000050: dfdf 38be d439 0e3c 0052 04be 71c4 b1be
00000060: 9cb7 a0bd 5c8f 2cbe bc4b 3dbe 6420 013e
00000070: 1e95 0dbd 6162 45be e34b 60be 7adf acbd
00000080: 4a7e 51bd df8d 783c bee6 b03a 7396 d5bd
00000090: 8964 173c 2100 a7be b45a b5bd 2ecf 96be
0.17146754 0.0724235 -0.058287933 0.020207714 0.038225394 -0.018504674 -0.0013220571 -0.081078365
-0.15285401 0.13459675 -0.024401773 0.14178017 -0.24217366 -0.043231964 0.012517119 0.13490435
0.100093015 -0.083737195 -0.26361507 -0.27220973 -0.1805415 0.0086807795 -0.12921906 -0.34720185
-0.07847521 -0.16851562 -0.18485922 0.12610012 -0.034566037 -0.1927581 -0.21903948 -0.08441062
-0.05114583 0.015170543 0.0013496501 -0.104290865 0.009240278 -0.32617286 -0.08855191 -0.2945494

convs.1.lin_r.weight f4 [40, 32]
00000000: 50e7 11be a9bb e03d 5f85 3fbe 7289 8bbe
00000010: 4c7e 89be b462 083e fe7e 72bd 9b3f 34be
00000020: 7716 efbc da82 64bd b060 09be 15dc 993d
00000030: 2466 5abe f25c 58bc d5ba b33c 9cd5 82be
00000040: be2e cf3d 21f3 bebd fd5b 613e 1ce3 4c3e
00000050: 7026 de3c b492 2c3d e6aa 89be af58 1e3d
00000060: 8cc8 febd bae5 04bc c1c9 a7be 95c0 97be
00000070: 74fd 073d 4fdf abbe 6bde 17bd e69f 44be
00000080: 0ee7 29bd edaf 9fbd f728 c1bd 47f4 d83d
00000090: 93ad 4e3e d6d5 30be 760d 973d 98c2 77be
000000a0: e09b 45bd 8342 773e 4079 17be 0370 ba3d
000000b0: 0f50 92be c9bf b2be 6c12 bbbe 3abc 7dbe
000000c0: 03e5 96be 7e68 053e e2be adbe 3a5b 883d
000000d0: 0771 493d d66e 1c3d 7f52 83be 05fd 94bd
000000e0: e5fd 733e b0f4 14be a7e3 abba 47c0 ea3c
000000f0: 0179 2dbe 9dc5 a3be 0a59 0ebd 5464 1bbd
00000100: 31d4 0dbe afaa a1be 739a 913e 6d13 47be
00000110: df7a c2bd cfc4 c8be 365a e53d 37df e23e
00000120: cc74 8ebe 11e6 b0bd cd35 ed3e 70d4 fcbd
00000130: 4ca0 673e b24b 8fbc 2c43 983e da49 963e
00000140: ad41 4fbe d2f3 373e 95c4 e03d 2d86 aabe
00000150: 5086 c0be 9226 c33d db95 25be 59ff 8e3e
00000160: c209 03be 3f21 aa3e 6a94 18bd 4fae 8fbe
00000170: a7a2 8bbd ad53 143e 12ec 67be e034 a4be
00000180: 50c5 0bbe 9373 9cbe 7999 ccbe 2e4b 87be
00000190: 4c93 863d 8fd0 88be b70d 073f 99b1 2abe
000001a0: a0f2 6abe 420e 6cbe cecc 233e e965 81be
000001b0: 40ff 02bf 5d28 18bc 03fd aebe abd0 d7be
000001c0: 3b33 7abe edca 80be 5901 00bf 6eb0 973c
000001d0: 91a1 973e f497 cfbe 2141 a23e 9b05 84be
000001e0: 5e21 9bbe 1580 45be 6503 90bd 78eb 283e
000001f0: d835 323e 1b07 503e 4dbd 08be cd0c 40be
00000200: 2d26 abbe c079 b4be c831 283e ec8b da3e
00000210: d31b b33d c435 a5be 64cf c13d 92e4 babe
00000220: 5151 e9be a482 c73e ce89 d6bd c4bd 99be
00000230: f1f2 98bd b955 bdbe 8dc0 91be 6e37 de3e
00000240: f442 4fbc 9903 ea3e a045 aabe b297 b4be
00000250: b173 e7be dd0b c2be 30c7 503e c332 92be
00000260: 92da 023f 4186 93be 6274 ff3e 7032 95be
00000270: bb52 823c 4633 a03d 9f92 8f3d aa1a 8a3e
00000280: 8019 5e3e 9737 cf3e 095b 903e 8ae8 d7bd
00000290: 2b4e 24be b277 7bbe 366a 60be 9bcc c0bd
000002a0: df6d dabe 495c 06bf 9399 06be f1dd f5bd
000002b0: 5887 aebe c663 60be 17b4 8e3e 4c6a f53c
000002c0: 6bdc c8bd 7aee a4bd 4c11 0cbe c715 c63e
000002d0: 73a5 773d 2c14 4fbd 3002 a9be 808d b6b9
000002e0: a17d 043f b7ef bebe 6e23 133f 6c3d bd3e
000002f0: 733e 183e b9a8 cc3d c1eb adbe ee02 07be
00000300: 99b1 d9bd 9e26 91be e242 13be 0b75 4cbe
00000310: bbce 533e 1cf2 24be 5c89 af3e 3d5a 5ebe
00000320: 0c74 aabd dd27 d6bd 45dd af3e 2616 3dbe
00000330: c7fc fabc 9cc4 24be a023 0cbf 5190 7ebe
00000340: 56ce b7bd c1c3 05bf 9e68 01bf 0370 99bd
00000350: 46ca b23e fd4d 74be edf3 053f b5c9 6b3e
00000360: 4079 72be 27e3 bfbe 6497 2fbe 5576 643e
00000370: c905 603d f6e4 bdbe 80ed dbbe 9008 00be
00000380: ed8a 19be 5ea5 df3d 98e1 3ebe d38f bebe
00000390: c444 5cbe b64b b13c 74c5 12be 30d6 0abe
000003a0: 5756 60bd dcab 9cbe 77e4 29bc 2824 06be
000003b0: bfae c3bd 2c8f abbd 344d 0cbe 8abf 03bd
000003c0: b4c7 9bbd 87cd dfbd 3b9c fabd 5c73 5f3e
000003d0: e166 843e b744 50bd c14f 683c c1a5 403e
000003e0: dee4 7bbe 9cff a6be b8b4 82be 1f25 9fbc
000003f0: 9335 55bc 7f05 75be 68bb f83c b489 71bd
-0.14248395 0.10973293 -0.18703221 -0.272533 -0.2685417 0.13318902 -0.05920314 -0.17602389
-0.029185517 -0.055788852 -0.1341579 0.075126804 -0.21328026 -0.013205754 0.021939674 -0.25553596
0.10116337 -0.09323717 0.22007747 0.2000851 0.027117938 0.042132095 -0.26888198 0.038658794
-0.12440595 -0.008111412 -0.32771114 -0.29639116 0.033200696 -0.33568808 -0.03707735 -0.19201621
-0.041480117 -0.07797227 -0.094316415 0.10593467 0.20183401 -0.17269072 0.07375614 -0.24195325
-0.048244357 0.24146466 -0.14792347 0.09103396 -0.28576705 -0.34911945 -0.36537492 -0.24778834
-0.29471597 0.13028142 -0.33934695 0.06658025 0.049180057 0.03819164 -0.25648877 -0.07274822
0.23827322 -0.14546466 -0.001311411 0.028656138 -0.1694069 -0.31986704 -0.034752883 -0.037937477
-0.13850476 -0.31575534 0.28438148 -0.19441004 -0.09496092 -0.39212653 0.11198847 0.44310924
-0.27823484 -0.08637632 0.4633011 -0.12345207 0.22619742 -0.017492149 0.29738748 0.2935322
-0.20239897 0.17964104 0.10974995 -0.33305493 -0.37602472 0.09528841 -0.16170447 0.2792919
-0.12796691 0.3322849 -0.037250914 -0.28062674 -0.06818133 0.14485045 -0.22648647 -0.3207159
-0.13649487 -0.30556926 -0.3996084 -0.26424545 0.065710634 -0.26721618 0.527553 -0.1666931
-0.22944117 -0.23052314 0.15996096 -0.25273064 -0.5117073 -0.009286967 -0.34177408 -0.4215139
-0.24433605 -0.2515482 -0.50002056 0.018516745 0.29615453 -0.4054562 0.31690314 -0.25785527
-0.30298895 -0.1928714 -0.070318975 0.16496074 0.17403352 0.2031521 -0.13353463 -0.18754883
-0.33427563 -0.35249138 0.1642524 0.42684877 0.087455414 -0.32267582 0.09463385 -0.3650251
-0.45569852 0.38966858 -0.10475503 -0.30027592 -0.074682124 -0.36979464 -0.28467217 0.43401664
-0.01265024 0.4570587 -0.33256245 -0.35271984 -0.45205453 -0.37899676 0.20388484 -0.28554353
0.5111476 -0.28813365 0.4989348 -0.29140043 0.01590859 0.0782228 0.07010388 0.26973468
0.21689415 0.404721 0.28194454 -0.105424 -0.16045444 -0.24557379 -0.21915516 -0.094140254
-0.4266195 -0.52484566 -0.13144521 -0.120052226 -0.34087634 -0.2191306 0.27871773 0.029957913
-0.098076664 -0.08053298 -0.13678473 0.3868849 0.06046052 -0.050556347 -0.3300948 -0.0003481917
0.51754194 -0.37292263 0.57475936 0.36960924 0.14867572 0.09993119 -0.33968928 -0.13184711
-0.10629577 -0.28349775 -0.14380983 -0.19966523 0.2068433 -0.16107982 0.34284484 -0.2171411
-0.083229154 -0.10456822 0.34348503 -0.1846548 -0.030638112 -0.16090626 -0.5474186 -0.2485974
-0.08974902 -0.5225182 -0.5055026 -0.07492068 0.34919947 -0.23857875 0.52325326 0.23026164
-0.23679066 -0.3747799 -0.17147595 0.22310765 0.054693017 -0.37088746 -0.42954636 -0.12503266
-0.14994402 0.10920213 -0.18640745 -0.37219104 -0.21510607 0.021642547 -0.14333135 -0.13558269
-0.05476984 -0.30599868 -0.010369412 -0.1309973 -0.095548145 -0.08376917 -0.13701326 -0.032165088
-0.0760645 -0.10927873 -0.1223683 0.2182135 0.2585974 -0.05084678 0.014179171 0.1881323
-0.24599025 -0.3261689 -0.25528502 -0.01942688 -0.013013261 -0.23927878 0.0303628 -0.058969215

bns.0.weight f4 [32]
00000000: f154 9d3f 3ecc a33f e435 a33f 053f a03f
00000010: 864b a73f f174 a43f f853 a83f 6c76 af3f
00000020: 50d2 9b3f 33b3 9b3f f1b4 ad3f b9b5 9e3f
00000030: ce62 a73f 028e a33f 149e b33f 7e50 9a3f
00000040: 384a a43f 4642 b03f 2662 a33f c9a7 a63f
00000050: 5063 ad3f 104f a13f d17a b23f af6b a63f
00000060: b716 a73f cb66 a53f 51a5 a63f a41b 983f
00000070: c2ee a83f 3122 ac3f 4645 b33f 3888 983f
1.2291547 1.2796705 1.2750821 1.2519232 1.3069923 1.2848188 1.3150625 1.3708014
1.2173557 1.2164062 1.3570844 1.2399207 1.3077028 1.2777712 1.4032617 1.2055814
1.283515 1.3770225 1.2764328 1.3019954 1.3545933 1.2602253 1.394373 1.3001612
1.3053807 1.2921995 1.30192 1.1883435 1.3197863 1.3447934 1.4005516 1.1916571

bns.0.bias f4 [32]
00000000: 9812 743e ebdb 5e3e 0a51 513e 06f6 703e
00000010: 5c0e 173e 964f 893e e168 c53d 173f 473e
00000020: 54ca 643e 2cb8 4f3e 74bd 483e b386 6a3e
00000030: 5611 573e 0349 653e c2e6 ab3e c323 0f3e
00000040: 4a00 803e 2882 8e3e c620 873e bdac 383e
00000050: 4898 7a3e e841 653e c420 893e ec47 2c3e
00000060: 9cfd b23e 0421 703e e0d7 723e df92 bb3c
00000070: 1b93 683e 1533 a03e ad70 b33e 7dd0 523e
0.23835218 0.2176358 0.2044107 0.2353135 0.14751571 0.26818532 0.09639145 0.1945766
0.22342807 0.202851 0.1960352 0.22902946 0.21002707 0.22391133 0.33574492 0.13978486
0.2500022 0.27833676 0.26392192 0.18034644 0.24472153 0.22388422 0.2678281 0.16824311
0.34959114 0.23450094 0.23715162 0.022897182 0.22712366 0.31288972 0.35046902 0.20587344

bns.0.running_mean f4 [32]
00000000: 351c 6fbd 408c 98be 6d97 2abe be8e 4ebb
00000010: 0534 2dbe 7231 7bbe b9d9 82be 5dd8 633e
00000020: c432 b93d c6ec e1bc a489 1c3e 89b3 91bd
00000030: ee04 b7be ab5a a33d 4b36 c9be 7cde 2fbe
00000040: 4ff8 e7be eeac 57be 114f f7be cb8c f9bd
00000050: 2b3d 883d 841f 7b3e 26fb a73e 8c0f 8f3d
00000060: 2dac 0ebe 05fe 3fbe 838f 1cbe e333 09bf
00000070: 16f0 ecbc 897a 9cbe fc14 93be baac e73c
-0.05837651 -0.29794502 -0.16659327 -0.0031518186 -0.16914375 -0.2453058 -0.25556734 0.22250505
0.09042886 -0.027578723 0.1528688 -0.07114322 -0.3574595 0.07976278 -0.39299235 -0.17174715
-0.45306632 -0.21062061 -0.4830251 -0.12185057 0.06652292 0.24523741 0.328088 0.06985387
-0.13932867 -0.18749245 -0.1528912 -0.535948 -0.028923076 -0.30562237 -0.28726947 0.028280605

bns.0.running_var f4 [32]
00000000: e6cb 413e 9d84 913d fb7b 863d 8aef 243e
00000010: 6d2b b63d 4945 ee3d fe2a 9f3d 6525 9c3d
00000020: fd8c 163e 9b51 fa3d 46ca 8f3d 8032 573e
00000030: 4f37 c93d 09ad 683d bd2d a33d a819 9d3d
00000040: 0d07 ae3d b655 863d 2b7b 0d3e 3b03 673d
00000050: 453e c03d 0d27 c83d 5731 473d 1743 9b3d
00000060: 1667 5c3d 0ac0 bb3d ca2c ba3d 46f5 ca3d
00000070: 50da 913d 611b cb3d 05d3 6f3d 5122 103e
0.18925437 0.07105372 0.06566616 0.16107002 0.088950016 0.11634309 0.07771872 0.0762432
0.1470222 0.12222596 0.070210025 0.21015358 0.098250024 0.056805644 0.07967708 0.07670909
0.084974386 0.06559317 0.13816516 0.056399565 0.09386877 0.09773073 0.04863104 0.07581156
0.053809248 0.09167488 0.09090574 0.099100634 0.07121718 0.099173315 0.058550853 0.1407559
