saved/arxiv/directed_ogb-arxiv_GCN_s0.pt (torch, 180817 bytes, 8 tensors)

layers.0.bias f4 [256]
000000 fc f3 9d 3c a8 8b 4e 3c 6e ac bf bc 93 bc d6 bb
       0.01928138 0.012606539 -0.02339765 -0.0065532415
000010 5e 6a 41 3c 4a 21 1a 3c ae 63 bb bc d0 8d a3 bc
       0.011805145 0.009407351 -0.02287468 -0.019965082
000020 bf 80 00 bc bb 3e 79 3d 08 95 88 b9 fc 1e cb 3b
       -0.007843195 0.06085084 -0.00026050978 0.006198762
000030 aa b9 eb bc 13 b2 2b 3c df fd 94 3b 4d d0 7c bc
       -0.028775055 0.010479468 0.0045468654 -0.015430522
000040 55 4e 15 3d 21 85 0b bc 34 e4 33 3c 46 a3 f8 bb
       0.036451656 -0.008515627 0.010979701 -0.007587823
000050 38 ce bb bc b6 9e 29 3d 88 f5 ec 3c e1 3d af bc
       -0.022925481 0.041411124 0.028925672 -0.02139181
000060 ba a3 ec bc 07 4c e8 3b 59 29 7c bc 6d 20 5f bc
       -0.028886665 0.0070891413 -0.015390717 -0.013618571
000070 15 47 1d 3c 09 6b 6a 3c a9 29 a6 3a 5e 3b bd bc
       0.009599467 0.014307746 0.0012677211 -0.023099598
000080 b7 10 3f bc 2d db 0f bd ea b6 23 3b b9 b6 61 3c
       -0.0116617 -0.03512113 0.0024980851 0.013776475
000090 7b ea bb 3b 73 2a 6e 3c aa f8 81 3b ed d2 fd 3b
       0.0057347394 0.014536488 0.0039664106 0.0077460916
0000a0 cc 4d 75 bc b8 69 e6 3b ff 62 6b bc 27 32 66 bc
       -0.0149721615 0.0070316456 -0.014366864 -0.014050043
0000b0 93 2c 07 3a 38 70 d3 3a b3 c4 bc ba d2 4c bc bc
       0.00051564834 0.0016131466 -0.0014401883 -0.02298585
0000c0 af 82 be 3c fa c0 f9 bc 02 34 a1 3c 47 a0 ae 3c
       0.023255674 -0.030487526 0.01967812 0.02131666
0000d0 66 36 89 3c 51 09 79 bc 96 20 57 ba 07 96 ac bc
       0.016749572 -0.015199975 -0.0008206455 -0.021067632
0000e0 25 a9 0b 3c cf fb f5 bb c6 9c 65 3c fc 95 89 3b
       0.008524214 -0.0075068246 0.0140144285 0.0041987877
0000f0 a6 98 39 bc 0f e1 a6 3c 48 22 f4 bc 02 b1 67 bc
       -0.011327898 0.020370988 -0.029801503 -0.014141323
000100 c8 af d0 bb 2e 16 e1 3a 00 f8 ac 3b 87 c1 46 bc
       -0.006368611 0.0017172748 0.0052785873 -0.012131101
000110 82 d9 50 bc 78 f6 aa bc c4 94 58 3c da cd f2 3c
       -0.01274717 -0.020869479 0.013219062 0.029639173
000120 9b 24 9d 3c 31 d0 d0 3c 30 6b 48 3c 34 4f 2a 3c
       0.019182494 0.025489898 0.012232587 0.01039486
000130 bf 65 ac bb a4 e2 66 3c ef 83 3a bc 71 32 07 3b
       -0.0052611525 0.014092121 -0.0113839945 0.002062943
000140 23 2b 6f bb 5f f5 b9 bc 9a e7 36 3c c7 7b a3 bb
       -0.0036494217 -0.02270001 0.011163617 -0.0049891206
000150 b2 2e 92 3c e8 7f 6d bc 44 1b 9e bb 2a 24 13 3d
       0.017844532 -0.014495827 -0.0048250277 0.03592316
000160 39 07 ac bb 59 48 41 3d b6 cc 5c bc 69 4a 87 3a
       -0.0052498844 0.047188137 -0.013476541 0.0010321859
000170 4f ec 35 bb df d6 ab bc 80 f1 d8 3c 64 75 1c 3c
       -0.002775926 -0.020976482 0.026482344 0.0095494725
000180 96 22 5d bb 01 2c 51 3a 43 1c f6 ba 62 60 e9 bb
       -0.0033742539 0.00079792744 -0.0018776733 -0.0071220854
000190 a2 a4 01 3d e4 30 12 bd 37 de ab 3c 7b 73 23 3c
       0.031651147 -0.035691157 0.020979984 0.009976263
0001a0 26 13 a3 bb 7a 83 1a bc 65 9e b8 bb 95 09 e4 3c
       -0.004976648 -0.0094307605 -0.0056341165 0.0278366
0001b0 e6 49 c7 3c 8a fa 3c bd 44 0c 89 3c 73 86 36 3c
       0.02432723 -0.04613737 0.016729482 0.011140454
0001c0 df 2f 20 3c 07 ef 88 3c 19 ec bc 3a 39 37 72 bb
       0.009777038 0.01671554 0.0014413624 -0.0036959185
0001d0 11 24 b9 3c d0 00 63 3c a0 f1 bc bc 02 71 ec 3b
       0.022600206 0.013855174 -0.023064435 0.00721562
0001e0 ad 8a 54 3a e8 56 57 3c ec 5d 8d 3c bd fb 0e 3c
       0.00081078225 0.013143279 0.0172567 0.008727011
0001f0 ca 10 01 bb 03 7a 08 bd 01 06 44 3b 74 a2 09 3d
       -0.0019693845 -0.033319484 0.0029910805 0.033602193
000200 70 3c 99 3c b9 4f 1d 3b a0 1d a7 3c 9c 88 91 bc
       0.018705577 0.0024003817 0.020399868 -0.017765336
000210 1f 04 2c 3d 94 e2 24 3b 5a a9 01 3c 44 4b 31 bd
       0.041996118 0.0025159465 0.007913912 -0.04328467
000220 9e 21 39 bc 3f 28 65 b9 f2 75 6b bc 75 0f a7 3c
       -0.011299519 -0.00021854135 -0.014371382 0.020393113
000230 5e 40 cc 3b b2 22 9f bc 27 b4 e5 3c 9e 95 ef 3c
       0.006233259 -0.019425724 0.028040005 0.029246148
000240 7b a0 88 3c 32 73 94 bb 42 0a 55 38 87 80 f3 3c
       0.016678086 -0.004530334 5.079271e-05 0.029724373
000250 fc e7 b6 3c 27 7d 30 bc 36 af b2 3c d3 b5 9a 3c
       0.022327416 -0.010772026 0.021812063 0.018885529
000260 5a a6 1c bc 56 a5 a9 3c dd 3b 15 bd 37 49 8f 3c
       -0.009561146 0.020708721 -0.036434043 0.017490966
000270 28 a0 63 bc 9d 28 84 3c 9e 82 23 3c c3 d2 f2 3b
       -0.013893165 0.016132647 0.009979872 0.0074103787
000280 fa 1d 9c bb 89 c8 dd bc d0 fe 73 3c e2 91 d2 3c
       -0.0047643157 -0.027073162 0.014892295 0.025704328
000290 30 80 d5 3c 5f 9d d6 3c cc 10 f4 b8 9a c5 e8 bc
       0.026062101 0.026198087 -0.00011637955 -0.028414536
0002a0 87 e8 e8 3c 26 be 80 3c 0e 4f bc 3c 9e 4d cb bc
       0.02843119 0.01571567 0.022986915 -0.024817284
0002b0 59 15 09 3d f9 02 e2 bb 74 c0 93 bb 8d 19 0b 3c
       0.033467624 -0.006897327 -0.004509026 0.0084899785
0002c0 03 a3 a6 bc 9a 04 4c bc 76 42 b8 bc 18 1b ad bc
       -0.020341402 -0.012452269 -0.022492629 -0.021131083
0002d0 9f ec ba 3c aa b9 80 3c d3 25 ff 3c 2e 31 23 bb
       0.022817908 0.015713532 0.031145966 -0.002490114
0002e0 75 4b 61 bc 54 12 72 3c 5d 43 16 bc 24 2c da bb
       -0.0137509005 0.014774878 -0.009171334 -0.006658094
0002f0 32 b1 89 3b fd 53 0b bd f2 36 85 bc 31 32 4c 3c
       0.0042020315 -0.034015644 -0.016261552 0.012463138
000300 f6 16 74 bc 89 8a f9 bb d9 58 e2 3c 6f 3b 6a bc
       -0.014898052 -0.0076153916 0.027630256 -0.014296397
000310 95 f4 b3 bc 88 1b fa 3c 41 60 90 bc 90 c6 73 3c
       -0.021967212 0.030530706 -0.017624022 0.014878884
000320 84 1e 59 3c f5 3a c4 3c 56 d1 97 3c d2 a2 cf 3b
       0.013251904 0.023953894 0.018532436 0.0063365484
000330 54 a5 6e bc 7b f0 71 bc ab 64 71 3c 38 fc 50 3c
       -0.0145657845 -0.014766808 0.014733474 0.012755446
000340 03 7d 47 bc de 40 1e bb 8f d7 f1 3b 9e ea f4 3a
       -0.012175801 -0.002414755 0.007380433 0.0018685644
000350 60 0f 0b 3d 92 46 08 3d 6f 2f 08 3c 9c 13 5b 3b
       0.03395021 0.033270426 0.00831209 0.0033428436
000360 91 01 cd 3a e5 dd 12 bc 69 a5 bd bb 1a d8 bb 3c
       0.0015640726 -0.008964037 -0.0057875407 0.022930194
000370 e2 d3 07 bc 79 9a 78 bc 0f c5 8d bc 3b ca 04 3c
       -0.008290263 -0.015173548 -0.017305879 0.008104856
000380 bf bd f6 3c 60 68 95 3c c2 2c 7b 3c 1f 5f 3c 3c
       0.030119775 0.018238246 0.015330495 0.011497288
000390 e5 a6 56 3d 72 e8 e0 3c b9 7d 8b 3c 59 36 8d bb
       0.052405257 0.027454589 0.017027723 -0.0043094573
0003a0 fa c0 68 3c 04 b8 02 3b b9 ab 6d 3c e0 23 21 3c
       0.014206165 0.0019946108 0.014506274 0.009835213
0003b0 9a b1 30 3c 14 76 97 3b 28 59 4d 3b fa 1a 81 3c
       0.010784531 0.0046222303 0.003133366 0.015759934
0003c0 4c a3 a0 3c 60 3e 0d bd 70 c2 36 3c e1 11 c9 3b
       0.019609116 -0.034483314 0.011154756 0.0061361645
0003d0 fb 43 f0 3c 82 6a e8 bb f1 fe 6b 3a c8 1b 7f 3c
       0.02932929 -0.007092775 0.0009002528 0.015570588
0003e0 68 44 0e 3d 81 a4 b4 bb 4d 3f 15 bd 68 49 a4 3c
       0.034733206 -0.0055127745 -0.03643732 0.020054534
0003f0 3d 31 a7 bc 21 3e 15 bd 3f f6 94 bc 73 8a f7 bc
       -0.02040922 -0.036436204 -0.018183826 -0.030217385

layers.0.lin.weight f4 [256, 128]
000000 f0 59 d5 3d 56 c9 8f 3e f9 ba 01 be 11 80 2e 3e
       0.10417545 0.28083295 -0.1266898 0.17041041
000010 50 6a 53 3e 85 2b 84 3e a7 41 35 be 97 3e 0a 3d
       0.20646024 0.25814453 -0.17700826 0.033751097
000020 09 e5 13 be bc d7 a7 3c d6 46 48 be 9f ba 45 be
       -0.14442839 0.020488612 -0.19558272 -0.19309472
000030 f1 9b 08 3c 74 9b b9 3d f7 87 4b bd b5 c9 ff 3d
       0.008337961 0.090628535 -0.049690213 0.124896444
000040 f9 89 97 3d 93 7b 6c bd 08 23 2c be 87 bc 70 bd
       0.07399363 -0.057735037 -0.16810238 -0.058773544
000050 0c 8d 81 3d 3b e1 01 3e 63 79 e6 bd d4 cf b3 bd
       0.06325731 0.12683575 -0.112536214 -0.087798744
000060 96 38 8e bd ae b9 cc 3d 87 a9 82 bd fc dd 57 3d
       -0.06944387 0.09996353 -0.06379991 0.052701935
000070 9b 50 48 bc bb 81 17 bc f7 d5 5e bd 80 33 d9 3c
       -0.012226249 -0.009247239 -0.05440327 0.026513815
000080 dd 54 57 3e 8a c0 14 3e bb 1c b0 be 04 1f d7 bd
       0.21028467 0.14526573 -0.3439692 -0.10503963
000090 92 e8 c3 bd e4 44 a1 3d 49 ee 7f 3d 53 d7 04 be
       -0.09565844 0.07874468 0.062483106 -0.12972765
0000a0 e2 83 44 3e 55 0e 68 3e b3 53 24 3c 96 7c a7 bd
       0.19190934 0.22661717 0.010029721 -0.0817806
0000b0 e5 aa c0 bc 15 b3 25 3d 7d d0 06 bd b2 ea 0d be
       -0.023518989 0.04045399 -0.032913674 -0.1385906
0000c0 ea f2 cd 3d c7 b9 86 3d de a8 4f bd 7b 7d bb 3e
       0.10056098 0.06578403 -0.050698154 0.36619172
0000d0 3f fd da bc 4a ce d7 bc 5b 20 1f be 3b 64 a2 3c
       -0.026732085 -0.026343483 -0.15539686 0.019823184
0000e0 9a 74 ae bc d4 7b 37 3e 32 a9 0e 3e 3d ca 02 be
       -0.021295834 0.1791833 0.1393173 -0.1277246
0000f0 02 e9 58 3d 30 58 93 bd dd 26 35 3e 6e a0 9f bd
       0.05295659 -0.07194555 0.17690606 -0.077942714
000100 06 44 9f 3d bf 39 f2 3d c1 a2 a5 bc 1a 40 f1 bc
       0.07776646 0.118274204 -0.020219209 -0.029449511
000110 1d 6d e0 bd a4 fa af 3d 24 1e 73 be b3 a1 0f be
       -0.10958312 0.08592728 -0.23741966 -0.14026527
000120 c2 c7 5b 3e 2e aa 60 bd de 4a 6f 3c 28 6d 54 bd
       0.2146292 -0.054849796 0.014605252 -0.051861912
000130 6e 5b 80 3d 0f 9b 2c be 8f 8a 81 bb 28 c6 6e 3e
       0.06267439 -0.16856025 -0.003953285 0.23317778
000140 ae fd 61 3d 4c d0 12 be 99 b6 96 bd d4 93 90 bc
       0.05517357 -0.14337271 -0.073590465 -0.017648615
000150 fe 4a 94 3d a3 1b 11 3d ad 61 2b 3e ac 90 30 3e
       0.07240866 0.035426747 0.16736479 0.17242688
000160 b7 82 dd 3d a4 ff d5 bc 4a 3e 2a 3e 0d 03 6a 3c
       0.108159475 -0.026122876 0.16625324 0.014282954
000170 67 7e 7e 3c c3 4f bc bd 14 24 1b bd 46 48 4e be
       0.015533066 -0.09194901 -0.037876204 -0.20144758
000180 72 9b 83 bd 78 df 07 be 02 db fb 3c 7b 2a 42 3e
       -0.06426133 -0.1326884 0.03074408 0.18961518
000190 b3 62 27 be 2c 2c f7 bb 15 39 68 3e 3c 30 13 be
       -0.16346245 -0.0075431075 0.22678025 -0.14373869
0001a0 94 38 c2 bc 99 7e e1 3d dd 6f 57 be 4e 07 e3 bd
       -0.02370862 0.11010475 -0.21038766 -0.11085378
0001b0 10 9e 52 3d 0c e1 03 bd 54 5f 16 be da a2 2f 3e
       0.05142027 -0.032197043 -0.14684802 0.17151967
0001c0 7c ee 9b be 9e c5 7f 3e e8 c9 6a be 04 b3 f5 bd
       -0.30455387 0.24977729 -0.22928584 -0.11997035
0001d0 08 77 47 be 0a 2c 01 be 76 3a dc 3d e6 cd 11 be
       -0.19479 -0.12614456 0.10753338 -0.142387
0001e0 0c 6f 2e be 1b 63 25 bc 96 96 1c be 5a 20 4f 3d
       -0.17034549 -0.010094429 -0.15291819 0.050567962
0001f0 b4 e4 1b be 0e 1b 86 3e 13 1a 80 3d ea 24 35 bd
       -0.15223962 0.26192516 0.06254973 -0.044224657
000200 d0 15 44 3e 7e 69 d3 bd ff bf 49 be 10 9f 94 bc
       0.19148946 -0.103228554 -0.19702147 -0.018142253
000210 dc 69 2f be 2e f4 25 3e e8 88 60 be d8 97 e1 3d
       -0.17130226 0.16206428 -0.21927226 0.1101529
000220 9b a8 17 3d 43 44 d6 3d a5 d7 03 3e 31 97 29 3e
       0.03702603 0.10462239 0.1287523 0.16561581
000230 28 aa 92 bd a6 c9 5f 3e c6 95 82 3e 32 33 c3 bd
       -0.07161361 0.21854267 0.25504893 -0.09531249
000240 ed 11 5a 3c 13 81 c1 3d 5b d3 72 3d f5 1a 81 bc
       0.013309938 0.09448447 0.059283596 -0.015759924
000250 48 7e 88 bc 33 13 f2 3d ca e0 0c 3e 8c 26 09 3c
       -0.016661778 0.11820068 0.13757625 0.008371007
000260 61 85 75 be 36 74 3a 3b 9b ae f4 bd ef 17 e1 bd
       -0.23976661 0.0028450615 -0.11947366 -0.10990893
000270 03 d9 45 3d 84 7a 40 be e3 46 bc 3d fe 82 98 3c
       0.04830266 -0.18796736 0.09193208 0.01861715
000280 2f 4d 0c bd 72 c9 12 3b dd 4a b5 bc d6 92 ce bd
       -0.034253296 0.0022397903 -0.022130424 -0.100866005
000290 e9 31 e2 3d 67 89 10 3e 7f 6c 09 3e 61 b9 01 be
       0.11044676 0.14114915 0.13420294 -0.12668373
0002a0 64 14 62 3e 98 24 ad 3d c7 55 48 3d bd 7a d0 3c
       0.22078091 0.08454245 0.04890993 0.025449151
0002b0 c2 a7 56 be 2d b1 db bd a8 86 40 3e 6a c0 85 bc
       -0.20962432 -0.10727153 0.18801367 -0.016327102
0002c0 bd dd 54 3e 95 67 20 3e d8 d1 58 bd 15 71 23 3d
       0.20787711 0.15664513 -0.052934498 0.039902765
0002d0 4e fe ce 3d d4 7e b1 3c e3 4b c4 3d c1 69 8d bc
       0.101070985 0.021666922 0.09584787 -0.017262341
0002e0 d4 96 84 3d 2f 8e c6 3c 45 22 1d be 7f 98 0f be
       0.06474081 0.02423772 -0.15345104 -0.14023016
0002f0 d1 45 c1 3d c4 6c 0f 3e ec d7 dc bc 4e 18 d5 3e
       0.094371445 0.14006335 -0.026958428 0.41620106
000300 7c 62 f0 3b f6 fc 19 3d 55 e6 68 bc 00 e4 f1 3c
       0.007335959 0.037594758 -0.014215072 0.029527664
000310 44 4b 25 3d 8a 3d 35 3c 0e 3d 42 be 04 a7 29 bd
       0.040354982 0.011062035 -0.18968603 -0.041419044
000320 bf 79 a5 3d d4 25 62 be 53 91 e4 bd 7a da 11 3e
       0.08079862 -0.22084743 -0.11160531 0.14243498
000330 82 76 40 bd fb fa dd bd 4d 0a 00 3c 13 e3 3d 3d
       -0.046988018 -0.10838886 0.007814956 0.046359133
000340 ff 0f 7b 3d 99 4e 18 be 3c 6e c1 3c be 33 1b 3e
       0.061294552 -0.14873733 0.023612134 0.15156457
000350 a4 d3 34 bd c5 af ec bd 1c ac af bc 4a e6 89 bd
       -0.04414715 -0.11556963 -0.021444373 -0.06733377
000360 03 92 c9 bd 63 cf 2a bd d6 ef 55 3e 8d dc 45 3e
       -0.09842303 -0.041701686 0.20892271 0.19322415
000370 e8 39 4c be 41 99 cd bc 0f 46 97 be 9e 22 43 be
       -0.19943964 -0.025097491 -0.29545638 -0.19056174
000380 bb 05 ac bd 7b 47 89 3e be 07 36 3e f0 40 5c 3e
       -0.083995305 0.26812348 0.17776391 0.21509147
000390 c9 60 fb bc 92 19 d0 bd d0 0b d3 3d 23 73 90 be
       -0.0306858 -0.10161127 0.103049874 -0.28212842
0003a0 72 ef fc bd 3f cf 2f be 92 c2 ae bb 72 b0 bd 3c
       -0.12350358 -0.17168902 -0.005333253 0.023155425
0003b0 67 b4 e2 3d bd 29 bc bd aa 55 44 bd 20 fb 43 3d
       0.11069565 -0.091876484 -0.047933258 0.047846913
0003c0 7d 3d b9 bc 03 3e 9c 3d 3d af c9 3d 99 af 19 be
       -0.022612328 0.07629015 0.09847877 -0.15008391
0003d0 3a fa 52 bd 07 87 85 be a8 47 b5 3d b3 97 b4 be
       -0.051508166 -0.2607958 0.08851558 -0.35271987
0003e0 47 e0 12 be 72 04 28 3e 62 f1 48 bd 70 3f 5e be
       -0.14343368 0.16407946 -0.049058326 -0.21703887
0003f0 07 45 48 be fb 24 91 3d 1f 31 83 3d a6 07 13 be
       -0.19557582 0.070871316 0.064058535 -0.14358386

layers.1.bias f4 [40]
000000 6a 48 d4 bd 92 e9 f1 bd b3 a5 d6 3d 1c 34 29 be
       -0.103653744 -0.11812128 0.10480823 -0.16523784
000010 9e 71 5b bd e0 44 00 3e 24 69 a7 bd ab 18 36 be
       -0.05357515 0.12526274 -0.08174351 -0.17782848
000020 7d f4 8f 3d 00 65 7e bd 22 1f f6 3d 82 37 01 be
       0.07029054 -0.06210804 0.12017657 -0.12618831
000030 7b c0 93 bd fd 37 1a be 00 2d 84 bd 2f f1 96 be
       -0.07214447 -0.1506042 -0.064538956 -0.29480883
000040 ba 18 40 bb a3 fd 12 bd 24 0b c1 bc 48 93 8b 3b
       -0.0029311613 -0.035886418 -0.023564883 0.0042595007
000050 8a 0e 2b bd 3f af 21 be ed 74 d8 bd ba 96 1d be
       -0.041761912 -0.15789507 -0.10569177 -0.15389529
000060 ad 30 0a 3e 1c fa 1f bd c0 10 27 3d 25 24 12 be
       0.13495131 -0.039056882 0.04078746 -0.142716
000070 de 9e 09 3e 6f 8a 06 be f0 be 07 3c 27 3b 25 be
       0.1343951 -0.13138746 0.008285269 -0.16135846
000080 7f 6a b4 bd 8a f5 a2 bd 7e d7 f3 3d 83 e2 06 bd
       -0.08809375 -0.07956989 0.11906336 -0.032930862
000090 ca 81 ff 3c 19 d5 ce bd af 6b e9 bd 9d 9a 49 be
       0.031189818 -0.10099239 -0.11397492 -0.19687887

layers.1.lin.weight f4 [40, 256]
000000 4a 4e 56 3e 8f cc 85 3d e6 37 62 3c 4d ed f8 3c
       0.20928302 0.06533157 0.013807273 0.030386591
000010 30 16 13 be e3 35 89 bd cb 71 46 3e ae ae 10 be
       -0.14363933 -0.06699731 0.19379346 -0.14129135
000020 33 b6 f2 bd 58 be be bd 4c 55 26 be 44 e5 ea bc
       -0.11851158 -0.09313649 -0.16243476 -0.028673775
000030 5f b0 9d 3d 3e 53 ee bd ca ce 43 3d bd 55 b2 3d
       0.07699656 -0.11636971 0.04780463 0.087077595
000040 84 ac 46 3d 4a f6 02 be 3b 43 88 3d 6c 45 a4 bd
       0.048504367 -0.12789264 0.06653448 -0.08021054
000050 d5 0e 95 bc 46 ea 04 3d 60 da 8e 3c 5b 15 62 3d
       -0.018195549 0.032449983 0.017438114 0.055196147
000060 3d 6f d5 3c 12 0e 10 bd 84 bc 6f be ac 52 61 3d
       0.02605402 -0.03516967 -0.23411757 0.055010483
000070 9c 45 4b be 41 d6 af bd ea e9 a0 bd 6a be 02 3e
       -0.19850773 -0.085857876 -0.078571156 0.1276795
000080 af 48 27 be 20 11 70 3e b0 ad 97 be c3 7f c3 3d
       -0.1633632 0.23444033 -0.296247 0.09545853
000090 9a 95 f4 3d ec 31 8f bd 14 bd 40 be e6 73 59 be
       0.11942597 -0.06991944 -0.18822128 -0.21235618
0000a0 26 2c 07 3c 40 7e 62 be 4f 7a 84 3e 7c b0 69 3d
       0.008250272 -0.22118473 0.25874564 0.057053074
0000b0 32 9b 2c be 9d 1a 26 be ff 14 2c 3e 72 8b d4 bd
       -0.16856077 -0.1622109 0.16804884 -0.103781596
0000c0 ee 4e 6f be 0f 20 ca 3d 23 9e 63 be 43 4b dc bb
       -0.23369953 0.09869396 -0.22228293 -0.006722839
0000d0 51 a0 bd bd a2 52 87 be e4 b8 f3 3c c3 d1 93 3b
       -0.092590936 -0.2643023 0.029751249 0.0045110895
0000e0 03 d1 23 3c 6b 57 1f 3e 97 70 68 3d a5 0b 16 3e
       0.009998563 0.15560691 0.056748 0.1465288
0000f0 bc 67 b0 bd 7a 37 a6 3d 2e 5d 61 3d e7 24 93 3d
       -0.08613536 0.0811605 0.055020504 0.07184773
000100 cd e8 0f 3c f6 37 e7 3d 06 e9 99 bd 43 66 9a 3d
       0.008783531 0.112899706 -0.07515149 0.07539036
000110 1c 64 14 3e ff 11 0e bd 21 99 07 be 83 59 4c 3d
       0.14491314 -0.03468513 -0.13242008 0.049890053
000120 fd ff 08 bc 82 69 c7 3d 2a 3a d8 bd ce c6 bf bd
       -0.008361814 0.09736921 -0.10557969 -0.09364091
000130 bc da 91 be a7 2a c0 bd 83 71 a5 3d 0f e9 2a be
       -0.28487194 -0.09383135 0.08078291 -0.16690467
000140 de 37 6c bd f5 c7 0b 3e cb 51 cb bd 20 85 3f be
       -0.057670467 0.13650496 -0.0992771 -0.18703127
000150 a7 11 57 bd 65 75 c5 3d 3c 85 92 bc 52 63 34 be
       -0.05250707 0.09641532 -0.017885797 -0.17616013
000160 ee d6 0c 3e c8 b9 15 3d f2 8c 17 bd dc 5b 57 be
       0.13753864 0.036554128 -0.03699965 -0.21031135
000170 4b e1 89 3d b6 8f dd 3c d4 5b 2b be a4 ff 6e 3c
       0.06732424 0.027046066 -0.16734248 0.014587317
000180 92 29 1b 3d 3d ff a5 3d 8a 84 67 bd b0 05 1c 3e
       0.03788144 0.081053235 -0.056522883 0.15236545
000190 04 cb 50 3e a9 9f b8 3d c0 fb 8d 3d cd 3d f5 3c
       0.20389944 0.09014828 0.06932783 0.029936695
0001a0 d4 06 04 3e fa ab 3e 3e 21 19 74 bd 9b eb cd bd
       0.1289323 0.18620291 -0.059594277 -0.10054704
0001b0 6d 09 45 3d 08 a7 a1 bd 6e 65 38 be bc f9 6b 3c
       0.048104692 -0.07893187 -0.18007442 0.014402803
0001c0 df c2 0a 3e a7 8e 8a bb be 07 80 be c7 22 70 3d
       0.135509 -0.0042284313 -0.25005907 0.058626916
0001d0 e6 d1 27 3e 7d 4d 4b be 00 be 19 be ca 94 d1 3d
       0.16388664 -0.19853778 -0.15013885 0.102334574
0001e0 90 88 0a 3e 35 39 35 bd ec c0 18 3e 9b 42 76 be
       0.13528657 -0.04424401 0.14917344 -0.24048845
0001f0 7a 40 f4 bb cc 08 01 be 40 77 3f 3e 95 90 16 3e
       -0.0074539753 -0.12601012 0.18697834 0.14703591
000200 d4 df ac 3d 58 be 0d 3d bc 54 27 3d 48 b3 fe bd
       0.08441129 0.034605354 0.040852293 -0.12436539
000210 d7 31 41 bd e4 de bf 3d 56 31 2f 3d f5 58 b3 3d
       -0.04716667 0.09368685 0.04277166 0.087572016
000220 84 06 66 bd 77 27 38 be 71 9c 86 bc 22 30 e0 bd
       -0.056158558 -0.17983805 -0.016432019 -0.109466806
000230 5a 6d cc bb 13 70 2e 3b da e3 6a be a2 e8 ca bd
       -0.0062386217 0.0026617094 -0.22938481 -0.099076524
000240 06 9a cd bc 8c 3b c8 3d 2a a7 b8 bc 83 9e 09 3c
       -0.025097858 0.09776983 -0.022540648 0.008399609
000250 90 04 15 bd 24 26 f4 3d 1f bd 73 bd 45 94 90 3d
       -0.036381304 0.11921337 -0.05950653 0.0705953
000260 6d fd 13 be 16 fb b0 bd d9 02 48 bc 90 fa fe bd
       -0.14452143 -0.08641641 -0.01220771 -0.12450135
000270 38 da 26 bd de 58 a4 3d 9c fb 20 3d 4d 45 e9 3d
       -0.040735453 0.080247626 0.039302453 0.11390171
000280 d1 a9 77 bd 24 1c 70 3d eb 06 b8 bd 74 e4 8f bd
       -0.060464684 0.058620587 -0.089856945 -0.07025996
000290 92 2f ac 3d 89 4f a3 3d cd 50 dd 3d dc 3e 73 bd
       0.08407511 0.079741545 0.10806427 -0.05938612
0002a0 bd ae 93 bd 18 a2 72 bd c2 1b 90 bd 20 f5 4d 3a
       -0.07211063 -0.059236616 -0.070365444 0.0007856656
0002b0 c6 12 df 3d 68 a8 53 bb d9 69 e6 bd d9 24 81 be
       0.108922526 -0.0032296423 -0.112506576 -0.25223425
0002c0 2a 97 10 be 77 62 72 bd ca f1 d3 3d d8 21 83 3d
       -0.14120165 -0.059175935 0.10348852 0.064029396
0002d0 81 a5 1e 3e c7 0f 32 3c 3c d1 ff bd a3 9b 3d bc
       0.15492822 0.010868019 -0.1249108 -0.011572751
0002e0 7c 97 02 3e db 43 cd 3d 2c cc 83 bc fe d8 15 3c
       0.12753099 0.10022708 -0.016088568 0.009145973
0002f0 00 54 42 3e d7 57 8b 3d b0 50 9a 3d 62 98 c1 3d
       0.18977356 0.068038635 0.07534921 0.09452893
000300 4c 65 a4 bd 14 9d 2a be 9f fc 84 3b a6 58 8c bd
       -0.08027133 -0.16661483 0.004058435 -0.06852846
000310 36 2a 49 be 56 3a 8e 3d f8 45 46 be aa 1e 35 3d
       -0.19645008 0.069447204 -0.19362628 0.044218697
000320 19 53 3d be 17 ef 3a be f7 1a 06 3e 76 f0 e8 3d
       -0.1848873 -0.18255268 0.13096224 0.11373989
000330 2f 6c 65 3e db 50 7b 3e 38 66 28 be 2a 45 1c be
       0.2240455 0.24542563 -0.16445243 -0.15260759
000340 72 71 81 bd 7d 8f 3b be 59 2d d1 bc a8 50 73 3d
       -0.06320466 -0.18316455 -0.025534319 0.05940309
000350 12 fb 4b bd 71 89 31 be a7 0c a6 bc f8 fa 23 3d
       -0.049799986 -0.17337586 -0.020269705 0.040034264
000360 fc 55 bc bd 64 ac 5c be 45 51 da bd d4 f2 7d be
       -0.09196088 -0.21550137 -0.10660032 -0.24799663
000370 8e b6 12 3e 1c 7b 2d 3d d2 ae a0 3d 80 46 3b 3e
       0.14327452 0.042353734 0.07845844 0.18288612
000380 bc da 88 bd c6 6c 90 3d 62 d3 31 be 81 90 32 3e
       -0.06682345 0.07051997 -0.17365792 0.17437936
000390 e1 bc bc bd a7 c7 9b bd 6e 31 98 be b5 45 23 be
       -0.09215713 -0.0760644 -0.29725212 -0.1594456
0003a0 76 b2 8f 3d f5 d0 09 3e 4a f3 65 bc f7 6f 03 be
       0.070164606 0.13458617 -0.014035055 -0.1283568
0003b0 1e 2d 7c be 3b 53 fe bd 79 c3 29 be 87 c2 36 3e
       -0.24626586 -0.12418219 -0.16578473 0.17847644
0003c0 0b 39 51 bc e4 51 1f be d2 18 63 bb b2 d6 0f be
       -0.012769948 -0.15558583 -0.0034652245 -0.14046744
0003d0 4b f4 20 bd 3f da 88 bd e0 ff 00 be f2 b9 30 be
       -0.039295476 -0.06682252 -0.12597609 -0.17258433
0003e0 09 b1 83 3d 78 2d dc bc e0 a7 58 3c 8f e8 52 3d
       0.06430251 -0.02687715 0.013223618 0.051491316
0003f0 f4 f2 b5 bd 3f b3 00 3c 38 e8 3a be 3e 01 31 3e
       -0.0888423 0.007855236 -0.18252647 0.1728563

bns.0.weight f4 [256]
000000 03 c4 82 3f 4b 91 83 3f e8 51 61 3f 8f 05 74 3f
       1.0216068 1.0278715 0.88015604 0.9532098
000010 34 40 7e 3f 4f 66 7e 3f 91 c4 74 3f 76 b3 80 3f
       0.99316716 0.9937486 0.95612437 1.0054767
000020 f6 b6 6c 3f 20 0f 67 3f 5e 59 7f 3f c2 50 95 3f
       0.92466676 0.90257454 0.9974574 1.166527
000030 ff a4 6e 3f 30 83 7b 3f d9 5e 74 3f 07 ac 6c 3f
       0.93220514 0.9824705 0.95457226 0.9244999
000040 44 c6 73 3f 7e 04 82 3f 57 fc 92 3f 3a 3e 84 3f
       0.95224404 1.0157621 1.1483258 1.033149
000050 9f ad 72 3f 37 ec 7c 3f 5a 6b 7e 3f 8d 9f 8f 3f
       0.94796175 0.98797935 0.99382555 1.1220566
000060 f7 17 82 3f 0a a7 83 3f 9b 31 7d 3f cb 4b 96 3f
       1.0163563 1.0285351 0.98903817 1.174188
000070 bf 11 a9 3f 22 dc 88 3f 07 87 73 3f d0 c8 78 3f
       1.3208541 1.0692179 0.9512791 0.97181416
000080 40 64 82 3f 8d 67 90 3f 43 21 92 3f 61 6e 6c 3f
       1.0186844 1.1281601 1.1416401 0.92355925
000090 b3 d4 7c 3f 91 50 80 3f 76 92 82 3f 7d d8 90 3f
       0.98762053 1.0024587 1.0200946 1.1316067
0000a0 21 e7 94 3f 4b 8e 8d 3f f1 93 7f 3f 60 b9 80 3f
       1.1633035 1.1059049 0.99835116 1.0056572
0000b0 99 fc 82 3f e5 14 ad 3f d3 a2 8e 3f e2 18 7c 3f
       1.0233337 1.3522002 1.114344 0.9847547
0000c0 6d a3 82 3f 8f 5b 80 3f 9e 40 63 3f 57 f8 7d 3f
       1.0206124 1.0027941 0.88770473 0.9920706
0000d0 ea 89 85 3f 2c a8 86 3f d0 a3 79 3f ec 00 76 3f
       1.0432713 1.0520072 0.97515583 0.96095157
0000e0 e7 86 50 3f 47 90 84 3f fb e5 7f 3f 37 2b 6f 3f
       0.81455845 1.035653 0.999603 0.93425316
0000f0 9f ba 88 3f 8d 2c 83 3f 72 4c 7f 3f fd b6 76 3f
       1.0681952 1.0247971 0.9972602 0.9637297
000100 21 8b 8b 3f d9 d6 73 3f 7d df 96 3f 84 00 86 3f
       1.0901834 0.95249707 1.1786953 1.0468907
000110 ff 06 80 3f 30 eb 75 3f 78 f0 82 3f f2 15 80 3f
       1.0002135 0.9606199 1.0229635 1.0006697
000120 a0 36 75 3f 62 be 80 3f 93 a8 86 3f 4c ab 89 3f
       0.95786476 1.00581 1.0520195 1.0755401
000130 b1 ac 92 3f 9f ee 89 3f aa 1a 97 3f ee f5 67 3f
       1.1458951 1.0775946 1.1805012 0.90609634
000140 f8 7f 89 3f 85 cb 84 3f 43 f3 73 3f bc f6 72 3f
       1.0742178 1.0374609 0.9529306 0.94907737
000150 72 76 75 3f 4e 47 81 3f 2d 75 72 3f 06 80 6f 3f
       0.9588386 1.0099885 0.94710046 0.93554723
000160 26 11 84 3f 5c 2a 87 3f b4 a0 88 3f 69 e2 8b 3f
       1.0317733 1.0559802 1.0674043 1.092847
000170 a4 52 83 3f f5 c5 8a 3f 81 34 58 3f 37 ad 70 3f
       1.0259595 1.0841662 0.84455115 0.94014305
000180 1d 7d 80 3f 67 03 88 3f 6c bc 81 3f 0d b4 57 3f
       1.0038182 1.0626038 1.0135627 0.8425911
000190 86 53 81 3f 31 09 85 3f a1 26 6e 3f a5 f6 67 3f
       1.0103614 1.039343 0.93027693 0.90610725
0001a0 a7 99 7c 3f d2 5c 7f 3f 26 e0 88 3f 2d 86 80 3f
       0.98671955 0.9975101 1.0693405 1.0040947
0001b0 57 84 7d 3f 77 e9 8b 3f f1 34 87 3f d9 8e 7a 3f
       0.9903006 1.0930623 1.0563031 0.9787422
0001c0 19 63 87 3f f3 df 78 3f 7f 34 8d 3f 26 99 80 3f
       1.0577117 0.9721672 1.1031646 1.0046737
0001d0 60 1d 75 3f 3b 59 82 3f 9f d8 87 3f ca b7 7c 3f
       0.9574795 1.0183481 1.0612983 0.9871794
0001e0 63 da 92 3f ca bc 81 3f 63 09 84 3f 9a 5a 81 3f
       1.1472896 1.0135739 1.0315365 1.0105774
0001f0 f7 e8 7b 3f 94 c2 70 3f 02 2a a2 3f f3 e6 85 3f
       0.9840235 0.940469 1.266907 1.0461105
000200 bc d5 6e 3f 8a 23 55 3f 41 a5 76 3f 97 fc 80 3f
       0.9329488 0.83257353 0.9634591 1.0077084
000210 29 eb 86 3f 08 38 79 3f b0 94 87 3f 5e 28 7f 3f
       1.0540515 0.9735112 1.0592251 0.9967097
000220 77 33 87 3f 6c 66 95 3f a6 b2 81 3f 0b 82 80 3f
       1.0562581 1.1671882 1.0132644 1.0039686
000230 a9 37 88 3f b8 69 81 3f 97 7a 86 3f e7 0d 62 3f
       1.0641986 1.0110388 1.0506161 0.88302463
000240 c8 77 65 3f 87 7c 7b 3f 45 ec 87 3f 3f 54 7a 3f
       0.89635897 0.9823689 1.0618979 0.977848
000250 dc 36 84 3f fe 1b 86 3f fd 5f 87 3f f6 0f 84 3f
       1.0329242 1.0477293 1.0576168 1.0317371
000260 71 53 7b 3f d3 06 8b 3f 8a 1a 6d 3f 0a 83 78 3f
       0.98174196 1.0861458 0.9261862 0.9707495
000270 61 87 6d 3f f7 3b 73 3f 8e b7 78 3f 8d 6b 80 3f
       0.92784697 0.95013374 0.9715508 1.0032822
000280 9d 38 8b 3f 51 11 68 3f d3 f5 9e 3f f6 b5 96 3f
       1.0876652 0.9065142 1.241877 1.177428
000290 d4 cb 74 3f 7a ff 83 3f 9c 9f 81 3f 4e 07 7b 3f
       0.9562352 1.031234 1.0126834 0.9805802
0002a0 0c 53 83 3f ce b8 93 3f 70 9d 7a 3f 75 d0 6b 3f
       1.0259719 1.1540773 0.9789648 0.92114955
0002b0 1b 3c 7b 3f 83 5a 88 3f 60 fc 68 3f be d1 a2 3f
       0.9813859 1.0652622 0.91010094 1.2720258
0002c0 ec 26 86 3f f0 a7 8b 3f b2 a0 a2 3f fd 82 83 3f
       1.0480628 1.0910625 1.270529 1.027435
0002d0 c2 34 7e 3f 6a fe 71 3f 90 a0 5f 3f 5d 1b 82 3f
       0.9929925 0.9452883 0.87354374 1.0164601
0002e0 ef f7 89 3f c8 24 94 3f 43 ad 9f 3f ed d5 83 3f
       1.0778788 1.1573725 1.247475 1.029966
0002f0 ff b7 98 3f 1b 2b 71 3f 9c 53 94 3f 11 74 79 3f
       1.1931151 0.942064 1.1588016 0.9744273
000300 7b 53 91 3f d5 48 8f 3f 75 ef 78 3f 77 cf 5f 3f
       1.1353601 1.1194102 0.9724038 0.8742594
000310 03 95 87 3f b3 da 65 3f cc 23 88 3f 96 62 52 3f
       1.059235 0.89786834 1.0635924 0.8218168
000320 60 d1 72 3f 2b bd 87 3f 73 a0 77 3f 8a c4 8e 3f
       0.9485073 1.0604604 0.967292 1.1153729
000330 19 7b 87 3f 56 0a 95 3f 91 cd 8b 3f aa 2a 8d 3f
       1.0584441 1.1643779 1.0922109 1.1028645
000340 84 e4 89 3f 5e 0a 98 3f f9 95 8f 3f 59 d2 80 3f
       1.0772862 1.1878164 1.1217643 1.0064193
000350 0c c1 88 3f 1c 24 79 3f 19 9d 83 3f d8 85 86 3f
       1.0683913 0.97320724 1.0282317 1.0509596
000360 20 87 81 3f 14 b5 83 3f 18 9b 8b 3f 87 5d 7e 3f
       1.0119362 1.0289636 1.0906706 0.9936146
000370 b1 e7 8a 3f d6 6a 73 3f 3d ad 90 3f 5e dd 9c 3f
       1.0851957 0.95084894 1.1302868 1.2255056
000380 1a b0 52 3f d1 0c 82 3f ea 91 80 3f d1 5e 97 3f
       0.8229996 1.0160161 1.004453 1.1825811
000390 ab b4 7d 3f 9b 96 82 3f 4c ef 8c 3f 09 9d 80 3f
       0.991038 1.0202211 1.1010528 1.0047923
0003a0 75 35 70 3f f5 db 97 3f 86 ed 7a 3f f2 37 87 3f
       0.9383157 1.1864 0.9801868 1.0563948
0003b0 79 c0 89 3f 8a b8 71 3f 39 1c 83 3f e1 2a 87 3f
       1.0761863 0.9442221 1.0242988 1.0559961
0003c0 0a fc 9b 3f 43 7d 86 3f 9c 4c 87 3f 09 3c 6e 3f
       1.2186291 1.0506977 1.0570254 0.93060356
0003d0 00 fa 6e 3f ad ef 86 3f 50 72 8e 3f f4 60 72 3f
       0.9335022 1.0541893 1.1128635 0.9467919
0003e0 bb ad 76 3f 07 74 88 3f 29 9d 87 3f fe 83 80 3f
       0.9635884 1.0660409 1.0594836 1.0040281
0003f0 2b b9 8e 3f da aa 7d 3f 65 a9 7e 3f 48 8e 86 3f
       1.1150259 0.99088824 0.99477226 1.0512171

bns.0.bias f4 [256]
000000 01 e4 95 bd 3a 40 44 bd 8e 94 ff bd ae 10 71 bd
       -0.07318879 -0.047912814 -0.124795064 -0.058853798
000010 2f 8d e1 bd e7 d4 0b be 8f 21 b1 bd c3 65 42 be
       -0.11013257 -0.13655435 -0.08648979 -0.18984132
000020 fd 98 07 be ab eb 1c be 04 4d 39 3d 48 d1 30 be
       -0.13241954 -0.15324275 0.045239463 -0.17267334
000030 e2 71 92 bd 19 f0 80 be db 4a 45 bd 81 fe 4e 3d
       -0.07150628 -0.2518318 -0.04816709 0.050535683
000040 f7 0d c6 bd c1 43 ec bd a0 e0 fd bd b5 79 08 be
       -0.09670632 -0.115363605 -0.123963594 -0.13327678
000050 67 98 10 be 98 b4 bd bd 82 11 05 be c3 80 82 bd
       -0.14120637 -0.09262961 -0.1299496 -0.063722156
000060 d9 a1 0a be 14 31 2d 3e ff d3 f4 bd 29 21 6a be
       -0.13538302 0.16913253 -0.119544975 -0.22864212
000070 5c 72 8b bd 95 ca 7f bd 5e d1 3f be b3 a5 27 bd
       -0.06808922 -0.062449057 -0.18732211 -0.040929507
000080 23 01 cc bd 13 26 8a bd 21 c3 d8 bd 65 89 80 bd
       -0.09961154 -0.06745543 -0.10584093 -0.06276206
000090 9d 1f a2 bc 6a c6 b2 bd 75 f4 b7 3c 33 39 f0 bc
       -0.019790465 -0.08729251 0.022455433 -0.02932415
0000a0 3d 15 24 bc 06 36 0f be b8 a8 f4 bd 64 4d 17 bd
       -0.010014829 -0.13985452 -0.11946243 -0.03693904
0000b0 8d 64 d5 bd 7a b0 bd bd cb 72 f1 bd 2d cc dd bd
       -0.10419569 -0.09262176 -0.11789473 -0.10829959
0000c0 07 49 85 bd 1a 31 a1 bd 43 8d 28 be 5c 9f 1c bd
       -0.065080695 -0.078706935 -0.16460137 -0.038237914
0000d0 78 b5 a5 bb ad 65 09 be d3 63 52 bd 5a 0b 70 bd
       -0.005057033 -0.13417692 -0.05136473 -0.058604576
0000e0 d4 f2 fa bd dd 2b 04 bd ee e8 b4 bd 11 39 4b bd
       -0.12253347 -0.032268394 -0.0883349 -0.04961497
0000f0 26 e6 53 be f0 bf 6e 3d d9 8c a3 bd 6e d0 b6 bd
       -0.20693263 0.058288515 -0.07985849 -0.089264736
000100 e4 3d bb bd 94 05 92 bd b9 20 bf bc 5e 94 02 be
       -0.09142664 -0.0712997 -0.023331033 -0.1275191
000110 bc b9 e1 bd e8 73 98 bd b5 55 49 bd 3e 3f f8 3c
       -0.11021754 -0.07443982 -0.049154002 0.030303594
000120 41 d7 18 be a8 27 9f bd 41 97 69 3d 3f 40 15 be
       -0.14925863 -0.07771236 0.057029013 -0.14575289
000130 44 86 93 3d b8 9b 82 3c 9f fd 1f be fd ad 42 be
       0.072033435 0.015943393 -0.15624093 -0.19011684
000140 ec a8 c4 3c 06 08 97 bd 0a 0c dc bd 6f f0 2f be
       0.02400633 -0.07374577 -0.10744484 -0.17181562
000150 97 c8 ae bc 17 91 5f bd a2 1e e1 bd 9c 92 13 be
       -0.021335883 -0.054581728 -0.10992171 -0.14411396
000160 d4 0a d6 bd 0c a2 0c 3d 54 e4 81 bd c9 0a 46 be
       -0.10451284 0.034334227 -0.06342378 -0.19340052
000170 7f 48 28 be f4 3d 99 3d 93 4e cb bd e1 42 dc bc
       -0.16433905 0.0748252 -0.09927096 -0.02688736
000180 42 e4 53 3b 6f 3e 08 3d 28 62 0b be 67 ac 2f be
       0.0032332097 0.033262666 -0.13611662 -0.1715561
000190 13 97 52 3d 06 b2 7f 3b 79 4a 23 bd 33 53 fa bd
       0.051413607 0.0039016022 -0.039865945 -0.122229
0001a0 71 cb 0d bd 14 88 a1 bd 39 59 17 be 38 a1 b3 bd
       -0.034617845 -0.07887283 -0.1478013 -0.087709844
0001b0 aa 08 1e bd b5 96 00 3d 06 1b 93 bd f3 30 19 be
       -0.03858248 0.031393725 -0.07182889 -0.14960079
0001c0 9e e6 16 bd 33 2a 0a be 7c 54 57 be 3b 71 45 bd
       -0.036841027 -0.1349266 -0.21028322 -0.048203688
0001d0 95 e8 58 bd 3c 12 c4 bd 66 b1 85 3d 40 aa 8d bd
       -0.052956183 -0.095737904 0.06527977 -0.06917238
0001e0 46 89 e1 3d 74 09 60 3d a2 44 83 bd 0b ef f4 bd
       0.11012511 0.054696515 -0.06409575 -0.11959656
0001f0 a9 75 13 bc 6c 8b ea bd b5 a1 b1 3b e4 89 93 3b
       -0.00900022 -0.11452374 0.0054208883 0.004502522
000200 f7 5c d5 ba a7 8e 1b 3d 4d 2a be bd 49 55 17 be
       -0.0016278316 0.03797784 -0.09285412 -0.14778627
000210 7f 40 cd 3c 40 68 ad 3d cb e6 13 be 4a 29 50 bd
       0.025055168 0.0846715 -0.1444351 -0.050820626
000220 ab a9 ef bd 8d 24 52 be 88 d6 0f be f2 8d 64 bd
       -0.117022835 -0.20521756 -0.14046681 -0.055799432
000230 0b 98 5c be 33 52 3a be 05 fc b4 bc 4c bb 44 be
       -0.21542375 -0.18195419 -0.022092829 -0.19212073
000240 eb 45 ca bd 09 e9 93 bb 7a 77 c1 3d 08 5b 77 bc
       -0.09876617 -0.004513864 0.094466165 -0.015097387
000250 38 68 ba 3c 92 0b 9e bc 53 9f a9 bd f3 ca ab bd
       0.022754773 -0.019292627 -0.08282342 -0.08388319
000260 d5 77 b5 bd d7 8c 5b bd e6 73 e1 bd 5a fc b3 bd
       -0.08860747 -0.053601112 -0.11008434 -0.087883666
000270 6b b4 1d be 2f 38 ff bd 15 c6 ad bc 7f c5 01 3c
       -0.15400855 -0.12461888 -0.021212617 0.007920622
000280 01 11 8a bd 53 1b af bd 65 11 c0 bb 3d fa d9 bd
       -0.067415245 -0.085501336 -0.0058614486 -0.10643432
000290 1d 1d 2e be 53 ab 51 3d 85 a0 fd 3c 5d 15 3c be
       -0.17003293 0.051188778 0.03096033 -0.18367524
0002a0 c1 04 81 bd d4 09 a6 bd c7 7d 61 bd 73 a8 87 bd
       -0.06299735 -0.08107343 -0.05505159 -0.06623926
0002b0 b5 75 b5 bd 61 f4 18 be d1 f5 ec bd 48 5a d3 3d
       -0.088603415 -0.14936973 -0.11570323 0.10319954
0002c0 f0 7a 54 3d fa 68 9f bd 8a b8 38 bd bd db a4 bd
       0.051875055 -0.077836946 -0.045097865 -0.08049724
0002d0 62 65 ab bd c8 6c 98 bd 95 79 de bd 95 05 1b be
       -0.083689466 -0.074426234 -0.10863034 -0.15138848
0002e0 b6 f0 44 be 1f 52 c6 bd 93 06 23 bd ff 68 76 3c
       -0.19232449 -0.09683632 -0.03980119 0.015039681
0002f0 ac 7a a0 3d 00 6f f4 bc 14 af 7a bd 86 e5 22 bd
       0.07835898 -0.029838085 -0.061202124 -0.03976967
000300 6c 21 80 be ea a0 94 be af 41 e6 bd 35 fa 34 be
       -0.250255 -0.29029018 -0.11242997 -0.17673571
000310 18 da 41 3d 32 54 50 be fb 8b 96 bc 58 4b 99 3d
       0.04732713 -0.20344618 -0.018377295 0.07485074
000320 be 58 55 bd 0b 28 7e bd 82 49 f2 3c 8d 99 06 bd
       -0.052086584 -0.062049907 0.029576067 -0.03286128
000330 57 e0 12 be 54 a1 1b be 8e 12 b4 3d 0a e9 44 bd
       -0.14343391 -0.1519826 0.087926015 -0.048073806
000340 bb e8 31 3d a5 fe 00 3b 32 88 92 bd c2 fd 72 3c
       0.04343484 0.001968303 -0.071548834 0.014831008
000350 10 b4 86 3d 50 c6 a6 bd ff 24 ac bd 76 16 2e 3d
       0.06577313 -0.08143294 -0.08405494 0.04250189
000360 72 60 4e 3c 6b 73 83 bd 53 53 55 bd 99 0f d8 bc
       0.012596237 -0.064184986 -0.052081417 -0.026374625
000370 f5 cf 8c 3d 2a 17 bb bd e5 fd d2 3c 8c f0 82 bd
       0.06875602 -0.091352776 0.025755832 -0.06393537
000380 b6 37 38 be 50 74 b7 bc a1 1a 97 3d 1a 84 cd bd
       -0.17990002 -0.02239433 0.07378126 -0.10034962
000390 7c 70 b3 bd 9e ea d3 bd 38 01 3d 3c 2d 71 02 3e
       -0.08761689 -0.10347484 0.011535935 0.12738486
0003a0 f6 30 30 bd a1 f9 d9 bc 74 29 86 3d 1f 7d 5c be
       -0.043015443 -0.02660829 0.06550875 -0.21532105
0003b0 6e fe 6f be 06 67 09 be 7c 91 ac bc 9e ee f8 bd
       -0.23436901 -0.13418207 -0.021065466 -0.121548876
0003c0 1f 6e 38 3d 60 e3 37 3d 4b c9 80 bd 84 c3 99 bd
       0.045026895 0.044894576 -0.062883936 -0.07507995
0003d0 34 57 c4 bd 1e 7c 28 be 16 82 e6 bd 72 5a 94 bd
       -0.09586945 -0.16453597 -0.11255281 -0.072438136
0003e0 7e fd 00 be ed ca e2 bd 0e 43 b9 bd b0 db 16 be
       -0.125967 -0.11073861 -0.09045993 -0.14732242
0003f0 7e f8 6b bc fe ae e3 bd 6b bd 0b be 1d 11 e9 bd
       -0.014402507 -0.111173615 -0.13646476 -0.11380217

bns.0.running_mean f4 [256]
000000 d2 df bb 3e ed 75 81 3d 04 f2 d2 3f 95 59 d6 3d
       0.366942 0.06321321 1.6480107 0.10466305
000010 80 16 28 3d eb c1 af 3d d3 a0 63 3f be 66 c2 3d
       0.041037083 0.08581909 0.88917273 0.09492253
000020 ff 4c 86 be 25 ca b1 be a2 11 83 bd 19 37 35 3e
       -0.26230618 -0.34724537 -0.063998476 0.176968
000030 b1 25 3b 3f 25 e9 c6 bd 21 36 b4 3e 90 e7 20 3f
       0.7310439 -0.097124375 0.35197547 0.62853336
000040 81 74 37 bd 88 99 f4 3d 46 f4 ab 3e e0 fe 8e 3e
       -0.04478884 0.11943346 0.33584803 0.2792883
000050 4d 42 a3 3d 1d 94 25 3e 52 1f 09 3c b6 a9 10 3d
       0.0797163 0.16169782 0.008369284 0.0353181
000060 9a 87 5c 3e 1d f3 17 bd d1 63 08 3e ca 0c eb 3d
       0.21536103 -0.037097085 0.13319327 0.11477049
000070 05 90 7f 3d 78 34 a2 3d 3b 64 9d bd 05 2f 29 3f
       0.062393207 0.07920164 -0.07685133 0.6608737
000080 85 c9 ef 3d 73 a3 42 bd cf 1f fe 3c 49 19 7d bc
       0.11708359 -0.04751916 0.031021027 -0.015447923
000090 c3 6a fa 3e c4 4d 0a 3f 22 5c 03 3e 05 2e 5a 3c
       0.48909578 0.5402491 0.12828115 0.013316636
0000a0 98 bc 7c 3d b1 fd 82 3d bb 2a ef 3d 6a 7c c8 3e
       0.061703295 0.06396044 0.11678072 0.3915742
0000b0 4a ed 44 3e 1b 08 7b 3e d2 21 7c 3e c5 26 c3 3d
       0.19231144 0.2451481 0.24622276 0.09528879
0000c0 6b 83 23 be 57 95 26 3f 4a ab 22 bf 33 95 02 be
       -0.159681 0.65071625 -0.63542616 -0.12752227
0000d0 91 69 53 bb 3b 68 ad 3e 63 ff a5 3e 7b 41 78 3f
       -0.0032258967 0.33868584 0.32421407 0.96974915
0000e0 08 61 2e bf 41 d8 c8 3d 07 ac 5b bd 8e af 2d 3f
       -0.6811681 0.09806872 -0.053630855 0.67846
0000f0 ef 2e e5 3d 40 49 39 bf a0 17 4b 3e 9d 7d dd 3e
       0.111905925 -0.72377396 0.19833231 0.43259898
000100 4f 45 20 3e 89 f0 ba 3e 9e 55 fa 3d 9b 51 e5 3e
       0.15651439 0.3651164 0.122233614 0.44788823
000110 ae b6 2b 3e df c5 be 3e d2 3d 44 3e 77 60 d2 be
       0.16768906 0.3726034 0.19164208 -0.41089222
000120 45 99 17 be ea 8a f1 3e e9 d7 98 be 99 29 bf 3d
       -0.14804561 0.47176296 -0.29852226 0.09334106
000130 b3 50 2e bc 50 af ca bd 38 5e 2f 3e 9b b4 47 bf
       -0.010639357 -0.098967195 0.17125785 -0.7800996
000140 0d ab 4a be 51 fd ba 3e e1 bd 88 3d 62 90 ae bc
       -0.19791813 0.3652139 0.066768415 -0.021309081
000150 a1 dd 94 3f 1d df 75 3e a0 58 26 bd c8 e5 f9 3c
       1.1630136 0.24010892 -0.040611863 0.030505076
000160 f1 f3 a2 3e 2d 84 c1 3c 7e aa c5 bc b0 5b ce bc
       0.31826738 0.023622597 -0.024129149 -0.025190204
000170 73 7e db 3d 09 89 20 be 68 dd d7 be 6f 1d 33 3f
       0.10717478 -0.15677275 -0.42161107 0.6996679
000180 e7 ee af be ce 66 28 bc 4d 8f 47 38 95 18 c4 3f
       -0.34361956 -0.010278417 4.7578756e-05 1.5320002
000190 61 e9 80 3e 44 7f a7 bb 8c ae 34 3f 50 63 68 3f
       0.25178054 -0.005111607 0.7057884 0.9077654
0001a0 73 3d 92 3d 2e 31 1b 3f aa 6b 19 3d d5 2d 3a 3d
       0.07140627 0.6062192 0.037456192 0.045453865
0001b0 70 f4 41 be a1 45 9a 38 ac 8e d4 3c ef e5 21 3e
       -0.18940902 7.3562616e-05 0.025946938 0.15810369
0001c0 d9 a8 cd 3d 3e 00 a4 3e c3 51 8b bd 9c d9 6a bd
       0.10041971 0.32031435 -0.06802704 -0.057336435
0001d0 8e 2e ab 3f 16 07 92 3e f0 d2 27 be de 5f 96 3e
       1.3373582 0.2852103 -0.1638906 0.29370016
0001e0 f2 a3 2c 3d 3d 6e 3d bd 7e d8 8c 3e ee f4 ab 3e
       0.042148538 -0.04624771 0.2750892 0.33585304
0001f0 68 8f ab be 1c b1 f1 bd 36 0e f1 3d 62 1f 0a 3e
       -0.33507848 -0.11801359 0.11770289 0.13488534
000200 6c eb 9e 3f 7d c9 8d 3f a2 b4 1b 3f e6 70 68 3e
       1.2415595 1.1077114 0.608225 0.22699317
000210 49 96 0c bd 2e 21 12 3e 4d b5 53 3e b5 4f 14 be
       -0.03432301 0.1427047 0.2067463 -0.14483531
000220 1b 41 20 3d 55 00 30 3e c5 dc 38 3e 49 55 a0 3e
       0.03912459 0.17187627 0.18052967 0.31315067
000230 96 ff 1c 3e 77 cf 9d 3e 24 34 f5 3d 0c e1 06 bf
       0.15331873 0.30822346 0.11972836 -0.52687144
000240 63 cc c0 3e 40 17 5a 3f 86 2f b5 3c db d1 ff 3d
       0.37655935 0.85191727 0.022117388 0.12491199
000250 f0 53 da bd 7b f8 61 3c c8 07 0e 3e 49 fe 04 3e
       -0.10660541 0.0137921525 0.13870156 0.12987627
000260 d5 ff 20 3d 91 b6 fd 3c f2 d8 13 bf e6 57 8f 3d
       0.03930648 0.030970844 -0.5775291 0.06999187
000270 24 05 4c 3d 57 ee 06 3d 69 7b b9 be 31 b8 80 be
       0.04980959 0.032942142 -0.36226967 -0.25140527
000280 b1 1e 2f 3e bb ed b1 3f 15 ba 00 3e bd 66 21 3e
       0.17101552 1.3900675 0.12570985 0.15761848
000290 76 d0 95 3c c0 01 c3 be f1 6d 38 be f0 d3 2a 3e
       0.018287878 -0.38087273 -0.1801069 0.1668241
0002a0 61 da 0d 3e 06 22 a8 3d c6 19 c9 3d bd 9a 85 3f
       0.13852836 0.082096145 0.09819369 1.0437847
0002b0 2a da 6e 3d b1 f6 0c 3e 91 ef ea bd ba 0f 0e 3e
       0.058313526 0.1376598 -0.11471475 0.13873187
0002c0 94 c6 06 3c 27 04 fe 3d 3a 85 43 3e 37 4c 0c 3f
       0.008226056 0.12403136 0.1909379 0.54803795
0002d0 82 f5 2c 3e 85 83 2b 3e 8f b4 fc be 0c 11 86 3d
       0.16890529 0.1674939 -0.49356505 0.0654622
0002e0 00 4e 68 3e 65 09 f6 3d 29 ff ea 3a c8 ad 90 be
       0.22686005 0.120135106 0.0017928827 -0.28257585
0002f0 bb ca 31 3e 56 7b 59 3f c1 84 69 3d df 65 e6 3d
       0.17362492 0.8495382 0.05701137 0.11249899
000300 f0 13 12 3e 97 d3 c3 3d 1a 23 29 3e 9e b5 a0 bf
       0.14265418 0.09561842 0.16517296 -1.2555425
000310 70 bb 40 be 35 b6 53 be 41 9c 59 be 47 b9 e5 3e
       -0.18821502 -0.20674975 -0.21251012 0.44867918
000320 a6 2a 81 be b0 fe e2 bb 62 09 90 be e0 b0 9c 3d
       -0.2522785 -0.006927334 -0.2813216 0.07650924
000330 4a ab 9c 3e 17 a1 5a 3e 7b 73 4d 3d ba 4a 0c 3e
       0.30599433 0.21350513 0.05015896 0.13700381
000340 9e 34 47 3d bc 8e 43 3d d7 e5 0b 3f 64 df 46 be
       0.048634164 0.047743544 0.5464758 -0.19421154
000350 18 92 c5 bd 27 3b 83 3e 7f 9b d0 3e 40 40 63 bd
       -0.09647006 0.25631067 0.40743634 -0.055481195
000360 71 22 d6 be 18 04 34 3e 12 fd b4 3d 42 d3 0c bd
       -0.41823152 0.17579687 0.08837332 -0.03438116
000370 b1 a1 a8 be bc 0f 2f 3f d8 b1 fe 3d 13 a3 7b 3e
       -0.3293586 0.68383384 0.12436265 0.24573927
000380 9a 33 06 bf 00 79 b8 3d 5c 90 1e 3e d2 2e 9d 3e
       -0.5242249 0.09007454 0.15484756 0.30699784
000390 06 7e 41 3e f7 62 d3 3d a2 64 f0 bd f1 ad 54 3d
       0.1889573 0.103216104 -0.11737944 0.051923696
0003a0 23 83 73 3f cf 34 97 3d b5 ae 9c 3c f9 65 c7 3c
       0.95121974 0.07383119 0.019126276 0.024340617
0003b0 de 4d e8 3c 37 17 61 bc b9 73 a0 bc a5 ac 8e 3e
       0.028357442 -0.013738445 -0.01958643 0.27866092
0003c0 ea 26 49 3e a9 2a 7f bc bb a1 5d 3d 82 c0 1c 3f
       0.19643751 -0.015574136 0.054109316 0.61231244
0003d0 8e 6d f4 3d 38 3b bd 3e 2b eb 59 3e 83 a6 04 be
       0.119349584 0.36959243 0.21281116 -0.12954144
0003e0 e5 ed 64 be e5 e7 b3 3d dc 01 2c bd 5e ba fb 3c
       -0.22356375 0.08784465 -0.04199396 0.030728515
0003f0 28 20 b6 3c 58 6f cd 3c 1f fd 9c 3e 12 a6 3d 3d
       0.02223213 0.025077507 0.30661866 0.046300955

bns.0.running_var f4 [256]
000000 59 b8 43 3d 90 e2 04 3d c0 e9 d0 3e 6f b4 fa 3c
       0.04778323 0.03244263 0.40803337 0.030603616
000010 cd 3f 45 3d de c6 05 3d f6 e5 1a 3e 9e bc 01 3d
       0.04815655 0.032660358 0.15126786 0.03167402
000020 55 f9 2c 3d dd 69 9b 3d 8e 0b d3 3d 30 7a 03 3d
       0.04222997 0.07588551 0.10304938 0.03209895
000030 ab d3 eb 3d 0f ae 3b 3d 88 58 2c 3d 0e d6 20 3e
       0.11514982 0.045820292 0.042076617 0.15706655
000040 2f be d3 3c 90 8c 19 3d 74 67 20 3d 92 60 19 3d
       0.025847523 0.037487566 0.03916116 0.037445612
000050 a1 b9 62 3d ad 47 2e 3d a9 01 2a 3d 71 e7 d2 3c
       0.05535281 0.042548824 0.04150549 0.025745125
000060 0a 00 1d 3d c9 9c 2b 3d 50 d8 2b 3d 9a 36 41 3d
       0.038330115 0.04189757 0.04195434 0.047171213
000070 94 6d f3 3c da 2e 05 3d 38 3c 0d 3d 22 b3 a6 3d
       0.029715337 0.032515384 0.034481257 0.081396356
000080 6c 5c fc 3c 04 5c 91 3c ff 47 4e 3d ee bb 19 3d
       0.030805789 0.017744072 0.05036163 0.03753274
000090 72 16 72 3d 11 f8 94 3d 27 47 67 3d fd 83 cd 3c
       0.059103437 0.072738774 0.05646434 0.025087351
0000a0 a1 da 07 3d f6 6b f6 3c 5f c4 23 3d d2 df 55 3d
       0.033167485 0.030080777 0.039982196 0.052215405
0000b0 df b4 6e 3d 36 ce f8 3c 39 83 02 3d 43 cf 78 3d
       0.05827796 0.030371767 0.031863425 0.060744535
0000c0 23 89 19 3d 11 9a a8 3d 03 26 be 3d 09 5b fb 3c
       0.0374843 0.08232511 0.09284594 0.030683057
0000d0 dd d7 14 3d 47 e7 83 3d 10 c3 1a 3d 84 5b 0a 3e
       0.036338676 0.06440597 0.037783682 0.13511473
0000e0 ac 2e bb 3d 79 b8 19 3d d7 d2 18 3d e3 f0 ad 3d
       0.09139761 0.037529442 0.037310448 0.08493211
0000f0 d7 17 0d 3d b9 c2 e7 3d 6f 45 7e 3d d9 ab 8e 3d
       0.034446564 0.11316437 0.062077936 0.06966371
000100 09 3a be 3c b2 04 7b 3d ae 1f 09 3d 2b 3b 99 3d
       0.023221033 0.061283775 0.033477478 0.074819885
000110 d9 2a 46 3d 26 06 96 3d ae d1 25 3d a6 b4 94 3d
       0.048380706 0.073253915 0.04048317 0.072610185
000120 f3 55 77 3d a8 64 47 3d 15 41 8a 3d ef 96 fe 3c
       0.060384702 0.048679978 0.06750695 0.03107783
000130 79 d7 fd 3c 9b c9 26 3d 86 54 57 3d 96 b7 1d 3e
       0.030986534 0.04071961 0.052570842 0.15402064
000140 44 d1 78 3d c4 ad a3 3d fa 98 40 3d b7 6d ed 3c
       0.060746446 0.079921275 0.04702089 0.02898298
000150 b8 5d af 3e 45 2b 99 3d 36 bf 4e 3d 45 25 9a 3d
       0.3425119 0.07478956 0.05047532 0.0752664
000160 6b 7a 82 3d 0c 45 bf 3c 81 1c bb 3c 36 90 ee 3c
       0.063710056 0.023348354 0.02284074 0.0291215
000170 76 78 1d 3d 6d 32 06 3e 5f 0b 81 3d 51 f3 ef 3d
       0.03844496 0.13105173 0.06300997 0.11716331
000180 94 4d 84 3d 9f f3 23 3d b0 0f 8e 3d 1a dc cb 3e
       0.06460109 0.040027257 0.06936586 0.39816362
000190 53 ef db 3d 50 68 14 3d a6 83 a0 3d 8b fb fe 3d
       0.10739007 0.036232293 0.0783761 0.12450322
0001a0 e1 47 11 3d d9 b6 f0 3d 85 02 ed 3c 27 0b f1 3c
       0.03546894 0.117536254 0.028931865 0.029424263
0001b0 fc 32 a6 3d 3a 99 fb 3c 34 a1 30 3d 53 db f7 3c
       0.08115193 0.030712713 0.043122485 0.03025595
0001c0 cf b5 2f 3d dc 83 11 3d e6 9d 06 3d bc 80 89 3d
       0.042897996 0.03552614 0.032865427 0.06714007
0001d0 37 27 5e 3e ed 7e 0f 3d 3b e3 41 3d cb f0 20 3d
       0.21694647 0.035033155 0.047335844 0.039292138
0001e0 46 83 40 3d 30 f7 47 3d 59 0e 2a 3d 30 ad 2e 3d
       0.047000192 0.04881972 0.04151759 0.042645633
0001f0 9b 91 1d 3d bc fd 11 3d b6 c3 36 3d d9 6b 5d 3d
       0.03846894 0.03564237 0.04462024 0.05405793
000200 8e bc 80 3e 9c 57 8f 3e 3d 48 9a 3d a8 bc 50 3d
       0.25143856 0.27996528 0.075333096 0.050961167
000210 c6 52 05 3d b1 98 a8 3d ca d7 10 3d ae a2 fb 3c
       0.032549642 0.082322486 0.035362042 0.03071722
000220 ef 8f e8 3c f7 9b 30 3d f7 81 1d 3d 8f 1d 26 3d
       0.028388945 0.04311749 0.038454022 0.040555533
000230 74 24 da 3c 4e 9d 3f 3d f8 d0 c6 3c 1d c1 90 3d
       0.02662871 0.046780877 0.024269566 0.070680834
000240 99 98 f8 3d 20 e2 1e 3e 67 ce 9c 3d 3d 4a 20 3d
       0.12138481 0.15515947 0.076565556 0.0391333
000250 6c 8b fc 3c 57 18 fd 3c d9 c3 1e 3d 98 46 22 3d
       0.0308282 0.030895395 0.038760994 0.039618105
000260 be 0a 07 3d 52 51 29 3d 3d 15 b5 3d ad 69 2d 3d
       0.03296923 0.04133732 0.088419415 0.04233711
000270 bc 48 bd 3c 19 33 1e 3d 60 4f 77 3d b0 92 1d 3d
       0.023105972 0.03862295 0.060378432 0.03846997
000280 ec 55 16 3d 3c cc 92 3e 92 36 0e 3d f6 62 15 3d
       0.036703035 0.28671443 0.03472001 0.03647133
000290 be fa cf 3c 0f 0b 96 3d 95 ad 4f 3d b7 61 02 3d
       0.025388118 0.07326328 0.05070265 0.03183147
0002a0 55 d0 ea 3c 2e 3e d3 3c 5f 97 a8 3d 4d 4f 6a 3e
       0.028663794 0.025786486 0.08231997 0.22881813
0002b0 cb 98 11 3d 92 83 40 3d eb d3 3d 3d a7 f6 59 3d
       0.035546105 0.047000475 0.04634468 0.05321374
0002c0 44 9c 07 3d 34 fb fe 3c 76 51 05 3d e6 39 85 3d
       0.03310801 0.031125642 0.03254839 0.06505184
0002d0 da bf 18 3d 7d be d0 3c 87 ff cc 3d cf 64 1b 3d
       0.03729234 0.025481457 0.100096755 0.037937935
0002e0 09 d0 16 3d 5f 5d 2b 3d 4c 15 01 3d ac 89 11 3d
       0.03681949 0.041837092 0.03151445 0.035531685
0002f0 19 de e5 3c ad 6f 02 3e 8d 34 bc 3c e4 4b 1f 3d
       0.028060006 0.12737913 0.022974277 0.038890734
000300 f2 33 f4 3c 45 03 11 3d 96 49 11 3d b5 b2 6d 3e
       0.029809926 0.03540351 0.035470568 0.23212703
000310 2a 1d 24 3d 38 3d 51 3d 6f ce 3a 3d 91 34 bb 3d
       0.040066876 0.051083773 0.045607027 0.091408856
000320 22 fa 75 3d 1a c9 3f 3d 16 9b 10 3d 0d cd f3 3c
       0.060053 0.046822645 0.03530415 0.029760862
000330 ab 92 3c 3d 82 ae f8 3c 96 1c 1e 3d 1b 5a 07 3d
       0.04603831 0.03035665 0.03860148 0.033044916
000340 b1 fd 71 3d c0 31 e5 3c 5a 83 c4 3d 0f 28 44 3d
       0.05907983 0.027977824 0.09595366 0.047889765
000350 b4 0b 48 3d 10 97 02 3d 9f 83 47 3d bc 6b 19 3d
       0.048839286 0.031882346 0.048709508 0.03745626
000360 7b c0 87 3d 71 a0 24 3d 59 32 23 3d 23 fe 33 3d
       0.066285096 0.04019207 0.039842937 0.043943536
000370 c4 00 d8 3d 71 7c c2 3d be 7c 10 3d 63 fc 05 3d
       0.10547021 0.094963916 0.035275213 0.032711398
000380 f7 98 86 3d ab 1a 03 3d fe ac 20 3d 08 cb 83 3d
       0.065721445 0.032007854 0.03922748 0.064352095
000390 72 08 2b 3d d6 21 0f 3d 71 fa 1d 3d c3 e4 8a 3d
       0.0417561 0.034944378 0.038568918 0.06781914
0003a0 e5 9d 2f 3e 51 54 04 3d 84 4c 81 3d ae ce 24 3d
       0.17150076 0.032306973 0.06313422 0.040236168
0003b0 9c 16 59 3d 82 27 00 3d a4 27 4c 3d 6c 3d 16 3d
       0.053000078 0.031287678 0.04984249 0.03667967
0003c0 e3 d1 80 3d e9 02 3b 3d b2 7f d9 3c 8b 2d a2 3d
       0.06290033 0.045657072 0.026550148 0.07918843
0003d0 c7 02 2f 3d 14 ff 90 3d 94 87 2b 3d 29 b9 55 3d
       0.042727258 0.07079902 0.041877344 0.052178536
0003e0 18 56 5f 3d df df e1 3c 7c 11 fa 3c e3 1f 23 3d
       0.054525465 0.02757257 0.030525915 0.03982533
0003f0 10 2a 38 3d bd 31 06 3d c4 29 7f 3d 98 56 15 3d
       0.04496199 0.032762278 0.06229569 0.036459535
