saved/arxiv/ogb-arxiv_SAGE_s8.pt (torch, 47814 bytes, 10 tensors)

convs.0.lin_l.weight f4 [32, 128]
00000000: cc0d 55be 7a79 e93d 995f f03d 21b6 36bd
00000010: fa81 b43d 871e e0bd 7f84 00be 32a6 753e
00000020: 8927 9e3c a5a1 20be cd81 ebbd ba0e 543b
00000030: 5baa b4bd 76e0 513e 2855 b5bd abc0 2ebe
00000040: a2db 42bc 08ab 053e a652 3d3d eb24 02be
00000050: 2be6 90bd cbba 05bd 9903 25bd 836d 683c
00000060: 126e 84bc dc6d cbbd 6a7f 783e b1d8 c4bd
00000070: acfa 083e 7be1 50bd 6fe4 09bd 98bc bc3d
00000080: 9b71 59bd fad8 203d 916b 333e d8d0 2e3e
00000090: 043f 68bd 1010 163d 28a1 9c3d 2014 013e
000000a0: f9e4 573d 2cfc f0bd 55a3 ac3d acd5 c83c
000000b0: 26a7 5f3c 77d5 cf3d cb43 d73c 5a06 3dbd
000000c0: 4e2a d93d 5cff a03d 91cd 523c af04 9abc
000000d0: 8c73 4fbc 1ecc 2abe ed03 46be 9644 f9bc
000000e0: 1f4b 36bd dc58 29be 2cd1 30bb edda 1c3e
000000f0: 4062 7a3d 4b9b 2dbd 8f8f 143e ece6 473e
00000100: c17d 5e3d 2c3f 4dbc cfbb b2bd 12d5 22be
00000110: 6e45 163e 369c 19be 5b70 373e 41e7 56bb
00000120: c594 283d 292b 4ebd d92e 89bd eb76 c4bd
00000130: 8caf 3e3e 8cca 2bbe 78c7 843d 950b 56be
00000140: 1cad 03be 329a 9f3d 9d6f 7abc a134 56bd
00000150: f4d4 12be d826 cebc ad89 24bd f7ec ab3d
00000160: b173 2d3c ce65 6fbd 359b a3bc 1d66 143e
00000170: a74b 6ebd e533 4dbe 22cb 073d 280e 403c
00000180: 133d 083e e213 363e f5ac 40be 3d86 023e
00000190: b738 613e a7bb 5e3c 1aff 31be d3ec 06be
000001a0: 273a f6bd b035 913d 0ea9 9b3d 3f9e d1bc
000001b0: 68e7 2c3d 61f4 823d 7b65 82bd 3055 81bc
000001c0: abe9 4bbd f207 e6bc 823e 863c 46f7 2b3e
000001d0: a6b9 313e 3e45 33bd edfb 483e ad05 8f3d
000001e0: d904 e3bd ca97 2bbe e334 d53d facc a1bd
000001f0: 1e0b a3bc 572e 8cbe 8f28 e3bd 7df9 d4bd
00000200: 2711 4e3e bcc0 33be 7705 42bd cdcc 7a3e
00000210: 0586 93be 354f b93d 9097 e43d af70 2ebe
00000220: 2553 83bd 6a0b 363d 42b0 523e cb23 8e3d
00000230: 4b61 dbbd b084 163d 04fa 8c3e 5550 523d
00000240: 277b ab3d 0cbd 85bd ab8b 81be faec 07be
00000250: eb58 8b3c 0133 e23d 8dea 283e b852 0e3d
00000260: c753 77bc 0335 793d bd9e 1abe a4f0 8cbd
00000270: dd8e 273e e5d2 663d e92e 953d 7d82 403e
00000280: 3b4e 4bbd 82b6 2ebc 842e bf3d 3717 db3c
00000290: 9642 2c3e c8e2 4d3d f3d4 90be 105e 313d
000002a0: 73c5 f33a 9491 3f3d de98 1fbe 4359 dabb
000002b0: baf0 823e f13e 84be ffbd eabd 7add 7b3e
000002c0: 7cd7 2f3e e003 5abd 3a98 793c 240b af3d
000002d0: c0e3 95bd ae48 8ebd 07be d43c c29a c73c
000002e0: 252c acbc d8c1 2f3e c6dd 5e3e f037 163e
000002f0: 9fdb 013c 59bc 3fbd d62e 45be 5f9a 12bb
00000300: 9e30 963b 0bfc 683d 83b2 403e c268 303c
00000310: 9df0 b1bd 274b 4b3d 8bb8 34be dd83 23bd
00000320: e41a 85bc 0f56 173d bf87 30be 14e1 f3bd
00000330: afe4 763e acc6 5cbe cdc3 e7bd c89d 94bb
00000340: 9c25 71bd fb3a 1fbe 7a1e f73b 7b78 a53d
00000350: 5724 5dbe 1cca 583e a789 2e3d badc e2bd
00000360: 09d4 bc3d b5de 8abd 0625 0d3e 94e9 50bd
00000370: c1c4 78be 8fe9 14be ceb8 ec3c 9c8a 49bd
00000380: 5877 18bd 3998 3ebe 061d 623d 6d4c 023d
00000390: fa5b 60be 13be a23d ab8a be3d 6b5f 97bd
000003a0: ce67 9e3d bdcf 893c b189 80bd b736 3a3e
000003b0: 5e90 3fbe 34b6 e3bd 6835 bfbd b216 12be
000003c0: faca 16be 93df d7bd a227 56bd c267 89be
000003d0: 193c 28bd 2c52 a2bd 50c3 1abd cc7a 333c
000003e0: 8a43 f63b 57c9 79be d7a1 dabd 1d3a 393d
000003f0: e520 eb3d 2d58 8abe 981f 2c3d 127a 37be
-0.20806044 0.11400123 0.11736984 -0.044607285 0.088138536 -0.10943323 -0.12550543 0.2398918
0.019305961 -0.15686662 -0.11499367 0.003235741 -0.08821555 0.20495781 -0.08854133 -0.17065684
-0.011893185 0.13053524 0.046221398 -0.12709396 -0.07075151 -0.032648843 -0.040286634 0.014186266
-0.016165767 -0.099330634 0.24267355 -0.09611643 0.13376874 -0.050996285 -0.033665117 0.09215659
-0.05308686 0.039269425 0.17521502 0.17071855 -0.05670072 0.036636412 0.076479256 0.12605333
0.0527086 -0.11766848 0.084295906 0.02451595 0.013650691 0.10148137 0.026277443 -0.046148635
0.10603772 0.07861206 0.012866394 -0.018801061 -0.012661826 -0.16679427 -0.19337435 -0.030428212
-0.044505235 -0.16537803 -0.0026980145 0.15317889 0.061128855 -0.042384427 0.14507888 0.19521683
0.054319147 -0.012527268 -0.08727228 -0.15901592 0.14674923 -0.15000996 0.17913954 -0.0032791647
0.041157503 -0.05033413 -0.066983886 -0.09592994 0.18621653 -0.16776484 0.06483358 -0.20902856
-0.12859005 0.07793082 -0.0152854 -0.052296285 -0.14339048 -0.025165007 -0.04017036 0.08394807
0.010586665 -0.058446698 -0.01997147 0.14492078 -0.058177616 -0.20039327 0.033152707 0.011722125
0.13304548 0.17781022 -0.18815978 0.1274652 0.21994291 0.0135945445 -0.1738247 -0.13176279
-0.120228104 0.07090318 0.07600604 -0.025588153 0.042212874 0.06394268 -0.06367012 -0.01578769
-0.04978339 -0.02807996 0.016387228 0.16793546 0.17355976 -0.043767206 0.19627352 0.069835044
-0.11084909 -0.16757122 0.10410478 -0.07900424 -0.019902762 -0.27379104 -0.1109172 -0.103991486
0.2012373 -0.17553991 -0.047368493 0.24492188 -0.28813186 0.09048311 0.11161721 -0.17035173
-0.06412343 0.04444448 0.2057505 0.06940421 -0.107119165 0.036747634 0.27534497 0.05134614
0.08373099 -0.065301985 -0.2530187 -0.13273993 0.017010173 0.110448845 0.16495724 0.034746855
-0.015095658 0.06084157 -0.15099616 -0.06881836 0.16363092 0.05635347 0.07284338 0.18799777
-0.049635153 -0.01066363 0.09335044 0.026744468 0.16822276 0.050265104 -0.28287467 0.043302596
0.0018598273 0.046769693 -0.15585658 -0.006663473 0.25574285 -0.2582927 -0.1146202 0.24596205
0.17172045 -0.05322635 0.015234048 0.08547047 -0.073188305 -0.06947456 0.025969518 0.024365786
-0.021017144 0.1716379 0.21764287 0.14669776 0.007925897 -0.04681048 -0.19256148 -0.0022369844
0.0045834323 0.056880992 0.18818097 0.010767164 -0.086884715 0.049632218 -0.17648523 -0.039920676
-0.016248174 0.036947306 -0.17239283 -0.119081646 0.24110673 -0.21560162 -0.11316643 -0.0045354106
-0.058873758 -0.15549843 0.007541475 0.080796205 -0.21595894 0.21170849 0.042611744 -0.110772565
0.0922013 -0.06780759 0.13783655 -0.051004007 -0.24293806 -0.1454222 0.028896715 -0.049204454
-0.03722319 -0.18612756 0.05520346 0.031811167 -0.21910086 0.0794641 0.093037926 -0.073912464
0.07734643 0.01682269 -0.062762626 0.18184935 -0.18707415 -0.11118737 -0.09336358 -0.1426647
-0.14725867 -0.1054069 -0.05228389 -0.26836973 -0.04107294 -0.07925829 -0.03778392 0.01095457
0.0075153755 -0.24393211 -0.106754 0.045221437 0.114808835 -0.27020398 0.042022318 -0.1791766

convs.0.lin_l.bias f4 [32]
00000000: 21ee 9d3d 29eb 7bbc 524d 983d bc63 d93c
00000010: 7bb7 a6bc a64c d2bc 82b3 59bd b1d3 473d
00000020: 173d abbc 6f7b 69bd 55ae 6abd 64e3 90bc
00000030: c1b6 e43b 1f1f a2bd 0d60 363d ba14 f7bc
00000040: 8a83 8cbd 3f57 b83c f1dd 60bd 4c49 b1bc
00000050: 4250 b9bc 60c1 0cbd 16f2 393d 3c98 4dbd
00000060: c5a7 6bbd bd0b dfbc 4a4f 023d c58a 483c
00000070: 4992 943d 3d00 083e 4894 8fbd f652 3a3d
0.07711435 -0.015375891 0.07436623 0.026536815 -0.020351162 -0.025671314 -0.053149708 0.04878587
-0.020903153 -0.05700248 -0.057295162 -0.017686553 0.006979794 -0.07916092 0.044525195 -0.03016125
-0.068610266 0.02250254 -0.05489916 -0.021641396 -0.022621278 -0.034364104 0.045396887 -0.05019401
-0.057533044 -0.027227277 0.031813897 0.0122401165 0.07254464 0.13281341 -0.07010704 0.045489274

convs.0.lin_r.weight f4 [32, 128]
00000000: d2c0 1bbe f87b 35bd cede 003e 2822 29be
00000010: 1568 3f3d 241b 10be 13c6 1cbe 7eea 463e
00000020: ace3 1c3d a9ed 40bd 1ebc f5bd 7ff1 0d3e
00000030: 4acd 0cbe ac80 7e3d de9d 21be 396f 96be
00000040: 9417 43bd a0fa 8e3c 92ad 353e cb3c 80bd
00000050: eae0 27be fc26 263d ee3a 823e 48b0 0f3e
00000060: 8069 8bbc aa7e 35bd a619 5d3d d574 db3a
00000070: 231e b33d 8cf3 2dbd 4468 fbbd 38b3 6fbd
00000080: 00cb e93b 2c48 003b e6be c9bc f3f8 8d3e
00000090: 6517 b6bd 7b3c 833d a64d 283d 795b 903d
000000a0: bba7 b6bd b154 f5bd d6b1 c83d 7327 16bd
000000b0: 43ce e7bd 8e5c f03c 9b49 6dbd 0600 0b3e
000000c0: 1f6c 2b3d 928d 043e c4af a63d 8b23 26be
000000d0: 008f 93bc c7d6 8abd 337e 8cbd c6ef 0bbd
000000e0: 8100 ffbc 4e89 f3bd 653e c6b9 0e03 afbc
000000f0: 4d64 06be f1b4 0bbe d675 013d dfa2 b73d
00000100: ad6d 963c a9ff 2dbe d911 1a3e 428b a23d
00000110: c7eb 1b3d 7561 b6bd ec3b 123e 0185 c0bc
00000120: 7e35 0d3e d518 b33d 6617 ec3d 0673 ca3d
00000130: 87db a13d d94c 7cbd d488 b0bd bf81 8ebd
00000140: 1f41 02bd 5878 8dbd 6e99 703d 8683 73bd
00000150: 27dc 48be ff1c e63c 436f f23d b0f2 5dbd
00000160: a433 03bd ea63 ab3c 0d1c 8dbc f8d2 203e
00000170: 906f d8bd 290b 09bd 259e 4b3e fa20 e33d
00000180: b4ad 453e cc4c eb3d 2247 f1bd 3544 3b3d
00000190: c7b8 543e 4e2b 843e 1462 1bbe 0fdf e7bd
000001a0: 0867 edbd 12b5 ef3d 8c26 253e 6ced 693c
000001b0: e148 bdbc 8f99 c1bc d473 653d 6f9f 7f3c
000001c0: 728a 80bd 485b 0fbd fdbf 8cbe e596 2f3e
000001d0: fa7d d4bd 66e9 a3bd 28fd 0d3e 7f11 2d3e
000001e0: b9a2 98bb 9ee9 2fbe 7225 953d fc6f 153d
000001f0: 7e84 b5bc c2ed 15be 88d0 8e3b cd8d d03c
00000200: 4dfd 2e3e 3056 013d fb96 efbd f06c 333e
00000210: def3 37be 57b1 55bd 2da4 4e3c bb70 ebbd
00000220: d208 d03c b651 bd3d 642c 2cbd 8890 243e
00000230: 8e2e 13be 3d33 3abd ae4d 663e 6769 203e
00000240: 66d9 523e 0860 94bd 205d 0dbe b90c 4fbe
00000250: 51bb fabc d73f 61bd c40b 913e 5144 8abe
00000260: 8fd8 7fbc 7b37 f93a ffec 79be 59d5 15be
00000270: 173f 0f3e 7756 41bd 7070 f9bd 272f 943d
00000280: f078 92bd a8a2 ffbc 119a 3d3d 8233 fe3d
00000290: 42d9 b13e a008 d1bd 8b29 b3be b82b fb3d
000002a0: 4679 173e fccd c2bd f1f8 0a3e 091f 80bd
000002b0: af0f 0b3e 3395 56be a536 41bc fe64 cb3c
000002c0: ad74 ae3e 89b9 6abe ebc8 1d3d fe86 66bd
000002d0: df76 83bd 101c 54be 540d ed3d e89d fcbd
000002e0: 395c 253e f115 503e 2624 0abd fc37 4ebc
000002f0: dda5 4a3d 0ec0 16be 2141 4b3d 5585 503d
00000300: cf3b e23d d864 4ebe a61b b4bc caff 403c
00000310: 4aac c9bd 4e77 4fbe ac17 00be 224f f1bd
00000320: e2f1 333d c88a a23d 9e99 003d f447 40be
00000330: d47b 313e bdae 43be 95f3 ecbd 42ac 0e3e
00000340: 06ea 49bd 6251 71be 7c6a 503e 39b5 c33d
00000350: 51bc 90be 0a5d 653e 857e fc39 3b8b 44bd
00000360: 5f5b 50be 7bda 7abd a744 113e 9c74 373e
00000370: 97f3 09be 85ae cbbd 20b0 e03d 27a2 9cbe
00000380: e39c a0bd e784 2bbe 7fd9 5e3e cb3c 63be
00000390: e435 91bd 0770 b6bd 848c 273e c7bc 2c3d
000003a0: e387 d53d 4529 c3bd 49ed 113e 1b7e 3f3e
000003b0: c7c9 15bd e6a6 6bbe 4aaf 6f3c b291 c4bd
000003c0: 71a9 2bbd 4d81 16bd abf2 a23d f843 b93a
000003d0: 493d 93be 9ba4 3a3d 1574 e6bd be09 bc3d
000003e0: 65d1 41bd 8431 89be 5d68 18be df93 bc3d
000003f0: b5b3 6e3c e94a a1be 4903 b9bc 5be3 0fbe
-0.15210274 -0.04430768 0.12584993 -0.16516936 0.04673012 -0.14072853 -0.15309934 0.19425389
0.038303062 -0.04710165 -0.11998771 0.13861655 -0.13750187 0.06213443 -0.15782878 -0.2938173
-0.047629908 0.017453492 0.17741993 -0.06261595 -0.16394392 0.040564522 0.25435585 0.1403209
-0.01701808 -0.04431025 0.05397954 0.0016743193 0.087459825 -0.042468593 -0.122757465 -0.058520526
0.007134795 0.0019574268 -0.02462716 0.27728996 -0.08891181 0.0640802 0.041089676 0.07048697
-0.08918711 -0.11979044 0.097995445 -0.036658715 -0.11318638 0.029341009 -0.057931524 0.13574228
0.04185116 0.1294463 0.081389934 -0.16224496 -0.018012524 -0.06779247 -0.06860008 -0.034164213
-0.03112817 -0.11891423 -0.0003781199 -0.021363761 -0.13124199 -0.13643242 0.031606518 0.08966612
0.018362844 -0.16992058 0.15045871 0.079367176 0.03806665 -0.08905307 0.14280671 -0.023500921
0.13789937 0.08744971 0.115279004 0.0988522 0.079032 -0.061596725 -0.08619848 -0.06958341
-0.031800386 -0.069077194 0.058740072 -0.059451602 -0.19615231 0.028089998 0.11837628 -0.054186523
-0.03203167 0.020921666 -0.01722529 0.15705478 -0.10568154 -0.03345791 0.19884546 0.11090274
0.19304544 0.11489257 -0.11781146 0.045719344 0.20773612 0.2581429 -0.15174133 -0.11321842
-0.11591917 0.11704458 0.16127986 0.014277797 -0.02310604 -0.023632793 0.056018665 0.015601977
-0.06276406 -0.034999162 -0.27490225 0.17147405 -0.103755906 -0.080035016 0.13866103 0.16901205
-0.00465807 -0.17178962 0.07282533 0.03648375 -0.022157904 -0.14641479 0.004358355 0.02545824
0.17088814 0.031576335 -0.11698719 0.17522025 -0.17964122 -0.052171078 0.012612385 -0.11496111
0.02539483 0.09244101 -0.04203452 0.1607076 -0.14373228 -0.04545902 0.2249057 0.15665208
0.20590743 -0.07244879 -0.13805056 -0.20219697 -0.030606898 -0.054992523 0.2832929 -0.27005246
-0.015615596 0.0019013727 -0.24406813 -0.14632167 0.1398891 -0.0472016 -0.12179649 0.07235556
-0.07151973 -0.03120549 0.046289507 0.12412168 0.34736067 -0.10206723 -0.34992632 0.12264198
0.14792356 -0.09511945 0.13571526 -0.062559195 0.13580202 -0.20955352 -0.011792813 0.02482843
0.34073392 -0.22922339 0.03852169 -0.056281082 -0.06419157 -0.2071383 0.11574808 -0.12334806
0.16148461 0.2032087 -0.03372588 -0.01258659 0.049474586 -0.147217 0.04962266 0.050908405
0.11046564 -0.20155656 -0.02198584 0.011779735 -0.09847315 -0.20260355 -0.1250903 -0.117826715
0.04393185 0.07936627 0.0313965 -0.18777448 0.17332393 -0.19109626 -0.11569897 0.13932899
-0.049295448 -0.23566201 0.2035312 0.0955605 -0.28268674 0.22398773 0.0004815945 -0.047984343
-0.20347355 -0.061243515 0.14186345 0.17915577 -0.13471828 -0.09945396 0.10971093 -0.30592462
-0.07842424 -0.16749917 0.21762656 -0.2219116 -0.07090357 -0.08908086 0.16362196 0.04217222
0.10426309 -0.09529356 0.14250673 0.18700449 -0.036569383 -0.23012885 0.0146291945 -0.09598102
-0.04190964 -0.036744405 0.079564415 0.0014134636 -0.28757694 0.045567136 -0.1125261 0.09181546
-0.047318835 -0.2679559 -0.14883561 0.09207892 0.014569213 -0.31502464 -0.022584574 -0.14051573

convs.1.lin_l.weight f4 [40, 32]
00000000: a369 99bc 85bf 89bd 9988 893d 56e6 47be
00000010: 7adb 90be aad8 71be 92b1 70bd abd8 dabd
00000020: 3eea fa3e 7ffc 393d ee14 98be 4036 a1be
00000030: b994 9b3b e6bb 20be 30ad 86be 5651 29be
00000040: 71f9 473d 9187 c4bd fc28 233e 6663 a93d
00000050: 3218 913d 8fa2 8f3e 1f0b 6c3c 33d3 5fbd
00000060: 0fe8 8fbb 8c6a 483e 3e09 18be 6fb0 c6be
00000070: 91f0 d7bd 6c73 143d b564 50bd 6459 c8be
00000080: 9ef7 143e 2787 c6be 518c abbe fe28 a03e
00000090: 8059 b63d 4494 c7bd 5a02 24be e92a 873d
000000a0: 8566 b7be f0e8 ec3a 3ebb f43d e1b2 81be
000000b0: a429 333e 2ac8 a5bd e954 2b3d 9ba2 1d3e
000000c0: 7d62 00be f30b 6f3e 1ba8 d3bd c02b e13d
000000d0: 60ab 26be 2c44 e4be 0e46 b93c cf4e 86bd
000000e0: a30d 993e ba3f e83d 09e9 98be 7a68 1cbd
000000f0: 583c 33be 6dff 82be a5c6 cdbe 1f55 79be
00000100: 87d0 53be 9cc0 e1bd 1f88 f33c fc8e 533c
00000110: fefb cfbd 9c13 943d 81ac 65bd 829a d9bd
00000120: b8fe 86be a30e 9dbe be28 0f3e 20b5 d33e
00000130: 9e6f 75be 7192 9d3e b646 05be 393d 4fbe
00000140: 3221 a2be 7ea0 cebe 26c7 92be 8e76 19be
00000150: 4ccf e13e cdaf a7bd c950 323d 945f f3bd
00000160: 11f8 0bbe dfdd b03d c9ae 283e 3b4e e43c
00000170: d488 02be e4a8 b5bd db00 1ebe 5cee b23e
00000180: eafe 5bbd 1f96 46be dd2d 70be 8cf7 933d
00000190: 3f6f c13e 04e3 66be 262b 5fbe 5f60 1dbe
000001a0: 67c5 c5bd defb 09bd 5958 e93d 4bdd cfbe
000001b0: 4345 76be 8ca9 b7be 1cac 17be 6afc fc3e
000001c0: ba97 b4be 07cc cabe c0bf 68be 97e0 aabc
000001d0: 51ca bbbe 104d 99be efd3 9cbd 75bc b3bd
000001e0: 9162 a33e b294 d0bd fb8d efbd 57ae 853e
000001f0: 59e5 e43c f020 00be 8269 92bd b765 de3e
00000200: 5755 583e 4d8a f1be c758 b3be 46af 7f3e
00000210: f4ea dbbe 5010 383e 55d4 a6be 65c4 a43e
00000220: ac8f 8fbe c107 94be f1f1 b4bd a923 1b3e
00000230: d8a6 b93e adb1 863e d78b aabd a5a0 d63c
00000240: ec4c f6be 6dcd 5c3e da8b 853d db52 0a3f
00000250: 54b5 0abe 72ce 0dbf f44b 76be a147 e13d
00000260: 3bb1 173e ffbb 753e 9801 babd e252 c93d
00000270: 1734 26be 3b76 51be 1ac2 6ebe b591 d2bd
00000280: 5d09 0dbe b3dc 923e 2b98 32be 373f d63b
00000290: 6d12 69bd 58e1 c3bd a86f b53e 69ee 02be
000002a0: a56f 79be 04ec 42be 6d3e 483d bfbc bebe
000002b0: 36dc 96bd ecb1 143f 2d08 98be 40ea aa3e
000002c0: ed9a 9fbe 4cf1 f03e cc01 1ebe 5065 1e3e
000002d0: 6bd6 61be 1c55 a1bd 58b2 42be c573 bbbd
000002e0: 55ae cebe 961c 4f3e af83 cbbd a13c 59be
000002f0: 397c 863e cf3e 20bd 9a9d ae3b 7b9e 24be
00000300: 967f 2ebe 112f 7c3d 0a68 93be da8b d7be
00000310: 8341 043f d0ba dfbe f230 83be b450 3fba
00000320: 9f0f e6be 5f59 3cbe 16ec ab3d b9f5 003d
00000330: 365e 84be 819d bebe 16c9 9abe 4015 a93e
00000340: 3fd9 29be e82b 0bbf 2c61 83bd adae debe
00000350: 69de 22bd 9cc6 d5be 2c55 3fbd 8871 98be
00000360: ea8e c43e 6a65 a4bb c0d9 c9bd b523 013f
00000370: e2fa 10be 5313 aabe dd98 0b3f b00d 6f3e
00000380: a49d 91bc bad3 b53d 701c a0bd 793e a6bd
00000390: 5b2b f0bd ea5a 76be e990 a53c cdda 27be
000003a0: deb3 643e 4301 8fbe 22a6 80be 4c04 c7be
000003b0: 4ee0 383d dbd0 57be 79dd 32be 57b1 6a3e
000003c0: f10a 573e ea4e 27be b94c 233e 33ca 3fbe
000003d0: de3d 2ebe 244c 9f3c ff82 05bc ae0f 45be
000003e0: c6c1 533d 24f2 523e e390 203e 82c7 24be
000003f0: 133f 8d3c 2eb8 40be 4d3c ae3e e4b2 733e
-0.01872713 -0.067259826 0.06715507 -0.1952146 -0.28292447 -0.23617807 -0.058763094 -0.106858574
0.49006838 0.045406815 -0.29703468 -0.31486702 0.0047479537 -0.15696678 -0.26304007 -0.16534933
0.04882187 -0.0959617 0.15933603 0.08270912 0.07084693 0.2805371 0.014406948 -0.054644775
-0.004391677 0.19571894 -0.14847276 -0.38806483 -0.10543931 0.036242887 -0.05087729 -0.391307
0.14547583 -0.38774988 -0.3350549 0.31281275 0.089037895 -0.09745076 -0.16016522 0.06599981
-0.35820404 0.0018074792 0.11949776 -0.25331786 0.17496353 -0.08094819 0.041829024 0.1539406
-0.1253757 0.23344402 -0.10334798 0.10994673 -0.16276312 -0.4458326 0.022616412 -0.06558
0.29893216 0.1134028 -0.29865292 -0.038185574 -0.17503488 -0.255855 -0.40190616 -0.24348877
-0.20685016 -0.110230654 0.029727994 0.012912508 -0.101554856 0.07230303 -0.056072716 -0.10625173
-0.2636621 -0.3067523 0.13980386 0.41349125 -0.2396836 0.30775788 -0.13015255 -0.20238198
-0.3166595 -0.4035682 -0.28667563 -0.14986631 0.44103467 -0.08187828 0.043534074 -0.118834645
-0.13668849 0.086360686 0.16472925 0.027869334 -0.12747508 -0.08870104 -0.15430014 0.3494748
-0.053709902 -0.19393204 -0.23454995 0.0722495 0.37780187 -0.22547537 -0.21793804 -0.15368794
-0.09656792 -0.033687465 0.11393804 -0.4059852 -0.24049859 -0.35871542 -0.14811748 0.49411327
-0.35272008 -0.39608786 -0.22729397 -0.020859046 -0.36677793 -0.29941607 -0.076576106 -0.0877618
0.31911138 -0.101846114 -0.116970025 0.26109573 0.027941393 -0.12512565 -0.0714903 0.43436977
0.21126305 -0.47175828 -0.3502867 0.24969205 -0.42952693 0.17974973 -0.3258387 0.32181087
-0.280393 -0.28912166 -0.08835209 0.15150322 0.36260104 0.2630743 -0.083274536 0.026199648
-0.48105562 0.21562739 0.06520815 0.5403268 -0.13545734 -0.55393136 -0.24052411 0.1099999
0.14813702 0.23997496 -0.09082335 0.09830262 -0.16230808 -0.20455258 -0.23316231 -0.10281698
-0.13773103 0.28684005 -0.1744086 0.0065382975 -0.056902338 -0.09564465 0.3543675 -0.12786259
-0.24358995 -0.19035345 0.04888766 -0.37253377 -0.07366221 0.5808399 -0.29693738 0.33381844
-0.31172886 0.47059095 -0.15430373 0.15468335 -0.2205445 -0.078775615 -0.19013345 -0.09152941
-0.4036738 0.20225748 -0.09937226 -0.21214534 0.2626665 -0.0391224 0.005328846 -0.1607608
-0.17040858 0.061568324 -0.28790313 -0.42098886 0.5166246 -0.43697214 -0.2562328 -0.00072980975
-0.44933793 -0.18393467 0.08394639 0.03148434 -0.25853127 -0.3722954 -0.3023154 0.33024025
-0.16586779 -0.5436387 -0.064150184 -0.43492642 -0.039762888 -0.4175309 -0.046712086 -0.29774117
0.38390285 -0.0050169723 -0.09855986 0.5044511 -0.14158204 -0.33217868 0.54530126 0.23345065
-0.017775364 0.08878274 -0.07817924 -0.081173845 -0.117270194 -0.24058118 0.0202107 -0.1639206
0.22334239 -0.2793065 -0.2512675 -0.38870466 0.04513579 -0.21075766 -0.17467298 0.22919212
0.21000268 -0.16338697 0.15947236 -0.18729477 -0.17015788 0.019445486 -0.008148908 -0.19244263
0.05169847 0.20600182 0.1568027 -0.16091731 0.01724199 -0.18820259 0.3403038 0.2379871

convs.1.lin_l.bias f4 [40]
00000000: 4060 a73d 586f 3bbe 6b4b 123e 07d2 2bbe
00000010: 1652 49be 1cc9 b4bc b479 6abe 8da8 d1bd
00000020: f976 44bd 1433 783d 1e8e dd3d fd04 b73d
00000030: 34e4 71bd d1c6 29be 983a 143e 7b1a 8a3d
00000040: cb00 36bd 0a62 a53d ca04 043c 92e6 6f3d
00000050: 0bf2 0d3e bca8 e03c d775 223e 6242 45be
00000060: a0f1 86bd 89e6 c4bd 3fda d83d 77ca df3d
00000070: 9de3 323b e140 1fbe 8b12 acbe 4b0b 663d
00000080: b268 19be 14d2 09be dd5a 563e 521d 1ebe
00000090: 916b 7dbe c1d1 48be f0b4 abbe 6eec 97bd
0.08172655 -0.18304193 0.14286582 -0.16779338 -0.1966022 -0.022068553 -0.22897989 -0.10237227
-0.047965024 0.060595587 0.10818122 0.08936498 -0.059055522 -0.16579749 0.14475477 0.06743332
-0.04443435 0.0807534 0.008057782 0.0585695 0.13861863 0.027424209 0.15865265 -0.19263604
-0.06589055 -0.096142836 0.10588502 0.10927289 0.0027296313 -0.15552093 -0.33607897 0.056163114
-0.14981344 -0.13459045 0.20933099 -0.15440872 -0.24748065 -0.19611265 -0.33536482 -0.07418142

convs.1.lin_r.weight f4 [40, 32]
00000000: 6021 22be b49d 44bd 120b 6c3e 5f38 d8bd
00000010: c6f4 c1be ecbd 13be 6c04 babd 9b2d a5bc
00000020: d22a ae3e ae31 4dbe 25d1 c3bd 21b4 31bd
00000030: bad1 d23c 6549 75be e6ad 87bc ddf8 71be
00000040: 315b 813e 5841 a5bc 2b2e bcbd 98d9 f1bc
00000050: e2ec 15be 5009 8a3d cf20 d7bd a253 ae3d
00000060: cfb3 6abe 3bf8 e63b be88 68be 17b4 c1be
00000070: e40a b3be 84fe cc3d 9f91 03be 2ada b3be
00000080: e1dd 0b3e b573 8dbe 2f12 21be 2de6 153e
00000090: f0a5 603e 96b0 ed3b 9fb0 8abe 00e0 773e
000000a0: eb11 0cbe a24b 80bd 9451 203e e9f9 93be
000000b0: ae7a 063e f7c6 cfbe fc76 bfbb b4fe ae3b
000000c0: dd23 80bc 25e6 3f3e 0393 a2bd 0092 c9bd
000000d0: 0136 b5be da5f 59be 38ab 383c 127b b7bd
000000e0: f70a 3f3e 5a81 b9bd 37bf d9be 6883 95be
000000f0: eea8 a3be c6a6 9abd bf39 05be 4c7a 74be
00000100: e097 87be aeb5 96be 08e4 823e f693 223e
00000110: 4b3a 8dbe c207 2f3e 8aa2 b9be ff49 97bd
00000120: dd7b 7bbe 4e8f f4bd 901c 24be 4521 e93d
00000130: fff2 343b a323 863e 332c bebe bcb7 7dbe
00000140: d19a 26be a9c6 f4bd adf8 a5be 735c 98bd
00000150: bb56 c83e 42d2 653d 8299 d03d f8ce 543d
00000160: 2eef 453e 6891 c23e 920e 463e cc57 8bbb
00000170: 2363 12be a309 22be abc9 2d3e d501 e33e
00000180: ce91 95be f4f2 7fbe 730c 55be 60ed 89be
00000190: 44dc 0c3f a146 5bbe e3c0 44be 684f 9ebd
000001a0: e88a 84be e823 69be 1378 933b 8655 ebbd
000001b0: 45df 33be b33a e5bd c7e1 8dbe cf69 e13e
000001c0: 5dd5 d7be df8f 8cbe eb35 7bbe 85bc b9be
000001d0: c374 6bbe 0b94 39be 6d64 e3be ae15 debb
000001e0: 29b8 0e3e f330 45be e899 b3be ad04 f43e
000001f0: cd28 a03d 3b90 5dbe 2ca9 0dbe 344e e33e
00000200: 540a 6b3e ccfb b7bd 9f94 ebbd a304 e43e
00000210: 2277 50be 20a9 24be 6bfc b4be 298a d23e
00000220: 273f a2bd 3980 e5be 4f1f 023e ada9 12be
00000230: 31ea de3e ef76 963e 963a 1abd f9cb 043e
00000240: 885a a9be 3e5e ac3d 3425 cf3d 7ee1 22bd
00000250: 409a 73be cea7 e9be 83c4 dfbe 0df8 033e
00000260: 85fa 873e 05f6 953e 4f00 8bbe ce7d a93e
00000270: fdd4 ab3d b0b5 ecbd 385b 5fbe 9ab2 25bd
00000280: 9b4d 4abb 8906 c23e a007 aebe 682e 8e3d
00000290: 8890 063e da90 4ebe c506 473e 2d5f 1e3d
000002a0: 00ec b0be d8fd fcbd fe1e 863c f175 0abe
000002b0: e3a1 3d3e efff b53e 3188 bebd 8dcd 8b3e
000002c0: 0cc9 afbe 56bf a33e b2f7 0bbf 5b09 d9bd
000002d0: 1c7a e03c bea5 0cbe 80b9 263d 1934 4e3e
000002e0: d70a b5be 008d 363e a5a1 08be 37df 85be
000002f0: 1041 fd3d a381 41bd a799 bb3d 0efa 3f3c
00000300: 812d 99be 271d 9f3d 77b1 b4be 8b39 1bbe
00000310: 1cad d43e 0b1d c9be dc4d 89be 334a d6bd
00000320: 52be cdbe 98c0 80be cbfc fa3d 2d1d 77be
00000330: 06ac f0bd b16c f0be cbf7 ddbe 9f31 973e
00000340: a0e3 22be ef6d f3be 59bd bf3d 68a2 01bf
00000350: 188c e8ba 35d3 16be 430a 55be 47c5 3fbe
00000360: 4d32 203e 5b8a 2abe 3eb0 2fbe db94 833e
00000370: 2239 90be 1ff8 193b 2df5 533e fb1c 523e
00000380: a70c 1e3e a9f6 21bd d484 c13d b4b7 0ebe
00000390: 29c3 9ebd fccc 58be b60f aabe b6a4 85be
000003a0: a674 dd3e f5ae 9abe 174d cbbd fe36 cfbe
000003b0: 168d 48bd 3255 09bf 4692 803a ff97 a5bd
000003c0: b5eb 363e e314 443e e5d3 183d 349b 6ebe
000003d0: bd8e 5bbe 0f91 bfbd e6aa b5bd bf60 23be
000003e0: 74f4 48be b755 4b3c 77f8 c53d 1aaa a7be
000003f0: 7594 ee3c 1ee5 66be 3a51 c43e 4d29 583d
-0.15833044 -0.04800196 0.23051098 -0.10557627 -0.3788206 -0.14427918 -0.09082875 -0.020163348
0.34017044 -0.20038483 -0.095613755 -0.043384675 0.025734771 -0.23953779 -0.016562413 -0.2363009
0.25264886 -0.02017276 -0.09188493 -0.029522702 -0.14641145 0.067400575 -0.105043046 0.085120454
-0.22920154 0.0070486343 -0.22708413 -0.3783271 -0.34969246 0.100094825 -0.12848519 -0.35127383
0.13658859 -0.2762734 -0.15729593 0.14638586 0.219383 0.0072537167 -0.27087876 0.24206543
-0.1367871 -0.06264426 0.1565612 -0.28901604 0.13132736 -0.40581486 -0.0058430415 0.0053404216
-0.015642101 0.18740137 -0.079381965 -0.098423004 -0.35392764 -0.2122797 0.0112712905 -0.08959021
0.18656527 -0.09057875 -0.42528698 -0.29201818 -0.3196482 -0.07551341 -0.1301031 -0.23874778
-0.2648306 -0.29435486 0.255646 0.15876755 -0.27583537 0.17092803 -0.3625682 -0.073871605
-0.24558969 -0.11941396 -0.1602652 0.11383299 0.0027610657 0.26199064 -0.37143096 -0.2477712
-0.16269995 -0.11951954 -0.32416287 -0.07439508 0.3912867 0.05610872 0.10185529 0.051955193
0.19329521 0.3800156 0.19341496 -0.0042524096 -0.1429563 -0.15823989 0.16971461 0.44337335
-0.29212803 -0.24995023 -0.2080553 -0.26938915 0.550236 -0.21413662 -0.19214205 -0.07729989
-0.25887227 -0.22767603 0.004500398 -0.11490922 -0.1756564 -0.111928366 -0.27711317 0.44026038
-0.4215497 -0.27453515 -0.24532287 -0.3627664 -0.2299376 -0.1812288 -0.44412556 -0.0067774868
0.13937439 -0.19256954 -0.3507836 0.47659817 0.07820282 -0.21637051 -0.13834065 0.44395602
0.22953159 -0.08983573 -0.115029566 0.44534788 -0.20357946 -0.16080141 -0.3534883 0.41121033
-0.079222016 -0.4482439 0.12707256 -0.14322539 0.4353805 0.29387614 -0.03765353 0.12968434
-0.33076882 0.08416413 0.10114518 -0.039765827 -0.2378931 -0.45635837 -0.43704614 0.12887593
0.2655832 0.2928926 -0.27148673 0.33103794 0.08390234 -0.11558092 -0.21812141 -0.04045353
-0.003086901 0.3789561 -0.33990192 0.06942445 0.13141072 -0.20172444 0.19436176 0.038664985
-0.34555054 -0.12353104 0.0163722 -0.13521554 0.18518786 0.35546824 -0.0930332 0.2730526
-0.34333074 0.31981915 -0.5467483 -0.105974875 0.027401976 -0.137351 0.04070425 0.20137061
-0.35359833 0.17827225 -0.13342912 -0.26146862 0.12365925 -0.04724277 0.09160166 0.0117173325
-0.2991753 0.07769232 -0.35291645 -0.1515867 0.41538322 -0.3927997 -0.26817214 -0.10463371
-0.40184265 -0.25146937 0.12255248 -0.24132223 -0.11751561 -0.46957925 -0.43353114 0.29530045
-0.15907145 -0.4754481 0.09362287 -0.5063844 -0.0017741947 -0.14729007 -0.20804696 -0.18727599
0.15644188 -0.16654341 -0.17157075 0.25699505 -0.2816859 0.002349384 0.20698996 0.20518868
0.15434514 -0.039541874 0.09449163 -0.13937265 -0.077520676 -0.21171945 -0.33215111 -0.26102227
0.43253058 -0.30211607 -0.09926813 -0.40471643 -0.048962675 -0.5364562 0.0009809218 -0.080856316
0.17863353 0.19148593 0.037311453 -0.23301393 -0.21441169 -0.093538396 -0.08870487 -0.15954874
-0.19624501 0.012410573 0.096665315 -0.32746965 0.029123524 -0.22548339 0.3834322 0.052773762

bns.0.weight f4 [32]
00000000: 7546 933f f994 a63f 808b ac3f 9fc1 a43f
00000010: fe88 aa3f 7e0a ad3f 82a0 9f3f 265b 9a3f
00000020: e664 a93f 0d23 9a3f 6f1c a53f dd81 af3f
00000030: 3b83 a93f b195 a93f 9bb2 a33f 63b4 9c3f
00000040: 96ce a93f 102e ab3f a68a ac3f 34ee a73f
00000050: 7a77 a33f 5db1 a33f 0062 b93f 55dd 9d3f
00000060: e955 ab3f d746 b03f fbc1 a43f 1315 aa3f
00000070: 3877 9b3f 88bc 9b3f 1a8c ab3f 1b3c 9c3f
1.1505877 1.3014213 1.3480072 1.2871588 1.3323057 1.3518827 1.2470858 1.2059066
1.3233917 1.2041947 1.2899302 1.3711506 1.3243173 1.3248807 1.2788881 1.224255
1.326617 1.3373432 1.3479812 1.3119569 1.2770836 1.2788502 1.4483032 1.233317
1.3385593 1.3771619 1.2871698 1.3287681 1.2145758 1.216691 1.3402131 1.2205843

bns.0.bias f4 [32]
00000000: 2155 293e edbc 4a3e 7407 6a3e 3430 6d3e
00000010: b63f 963e 529a 973e 8a4a 823e 2da5 403e
00000020: e71c 673e 608b 603e 95dd 063e 7d3d 913e
00000030: 3683 693e e1c4 813e 577d 8e3e a29a 453e
00000040: eae2 6a3e 40ce ac3e 3502 1e3e 76e8 853e
00000050: 3c2d 533e 632d 633e 2838 933e b271 683e
00000060: 1162 1e3e 7a31 9a3e 1b90 8a3e 8e95 843e
00000070: d8f0 543e 8a37 633e 2971 753e 8d91 cf3d
0.1653638 0.19798632 0.22854406 0.2316292 0.29345483 0.29609925 0.25447494 0.1881301
0.22569619 0.21928167 0.13170464 0.28367224 0.22803959 0.2534552 0.27830002 0.19297269
0.22938123 0.33751106 0.1543053 0.26153916 0.20622724 0.22185282 0.2875378 0.22699621
0.15467097 0.30115873 0.2706307 0.2589535 0.20795 0.22189155 0.23968948 0.101351835

bns.0.running_mean f4 [32]
00000000: fea9 233f 34f2 1abf 9cbf 07bf d553 85be
00000010: 5b96 b0be 2289 a03c 2ac3 97be 2c32 5cbd
00000020: 2fae 87be cfe5 b03d 553c 17bf 6282 22be
00000030: ac28 753e 8c2d e9be a068 16bf 514d 0dbf
00000040: 549c 03be 865f 08bc d57b b2be f267 9a3d
00000050: 713b 2c3d 431f c9be f400 a5be bc3f 853e
00000060: 112a d3be 5715 ebbe 2228 eabe 90e2 7e3e
00000070: e2c5 c6bd fe17 443f ddf1 87be 1d99 1dbe
0.6393126 -0.6052582 -0.5302675 -0.2604052 -0.34489712 0.01959664 -0.29641086 -0.053758785
-0.2650008 0.086375825 -0.59076434 -0.1587005 0.23941296 -0.45542562 -0.58753395 -0.551961
-0.12852603 -0.008323556 -0.348601 0.07539357 0.042048875 -0.39281663 -0.3222729 0.26025188
-0.41243032 -0.45914719 -0.45733744 0.24891114 -0.09705712 0.7659911 -0.26551715 -0.1539044

bns.0.running_var f4 [32]
00000000: babc 7a3e 8fc4 f23d 32d8 e73d 1f4e e73d
00000010: 6833 373e a90a f03d 75c2 f93d 016c 0f3e
00000020: 2f3e dd3d 1c48 483e e12b e83d 79d2 9e3d
00000030: 4c36 973d 1a8f 713d 4257 d03d 88c2 6d3e
00000040: 1d2e 133e d2f4 983d 0652 ee3d fa0b e03d
00000050: 4901 bd3d bdd6 0d3e c482 fc3d d461 c73d
00000060: fb03 cb3d 650c ba3d fd61 c53d 129e 813d
00000070: 1cc9 fe3d a58a 1f3e 0ece 363e 1095 583e
0.24486056 0.11853897 0.11320533 0.11294197 0.17890704 0.11720783 0.12195293 0.14006044
0.10802876 0.19558758 0.11336494 0.07754988 0.07383403 0.058974363 0.10172893 0.23218739
0.1437306 0.07468571 0.116367385 0.10939784 0.09228761 0.13851447 0.12329629 0.09735456
0.099128686 0.09084395 0.096378304 0.06328978 0.12440702 0.15580232 0.17852041 0.21150613
