saved/amazon-photo_GCN_s2.pt (torch, 101839 bytes, 8 tensors)

layers.0.bias f4 [32]
0	0x3cd995b5	0.026560644
1	0x3be6ea1f	0.0070469524
2	0x3cd81a13	0.02637962
3	0x3cbbed96	0.022940438
4	0x3cc894d1	0.024485024
5	0x3cbb0f74	0.022834517
6	0x3d002684	0.03128673
7	0x3cb36b28	0.021901682
8	0x3d0fbc74	0.035091832
9	0x3cd6d66e	0.026225295
10	0x3bab5d69	0.005229641
11	0x3b8cd7ba	0.0042981775
12	0x3cb6560f	0.022257833
13	0x3a033bae	0.00050061464
14	0x3ba460c3	0.0050164177
15	0x3cd90fe4	0.026496835
16	0x3d1024ed	0.035191465
17	0x3c84c6d2	0.016208086
18	0x39d04470	0.00039723841
19	0x3c99d0e4	0.018776365
20	0x3cc2287c	0.023700945
21	0x3b08f266	0.0020896434
22	0xb9ab9db2	-0.00032733154
23	0xbae14446	-0.0017186485
24	0x3cb5dc96	0.02219991
25	0xbb8904be	-0.0041814735
26	0x3c5a3e33	0.0133204935
27	0x3af611fc	0.001877367
28	0x3aa75b44	0.0012768288
29	0xbc22f5d0	-0.009946302
30	0x3bc786f4	0.0060890857
31	0x3c0d9a1f	0.008642702

layers.0.lin.weight f4 [32, 755]
0	0x3b6b31f7	0.0035887936
1	0x3d5bc148	0.053651124
2	0x39c1b69f	0.00036947892
3	0x3c8194eb	0.01581808
4	0x3d785809	0.060630832
5	0x3d369f4b	0.044585507
6	0xbd0dcd6d	-0.034619737
7	0x3ded49ef	0.11586367
8	0x3dc9f3f3	0.09860983
9	0x3cf75767	0.030193044
10	0x3c3e0c92	0.011599677
11	0xbce21e91	-0.027602466
12	0xbcbf1e1c	-0.023329787
13	0xbd9962bd	-0.07489536
14	0x3c471ba2	0.012152584
15	0x3d7b614a	0.06137208
16	0xbd4ea81f	-0.0504533
17	0xbd882f48	-0.06649643
18	0xbd7bf0c0	-0.061508894
19	0xbc225f78	-0.009910457
20	0xbcb3ddbe	-0.02195632
21	0xbcf183a1	-0.02948171
22	0x3db34b8a	0.08754642
23	0xbd992fee	-0.07479845
24	0xbb8b93fc	-0.0042595845
25	0xbd84a0dc	-0.06475994
26	0xbb112f0d	-0.0022153289
27	0xbcceaddd	-0.025229389
28	0x3d4dcf7f	0.05024671
29	0x3d4c41cb	0.049867433
30	0xbd60a8cd	-0.05484848
31	0xbd67b5e7	-0.05656996
32	0xbd171f92	-0.036895342
33	0xbab4d692	-0.0013796857
34	0x3c1f617e	0.009727834
35	0xbcfc47f5	-0.03079603
36	0xbb3d2076	-0.002885846
37	0x3d8c0008	0.068359435
38	0x3d0e9eff	0.0348196
39	0xbc557578	-0.013028495
40	0x3d7f6c7c	0.062359318
41	0x3d9ae460	0.0756309
42	0xbc333199	-0.010937118
43	0x3cc9375b	0.024562528
44	0x3cde4716	0.027133506
45	0x3c1c1345	0.009526079
46	0x3cfb0d67	0.03064604
47	0x3d9693c5	0.073524036
48	0xbd8d8076	-0.069092676
49	0xbd4adb83	-0.04952575
50	0xbd22df1f	-0.039763566
51	0x3d7f29d0	0.062295735
52	0xbd28fb8f	-0.04125553
53	0xbd7cfe36	-0.061765872
54	0xbd88b562	-0.06675221
55	0x3d507af7	0.05089852
56	0x3d388a11	0.045053545
57	0xbbc7fcc4	-0.00610313
58	0xbdf63cd8	-0.12023324
59	0x3d2a58b4	0.0415885
60	0xbce3f26f	-0.027825562
61	0xbb14f4ea	-0.0022728988
62	0xbd8246e6	-0.06361179
63	0xbca42742	-0.02003825
64	0x3d406aa0	0.046976686
65	0x3d683dee	0.056699686
66	0x3d38af29	0.04508892
67	0xbd0ab186	-0.033860706
68	0x3c012321	0.007881911
69	0x3d384b6a	0.044993795
70	0x3caf212b	0.02137812
71	0xbdb8218e	-0.08990775
72	0xbc2282d7	-0.00991889
73	0xbcb064d1	-0.021532448
74	0x3d8d6bf8	0.06905359
75	0xbd2ee382	-0.042697437
76	0xbd8615aa	-0.06547101
77	0x3d8bd974	0.06828585
78	0x3c0417fe	0.008062361
79	0xbcd179cf	-0.025570778
80	0xbdd4df1b	-0.103941165
81	0x3bdfca0e	0.0068295067
82	0x3c6dd986	0.014517194
83	0x3d081c83	0.033230316
84	0xbc8121da	-0.015763212
85	0x3d44d071	0.048050348
86	0x3c937c21	0.018003525
87	0xbc6d40d0	-0.014480785
88	0x3d5846cb	0.05280189
89	0x3c386dc4	0.011256639
90	0xbd90b6bf	-0.07066106
91	0x3d0fcf64	0.035109892
92	0xbd5adbdb	-0.053432327
93	0x3d764ff2	0.060134836
94	0xbcb28569	-0.02179213
95	0x3d72c5dd	0.05927073
96	0x3c5c54bd	0.013447938
97	0xbdbdf5ac	-0.09275374
98	0xbdbd63b6	-0.09247534
99	0x3b9c503b	0.0047703064
100	0x3d3ee317	0.04660329
101	0x3d23521c	0.039873227
102	0xbdd42e7f	-0.10360431
103	0x3c915095	0.01773862
104	0x3d7ec5fd	0.062200535
105	0xbdbefb29	-0.09325249
106	0x3c80e183	0.015732532
107	0x3d7461a6	0.059663437
108	0x3c8d22a0	0.017228425
109	0x3d1a9461	0.03773916
110	0xbdb8d92b	-0.090257965
111	0xbd480993	-0.048837256
112	0xbd40d59a	-0.047078706
113	0xbd42b598	-0.047536463
114	0xbc41461e	-0.011796502
115	0xbd752f3e	-0.059859507
116	0xbca59f16	-0.02021746
117	0xbce159f1	-0.027508708
118	0xbb309ebc	-0.0026950082
119	0xbd20087c	-0.03907059
120	0x3ce2efba	0.027702201
121	0xbd782354	-0.060580567
122	0xbdda130f	-0.106481664
123	0xbdb0e7e5	-0.0863798
124	0x3db91e0e	0.090389356
125	0x3d2a0d80	0.04151678
126	0xbcfcea96	-0.030873578
127	0xbd31e4d1	-0.043431107
128	0xbc3dc23c	-0.011581954
129	0xbd246e14	-0.04014404
130	0x3d183d0b	0.03716759
131	0x3d01e36d	0.03171103
132	0xbb9a254c	-0.004704153
133	0xbdfc3fa9	-0.1231683
134	0xbda1eb1e	-0.07906173
135	0x3d3de915	0.046364862
136	0xbd22eaeb	-0.039774816
137	0xbd58154d	-0.05275469
138	0xbca11f9e	-0.019668397
139	0x3c8127cd	0.015766049
140	0x3d1e76ea	0.038687624
141	0xbdca67e7	-0.09883099
142	0xbd2f20cf	-0.042755898
143	0x3ce7699b	0.028248599
144	0x3ce99b91	0.028516563
145	0xbd693c20	-0.056942105
146	0xbb5f6ccc	-0.0034091948
147	0xbd8466fb	-0.064649545
148	0x3c1fd07e	0.009754298
149	0x3dbc7798	0.09202498
150	0x3b0d6f9a	0.0021581412
151	0x3d4d8457	0.050175037
152	0xbd68cfc6	-0.056838773
153	0xbd88c43c	-0.06678054
154	0xbd90368f	-0.07041656
155	0xbd156760	-0.03647554
156	0xbcde51d5	-0.02713863
157	0xbc778d88	-0.015109427
158	0x3dcce485	0.10004524
159	0xbd86d2ca	-0.065831736
160	0x3c831990	0.0160034
161	0x3d81da32	0.063404456
162	0x3dc35bd0	0.09538996
163	0x3d8569ec	0.065143436
164	0xbd886fc1	-0.0666194
165	0x3d4039a1	0.04692996
166	0xbd2d160d	-0.042257357
167	0x3cb9b443	0.022668963
168	0x3bdb57a1	0.006693796
169	0x3d60f666	0.054922484
170	0x3d6c76c8	0.057730466
171	0xbd8aa4ec	-0.067697376
172	0x3b53548e	0.0032246443
173	0xbd25148c	-0.0403028
174	0x3d69bcb6	0.057064734
175	0x38ea6f2e	0.00011178698
176	0xbd34de0d	-0.044157077
177	0xbc898bff	-0.016790388
178	0xbd939585	-0.07206253
179	0x3d266ea6	0.040632866
180	0xbd7a1ca1	-0.06106246
181	0xbdd8af78	-0.10580343
182	0x3db3d12c	0.08780131
183	0x3bf8b839	0.0075903204
184	0xbd365655	-0.044515926
185	0xbcd94d5c	-0.026526146
186	0x3c83eade	0.016103204
187	0xbd8f8ad8	-0.07008904
188	0xbc384aff	-0.011248349
189	0xbb26601d	-0.0025386878
190	0xbca1cdff	-0.019751547
191	0xbd7f75f7	-0.06236836
192	0x3d946bf0	0.0724715
193	0x3c8ee3bc	0.017442577
194	0x3c8c6639	0.017138587
195	0xbcac9aac	-0.021069847
196	0x3d78121d	0.06056415
197	0xbc93d162	-0.018044177
198	0xbc847ca6	-0.016172718
199	0x3ca6383c	0.020290487
200	0x3a597855	0.0008295824
201	0xbd2d1a2a	-0.04226128
202	0xbd1c5763	-0.038169276
203	0xbce50b86	-0.027959596
204	0x3db283be	0.08716534
205	0x3cc61765	0.024181077
206	0x3d2b5fe4	0.041839495
207	0x3ca94d62	0.020666782
208	0xbd480ebf	-0.048842188
209	0xbd46b002	-0.048507698
210	0xbd6eda14	-0.058313444
211	0x3d1c8018	0.038208097
212	0xbd8f3b14	-0.0699369
213	0xbd1fecd4	-0.039044216
214	0x3d40b3bf	0.04704642
215	0x3cabb489	0.02096011
216	0x3b51cde7	0.0032013597
217	0x3d5d945a	0.054096557
218	0x3d493c98	0.049130052
219	0xbd2cf900	-0.042229652
220	0x3d740bc1	0.059581522
221	0x3cb91167	0.022591306
222	0x3d1688ea	0.036751665
223	0xbd952c68	-0.072838604
224	0xbc1df72e	-0.009641452
225	0x3c8253a7	0.01590903
226	0xbcb4284c	-0.021991871
227	0x3c94dac4	0.018170722
228	0x3c037e25	0.008025681
229	0xbd4d209f	-0.050079938
230	0xbc8fdf89	-0.017562645
231	0xbda81c02	-0.08208467
232	0x3d5a6dd7	0.053327408
233	0x3dc3f9c1	0.09569121
234	0xbc9434fa	-0.018091667
235	0xbd686a29	-0.056741867
236	0x3d8d6dcc	0.06905708
237	0xbca0e7e5	-0.019641826
238	0xbd471a07	-0.048608806
239	0x3d914223	0.07092693
240	0x3d32efdf	0.04368579
241	0xbcaf8dfc	-0.021430008
242	0x3d554ce7	0.052075293
243	0xbd9cf221	-0.0766337
244	0x3d8a7bd1	0.06761897
245	0x3dac5965	0.08415488
246	0x3c5b157a	0.01337182
247	0xbcaea7f0	-0.021320313
248	0x3d7c0ae0	0.06153381
249	0xbd493ade	-0.049128406
250	0xbd466d50	-0.048444092
251	0xbdc57698	-0.096417606
252	0x3c2871ab	0.010281007
253	0x3c1a124c	0.009403776
254	0xbcb84ece	-0.022498515
255	0xbc9682f3	-0.018372988

layers.1.bias f4 [9]
0	0xbddbe46c	-0.107369274
1	0xbddca312	-0.10773291
2	0xbdd1f49a	-0.10251732
3	0x3de90746	0.113783404
4	0xbde82148	-0.11334473
5	0xbde3a30d	-0.11115084
6	0xbde96928	-0.1139701
7	0xbdee0d69	-0.116236515
8	0xbc172bf8	-0.009226792

layers.1.lin.weight f4 [9, 32]
0	0xbee49770	-0.44646788
1	0xbe31c999	-0.1736206
2	0xbe79ea6f	-0.24405836
3	0xbdbb4c2c	-0.09145388
4	0xbec8d2cd	-0.39223328
5	0xbe401e10	-0.18761468
6	0xbd89caef	-0.0672816
7	0xbecb285e	-0.39679235
8	0xbde2bcf4	-0.11071196
9	0xbe80840e	-0.2510075
10	0xbe871349	-0.263819
11	0xbc85f33a	-0.016351331
12	0xbe82640f	-0.25466964
13	0x3e760a3a	0.24027339
14	0x3dd2e075	0.10296718
15	0xbd6d31b1	-0.057908718
16	0xbed136fb	-0.4086226
17	0xbe50f937	-0.20407568
18	0xbdbb37c6	-0.09141497
19	0x3c9d23f3	0.019182181
20	0xbeb604c2	-0.35550505
21	0x3d448670	0.047979772
22	0x3e054e39	0.13018121
23	0x3dba5dcc	0.090999216
24	0xbe7757b6	-0.24154553
25	0x3e018c57	0.12651192
26	0x3e5bc031	0.21460034
27	0xba4ec635	-0.00078878115
28	0xbc0a05af	-0.008424207
29	0x3e95fb6c	0.29293382
30	0xbeec2c01	-0.46127322
31	0xbe735521	-0.23762943
32	0x3e211986	0.15732393
33	0xbeb06226	-0.3444988
34	0xbd4f14b9	-0.050556872
35	0xbeaf6ca8	-0.34262586
36	0xbdaaf276	-0.08347027
37	0xbda56051	-0.080750115
38	0xbd581554	-0.052754715
39	0xbe722eeb	-0.2365071
40	0xbe155dd9	-0.14586581
41	0xbe0bafec	-0.13641328
42	0xbea27767	-0.31731722
43	0x3db92476	0.090401575
44	0xbee72e68	-0.45152593
45	0xbc0d9f59	-0.0086439485
46	0x3daf368c	0.08555326
47	0xbec4a224	-0.38404953
48	0xbdd63907	-0.10460096
49	0xbe92b786	-0.28655642
50	0x3e84b693	0.25920543
51	0x3e83cdb6	0.25742882
52	0xbcacc7cd	-0.021091366
53	0x3daebb54	0.08531824
54	0x3e50ac4f	0.2037823
55	0x3ce2df4f	0.027694372
56	0x3e566209	0.20935835
57	0x3e3fc3ac	0.18726987
58	0x3dc66a95	0.09688298
59	0x3e751cfd	0.2393684
60	0x3e936428	0.2878735
61	0x3d954357	0.07288235
62	0xbed01651	-0.40642026
63	0xbcfbbc9d	-0.030729586
64	0xbc76e8fb	-0.015070195
65	0xbe7fae7d	-0.24968906
66	0xbd12a9e9	-0.03580657
67	0xbddfe928	-0.10933143
68	0xbee39563	-0.4444991
69	0xbeaf9d16	-0.34299535
70	0xbe2226af	-0.15835069
71	0x3d3a82c8	0.04553488
72	0x3e19b409	0.15010084
73	0xbd965fb8	-0.07342476
74	0x3e7da034	0.24768144
75	0x3e950557	0.29105636
76	0xbea10224	-0.31446946
77	0xbe31b118	-0.17352712
78	0xbd612f41	-0.054976705
79	0x3e0bc1ce	0.1364815
80	0xbee54a0d	-0.4478306
81	0xbdacd24b	-0.08438548
82	0xbee01357	-0.43764755
83	0xbef506d8	-0.47856784
84	0xbe9a7182	-0.30164725
85	0x3e3368d3	0.17520456
86	0xbe786525	-0.24257334
87	0x3dd84d99	0.105616756
88	0x3e583b78	0.21116436
89	0xbe3362d9	-0.17518176
90	0xbef1edeb	-0.4725183
91	0x3dd7b78b	0.10533055
92	0xbed87a35	-0.42280737
93	0xbe825851	-0.25458005
94	0xbe1dd2db	-0.15412466
95	0xbd62cbcb	-0.055370133
96	0x3e45ff51	0.19335677
97	0xbdd7711b	-0.1051962
98	0x3e3f5de8	0.18688166
99	0x3e406f7a	0.18792525
100	0x3e4f5d6f	0.20250486
101	0x3ecf5e58	0.40501666
102	0x3eadeb1f	0.33968446
103	0x3ea46e70	0.32115507
104	0x3ea595e1	0.3234091
105	0x3ea5f483	0.3241311
106	0xbcc3b6ff	-0.02389097
107	0xbe1332b6	-0.14374813
108	0x3eb2395c	0.34809387
109	0xbe094f72	-0.13409212
110	0xbcb36416	-0.02189831
111	0x3ea29e3e	0.31761354
112	0x3eb6553a	0.35611898
113	0x3ee46dba	0.44614965
114	0x3b9040f4	0.0044022743
115	0x3e22a850	0.15884519
116	0x3d5603b6	0.052249633
117	0xbe8b25ee	-0.27177376
118	0x3e0592c6	0.13044271
119	0xbe41f074	-0.18939382
120	0x3e33e5da	0.1756815
121	0xbe807e43	-0.2509633
122	0x3df1baf8	0.118032396
123	0xbe6acca0	-0.2292962
124	0xbd787980	-0.060662746
125	0xbe19e4f2	-0.15028742
126	0x3d27501d	0.040847886
127	0xbe8956a8	-0.26823926
128	0xbea42b1f	-0.3206415
129	0xbe59f1e3	-0.21283679
130	0x3ddac189	0.10681445
131	0x3cd1b58f	0.02559927
132	0x3dbfcfcd	0.09365807
133	0xbe2caabd	-0.16862006
134	0xbefb91f1	-0.49134782
135	0xbe09c721	-0.13454868
136	0x3e5f3415	0.21797211
137	0xbe4dc9ad	-0.20096464
138	0x3ced27c2	0.028949622
139	0xbea91fa3	-0.3303195
140	0xbe4744ca	-0.19459835
141	0xbef0753c	-0.46964443
142	0xbeb6fe7e	-0.35741037
143	0xbe165257	-0.14679848
144	0xbe20e4d4	-0.15712291
145	0x3cf776c4	0.030207999
146	0x3d9947b3	0.07484379
147	0x3d4d7aed	0.05016606
148	0xbed51eb6	-0.41624993
149	0xbe293997	-0.16525875
150	0xbe66365d	-0.22481675
151	0xbef5a6b6	-0.47978753
152	0xbe9dfd12	-0.3085714
153	0xbeae49dc	-0.34040725
154	0xbed2f429	-0.41201904
155	0x3e81b6ff	0.25334927
156	0x3e56bf2c	0.20971364
157	0xbd1c0ec1	-0.038100008
158	0x3e4b493f	0.1985216
159	0xbdea2f30	-0.114347816
160	0xbeec83b2	-0.46194226
161	0xbd955a08	-0.07292563
162	0x3e5ca10b	0.21545808
163	0xbdb9d544	-0.0907388
164	0x3dd7910b	0.105257116
165	0x3de6f89c	0.11277887
166	0xbe93a5f8	-0.28837562
167	0xbf0046b3	-0.5010788
168	0xbd81e204	-0.06341937
169	0xbee8a334	-0.45437014
170	0xbeba5a2d	-0.36396924
171	0x3e0b1552	0.13582352
172	0xbb29f5ee	-0.002593394
173	0xbe2ffa8c	-0.1718542
174	0xbda20d21	-0.079126604
175	0xbec1430f	-0.37746474
176	0xbed93f15	-0.4243094
177	0xbe83fe68	-0.25780034
178	0x3d6c0446	0.057621263
179	0xbef2ecdb	-0.4744633
180	0xbe6ba619	-0.2301258
181	0xbe1d9446	-0.15388593
182	0xbe2aeb1d	-0.16691251
183	0x3e8affa7	0.27148172
184	0xbe55d66e	-0.2088258
185	0xbebde9d5	-0.37092462
186	0xbe9bfd7c	-0.3046683
187	0xbe954abf	-0.2915859
188	0xbcda6d90	-0.026663572
189	0xbe4179b1	-0.18894078
190	0xbeee9c06	-0.4660341
191	0x3e07c414	0.13258392
192	0xbeafd7b5	-0.3434426
193	0xbe8becc2	-0.2732907
194	0xbeaa3c71	-0.33249238
195	0xbdf47b5a	-0.1193759
196	0x3e16a217	0.1471027
197	0x3e1f1330	0.15534663
198	0xbec8c5d7	-0.3921344
199	0xbd8bf246	-0.06833319
200	0xbe9c57a2	-0.3053561
201	0x3e070b3b	0.13187878
202	0xbed20c3f	-0.41024968
203	0xbe7866a4	-0.24257904
204	0xbe07dcba	-0.13267794
205	0x3e2ea6b2	0.17055777
206	0xbe41bac1	-0.18918897
207	0xbdc01042	-0.09378101
208	0xbe95f8da	-0.2929142
209	0xbe8bdfd2	-0.273192
210	0xbc5d741c	-0.013516452
211	0xbd80f382	-0.062964454
212	0xbd8e4fd3	-0.06948819
213	0xba3bc130	-0.0007162271
214	0xbe159680	-0.14608192
215	0xbe29463d	-0.165307
216	0xbea58879	-0.32330683
217	0xbe4f736b	-0.20258872
218	0xbecb9130	-0.39759207
219	0xbd8f11f1	-0.06985844
220	0xbe839011	-0.2569585
221	0xbeee90a9	-0.46594742
222	0x3e20e218	0.15711248
223	0x3d3c4830	0.04596728
224	0xbe7a36ec	-0.24435014
225	0xbe4b5531	-0.19856717
226	0xbeb5e4c5	-0.355261
227	0x3e39c4be	0.18141457
228	0x3d1032f8	0.035204858
229	0xbe674b75	-0.22587378
230	0xbec3ef47	-0.38268492
231	0xbd8d2313	-0.068914555
232	0xbe7bd9b0	-0.2459476
233	0xbead98d9	-0.33905676
234	0xbcf6a8db	-0.030109813
235	0xbed3f68e	-0.41399044
236	0x3da8d4e9	0.082437344
237	0x3cbf23ef	0.023332564
238	0xbea59f70	-0.32348204
239	0x3d88e109	0.06683547
240	0x3da71496	0.08158223
241	0xbe6b0208	-0.22949994
242	0xbe2fb75d	-0.17159791
243	0xbec83195	-0.39100328
244	0xbeda7785	-0.4266931
245	0xbe415f6b	-0.18884055
246	0xbaab45fb	-0.001306712
247	0xbd2edfa5	-0.042693753
248	0x3deb9a60	0.11504054
249	0xbeb543ec	-0.35403383
250	0x3ded4e77	0.115872316
251	0x3dde5132	0.108553305
252	0xbe4159f7	-0.18881975
253	0x3e12b2a2	0.14325956
254	0x3df7f111	0.12106527
255	0xbcc94997	-0.024571223

bns.0.weight f4 [32]
0	0x3f949c00	1.1610107
1	0x3f966bd5	1.1751658
2	0x3f93beb6	1.1542575
3	0x3f9b15f4	1.2116075
4	0x3f97e393	1.1866325
5	0x3f902535	1.1261355
6	0x3f9142a9	1.1348468
7	0x3f9045ee	1.1271341
8	0x3f8fc7e0	1.1232872
9	0x3f8f92fd	1.1216732
10	0x3f8c7f74	1.0976396
11	0x3f6e159c	0.93001723
12	0x3f902c3a	1.1263497
13	0x3f6b6966	0.919577
14	0x3f80ff1e	1.0077856
15	0x3f91ae99	1.1381408
16	0x3f8f9f00	1.1220398
17	0x3f8f2f75	1.1186358
18	0x3f824102	1.0176089
19	0x3f95620e	1.1670549
20	0x3f94a4a2	1.1612742
21	0x3f6b39af	0.91884893
22	0x3f854991	1.0413076
23	0x3f6e34f6	0.9304956
24	0x3f935e19	1.1513091
25	0x3f6a99e7	0.91641086
26	0x3f95a7cd	1.1691834
27	0x3f671be4	0.9027693
28	0x3f6fc6a1	0.9366246
29	0x3f6ed6af	0.9329633
30	0x3f9368b8	1.1516333
31	0x3f68baa3	0.90909785

bns.0.bias f4 [32]
0	0x3e2137d0	0.15743947
1	0x3e45dfff	0.19323729
2	0x3e209a66	0.15683898
3	0x3e49fc36	0.19725117
4	0x3e348b09	0.17631163
5	0x3dfaa2d5	0.12238089
6	0x3e03d540	0.12874317
7	0x3e022950	0.12711072
8	0x3e01efca	0.12689129
9	0x3e001582	0.12508205
10	0x3dce5386	0.100745246
11	0xbd9bfc35	-0.07616464
12	0x3dfe02af	0.124028556
13	0xbda60a47	-0.08107429
14	0xbd0b121e	-0.033952825
15	0x3e124c7a	0.14286986
16	0x3e0085bf	0.1255102
17	0x3dea1ef6	0.114316866
18	0xbd296437	-0.041355338
19	0x3e33e8dc	0.17569298
20	0x3e2feaaf	0.17179368
21	0xbda77a3e	-0.08177613
22	0x3cdf1834	0.02723322
23	0xbda370da	-0.07980509
24	0x3e19bd98	0.1501373
25	0xbda6ed0c	-0.08150682
26	0x3e330104	0.17480856
27	0xbdc0dac2	-0.09416725
28	0xbd88065b	-0.06641837
29	0xbd9e16eb	-0.07719215
30	0x3e0bebcf	0.13664173
31	0xbdb56dbe	-0.08858822

bns.0.running_mean f4 [32]
0	0x3ecd7399	0.40127257
1	0x3d0f2b99	0.034953687
2	0x3e9a632d	0.3015379
3	0x3e22984a	0.15878406
4	0x3e3a74d2	0.18208626
5	0x3fc95fa1	1.5732309
6	0x3f637cf8	0.8886256
7	0x3fa3584f	1.2761325
8	0x3f7bc0ce	0.9834107
9	0x3fb8c797	1.443591
10	0x3d9ae2ac	0.075627655
11	0xbfda4457	-1.7052106
12	0x3f91b7bd	1.1384197
13	0xbfffeab5	-1.9993502
14	0x3d8ac43f	0.06775712
15	0x3e6fd105	0.23419578
16	0x3f144705	0.5792087
17	0x3f9e2ac8	1.2356806
18	0x3d3cf26e	0.046129636
19	0x3e47b6ad	0.19503279
20	0x3ef603ee	0.48049873
21	0xbe5fb3c3	-0.21845917
22	0x3f120eb9	0.57053715
23	0x3d276612	0.040868826
24	0x3e28a98b	0.16470926
25	0xbe73c308	-0.23804867
26	0x3ecf377a	0.40472013
27	0xbfecdb01	-1.8504335
28	0xbe9d9415	-0.3077704
29	0x3cd39db9	0.025832044
30	0x3d3907f9	0.04517362
31	0xc0065019	-2.0986388

bns.0.running_var f4 [32]
0	0x3d7e3f2e	0.06207197
1	0x3d48ae68	0.04899445
2	0x3d485c19	0.048915956
3	0x3d008c78	0.03138396
4	0x3d179677	0.03700873
5	0x3f1873ad	0.5955151
6	0x3e463363	0.1935554
7	0x3ed97df3	0.42478904
8	0x3e794e11	0.24346186
9	0x3f114edb	0.5676095
10	0x3cdfac5a	0.027303863
11	0x3f8c71bb	1.0972208
12	0x3eb144f5	0.34622923
13	0x3fb3acd7	1.4037122
14	0x3d4118f8	0.047142953
15	0x3d435881	0.047691826
16	0x3de617e8	0.112350285
17	0x3ed3cf99	0.41369322
18	0x3d3265b3	0.04355402
19	0x3d1a185a	0.03762088
20	0x3d96b438	0.07358593
21	0x3d5b8f93	0.05360372
22	0x3e19dc3f	0.15025423
23	0x3d34f039	0.044174407
24	0x3d0715c5	0.032979745
25	0x3d8e4282	0.06946279
26	0x3d974900	0.073869705
27	0x3fa107f5	1.2580553
28	0x3e117785	0.1420575
29	0x3d40137b	0.046893578
30	0x3d35ab9a	0.044353105
31	0x3fc4b979	1.5369102
