saved/amazon-photo_SAGE_s4.pt (torch, 200301 bytes, 10 tensors)

convs.0.lin_l.weight f4 [32, 755]
00000000: 1157 ef3b 9110 6c3d da6e 853d b7d0 f43c
00000010: ab86 7cbc 0663 b8bc 3dbe dab8 2b83 f63c
00000020: b5e0 daba de7b 293d f3e4 643d 497d 96bc
00000030: 37c7 1d3d 9a22 a03c 9679 0dbe 7635 743d
00000040: d448 92bd 7474 663d 4df4 cf3c 992e 59bc
00000050: 1410 c9ba d64a 0b3c 823f 093c f62c aabd
00000060: e0a2 a23b ec0b 4c3d dd99 263c bd1b 6d3d
00000070: 5e07 f63b 65d8 b1bc 6d6f 523c 4983 f3bb
00000080: 417f b1bd 2573 2a3d ce1f 323d 4177 7a3d
00000090: 93b0 933d d42e 993c 05fc a73c 4c5a e43c
000000a0: f271 873c 137a a43c 0059 063c f9be ba3c
000000b0: dfab 9dbd 30e1 7b3d 1b4a 603d 5000 423d
000000c0: 90cd d6bc 2c92 c13d 73fc 01bd bdd3 3a3d
000000d0: b4b8 beba 65a3 833d cae7 3d3d d37d 68bd
000000e0: c016 763c 4611 de3c 5ef6 d2bc f00b 1d3b
000000f0: 8646 3d3c d9c7 a83d b54e d13a 04be fd3c
00000100: f3e8 5d3c 86b7 9aba 1019 033d cc5c 903d
00000110: 55e2 65bd f093 71bd 1e95 8fbd def5 523d
00000120: 617e c73b 6e0f 4e3c ade7 d93c 9eb5 eb3c
00000130: aeee 933d 37e1 d2bb 3cdf 573d 06cd 95b6
00000140: aed9 1dbd c2ee 353d 18b5 893d be4d 0b3d
00000150: 7edd febb 4aa5 b1bc e3e8 adbd 970e bcbd
00000160: 2cac 2c3d 45f9 a5bd 5db2 8c3d f2a3 57bd
00000170: 7a53 51be 5c1f 4a3c 8db8 9abc 595c d2bc
00000180: a25b 5f3c b3de 3f3d 0760 ad3c 1601 b73b
00000190: 1c00 b53c d6b3 fe3c baf5 02be d396 75bc
000001a0: cc79 03bc afff 10bd f682 913d 2c31 2abe
000001b0: 925e 053d 540c 87bd bb86 f4bc b1af 25be
000001c0: af82 72bd d52d c2bb bb87 a8bd afbc 743d
000001d0: 48cd a0ba e5df 84bc efae 863d 7260 c03c
000001e0: 904b 313d caae 703d 1d06 babc 8f51 bb3c
000001f0: d29c 78bd fd5d 9cbd 13fa 47bc d00e f63c
00000200: 1766 92bd b756 463d 03b0 853c fbf1 753c
00000210: 30f4 9d3c c16c f73c 87be 25bc 2970 ee3d
00000220: f9b4 873d bafc c93c 02e3 29bd fa9a 803c
00000230: 004c 4fbc 981f 133c 0f37 073d aa58 f83c
00000240: 64fc da3b 3a03 48bd 6b6c fabb b0f1 2d3d
00000250: 1937 82be fcd5 59bd c136 2abe 1a8f f7bd
00000260: e56d bcbd 5fcd 003d 023c 5abd d934 30bc
00000270: 2a7a 4abd ab31 65bc 2e47 7d3c 0a0b 473d
00000280: 4f43 353d 0df2 edbb f8ef 053b 9ef9 183d
00000290: 4766 473d 0b9b 8c3c 1f31 68bb eab6 72bb
000002a0: 65b2 023b 21a7 c0bc bd48 383d 2d1d a5ba
000002b0: 881d 893c 2905 493d 4103 943c 6ad2 23bc
000002c0: 04a5 d43b 86f8 92bd 899d 963d 0ae3 0dbd
000002d0: b228 4f3d 73aa e8bc 1da4 883d d2d7 a13c
000002e0: 1774 123d 0db5 833c e501 493d 7e8c f23c
000002f0: ded0 6b3d 7795 8d3d 13bf 493d ee59 60bc
00000300: 107a 23bc c8ca b9bc f0b5 7e3c 4846 adbc
00000310: c80c 843c 04c5 e23b 5be5 793d 6203 3e3d
00000320: 60bd 37bd 3569 373d 5d69 e73b 0f86 15bd
00000330: df27 563c 0980 9bbc 577a 583d 720d 2b3d
00000340: 5ba2 603d 2d64 863c 1335 36bb 1e4a 843d
00000350: 5b4f 7c3d 377e 85bd 065a 383d 00c5 babd
00000360: 9710 2f3c af46 803d 834e 1e3c 98e6 c7bc
00000370: 244d 4d3d ee1b cdbb c813 49bc 8d31 c3bc
00000380: 986f 263d 12eb 8c3c 128d 933b 0d4d 6bbd
00000390: fec1 5e3d d237 543c 0062 63bd 5205 fd3b
000003a0: 7e53 ac3d e2ab be3c c8a3 94bc 7392 493d
000003b0: 767d 93bb 98d1 03bc 5f44 de3d 6f71 09be
000003c0: 129f a23c 520d c43c cce2 dabc 123a 933d
000003d0: 567c 8e3d 7940 923d d047 fb3c 8860 303d
000003e0: a2d5 a4bd b94a a2bc 9f5a b13d 6ea0 943b
000003f0: 2b88 513c 2ae5 c93b fc7d ca3c ad4c b0bb
0.0073040803 0.057632986 0.06515284 0.02988468 -0.015412967 -0.022508156 -0.00010430485 0.030091843
-0.0016699048 0.041377895 0.055882405 -0.018370287 0.038520064 0.01954775 -0.13815913 0.059621297
-0.07142797 0.056263402 0.025385046 -0.013255739 -0.0015339875 0.008501729 0.008376958 -0.08309357
0.004963264 0.049816057 0.01016852 0.05788778 0.0075082025 -0.02170963 0.012843949 -0.007431422
-0.0866685 0.041613717 0.043487363 0.061148886 0.07211413 0.018699087 0.020505914 0.027875088
0.016533826 0.02007774 0.00819993 0.022796141 -0.076987974 0.061494052 0.054758172 0.04736358
-0.026221067 0.09451708 -0.031734895 0.045612086 -0.0014550895 0.064276494 0.04636363 -0.05676062
0.015020072 0.027107846 -0.025752243 0.0023963414 0.011552459 0.08241243 0.0015968891 0.030974396
0.013544309 -0.0011803962 0.032006323 0.070489496 -0.05612405 -0.058978975 -0.07010864 0.05150401
0.0060880636 0.012576921 0.02659973 0.028773125 0.07223259 -0.006435539 0.052703127 -4.464414e-06
-0.038537674 0.04441715 0.06723994 0.034009688 -0.007777869 -0.021685261 -0.08491685 -0.0918247
0.042156383 -0.08104185 0.068699576 -0.052646585 -0.20442 0.012336578 -0.018886829 -0.0256788
0.013632687 0.046843242 0.021163953 0.0055848463 0.022094779 0.031091612 -0.1278905 -0.014989573
-0.008024644 -0.03540009 0.07105057 -0.1662032 0.032560892 -0.06594148 -0.0298494 -0.16180302
-0.05920666 -0.0059258738 -0.082290135 0.059750255 -0.001226821 -0.016220042 0.06576335 0.023483489
0.043284953 0.05876044 -0.022707993 0.022866039 -0.06069643 -0.07635114 -0.012205618 0.03003636
-0.07148378 0.04842254 0.01631928 0.015011306 0.019281477 0.030203225 -0.010116226 0.116424866
0.06626315 0.024656642 -0.041476257 0.015698899 -0.012652397 0.0089797005 0.033011492 0.030315716
0.0066829193 -0.048831202 -0.007642319 0.04246682 -0.2543266 -0.053182587 -0.1662245 -0.12087841
-0.09200648 0.031445857 -0.053279884 -0.010754787 -0.04943291 -0.013988893 0.015458865 0.048594512
0.044253644 -0.0072615207 0.0020437222 0.03734743 0.048681524 0.017163774 -0.003542967 -0.0037035295
0.0019942757 -0.023517193 0.044991244 -0.0012597196 0.016737714 0.049077187 0.018067958 -0.009998897
0.006489398 -0.07176308 0.07354266 -0.03464035 0.05057592 -0.028401589 0.06671927 0.019756231
0.035755243 0.016077543 0.049074072 0.029608008 0.05757224 0.06913274 0.04925449 -0.013693316
-0.009977832 -0.022679701 0.015546307 -0.021151677 0.016119376 0.0069204587 0.061009746 0.046389945
-0.044858336 0.044778068 0.007062121 -0.0365048 0.013071029 -0.01898195 0.052851047 0.04176087
0.054842334 0.01640519 -0.002780263 0.06459449 0.061599117 -0.06518214 0.045007728 -0.09119606
0.010685108 0.06263482 0.009662273 -0.024401948 0.050122395 -0.006259433 -0.012272783 -0.023827339
0.040633768 0.017201934 0.004502901 -0.05744653 0.054384224 0.012952762 -0.055513382 0.0077215815
0.08414362 0.02327532 -0.018144503 0.04921193 -0.00450104 -0.0080455765 0.108528845 -0.13422178
0.019851241 0.023932133 -0.026719473 0.071888104 0.06957309 0.071412034 0.030673891 0.04306081
-0.0804856 -0.019811021 0.08659863 0.0045357263 0.012788813 0.0061613517 0.024718277 -0.005380234

convs.0.lin_l.bias f4 [32]
00000000: b4e4 4e3e 430b 0c3e 85ab 313e 6ab0 09be
00000010: e8cf 2a3e 21d2 bd3d 30de 3b3e 50e6 243e
00000020: 6759 7ebd 566d 43bd d544 4abd 2a39 27bd
00000030: 2065 c83d 3f44 6ebb 8e2a 473d 9b7f 6ebd
00000040: 1ba8 813e ac81 3d3e e475 ef3d feea 07bd
00000050: 1503 df3d abbb e73d 7b12 8f3d 26fd b83d
00000060: 1bc7 223e 0435 d13d 4ae8 7bbd 7389 863d
00000070: a18e c73d 2321 ec3e fd2b bebc 42ea 9fbe
0.20204431 0.13676171 0.17350586 -0.13446203 0.16680872 0.092685945 0.18346477 0.16103482
-0.06209698 -0.047711693 -0.04938205 -0.040826 0.09784913 -0.0036356596 0.048624568 -0.058227163
0.25323567 0.18506497 0.11692408 -0.03318309 0.1088926 0.11315092 0.06985947 0.09032659
0.15896265 0.1021519 -0.061500825 0.06569185 0.09744001 0.4611903 -0.023214335 -0.31233412

convs.0.lin_r.weight f4 [32, 755]
00000000: 3914 de3d 9720 9c3d 0679 073e f0fd 0a3c
00000010: bd42 793d 99e2 2bbd 6b90 073e 6797 dc3d
00000020: 4c91 94ba 7491 4f3e 7703 793d 7f98 403d
00000030: 2737 c53c a754 86bd ee6c 663d bdd3 803d
00000040: a056 adbe 39b8 2f3e 8017 1a3d 8c28 153c
00000050: 64da d4bc d923 8fbd bae0 573d f608 7c3d
00000060: 98a1 893c db99 a43e d1c6 71bb 7cec 763d
00000070: 5857 5cbd 0f5d 8abb fb3c 903d 6027 ad3c
00000080: fc1c d0be 679c 1c3d 2ce1 86bd d5a2 133e
00000090: a568 b33d 7b46 15bb 46f4 c43c ef6a 033e
000000a0: 8e36 e53d adc3 00bd 900f 07be edc0 13be
000000b0: 818b 4fbe 554b 313e 6c7b f2bd 0d4e 213e
000000c0: ffff 2ebd af66 9f3d 4921 8dbd 3d2f 733d
000000d0: e79c 3d3c 2fcd 493d 56a6 553d 780f a3bd
000000e0: 41cb 14bd 226f 8f3c ada5 60be bf31 843d
000000f0: 63c8 843d d070 e43d 4dd1 c93d eedf 393d
00000100: 2272 ea3c 739b 3f3d eae3 273d a537 c33d
00000110: b0bb a3bb d781 dcbd 93fd 09be 30df f2bc
00000120: 6e7d 573d 0f69 2c3d cce9 643e abd6 173e
00000130: 01b2 d43d 3b2d d63c 19d6 2ebd c737 e13d
00000140: c6c1 64be 3b56 363d 8f5a 7b3d e5bf 283d
00000150: 723d ffbd 8dbd 0fbe de60 cabd 3696 27be
00000160: 89ec 65bd f6c2 7bbd 3130 9e3d b9ee f53c
00000170: 091f 18be 743c 25bd 867d eabc e808 e63c
00000180: c611 ee3d adb6 61bc 7393 50bd 4139 443d
00000190: e5de 513e f7ae 80bc 51f0 d6bd 4538 083e
000001a0: 49a3 25be 501b 50be 74c5 a2bc 0eb1 febd
000001b0: 4aca 5bbd 9d03 35be 844d a9be 0564 dbbd
000001c0: 20a7 3ebe 9050 c23d 5c87 9ebb 150e b63c
000001d0: aaf0 86bd 5de1 fdbb 32dd 4f3d 3a21 3abc
000001e0: 5365 9f39 348b 0f3d 8da8 d4bd 0a55 363e
000001f0: c8d2 6ebe 5ce4 99bd ecf9 08bd bda7 ff3d
00000200: 2d83 5fbe b456 fb3d 3931 24bc 450d 35bd
00000210: 0236 fe3d c1cb 8abe ad27 7d3d 2f6b 2f3e
00000220: 9864 0b3e df6b 02bc c5fa edbd 72fb b73d
00000230: 7ad7 483d 44f7 133d aa31 a23c fa89 ec3d
00000240: ee81 cc3d 0668 c33b fe38 15bd 7186 763d
00000250: e708 a9bd 1907 13bf 6541 1dbe 0567 1ebe
00000260: 5fe2 7cbd 7bf7 e13c c351 163d 30a2 b23d
00000270: 1f0f 55be 9968 843e bfce 833d 4aa8 9b3d
00000280: ccc6 c73d b149 4dbc f4dd 63be 3fa1 c33d
00000290: 9f06 493d 1019 c33c 69ff 163e ae40 ccbd
000002a0: a989 fb3c d8b5 05bc 3699 ec3d 58ad 803d
000002b0: f3fb 313c 52f5 a33d 9943 13bd 4ce5 33bd
000002c0: 6f92 8e3d 7dc7 89be bb3c f93d 8ec9 ecbd
000002d0: 7c9d f9bd 06f9 26bd f0e7 253d 02d1 d1bc
000002e0: 2666 233d fbf4 7c3d dd7e a73d 4035 183e
000002f0: 9869 503c 6128 b4bd fbd9 813d 7343 e1bc
00000300: a841 30bd db7a b6be c3e8 b1bd ea26 80bd
00000310: a64b d83d a179 e63d f984 c83d eff4 133c
00000320: 21bf 17be 9263 103e 4d88 ec3c 8574 e8bd
00000330: 95d0 0fbe baf7 583d 5e06 9f3b 84ab 8abd
00000340: 806f 0d3d 870e 233d bb6a eb3d 2883 883d
00000350: 1f8f b7bd b36d 2f3d d19e 403e 4f5d 9f3d
00000360: 8384 a03d 79ec 40bd 8097 313e 0dd1 82be
00000370: bf6c 64bd 2f6a df3d 8a56 0abe 47fa 2c3e
00000380: 1b2f 5f3d 9ca9 fdbd c31d a23d e985 223e
00000390: d002 40be eb43 00bd ba3d dcbd d3b6 803d
000003a0: 9fe4 25bd 4d08 063e d78a 293d 385a cc3d
000003b0: 6f6c 56bd b04e c9bd 4a49 ca3d d152 ffbd
000003c0: af8b babc e880 ab3d 9cd3 41be 8158 833d
000003d0: 8d79 983c 2d0f 013d 300d a93d a3da db3d
000003e0: c9d1 ebbd 6927 4fbd 4f86 013e cce6 5fbc
000003f0: 2645 18bd a030 043e 9d75 a2bd f4ca a63c
0.10843701 0.076234035 0.1322976 0.008483395 0.060854662 -0.041964147 0.13238685 0.10771065
-0.0011334806 0.2027033 0.06079432 0.04702043 0.02407415 -0.06559115 0.056256227 0.06290386
-0.33855152 0.17160119 0.037620068 0.009103905 -0.025983043 -0.06989259 0.05270455 0.061531983
0.016800687 0.32148632 -0.0036892185 0.060284123 -0.053794235 -0.004222519 0.07042881 0.02113694
-0.40647113 0.038235094 -0.06585917 0.14417584 0.08760194 -0.0022777605 0.02404226 0.1283376
0.11192046 -0.03143661 -0.1318953 -0.14429064 -0.2026806 0.17313893 -0.11839947 0.1575243
-0.042724606 0.07783257 -0.06891114 0.05937122 0.011573053 0.049267944 0.052160583 -0.07961935
-0.03632665 0.017509047 -0.219382 0.06454801 0.06483533 0.1115433 0.09854374 0.04537957
0.028618876 0.046779107 0.04098884 0.09532098 -0.0049967393 -0.107669525 -0.13475637 -0.02964744
0.052609853 0.04209238 0.22354811 0.14827983 0.10385514 0.026144614 -0.04268465 0.10996967
-0.22339544 0.04451583 0.06136566 0.04119863 -0.12462892 -0.14037152 -0.09881757 -0.16365895
-0.05613378 -0.061465226 0.077240355 0.030021058 -0.14855589 -0.040340856 -0.028624307 0.028080419
0.11624484 -0.013776463 -0.05092187 0.047906164 0.20495184 -0.01570843 -0.104950555 0.13302715
-0.1617557 -0.20322919 -0.019869544 -0.12436114 -0.053659715 -0.1767716 -0.33066952 -0.107124366
-0.1861844 0.09488022 -0.0048379134 0.022223512 -0.06588872 -0.0077478127 0.050748058 -0.011360461
0.00030402336 0.035044864 -0.10383711 0.17805877 -0.23322594 -0.07514259 -0.03344147 0.124831654
-0.21827383 0.12272397 -0.010021501 -0.044202108 0.12412645 -0.27108577 0.061805416 0.17130731
0.13612592 -0.007960289 -0.11620096 0.08983506 0.04903362 0.036124483 0.019799072 0.115497544
0.099857196 0.0059633283 -0.036431305 0.060186807 -0.08253651 -0.57432705 -0.15356977 -0.15468986
-0.06173932 0.027583828 0.036699068 0.08722341 -0.2080655 0.25861052 0.06435918 0.07600458
0.09754714 -0.012529776 -0.22252637 0.095522396 0.04907858 0.023815662 0.14745869 -0.09973274
0.03070529 -0.008161031 0.1155266 0.06283063 0.010863292 0.080057755 -0.035953138 -0.043919846
0.06961524 -0.2691001 0.121697865 -0.11561881 -0.12188241 -0.04076483 0.040504396 -0.025612358
0.03989234 0.06175707 0.08178494 0.14864063 0.012720488 -0.08796764 0.063404046 -0.027497983
-0.043031365 -0.35640606 -0.08686974 -0.06257422 0.10561304 0.112536676 0.097909875 0.009030565
-0.14819004 0.14100483 0.028873587 -0.11350349 -0.14044411 0.052970625 0.004853054 -0.06770995
0.034530163 0.039808776 0.114949666 0.06665641 -0.08962845 0.042829227 0.18810584 0.07781469
0.078377746 -0.047100518 0.17342949 -0.25550118 -0.05576777 0.10908925 -0.13509575 0.16892348
0.054488283 -0.12385866 0.07915833 0.15871395 -0.18751073 -0.03131477 -0.10753961 0.06284871
-0.040501233 0.13089104 0.041392174 0.09978145 -0.052349504 -0.098294616 0.0987726 -0.12466968
-0.022771684 0.08374196 -0.18928379 0.06413365 0.018612647 0.031508613 0.082544684 0.10735061
-0.11514623 -0.050574694 0.12648891 -0.013665866 -0.03717532 0.12909174 -0.07932589 0.020360447

convs.1.lin_l.weight f4 [9, 32]
00000000: 4a32 99be e8d1 16be 52fc 92be ecae 153e
00000010: 9df5 c73c b292 59be eb6d 82be 4b1a 52be
00000020: eb52 13be 12ba 1ebe e6da 533c a549 81be
00000030: 33ea 73bd 3bfd 67bd e4d1 48be 710a 86bd
00000040: 959b 47be e746 3abb 2c5a 1abd 73f2 21bc
00000050: 2148 03be f877 5fbe 8edb 6abd 69f6 3cbe
00000060: 51cc 653b 2dc5 8abd c345 7abe 71ba 26be
00000070: d802 28be 1b3d a9bc 4e43 4abe 5cf2 99be
00000080: c5cf 16be e881 1f3b 80b8 f3bc 141b 98be
00000090: 275b 3ebe d97d 35be 6474 17be aeb3 12be
000000a0: 4176 e1bd b007 00bd abfd 33be 39bd 29be
000000b0: ac5b 0dbd 27c3 fa3a 59c9 063c 86f4 82be
000000c0: a8d4 79be 74e4 88bd 0bad a2be d305 45be
000000d0: 21ca 59bd 6035 81be 19dc 42be eb94 a7be
000000e0: 490f 90be f0ac 94be 1e59 003d e9da 95bd
000000f0: 78e4 71bc 553e 58be 5561 6ebe 2ab4 5bbe
00000100: ac98 19bd 819d aabd bbb4 2c3e afa8 073e
00000110: 1b7c 0dbd 8dbe a03c d75a d0bd 95f2 86bd
00000120: b96f b7bd c797 b0bd da64 a8bd 1841 c3bd
00000130: 8499 933d 4e7c e8bd 015a 5fbd 2e4d 853e
00000140: c03a dbbd e5f1 2a3c 1c0f c13d 2143 67bd
00000150: a149 1dbd b2d6 76be 6d44 633d 72ee 663e
00000160: 6d53 d93c 24d0 18bf b188 4e3d c720 e03d
00000170: b620 9abc 6dc3 6c3d 98e7 8abc 1e48 2b3e
00000180: cf5a 4e3e 613b 513e e0cc 673e 982c 433d
00000190: c6a9 f53d f393 2b3d 4514 8e3e 8f2b 5f3e
000001a0: 83c8 78bd 09e6 2c3e 6a16 b53c 247e 2abd
000001b0: d916 723e 221b ca3d 6620 9d3e fba6 0e3e
000001c0: bf2a 3e3e 28af 813e e1fb 843e 1581 6a3c
000001d0: 707e 303e 99af da3e 7da5 203e 4c1c 223e
000001e0: cb5d 803e 34b7 673e a930 103d 4972 103c
000001f0: 29ca 893e 13a7 da3d d248 1fbd d021 d1bd
00000200: 0785 eb3b 3cfb ecbd cdb8 77bd 6022 34be
00000210: 9168 7abd 22b9 8bbe b9ae f7bd 06e3 54bd
00000220: 4e9c dcbd 4bb5 80be 7f77 dabd dda4 073d
00000230: 0cf0 86be 3e7c 6fbb e78b e9bd 2dfa 96be
00000240: 428e 4cbd 1e3b 0d3d 757b 8cbe e459 85be
00000250: aaa6 5f3d 2769 8ebe 2239 93be 4d72 a6be
00000260: d7dc 80bc 453e a2be cba1 4ebe 6089 93be
00000270: d697 173c 3fc8 d4bd ad88 49be 06ec 37bd
00000280: 44f7 7abd ff95 2c3a 68ad 87be 9f1e 63bd
00000290: b947 6ebe 3bfb 14be 9180 60be 5858 88bd
000002a0: bcff 6c3c 09a7 40be f5f2 1cbd fd34 05be
000002b0: 8cb1 a3be 085b 30be d75c 04bc da0b f3bd
000002c0: 5aa8 7cbe fffa d6bd 64c7 85be ad87 9ebc
000002d0: e84a 82be 5403 bdbd 4427 e6bc df14 d73b
000002e0: 2a75 10be 9a5e 35be a6d8 3cbd 2c20 93be
000002f0: 3ab7 eabc e747 1abe 65ac 283c 9716 46be
00000300: b8b5 4fbd 0f6a 97be 05aa 45be 0fc1 08be
00000310: effd 70be 9bd6 9abe 6a3f 84bc ff1d ebbd
00000320: 5ddc 43bd 6e71 a5bc 8841 91be 35d2 31be
00000330: 0b1e 32be 4d17 37be 59b6 f3bc e3a1 92be
00000340: ce92 2abd 148e 6bbe 510c 10bc 664d 0cbe
00000350: 61ae 84be c8a4 2dbe d09b f1bc faae 8bbe
00000360: d11a 1ebe 7538 86be 1ce3 7b3d a96e 46be
00000370: 3614 9abe 9c05 eebd 5287 04be 94b1 98be
00000380: cc92 2a3d 982d 9fbe 6982 2dbd f55a 6fbe
00000390: fe36 adbe 7ecd 86be dde5 f6bd 0022 f3bd
000003a0: 9300 47bb 3d6c 92bd 6d81 2ebe 6c99 2e3d
000003b0: 9f29 27be b251 30be 5b84 97be 3eed 81be
000003c0: 2b0c 31be 6e02 bebd fe05 8dbe 0917 37be
000003d0: 1115 b6bd 4a0f 0bbe 112b a4be c794 97be
000003e0: df2d 05bd 3c21 1bbe 9a21 95bd dd57 1bbe
000003f0: 5c65 b0bd ca54 1ebe c07d 76bd cf3c 7abe
-0.2992118 -0.1472851 -0.2870813 0.14617509 0.02440911 -0.21247366 -0.25474486 -0.20517842
-0.143871 -0.15500668 0.012930607 -0.252515 -0.05954952 -0.056637984 -0.19611317 -0.0654496
-0.19492944 -0.0028423609 -0.03768365 -0.009884465 -0.12820484 -0.21823108 -0.05733829 -0.18453373
0.003506441 -0.067758895 -0.24440674 -0.16282059 -0.16407335 -0.02065902 -0.19752237 -0.30067718
-0.14727695 0.0024338905 -0.029751062 -0.2970816 -0.1858946 -0.17723788 -0.14790493 -0.14326355
-0.11008883 -0.03125733 -0.17577235 -0.16576089 -0.034511253 0.0019131646 0.008226716 -0.25577182
-0.24397528 -0.06684199 -0.31772646 -0.19240503 -0.05317128 -0.25236034 -0.19029273 -0.32730803
-0.28136662 -0.2903819 0.03133499 -0.073171444 -0.014763944 -0.21117528 -0.23279317 -0.21455446
-0.037499115 -0.08330823 0.16865818 0.13247941 -0.034542184 0.019622112 -0.10173576 -0.065892376
-0.08956856 -0.08622699 -0.08222361 -0.095339 0.07207015 -0.11351834 -0.054529194 0.26035446
-0.10704565 0.010433649 0.0942671 -0.056460503 -0.038400296 -0.24105337 0.055485178 0.22551897
0.026529038 -0.596926 0.050423328 0.10943752 -0.018814426 0.05780356 -0.016956136 0.1672673
0.20151828 0.20432808 0.22636747 0.04764995 0.11995272 0.041889142 0.2774984 0.2179396
-0.060738098 0.16884626 0.022105414 -0.041624203 0.23641528 0.098684564 0.3068878 0.13930885
0.18570994 0.25328946 0.25973418 0.014313002 0.17235732 0.42712095 0.15688129 0.15831107
0.25071558 0.2262848 0.035202656 0.00881631 0.26912048 0.10676398 -0.038887806 -0.10211527
0.007187489 -0.11571357 -0.060478974 -0.17591238 -0.06113488 -0.27289683 -0.120938726 -0.05197432
-0.10772 -0.25138316 -0.10667323 0.03311621 -0.26355016 -0.003654256 -0.114036374 -0.29487744
-0.049940355 0.034480207 -0.2743794 -0.26045144 0.054602303 -0.278146 -0.28754526 -0.3250908
-0.015730305 -0.31688133 -0.20178907 -0.28815746 0.009252509 -0.103897564 -0.19681044 -0.044902824
-0.061270967 0.00065836305 -0.26499486 -0.055449124 -0.23269548 -0.14548962 -0.21924044 -0.06657475
0.014465269 -0.18813719 -0.03831764 -0.13008495 -0.31971395 -0.17222226 -0.008078775 -0.11867495
-0.24673596 -0.104970925 -0.26128685 -0.019351805 -0.25447774 -0.092291504 -0.028094895 0.0065637673
-0.14107195 -0.17711869 -0.04610505 -0.28735483 -0.028651822 -0.15066491 0.010295008 -0.19344555
-0.05071041 -0.29573104 -0.19303139 -0.13354896 -0.23534368 -0.30241856 -0.01614352 -0.11480331
-0.047817577 -0.020195689 -0.2837031 -0.17365344 -0.17394273 -0.17879982 -0.029750036 -0.28639135
-0.04164391 -0.23003417 -0.008791999 -0.137014 -0.2591429 -0.1695739 -0.029493243 -0.27281934
-0.15439917 -0.26214948 0.061495885 -0.19378151 -0.30093545 -0.11622164 -0.12942246 -0.2982298
0.041643903 -0.31089473 -0.042360697 -0.23374541 -0.33831018 -0.26328653 -0.12055562 -0.11871719
-0.0030365332 -0.07149551 -0.1704156 0.042626783 -0.16324471 -0.17218664 -0.29593167 -0.25376314
-0.17289798 -0.09277807 -0.27543634 -0.17879881 -0.08890737 -0.13580051 -0.32064107 -0.29605696
-0.03251445 -0.15149397 -0.072817996 -0.15170236 -0.08613083 -0.15462032 -0.06017852 -0.24437259

convs.1.lin_l.bias f4 [9]
00000000: c4f7 00bd e879 9dbe 668d dfbd 0c5d 873e
00000010: ff37 90be ed41 94be 2d51 10bd 5793 31be
00000020: 113a 0cbe
-0.031486288 -0.3075707 -0.109156415 0.26438177 -0.28167722 -0.28956547 -0.035233665 -0.17341362
-0.13694026

convs.1.lin_r.weight f4 [9, 32]
00000000: 9149 51be dc16 02be a00d 1fbe 3083 a7bd
00000010: 9c7f c13d 67e6 aabd f16c 3e3d 2c74 85be
00000020: 2645 8a3d 1fbb dc3a 9165 babd 014c 403d
00000030: 2ca7 60be 7797 1d3d 426c 85be c7a2 95bd
00000040: 038b c4bd 8ae5 9fbd 9da1 b5bb 7245 4f3d
00000050: 0992 a1bd a0e4 38be de98 52be f84d a0bd
00000060: ddc5 523d c8c4 a4be ab91 01be 0a0e f53c
00000070: a414 2ebc 7e21 2cbe 896e debd 688f 6abe
00000080: 6366 0abe 0dde 81bc b325 b9bd 795f 49be
00000090: cf9a ee3d cced a33a 72c7 10be 8bc2 87bd
000000a0: beac 5e3d da0d 0fbd b0e6 cdba d271 443c
000000b0: 6e18 04be f806 99bb c569 1abe 4590 a1bd
000000c0: e2f6 57be 2be6 9ebd 5fc7 4abe 629e 033d
000000d0: 4b51 26be f6df 54be 725e 15be 6e7e 9b3c
000000e0: a451 6fbe eebe aeba e576 d7bd 45bb 93be
000000f0: 40d6 57be 1860 96be 66ca e5bc 1457 11be
00000100: 04a0 adbd 9417 c6bd 821c e6bd 8389 e53e
00000110: 2cee b73d c002 e23c ecf0 843d b213 bd3d
00000120: c652 b13d e7b5 bebe 1a6c c83d decd 983e
00000130: 52a0 27be 7a47 a53e b78e 30be a913 213f
00000140: 374c 93be c47e 3abd 6745 b9bd f723 853e
00000150: 42f4 13be 1cc2 21be 38c5 99be 80b4 a33c
00000160: 32a0 f83b 6d3c dcbe 93e1 9d3d 20fa 483e
00000170: 184a b13c 61f3 f93b 5180 023e ee38 4d3e
00000180: c57f 7f3e c40c bc3d cd3c 98bc db5f 27be
00000190: ea6c 7f3d 77e7 5b3d dcf7 403e 10d1 fbbc
000001a0: cd75 cdbb 2bdc 24be 19be 6e3e 9dc2 e8bd
000001b0: 52dd 1d3e 6db1 f3bd ed08 823e cfb1 073e
000001c0: 05e0 bb3d 2f2c 183e 33f4 a43d 0221 613e
000001d0: d12b 783e 64af 0a3f 86ab 403e 79bb 833e
000001e0: 9425 06bc fb2b b03e 91d7 f03c 8ba4 0a3e
000001f0: 509a d13c 6073 5a3d 6004 a93d d32d b7be
00000200: 46cb 453d cbdc a5bd 9809 90be 0bf3 303d
00000210: e697 16bd 9da8 3abe 5fcd 0bbe 9ad9 31be
00000220: 3db1 91bd 8e5f b9bd b16b 7abe 76f7 bc3b
00000230: 53be 00be a902 a1b9 f746 123d c12e a23c
00000240: f423 d5bd d120 ab3c 279b 8f3c 098a 87be
00000250: 659e bdbc 88a7 a5bb bfe3 84be 3e44 7bbe
00000260: 94a0 96bd fe15 93be 603f 08bd 19ef 8cbe
00000270: a0f1 c1bd 5edc 46be f16d b1bd 7dff a8be
00000280: 8cae 9ebc 4ef5 02be 3345 22be f0ea 433b
00000290: c4db 2cbe 11aa 55bd 939b 8cbe f977 fdbd
000002a0: fbcd 3dbe 4bfe 4fbe 8f44 febc 9d41 3ebe
000002b0: 1811 46be 8cd7 6abd cbf4 313c e693 a5be
000002c0: c80a ae3c 09c0 34be c940 39b9 0a7d 683d
000002d0: f718 e8bd 4ce9 64be 8098 423d 6b3a c43c
000002e0: 8ae1 003c d073 0dbe 4a56 9ebe 497c ffbd
000002f0: 9fcd 43be b405 bfbd badc 72bc 8d8c 42be
00000300: 9144 adbd b95a 41be f9c3 95be c3a0 40be
00000310: 27dc 193c 6cc4 2cbe 2a76 9ebe fa21 9cbe
00000320: fe4f 3abe 741f 6cbe 40a1 a6bd f693 61be
00000330: 9bfd 423d ec2b 82be b97c 3fbe 3f9a 2fbe
00000340: b0e7 0fbe dfdc 81be bc10 5fbe 1cb2 8fbe
00000350: 970d 13be 507d 84be 39d6 f5bd c37e 113d
00000360: 25a4 0d3c 4b11 983c eed9 4e3d fb61 f6bd
00000370: 2230 4cbe 2205 64be 1d75 7bbe 05fd 7ebd
00000380: 2b24 b5bd 2cea 77be fd5c 4fbe 1e78 75be
00000390: 9cc2 1dbd e6df a1be 0cb3 53be e08d 93be
000003a0: 3693 5bbe 3c9f febd 45ad 483d c973 73be
000003b0: d775 94be beec 663d 91ce 373d 1d4a 54be
000003c0: a41a 7dbe 9f6f 1ebe c0b9 95bd 5cd5 f1bd
000003d0: ce57 89bd 217b 83be 3e34 823d 5eb2 8bbe
000003e0: 7e89 8dbe dc75 1cbe d190 6bbe 2f97 8abe
000003f0: d8c3 ffbd 2406 753c a16b b0bd 8198 86be
-0.2043822 -0.12704033 -0.15532541 -0.08179319 0.09448168 -0.08344727 0.046490613 -0.26065195
0.0675147 0.0016840434 -0.091014035 0.046947483 -0.21938771 0.038474526 -0.26059157 -0.07306438
-0.09596827 -0.07807453 -0.0055429474 0.050603338 -0.07889182 -0.18055964 -0.20566127 -0.07827371
0.05145823 -0.32181382 -0.12653224 0.02991392 -0.010625038 -0.16809651 -0.10860927 -0.22906268
-0.1351562 -0.015852952 -0.09040394 -0.19665326 0.11650621 0.0012506782 -0.14138582 -0.06628903
0.05436396 -0.03492532 -0.0015709009 0.0119900275 -0.12899944 -0.00467002 -0.1507941 -0.07888845
-0.21090272 -0.07758745 -0.19802617 0.032133467 -0.16241948 -0.2078856 -0.1458681 0.018981185
-0.23370987 -0.0013332048 -0.10520724 -0.28853813 -0.21077824 -0.2937019 -0.028050613 -0.14193374
-0.08477786 -0.09672466 -0.11235906 0.44831476 0.089809746 0.027589202 0.06491265 0.09232272
0.08658366 -0.37248155 0.09786244 0.29844564 -0.16369751 0.32281095 -0.17241941 0.62920624
-0.28769085 -0.04553105 -0.090464406 0.26004001 -0.14448646 -0.15796703 -0.30033278 0.01998353
0.007587456 -0.4301485 0.077090405 0.19626665 0.021641776 0.00762789 0.12744261 0.20041248
0.24951084 0.09182122 -0.01858368 -0.1634516 0.062359728 0.05368754 0.18844551 -0.030739337
-0.0062701465 -0.16099612 0.23314704 -0.113652445 0.15416458 -0.11899076 0.25397435 0.13251422
0.09173588 0.14860605 0.0805439 0.21985248 0.24235465 0.54173875 0.18815431 0.25728968
-0.00818767 0.34408554 0.029399665 0.1353933 0.025586277 0.053332686 0.082527876 -0.3577715
0.04828956 -0.080987535 -0.2813232 0.043200534 -0.036765955 -0.18228383 -0.13652562 -0.17368165
-0.07113884 -0.09051429 -0.24455144 0.0057668043 -0.12572603 -0.00030710295 0.03571221 0.019797685
-0.10407248 0.020889672 0.017530037 -0.264725 -0.023146817 -0.0050553717 -0.25955006 -0.24537751
-0.073548466 -0.28727716 -0.033263564 -0.27526167 -0.094699144 -0.19420001 -0.08663548 -0.33007422
-0.01937034 -0.12788889 -0.1584671 0.0029894672 -0.16880709 -0.05216414 -0.27462444 -0.123763986
-0.18535607 -0.20311849 -0.03103855 -0.18579717 -0.19342458 -0.057334468 0.010861586 -0.323394
0.021245375 -0.1765138 -0.00017667109 0.05675987 -0.11332887 -0.2235462 0.047508717 0.023953637
0.007866273 -0.1381371 -0.30925208 -0.124748774 -0.19121407 -0.0932726 -0.014823133 -0.18998928
-0.08460344 -0.18882264 -0.29251078 -0.18811326 0.009390867 -0.16871804 -0.30949527 -0.30494672
-0.18194577 -0.23058873 -0.08136225 -0.22029099 0.04760514 -0.25424135 -0.18699922 -0.17148684
-0.14053226 -0.25363824 -0.21783727 -0.28065574 -0.14360653 -0.25876856 -0.1200375 0.03552128
0.008645092 0.018562933 0.050500803 -0.12030407 -0.19940236 -0.22267583 -0.24556394 -0.062253017
-0.08844789 -0.24210423 -0.20250316 -0.23971602 -0.038515672 -0.31616133 -0.2067377 -0.2881918
-0.21442875 -0.12432715 0.048993368 -0.23774637 -0.28996155 0.05637812 0.04487473 -0.20731397
-0.24717194 -0.15472268 -0.073108196 -0.11808273 -0.067062005 -0.25679877 0.06357621 -0.2728452
-0.2764396 -0.15279335 -0.23004462 -0.2706847 -0.12488526 0.014955077 -0.086142786 -0.26288226

bns.0.weight f4 [32]
00000000: 75e1 aa3f 8efc 853f 5917 963f 1f57 923f
00000010: dc39 7d3f 0bbb 7a3f 9533 8c3f fdef 823f
00000020: 6d9d 5c3f 43c1 f23f 559d 5a3f bcf3 713f
00000030: 54f4 913f 056c 743f 93f2 8e3f 451c c23f
00000040: 433d a33f bf65 8a3f 974b 913f 4b46 6b3f
00000050: 5876 9c3f dd5d 1840 ddfc 953f f49a 943f
00000060: 74b3 7c3f 0ac7 0940 35e1 573f eb1a 893f
00000070: 8726 8f3f fc0a 5e3f 272e 613f 8c1e 0f40
1.3350054 1.0467699 1.1725875 1.1432837 0.9891641 0.97941655 1.0953242 1.0229489
0.8617771 1.8965229 0.8539632 0.94512534 1.1402688 0.95477325 1.1167778 1.5164877
1.275307 1.08123 1.1351193 0.91904134 1.2223616 2.380729 1.1717793 1.1609788
0.98711324 2.1527734 0.84328014 1.071134 1.1183633 0.8673551 0.8796105 2.2362394

bns.0.bias f4 [32]
00000000: 2fdf 9f3e 5d62 ac3d 8000 da3d 7d23 8cbd
00000010: 8b7c e33b 5b47 52bd e8ed df3d f91c 8cbc
00000020: 8382 13be c01c 7f3e 42f1 7c3d d415 e8bd
00000030: 30bd 1e3e 3b5c debd 4160 153e 880c 9e3e
00000040: 6ce7 5a3e 6240 ee3d af19 e63d 0198 7b3d
00000050: e29f 923e 62e7 663f fc8a 3f3e 9238 403e
00000060: 3aa6 7fbd 946b 5e3f 787e 09be cb78 eb3d
00000070: 1f75 8b3d d40c 76bd 0c7f f8bd d85c c33e
0.31224963 0.08417199 0.106446266 -0.06842706 0.006942337 -0.05133758 0.10934049 -0.017103659
-0.14405255 0.24913311 0.06175352 -0.113322884 0.15501857 -0.10857435 0.14587499 0.30868936
0.21377343 0.11633374 0.112353675 0.06142426 0.28637606 0.9019681 0.18705362 0.1877158
-0.062414385 0.868829 -0.1342715 0.11497649 0.068094485 -0.060070828 -0.12133607 0.38156772

bns.0.running_mean f4 [32]
00000000: 84ec f040 5560 fc40 e369 d240 1a69 8bc0
00000010: 2528 80c0 a628 ff3e 529c 6f40 20dc 4540
00000020: f7cc bec1 f6ac 76bd 52fd 173f bc8a 6841
00000030: 7a0b 8541 7e5b 9641 8394 a441 f4e2 1ac0
00000040: 8e96 0bbd d254 0b41 fca6 4041 332b 9c3f
00000050: c56f ae40 4b3d 27c0 2f8b e541 dd5a 3e41
00000060: 5b24 9940 bae5 afbf 15d8 abc0 86a1 2bc0
00000070: ddc9 2a41 a565 96bf 11ab 21bf 8dc0 353f
7.5288715 7.8867593 6.5754256 -4.35658 -4.0049005 0.498357 3.743916 3.0915604
-23.85008 -0.060223542 0.5937091 14.533871 16.630604 18.794674 20.572515 -2.4201021
-0.034079127 8.708208 12.040768 1.2200683 5.4511437 -2.613116 28.69296 11.897183
4.785688 -1.3741982 -5.370127 -2.6817336 10.674283 -1.174977 -0.6315165 0.70996934

bns.0.running_var f4 [32]
00000000: 37df 8a41 4640 1f43 a368 2043 186e c340
00000010: 2816 fa42 9895 cb42 48a2 0a43 ac0d 1a43
00000020: c999 1a43 22d4 1a40 b076 1843 8855 1743
00000030: 9754 f942 c6fa 2543 1ca2 2243 e6ab 5e40
00000040: 8f1e 1a41 c7eb 1743 59d4 0643 ab77 1443
00000050: b355 a441 7494 8c40 e7fd 5443 3fe2 3c43
00000060: 2594 0343 8fc7 4840 05a2 ec42 6cff 0343
00000070: ea74 fa41 0e25 1143 16ba 0343 f6cf 0b40
17.358992 159.25107 160.40874 6.107189 125.043274 101.792175 138.63391 154.0534
154.60072 2.4191976 152.46362 151.3341 124.665215 165.97958 162.63324 3.4792418
9.632461 151.921 134.82948 148.46745 20.541845 4.3931217 212.9918 188.88377
131.57869 3.13718 118.316444 131.99774 31.307087 145.14474 131.7269 2.184568
