saved/amazon-photo_SAGE_s2.pt (torch, 200301 bytes, 10 tensors)

convs.0.lin_l.weight f4 [32, 755]
00000000: d313 d0bc ea02 dbbb 1964 1ebd e923 16bd
00000010: 6845 67bd 9051 99bc 8f91 15bd f959 ac3c
00000020: 7726 0d3d b6fb 93bc 091b 723e f539 6bbd
00000030: d622 4ebd a52b 4abd 2f38 47bd 57cd 3f3d
00000040: 6055 98bd 64c4 73bd 816b 85bd 00ea 17bd
00000050: bd0a 34bd 4625 25bd c543 5f3c 9969 b0bd
00000060: 50d1 1fbd 95d9 9cbd b676 21bd ea07 a43c
00000070: ca40 86bc 75aa 51bc 8c78 81bd 6ce2 5ebd
00000080: 50e0 81bd 0639 ecbc 42b3 12bc 027d 6f3d
00000090: 80e4 08bd 82bb f1bb 5e66 e1bc e76c 1abd
000000a0: 98d5 103e 708d 0abd d9ec 9ebd 19fc fdbc
000000b0: c44d 50bd b4f0 f9bc c0d7 04bd 4dc0 9dbc
000000c0: f041 75bd aa0d d93a 44e6 8abd 6772 d43d
000000d0: 2cf7 2b3d eb96 17bd 77d2 60bd 3ac0 79bd
000000e0: 645c 2fbb 4750 3cbd 051b 8fbd c204 49bd
000000f0: 4549 2cbd b6c7 98bc d8af 1dbd 1854 48bd
00000100: 2e9a 17bc 3564 a2bc 8b5c 9ebc 8370 0bbd
00000110: 27d4 4cbd df01 76bd 7b0c b6bd bf4d 1cbd
00000120: ce71 83bb 335a b9bb 75d6 f7bb eef8 31bd
00000130: 7962 00bd 6e94 9ebc 70da e0bc 2688 58bd
00000140: f5d5 93bd 020e 613d 1280 963d 359c 123e
00000150: 9521 77bd 3bc0 bcbc 76a8 8ebd c1c1 a3bd
00000160: 0f2b 6abc 0d26 07be d397 8f3d 9811 51bd
00000170: df4b cebd 9f60 8cbb 41ce abbd 628f efbc
00000180: a918 b5bc 38b1 85bd 6c17 e1bc c5f7 15bd
00000190: 3e60 88bb e84c e3bb 9482 02be fe05 24bd
000001a0: 806a e7bc 0236 b6bd 492b 1fbd 8bd4 26bd
000001b0: ffe4 49bd 1ce6 0ebd 28d8 a1bd 04f5 c5bd
000001c0: 939f a3bd 3b15 62bd c7ac 91bd f04d 053d
000001d0: 84e4 82bd 53d3 51bd 6235 88bd 0c60 17bd
000001e0: 1c8c 7bba 4892 42bd a520 83bd 3201 7dbd
000001f0: 6434 b5bc 0255 8ebd 1aa7 25bd 1888 dfbc
00000200: c529 81bd 1a7b 81bd a0cc 84bb c256 30bc
00000210: d54c b43d 18b1 96bd ffc3 9bbd d440 173d
00000220: ec17 8dbd 8653 83bd cedf 8cbd 33d3 44bd
00000230: a68c 6cbc 00fd 7cbd ba11 21bd 7a38 23bd
00000240: 9c37 bdbc b5ab b2bd b49c 17bd 6b4d 6cbd
00000250: 5e5f 2ebd 5849 8bbc 41ac 8bbd 773f 29bd
00000260: e1b6 c5bd bd33 8ebd 01bd 87bd 46f5 6cbd
00000270: 0c93 67bd 49d5 84bd f479 463c 6666 67bd
00000280: f119 2abd 46c5 94bb 5488 28bc 66c5 2b3d
00000290: ee2b 6ebd dc3d 37bc ee34 86bd 037d 1bbd
000002a0: 0b9f 25bd 9d01 7dbd a4b1 6ebc e9a8 babd
000002b0: 85c3 a7bd 7cf9 2ebd 52bf 32bb 7aa2 03bd
000002c0: 1630 12bd ee6c 61bd ff88 69bd 943f 94bd
000002d0: 59ff 8ebd 50d7 92bd 0cb8 d03d 5a00 9fbb
000002e0: 315a 85bd 0379 60bd 0e1a 57bc 6463 8ebd
000002f0: 7ddb 66bc 32de 39bd 8726 37bc 4134 04bd
00000300: f6ea 31bc 38d5 33bd 471f 9cbc 786c 80bd
00000310: 1e94 fa3a 17cd 72bd 03fc 43bd a047 023e
00000320: 0a73 3abd a088 6cbd 5c99 90bd 26e9 9cbd
00000330: 9f56 87bc 0c6f 64bd 5212 b4bc 0e7e 0ebd
00000340: 44df 72bd 08db 7ebd 289c 84bd 4cfc aabb
00000350: af25 acbd 941c 6dbd 3758 a2bc 35ea 5cbd
00000360: 3f47 813e 0857 05ba e0a3 febb 9b09 adbd
00000370: dcb6 48bc b588 e4bc dec2 b0bc 53d0 7fbd
00000380: 2d86 293a c66d 45bd 98d9 41bd 7d87 3abd
00000390: 4a1b 2fbd bf53 91bd 5b97 b6bd 83fb 72bd
000003a0: e7f1 d93b 65e8 2abb 56d0 1ebd c942 82bd
000003b0: ba72 e8bc 18a3 38bd 6bee 4dbd a2a3 86bd
000003c0: 1e72 4abc 5e57 8cbd 12cd 58bc 53d9 49bd
000003d0: 8da2 4abb f102 49bc 1448 5c3c 3233 f7bc
000003e0: 9028 9cbd 4126 e3ba 8353 383c 011b 95bd
000003f0: d911 efbc f0ea 33bd d6bb e2bc d1d2 4bbd
-0.025400078 -0.006683697 -0.03866968 -0.03665534 -0.056462675 -0.01871565 -0.03651577 0.021038996
0.03446051 -0.018064361 0.23643126 -0.05742832 -0.05032619 -0.04935803 -0.048637565 0.046826687
-0.07438159 -0.059513465 -0.06514645 -0.037088394 -0.043955553 -0.04031875 0.013626997 -0.08613891
-0.039017975 -0.07658688 -0.039419852 0.020023305 -0.016388316 -0.012796988 -0.063218206 -0.05441515
-0.06341612 -0.028835785 -0.008953871 0.058468826 -0.03342104 -0.007377089 -0.027514633 -0.037701514
0.1414398 -0.03382629 -0.07760019 -0.031003999 -0.050855413 -0.030510284 -0.032432318 -0.019256735
-0.059877336 0.0016559858 -0.06782201 0.10373383 0.04198377 -0.03700916 -0.054888215 -0.060974337
-0.002675795 -0.045974996 -0.069875754 -0.049076803 -0.042062063 -0.018649917 -0.038497776 -0.048908323
-0.009253068 -0.019823173 -0.019331237 -0.034042846 -0.05000701 -0.06006038 -0.08889099 -0.038160082
-0.0040113693 -0.0056565045 -0.007563407 -0.04345029 -0.03134391 -0.019357886 -0.02744791 -0.052864216
-0.072185434 0.054945 0.07348646 0.14317401 -0.06033476 -0.023040881 -0.06965725 -0.0799594
-0.0142924925 -0.13198109 0.0701138 -0.05104217 -0.10073065 -0.004283979 -0.08388949 -0.029243175
-0.022106485 -0.065279424 -0.027476989 -0.036613245 -0.0041618636 -0.006936658 -0.12745124 -0.040044777
-0.028249025 -0.0889702 -0.03885964 -0.04073004 -0.049290653 -0.03488742 -0.07902557 -0.09665874
-0.07989421 -0.05519603 -0.07113033 0.03254503 -0.06391242 -0.051226925 -0.06650807 -0.03695683
-0.0009595768 -0.047502786 -0.06402711 -0.061768718 -0.022119708 -0.06949808 -0.040442564 -0.027286574
-0.06306795 -0.06322308 -0.0040527135 -0.010762872 0.08803717 -0.07357997 -0.07605743 0.03692706
-0.06889328 -0.06412415 -0.06878625 -0.048052978 -0.01443783 -0.061764717 -0.039323546 -0.039848782
-0.023097806 -0.08724157 -0.037014678 -0.05769102 -0.042571418 -0.017002746 -0.06819964 -0.04132029
-0.09654022 -0.06943462 -0.066278465 -0.0578511 -0.05653672 -0.064859934 0.012114037 -0.05649414
-0.041528646 -0.0045401184 -0.010286409 0.0419363 -0.058147363 -0.011184182 -0.06553064 -0.037961017
-0.04043488 -0.061769117 -0.01456872 -0.09114248 -0.08191589 -0.042718396 -0.002727468 -0.03213737
-0.03569039 -0.055035524 -0.057015415 -0.07238689 -0.069822975 -0.07169974 0.10191354 -0.004852337
-0.06511343 -0.054802906 -0.0131287705 -0.06952551 -0.014090416 -0.045377918 -0.011178619 -0.032276396
-0.010859242 -0.043904513 -0.019057883 -0.06270689 0.0019117629 -0.05927762 -0.04784776 0.12722635
-0.045519866 -0.057747483 -0.07060501 -0.07661657 -0.016520796 -0.055769965 -0.021981392 -0.034788184
-0.059294954 -0.062220603 -0.06475097 -0.0052180644 -0.08405625 -0.057888582 -0.019817455 -0.053934295
0.2524967 -0.0005086516 -0.0077710003 -0.08449098 -0.012250628 -0.027897218 -0.021577295 -0.062454533
0.0006466832 -0.04820039 -0.047326654 -0.045539368 -0.042750634 -0.070960514 -0.089155875 -0.05932189
0.0066511515 -0.002607846 -0.038772903 -0.063603945 -0.028375018 -0.045077413 -0.0502762 -0.06574179
-0.012356309 -0.068526015 -0.013232486 -0.049279522 -0.0030919642 -0.012268768 0.013444919 -0.030175779
-0.07624924 -0.0017330126 0.0112503795 -0.07280541 -0.029183315 -0.043925226 -0.027677458 -0.049761597

convs.0.lin_l.bias f4 [32]
00000000: 4f23 33be 81c4 843e 77de c13d c18e 963d
00000010: 34cc b0bd e519 413e 3475 80bd 3485 653e
00000020: de82 4d3d 00df 36be 93af 803e 5060 d13d
00000030: 9620 a9bd d71d c3bc 0c43 ad3e f36d 973e
00000040: 41eb 9a3e 3c1b 99bd 9a40 2e3e 1f1f fb3d
00000050: b52d 86bd a505 ab3d 5cf3 6a3e b3cf 21be
00000060: c456 743e f024 36bd 0b49 13bd aad4 fabd
00000070: 395a 2ebd 0053 7b3e f812 893d 93ac 0d3e
-0.17493938 0.2593117 0.0946626 0.07351447 -0.08632699 0.18857534 -0.06272355 0.22414094
0.050173633 -0.17858505 0.25133952 0.10223448 -0.082581684 -0.02381794 0.33840215 0.29576072
0.3025761 -0.07475898 0.17016831 0.12261795 -0.06551687 0.08350686 0.22944397 -0.15801887
0.23861223 -0.04446882 -0.03595833 -0.12247594 -0.04256651 0.2454338 0.06693071 0.13835363

convs.0.lin_r.weight f4 [32, 755]
00000000: 913c 903d b1c1 ef3c 21c6 553d b3ed 4b3d
00000010: 3edd 4e3d 54a6 c83d 5cbd 073d b316 093d
00000020: 3364 b83d 7a13 493d c659 003d 6f90 a93d
00000030: 69ee 4e3d a035 8a3d b962 a83d cff0 963d
00000040: 9a78 6d3d 25d4 843d a526 153d a0cd 803d
00000050: 306e 323d 04c8 923d e47a 2a3d 6a9c ab3c
00000060: a260 7d3d 19d2 b73d 6610 603d d534 5d3d
00000070: 79cb f93c 861e 653d 1145 483d 0a36 a23d
00000080: 5e0d 963d b2b9 b43d a398 693d d22d bc3d
00000090: 5489 8d3d c549 d03d 114e 623d b667 683d
000000a0: a1b6 863d 4a0a 643d 5703 f73c f88f 9d3d
000000b0: 34bc cc3c e028 413d ec3d 873d f875 0b3d
000000c0: 947e 883d 16db 4e3d bae6 413d 0cb2 a13d
000000d0: 6bc6 c73d d354 0b3d 5144 a63d b7a0 903d
000000e0: 2994 b73d b7f2 ab3d 2c27 5f3d babd 673d
000000f0: 9f53 ac3d 4213 9c3d 5991 1b3d 7c16 463d
00000100: 3a11 133d 3b70 723d 1c3e c33d d56d 873d
00000110: b4c2 353d 1218 6a3d 150d 003d 84b8 d33c
00000120: 19b9 2a3d 5de6 133d 6d98 233d 5db7 ba3d
00000130: 1f45 bc3d 1f2f b03d 6899 9e3d 9020 603d
00000140: 8f56 8b3d 89d5 293d a548 3f3d 5b23 333d
00000150: b10e 9e3d 6df4 943d 6bdc 8d3d 84cd c23c
00000160: 8f6e 283d 4f74 973d 2c5b 1b3d 6123 363d
00000170: 7e77 ac3d 7819 ab3d cc9f 6a3d 1628 943d
00000180: 24b3 b13d d4fd b83d 64fb 4f3d a367 923d
00000190: eabb 313d ad15 b63d 9bba b03d cf03 953d
000001a0: e7f8 1d3d df53 243d 288a 3d3d 7ff0 4d3d
000001b0: 124e 913d 8047 5b3d 0265 173d 8bc1 613d
000001c0: 779e b63d bc91 b93d c457 8c3d 461b ba3d
000001d0: 4bea 613d e3fb 823d 06b9 9b3d b53d 9e3d
000001e0: 7125 c73d aca5 bd3d 18ca 923d 00a8 733d
000001f0: 8616 af3d ff02 5e3d d333 9b3d 3409 5b3d
00000200: dacd 293d 1ef4 c23d 1400 4a3d 5941 663d
00000210: 6308 2b3d 38db c53c f864 a53d 52f5 9c3d
00000220: b7a4 5d3d 88b8 dc3c 4698 ba3d c95b 533d
00000230: 4f34 a83d 572f 993d f8fa 6c3d b7ad 953d
00000240: 37d9 c73d d146 753d 33b6 793d f32d 133d
00000250: 1cfd af3d dcd1 4c3d 39fa 273d e2cc 693d
00000260: 99ad 833d 3910 a23d a51a 253d 28b4 393d
00000270: 6e74 283d 5822 cb3d 45fc 3d3d e9fa c33d
00000280: 37ec 473d fe02 b23d 5fd6 3d3d 0d58 153d
00000290: 78b7 c73d 1ff4 833d 17ae 443d 16f9 043d
000002a0: 442f 033d 4288 c53c 1f89 993d bcc4 a93d
000002b0: e87a b03d 39c9 073d b45a a03d 06fb f83c
000002c0: 18f7 3c3d f150 273d f9b8 bd3d a7ef bc3c
000002d0: 0940 9d3d dde6 c33d f393 303d 05e8 413d
000002e0: d404 ae3d 115b 8a3d 5a25 b23d 5cb5 4c3d
000002f0: c4ce ae3d 790c c83d fab7 b13d 0c73 773d
00000300: 0f78 a23d 6d35 603d 1a24 583d 5b43 953d
00000310: 8cd1 553d 3d1d 4f3d 18f3 a23d 8227 823d
00000320: a5bc c93c 2458 e93c 24f3 b63c 0b5f ac3d
00000330: b5f6 9d3d 4613 893d 5587 cf3c bdda c03d
00000340: 1228 f93c def6 ab3d fa1a 963d abb8 ce3d
00000350: 2f46 873d 7c71 153d f33d bb3d 86ec a13d
00000360: 2342 663d a03c 373d 625b 353d 1712 a73d
00000370: 441d b43d 78f1 973d ed20 4f3d bcf8 ff3c
00000380: fb07 173d da99 293d 2075 683d 6c46 493d
00000390: 2f44 903d f4f3 773d 9d9f 593d 448b 383d
000003a0: 6b5e 3a3d 6a09 223d 8c42 c23d ef00 5f3d
000003b0: 9c82 8d3d 4ae8 bd3d 2868 4f3d f64f 0b3d
000003c0: 770b b43d 6111 803d 1c64 b33d 6230 203d
000003d0: 2476 883d 6ee9 873d 1292 b03d bea7 3e3d
000003e0: e076 963d 3f2a 8d3d 9a3f bb3d 28aa b43d
000003f0: 4be8 bc3d 341d 693d f9c3 753d e9e3 5a3d
0.07042802 0.029267164 0.052190904 0.049787235 0.05050396 0.097973496 0.03313957 0.033468913
0.090034865 0.04909084 0.031335615 0.08279502 0.050520334 0.067485094 0.08221955 0.07370149
0.057976343 0.06485776 0.036413807 0.0628922 0.043562114 0.07167056 0.041621104 0.020948607
0.061859734 0.0897562 0.05470314 0.054005463 0.030492531 0.055937313 0.04889399 0.079204634
0.07326768 0.08824481 0.05703033 0.09188427 0.06910959 0.101703204 0.05525023 0.05673953
0.065778024 0.055673875 0.03015296 0.076934755 0.024992086 0.047158122 0.066036075 0.03404805
0.06664768 0.050501905 0.04733918 0.07895288 0.09754642 0.03401644 0.08118499 0.07061904
0.08963806 0.083959036 0.054480717 0.05657742 0.08414387 0.07620861 0.03798041 0.048361287
0.0359051 0.059189063 0.09533331 0.06612746 0.044375136 0.05715186 0.031262476 0.02584482
0.04168043 0.036108363 0.039940286 0.09117005 0.09192871 0.08602738 0.07744104 0.054718554
0.06803619 0.04146341 0.04670014 0.04373489 0.07717646 0.07273183 0.06926807 0.023779638
0.041121062 0.07395231 0.037928745 0.044467334 0.08421229 0.08354467 0.0572813 0.07234208
0.086767465 0.09032789 0.050776854 0.071486734 0.0433921 0.08890853 0.08629342 0.07276117
0.03856745 0.04011905 0.046274334 0.050278183 0.07094969 0.053534985 0.036961563 0.055116218
0.089169435 0.09061 0.068526775 0.09087233 0.05515508 0.063957 0.0760365 0.077266134
0.09723938 0.09260115 0.071674526 0.05948639 0.08549218 0.054202076 0.07578244 0.053475574
0.04145608 0.09519218 0.04931648 0.056214664 0.041756045 0.024152383 0.08075899 0.07663979
0.054112162 0.02694346 0.09111075 0.051601205 0.08213102 0.074797325 0.05785653 0.07308524
0.09758227 0.05988199 0.060964774 0.035932492 0.08593199 0.050004825 0.041010115 0.057080157
0.064295955 0.079132505 0.040308613 0.045337826 0.04112666 0.0991866 0.04638316 0.09569342
0.048809256 0.08691977 0.04634702 0.036460925 0.09751791 0.06443047 0.048017588 0.03246411
0.032027498 0.024112824 0.07496857 0.08289477 0.086171925 0.033150885 0.078298 0.030393135
0.046134084 0.040848676 0.09263796 0.023063494 0.07678229 0.09565518 0.043109845 0.04734041
0.08497015 0.06755651 0.086985305 0.049977645 0.08535531 0.09768004 0.08677669 0.06041245
0.079330556 0.05473845 0.052768804 0.07288238 0.052201793 0.050564993 0.07956523 0.06355192
0.024626086 0.028484412 0.022332735 0.084165655 0.07713071 0.06693129 0.025333086 0.09416721
0.030414615 0.083966956 0.07329364 0.10093816 0.06605183 0.03648518 0.09142675 0.079064414
0.056215417 0.04473555 0.044276603 0.08157747 0.087946445 0.074191034 0.05056851 0.031246535
0.036872845 0.04140649 0.056752324 0.049139425 0.07044255 0.060535386 0.053130735 0.04505469
0.0455002 0.03955976 0.09485349 0.05444425 0.069096774 0.09272821 0.05063644 0.034011804
0.08791249 0.06253315 0.08759329 0.03910864 0.066631585 0.0663632 0.08621611 0.04654669
0.07346892 0.068928234 0.091429904 0.08821517 0.09223994 0.056912616 0.060001347 0.05344001

convs.1.lin_l.weight f4 [9, 32]
00000000: 4823 88be 86b3 4abe cdbf 293b 5b75 93be
00000010: 0d52 9cbd 159b 1abe 1ce1 bdbd dd1f 97be
00000020: 99ba eabd 5d22 7abe adb1 76be 4ea5 5ebe
00000030: 1dce 13bd 1e63 ebbd da2f d9bd a821 78be
00000040: 30b9 81bd 2c34 c9bd ce13 3fbd 9d9f a1be
00000050: 044e 12be 749d 98be bd26 5ebd b5c6 05be
00000060: 46f6 61be 4c25 823c c8cc 0f3d 5033 91bd
00000070: 644c 0fbe fa2d 14be 657d 83be f42c 97be
00000080: a461 ddbd 9fb7 28be 894f 203c 55fd 983c
00000090: 6a46 473d aeb5 ffbd 9260 bbbd d970 76bd
000000a0: efa7 813d ac67 15bc bbac 80be aa9b 0cbe
000000b0: 81b3 92bd ca46 c0bd 32d9 92be 739f 30be
000000c0: cfbd 4abe 4663 c5ba 71b6 babc 216e 5bbe
000000d0: 2838 d4bd 47a3 123c 5456 3ebe efb3 a0bc
000000e0: b873 6cbe d4e9 73be 6e8d 993b 2369 4abe
000000f0: 8f62 a6bd 1c05 94bd 7000 3abe 3422 55be
00000100: 7e68 48be db98 673d 0ec1 813d 4e72 92bc
00000110: 4f30 513c a67d fd3c a9fa 3f3d aad2 863d
00000120: 3fbd f1bd 3516 b9bd c61f ec3d 7be9 05be
00000130: 5d0f 33be 1d53 22be 5072 0d3e 5f19 e63c
00000140: 39a1 193d 5ac0 93bd 318e 64be 9387 7abd
00000150: b404 633d 9d95 88bc e1bc 2abe 0dcd 3abe
00000160: 6da2 71be e861 9d3b 2325 1ebd ced7 6d3e
00000170: 1183 b73d e456 0ebe 0761 f03d 4f6f bd3c
00000180: 3374 8b3e 7b00 1dbd 84ef 983e eefb 6f3e
00000190: d115 903d 732e 973e 9c45 423e 63d9 213e
000001a0: 43b0 15bd dc89 9dbc 0bea 113e c80d 3fbd
000001b0: f119 193e a123 893d 2429 073d d7e7 133e
000001c0: a079 ae3e 59a0 2a3e f222 103e 1f09 063e
000001d0: 05bb 713e 1ab5 673e d275 3c3e f3f7 953d
000001e0: 09c6 793e 555e 00bd 64da 8b3d 83d3 453d
000001f0: 0260 193d 5906 703e 7e7c 383e 0f49 5c3e
00000200: 2b05 0fbe 0721 cbbd 5fc9 33be 4fdb 51be
00000210: 750f 81be f8c3 f63c 2381 86be 8b35 a5be
00000220: 12f7 3ebe 0dd9 8dbe 9e36 9cbe 3dfa abbd
00000230: 74bd 8dbe 0dde d1bd 5b81 02bd 6310 8abe
00000240: 62dd 5cbc 1c49 01be 0f89 3abe 03b3 82bd
00000250: aeaf 39bd de6d b13b e71b 42be 29fb 0dbe
00000260: cd4c 58be 8461 53bd caf1 9d3b 3d6d 6fbe
00000270: 4cf0 6cbe 4156 95be 2591 62be 0c00 b3bb
00000280: de34 aebd b6ab 60be dc21 86be 4a27 0ebe
00000290: a66e 81be f33a 3fbe c2ed 393d 508a 83be
000002a0: da71 7bbd 878f 4dbc c35a 5ebe a26d 4bbd
000002b0: 903e 14be ddc6 403d cf63 29be fb89 8abe
000002c0: 6138 6abe ef45 27bd 9f0c 20bc eeca e3bd
000002d0: 396d 9bbe aaca e6bc d581 aabe 53ed 9dbe
000002e0: 7dc4 86be 849a f5bd fcf1 7abd a216 4cbd
000002f0: 665c bbbd a08d 96bd 0d8e e6bd 875c 46be
00000300: afd2 433c eb97 83be 8bf2 69be 4a1a 0fbe
00000310: a3d3 2cbd a6ac 6abc 10de 14bc 6dfb a6be
00000320: 4e6a 0ebe c4e1 3ebe e7e0 08bd d22d c93c
00000330: 18e2 9bbe 19fa 1cbe db4d 183c 9e98 7abe
00000340: 5002 9bbd a53e 99be dce2 973c 2879 3ebe
00000350: 7aef 8ebd 2430 61bc 4f79 1bbe 74e0 a5be
00000360: 1677 4fbe cfe4 9cbe d301 8f3d a8d3 75be
00000370: ac71 13be 7dce cebd 5223 50be e215 8dbe
00000380: 1ed8 d23c 3d95 34be 8a6b 48be 9fb4 873b
00000390: ce55 8dbd c9aa 4bbd ffb0 cebd f8dc 6abe
000003a0: 641c 61be 8961 ddbd 4fb5 c8bd b64e 16be
000003b0: 5d61 44be 3b71 f7bc eb81 30bd 2c98 dabc
000003c0: 47d9 7abe 2f17 78bd 1b24 88be 4aab 8abe
000003d0: b239 7bbe 7a08 1ebe eae5 17be 3ec8 96bd
000003e0: c55b 49be 2047 bebd 9fb2 98bd bd5f f9bd
000003f0: 699d 64be e4d9 f43c f552 8ebe 3eb8 3ebd
-0.26589417 -0.19795045 0.0025901676 -0.28800473 -0.076328374 -0.15098222 -0.09271452 -0.29516497
-0.11461372 -0.24427171 -0.24091215 -0.21742746 -0.036085237 -0.114935145 -0.1060483 -0.24231589
-0.0633415 -0.09824404 -0.046649747 -0.31567088 -0.14287573 -0.29807627 -0.054236162 -0.13064082
-0.22066602 0.015886925 0.035107404 -0.07089865 -0.13993984 -0.14470664 -0.25681606 -0.29526484
-0.10809639 -0.16476296 0.009784588 0.018675486 0.048651136 -0.124858245 -0.09149279 -0.060166214
0.06330859 -0.009118956 -0.25131783 -0.13731256 -0.07163144 -0.09388502 -0.28681332 -0.17248325
-0.19798969 -0.0015059493 -0.022792073 -0.2142873 -0.103622735 0.008950061 -0.18587619 -0.019617049
-0.23091018 -0.23819667 0.004686049 -0.19766669 -0.08124267 -0.07227537 -0.1816423 -0.20813829
-0.1957111 0.05654226 0.063356504 -0.01787677 0.012767865 0.030943703 0.046869908 0.0658315
-0.11803674 -0.09037439 0.11529498 -0.13077347 -0.1748633 -0.15852018 0.13813138 0.02808827
0.03750727 -0.072144225 -0.22319867 -0.06116445 0.055424407 -0.016672904 -0.16673614 -0.18242283
-0.23597117 0.004802931 -0.038609635 0.23226854 0.08960546 -0.13900334 0.117372565 0.023124365
0.2723709 -0.038330536 0.29870236 0.23435947 0.07035411 0.29527625 0.18971866 0.15805583
-0.03654505 -0.019230776 0.14249437 -0.046644002 0.14951302 0.06696249 0.03299822 0.14443909
0.34077168 0.1666273 0.1407583 0.13089417 0.23606499 0.22627679 0.1840432 0.07322683
0.2439195 -0.031339962 0.06828764 0.048297416 0.037445076 0.23439921 0.1801624 0.21512245
-0.13966815 -0.09918409 -0.17557286 -0.20493816 -0.25207105 0.030122742 -0.26270398 -0.32267413
-0.18648937 -0.2770466 -0.3051042 -0.083973385 -0.27683604 -0.10247431 -0.031861644 -0.26965627
-0.013480516 -0.12625545 -0.18216346 -0.063818 -0.045333557 0.0054147085 -0.18955956 -0.13865341
-0.21123047 -0.05160667 0.0048200833 -0.23381515 -0.23138541 -0.2916737 -0.2212568 -0.005462652
-0.08506177 -0.21940503 -0.26197708 -0.13882175 -0.2527973 -0.18674831 0.04539276 -0.25691462
-0.061387874 -0.012546427 -0.2171431 -0.0496651 -0.1447699 0.04706465 -0.1654198 -0.27058396
-0.2287307 -0.04083818 -0.009768634 -0.1112269 -0.30356768 -0.02817281 -0.3330218 -0.30845127
-0.26321784 -0.11992362 -0.06126593 -0.04982627 -0.09148483 -0.073512316 -0.11257563 -0.19371234
0.011952086 -0.25701842 -0.22846429 -0.13974872 -0.04219402 -0.014323389 -0.009086147 -0.32613698
-0.1390774 -0.1864081 -0.03341761 0.024557982 -0.30445933 -0.1532978 0.009295906 -0.24472281
-0.075688004 -0.29930606 0.018540792 -0.18600905 -0.0697927 -0.013744388 -0.15182994 -0.32397807
-0.20260271 -0.30643317 0.0698277 -0.24006522 -0.14398831 -0.10097978 -0.20325974 -0.27555758
0.025737818 -0.17635055 -0.19572273 0.0041414048 -0.069011316 -0.04972342 -0.10092353 -0.22935855
-0.21983486 -0.10809619 -0.09800207 -0.14678463 -0.19177766 -0.03020536 -0.04309265 -0.02668389
-0.24496947 -0.060568985 -0.26590046 -0.27083808 -0.24533728 -0.15432921 -0.14833799 -0.07362412
-0.19663914 -0.0929091 -0.07455944 -0.12176464 -0.22325672 0.029889055 -0.27797666 -0.046562426

convs.1.lin_l.bias f4 [9]
00000000: 4358 75be a934 64bd 7d12 a1bc e470 833e
00000010: a4ed aabc de4b 60be f750 f2bd 4070 7fbc
00000020: bd9e 93bd
-0.2395945 -0.055714283 -0.019662136 0.25672066 -0.020865269 -0.21903941 -0.11831849 -0.015590727
-0.07208011

convs.1.lin_r.weight f4 [9, 32]
00000000: c32f 4f3d 4971 193c f1b6 22be b5cb 04be
00000010: c7f9 87be 3441 64be 4ea9 933b bdef 85be
00000020: 206d d2bd bce4 5f3d 0e2a 1ebe 6c4b d0bb
00000030: f395 cebc fc12 02be bdcc 1fbe 12b6 8bbd
00000040: 26c1 95be 64af a7bd 0d1e 2c3d ba1b 9dbd
00000050: ac9b a83c 330e 93bd 2701 3cbe 20de 2fbe
00000060: 142a 0f3d 90c7 57be 66c7 63be 72d3 bf3d
00000070: cf4b 24bd 862c 05be 0ae6 53be 311e 96be
00000080: 0162 e83a 265b c8bd 7ee6 0238 0df3 91be
00000090: 6fcd bebd 9e10 29be 486a 5dbe 9115 2dbe
000000a0: ac56 09be ff73 89bb 0cd8 96be af4a 473d
000000b0: c8d0 13be 7174 4dbe 41be 8ebe f57a 53bd
000000c0: f33f b1bd 750a 7cbd 3b78 7abe 8770 d3bd
000000d0: 5210 543d bfd1 5abd 92ea 5fbe 0f66 d0bd
000000e0: c99f 95be 960b 6e3b 523a 33bd f140 6dbe
000000f0: d03f 61be e03d 8abe 1106 4fbe 7181 dc3c
00000100: 9c90 86bc 29ea ae3d 1cdd 64be 0915 643d
00000110: 7133 86bd 1d38 c9bd 8747 fcba da32 97be
00000120: 0145 643d 5e4f 623e 5482 12be 4554 533e
00000130: 0337 293c 5e56 673c 8b2d 353e 45f4 143e
00000140: e76a bfbd a123 683d 4c44 5c3e f11e 31bc
00000150: 5386 8d3d 4c33 8bbe ce7f ffbc 7acf 00bf
00000160: 9834 b6be 81b0 403e c8c2 c6bc 4d89 063f
00000170: 1542 093e 15d7 57bd f7d5 ecbd a8ea efb9
00000180: 9e87 53bd c87f 5b3e 224c 1e3e 765e 5f3e
00000190: b9a0 1a3e 2861 eebc 1632 453e 3905 c13c
000001a0: dfd9 56bd 5700 58be 08ce cb3d d33f 4a3d
000001b0: 924d 57bd c9bf 9e3d 3f88 443e cfed 3c3e
000001c0: dc15 263e 54b9 f0bd 3796 a43e ae9c a23d
000001d0: 75d1 2bbd e2b4 283d 67c8 923d b1bb 6ebd
000001e0: c334 b43e b3db 10be 9251 183c 5997 c4bd
000001f0: 00ca 41bd cc7c 5c3e bdb6 e83c 0681 693e
00000200: f653 cf3b 8b7d f0bd ff1f 22be 9f05 89bd
00000210: 45c8 8dbd 439e 57be 8be6 7fbd 6ea6 49be
00000220: cf81 1cbe 7081 a9bd 81e1 7bbd 1b4e 8dbe
00000230: 65fa 52be f7c3 783d cb1d 67be 9f79 1a3d
00000240: 5bbf 73bd b3df 66be c8e6 60be 574f e0bd
00000250: bab3 a4bd ccb2 9cbe 1ed6 0d3d cb8c 65be
00000260: ebc4 08bd a24a 64be 9067 37be c79e 8cbe
00000270: c3f0 0dbe 34fb 1d3d 8533 8cbe a47d 1fbe
00000280: 7097 5ebe ddbc 99be ad11 bcbd d4ec 8bbe
00000290: 4acc 9bbc 378f 54be 7577 5fba d81a 86be
000002a0: 47ae 35bd dfc3 e03c c852 53be 4d1e 4fbc
000002b0: 4b01 0e3d e23e 1abc 4e0d e2bd e63b 5fbe
000002c0: 2812 99bd f36c 58be ba9a 69be d5fa 39be
000002d0: 6de2 4cbe 7b01 f7bd d9f3 60bd 3fd4 52be
000002e0: 590a 3bbe 22f1 4fbe d522 3ebe 18d8 22be
000002f0: 7aa7 22be 7abe 84be 3ca5 76bd e13a 1bbe
00000300: a472 9dbe 529d e0bd 5272 4ebe 0ede 87bd
00000310: e59f 363d 6a5a c0bd d633 05be 9227 33be
00000320: 1982 0cbe 0542 33be f0dc 6cbd 934f a3bd
00000330: db4e a0be 9286 33be 7728 88bd 6028 2dbe
00000340: c4a9 53be e611 2cbe 8023 eebd 7e74 b0bc
00000350: 6e94 203c 4969 8dbd edd5 84bc 54a4 43be
00000360: fc9b 8ebe 295b 27bd ab78 2f3d 4bd6 f3bd
00000370: 9d68 a4be a5b1 8d3c d7da 62be 528a ebbc
00000380: 5ff1 353d 638f 62be 40c4 74be dafe 023c
00000390: ac79 81bc 7a92 72be 9e42 ba3c 997d 043c
000003a0: 04fa 0ebd 3de5 96bd efd2 89be 4637 413d
000003b0: b8b3 9cbc c0cb 92be 64c5 47be c659 1abd
000003c0: 3658 acbd b249 9abe 7602 92be 358d 8cbe
000003d0: 0e1b 82be 7dbd 7cbe 1420 58be 55e6 b1be
000003e0: 4248 78be e8c7 a7be 1925 63be 102a 20be
000003f0: d6b5 51be 6f17 8fbd d993 66be 2216 48be
0.05058266 0.009365388 -0.15890099 -0.12968333 -0.26557752 -0.22290498 0.0045062667 -0.26159468
-0.1027472 0.054661497 -0.1544573 -0.0063566472 -0.025217986 -0.12702554 -0.15605445 -0.068218365
-0.29248923 -0.0818775 0.042020846 -0.07671304 0.020582043 -0.07180443 -0.18359815 -0.17174578
0.03495224 -0.21072221 -0.22244033 0.09366502 -0.04011136 -0.13005266 -0.20693222 -0.2931991
0.0017729403 -0.0978301 3.1209078e-05 -0.28505746 -0.09316527 -0.16510245 -0.21622574 -0.16902758
-0.13411969 -0.004194736 -0.29461706 0.04865521 -0.14435112 -0.2006395 -0.27879527 -0.051630933
-0.086547755 -0.06153341 -0.24459927 -0.10324197 0.051773377 -0.053422686 -0.21866825 -0.10175716
-0.2922347 0.0036322824 -0.04375679 -0.23169304 -0.21996999 -0.27000332 -0.20217158 0.026917191
-0.016426377 0.08540756 -0.22349972 0.055684123 -0.065527804 -0.09825156 -0.0019247391 -0.29530984
0.05572987 0.22100589 -0.14307529 0.20637615 0.010328057 0.014119713 0.17693155 0.14546306
-0.09346562 0.056674603 0.21510428 -0.0108106 0.06910386 -0.27187574 -0.031188872 -0.50316584
-0.35587 0.18817331 -0.0242628 0.52553254 0.13404115 -0.052695353 -0.11564248 -0.00045760465
-0.051643007 0.21435463 0.1545873 0.21813378 0.15100373 -0.029099062 0.19257388 0.02356206
-0.05245387 -0.2109388 0.09951407 0.049377274 -0.05256421 0.07751424 0.19192599 0.18450092
0.16219276 -0.117540985 0.32145855 0.079400405 -0.0419478 0.04118813 0.0716713 -0.058284465
0.35196504 -0.14146309 0.009296792 -0.0959918 -0.047311783 0.21531981 0.028407449 0.22803125
0.0063271476 -0.117426954 -0.15832518 -0.06690525 -0.06922964 -0.21056466 -0.062475722 -0.19692394
-0.15283893 -0.08276641 -0.061494354 -0.27598652 -0.2060333 0.06073376 -0.22569959 0.037713643
-0.059508663 -0.22546272 -0.21963036 -0.10952633 -0.080420926 -0.3060516 0.034628026 -0.2241699
-0.03339092 -0.22294095 -0.179106 -0.27464887 -0.13861375 0.038569644 -0.27383056 -0.15575272
-0.21737456 -0.30026904 -0.09183059 -0.27329123 -0.019018311 -0.20757757 -0.00085245754 -0.26192355
-0.044355657 0.027437149 -0.20637047 -0.012641502 0.0346692 -0.0094144065 -0.11037694 -0.21800193
-0.07474166 -0.21135311 -0.2281293 -0.18162091 -0.2000825 -0.12060829 -0.05492005 -0.20588778
-0.18265666 -0.20306829 -0.18567975 -0.15902746 -0.158842 -0.25926572 -0.060216174 -0.1515918
-0.30751526 -0.109675065 -0.20160797 -0.066341504 0.04458608 -0.09392245 -0.13008055 -0.17495564
-0.13721503 -0.17505653 -0.05782789 -0.07974162 -0.31310162 -0.17531803 -0.06648343 -0.16909933
-0.20670229 -0.16803703 -0.11627865 -0.021539923 0.009801013 -0.06904847 -0.016215289 -0.19105655
-0.27853382 -0.04085842 0.042839687 -0.119061075 -0.32111064 0.017296622 -0.22153793 -0.02875248
0.044419643 -0.2212501 -0.23902988 0.007995332 -0.015805088 -0.23688689 0.022736844 0.008086585
-0.034906402 -0.073679425 -0.26918742 0.047171853 -0.019128665 -0.28671074 -0.19508892 -0.03768327
-0.084152624 -0.3013435 -0.28517503 -0.27451482 -0.25411266 -0.24681659 -0.21105987 -0.34746042
-0.24246314 -0.32769704 -0.2218212 -0.15641046 -0.20479521 -0.069868915 -0.22517337 -0.19539693

bns.0.weight f4 [32]
00000000: acfc 643f 86dc 813f 2587 913f 286c 913f
00000010: 876a 5c3f 83c7 8b3f d67a 9a3f 8110 943f
00000020: b80d 693f 4ebe 993f cde5 953f 427e 6b3f
00000030: 4a22 713f a671 703f d511 813f 0d28 903f
00000040: 9fc5 9b3f 0496 863f 352c a93f e4f4 8a3f
00000050: 73af 743f 2303 8d3f 0132 8a3f ff52 e13f
00000060: 6637 ef3f 31c3 8c3f b1a2 723f 4b9a c63f
00000070: 1503 623f 3294 903f 5086 933f fe4a 933f
0.89448047 1.0145423 1.1369368 1.1361132 0.8610005 1.0920261 1.2068737 1.1567537
0.9103656 1.2011201 1.1710755 0.9198953 0.94192946 0.93923414 1.0083567 1.1262223
1.2169684 1.0514531 1.3216616 1.0855985 0.95580214 1.1016582 1.079651 1.7603453
1.8688781 1.0997068 0.947795 1.5515836 0.8828595 1.1295226 1.1525364 1.1507261

bns.0.bias f4 [32]
00000000: 9057 f0bd db81 ad3d 1842 0f3e bca5 1f3e
00000010: 1d22 88bd c470 d83d a2fe 423e 2494 483e
00000020: 938a 02be b60c 5bbd fb8d 433e 8a08 a6bd
00000030: 5e8a 9fbd fb74 043d 4994 593e 05bd 2e3e
00000040: 8e67 773e 0f01 50bd 1de9 943e 09fd 3a3d
00000050: cc09 9fbd fc9a d03d 1bf5 a63d ff9d 8b3e
00000060: adc4 4b3f bad6 efbd 6f0b b1bd b629 e23d
00000070: 2f2c f3bd 7a26 343e 75cf e93d 3fb2 3b3e
-0.11735451 0.084720336 0.13990057 0.15590566 -0.066471316 0.10568383 0.19042447 0.19587761
-0.12748174 -0.05347892 0.1909713 -0.081070974 -0.07790063 0.032338124 0.21247973 0.17064293
0.24160597 -0.05078226 0.290841 0.04565147 -0.077655405 0.10185811 0.08152219 0.2726898
0.7959698 -0.11710878 -0.08644759 0.11043112 -0.11873662 0.17592803 0.114165224 0.18329714

bns.0.running_mean f4 [32]
00000000: adae a140 adab 32c1 03ca 1f41 3a41 5941
00000010: c092 9ac0 ef70 173f 0cfa a941 029d 5041
00000020: 74ae da40 8e14 b73e d665 8b41 71b1 ee40
00000030: 45bd 3641 dabf 7640 1ef9 65c1 8d20 fac0
00000040: 8420 bc3f 5961 1941 e22e 3ac0 7004 4d41
00000050: ac3b c6be 93a4 8a41 7fdf ba40 4982 d33e
00000060: 1767 e6bf 5baf ecbf 2762 2241 9c04 a0bf
00000070: 3040 efc1 c437 3d41 befb c340 8f6b 5c41
5.0525727 -11.166913 9.986819 13.578424 -4.830414 0.591567 21.247093 13.038332
6.8337955 0.3575787 17.424725 7.4591603 11.421208 3.8554597 -14.37332 -7.8164735
1.4697423 9.5862665 -2.9091115 12.813583 -0.387174 17.330359 5.839782 0.41310337
-1.800021 -1.8491014 10.148963 -1.2501407 -29.906342 11.826115 6.1244802 13.776259

bns.0.running_var f4 [32]
00000000: fa10 0843 7056 d942 265b 4f43 5807 1243
00000010: c242 1b43 922e 1f43 d7a5 c542 9208 8842
00000020: 7856 0443 1772 2b40 28e7 1d43 5997 0f43
00000030: 91fb 1443 7ed0 1d43 429f 3543 256f f042
00000040: 228a 8541 6b73 1942 df15 9e41 f34b 7443
00000050: 5291 1b43 f375 4643 d1e7 3943 b3eb 0540
00000060: b825 3740 366e d440 58e1 0043 1005 8140
00000070: b901 3143 8f7a c642 b4f6 1543 e9c5 d042
136.06631 108.66882 207.35605 146.02869 155.26077 159.18192 98.823906 68.01674
132.33777 2.6788385 157.90295 143.5912 148.98268 157.81442 181.6221 120.21708
16.692448 38.362713 19.76068 244.29668 155.56766 198.46074 185.90553 2.092511
2.8616772 6.6384535 128.88025 4.031868 177.00673 99.23937 149.96368 104.38654
