saved/cora_SAGE_s3.pt (torch, 376325 bytes, 10 tensors)

convs.0.lin_l.weight f4 [32, 1443]
-0.06311704 -0.1421335 -0.15521844 0.0055832355 0.06582372 -0.12607317 0.07016452 -0.056474987
0.096459635 0.058833856 -0.023799967 0.12736365 -0.15547255 0.070920914 -0.11396279 -0.04154822
0.13782635 -0.034074213 -0.012229124 0.044015776 0.023296533 0.07568798 0.22697742 0.11646265
0.114076585 0.02559145 0.087450944 0.013521823 0.03806848 -0.068528764 -0.06310383 0.12238549
0.08120741 -0.025824433 -0.059471138 -0.030590959 -0.034176275 -0.017872967 -0.03720775 -0.098943025
-0.040155113 -0.013344034 0.027256204 0.13298555 0.04018978 -0.022540798 -0.09531755 0.10168199
-0.08954632 -0.092981756 0.0014481494 0.0031612867 -0.025062742 0.095837615 0.0899445 0.07029322
-0.023453174 -0.06973706 -0.12356762 0.025996894 -0.07533568 -0.054172568 -0.07096761 -0.052539725
0.06514592 -0.019913662 0.016258394 0.002483125 -0.14874968 -0.019423569 -0.06591398 -0.13818362
-0.091039725 0.02790204 0.02248375 -0.0020787506 -0.05007777 -0.017496347 -0.08855543 0.094403215
-0.00046065904 -0.0076375147 0.05231091 0.058185697 -0.038384162 0.0130564105 0.06286099 -0.09104745
-0.078664765 -0.12334403 -0.07730002 0.011566344 0.05494621 0.0052390313 -0.036089223 0.07538356
0.11092667 -0.052598733 0.050558265 0.0075095906 -0.030883107 0.014353416 -0.0844365 -0.010049324
0.06798742 0.03836937 -0.027844317 0.06924588 -0.024854733 -0.10454616 -0.08867924 -0.13880259
0.117367916 0.06220917 -0.13927811 -0.09803308 -0.007097096 0.09195324 0.029685045 0.042781584
-0.15121295 -0.26147082 0.02991136 0.16355568 -0.010119055 0.034707557 -0.06532451 0.03872479
0.06975184 0.076554336 0.032199204 0.07525608 0.041590016 0.06683666 -0.112952515 0.050280232
0.096305795 0.22073728 0.06899318 -0.002474709 -0.056189276 0.069524266 -0.04393404 0.012759036
0.051326383 -0.05183813 -0.12652329 -0.15317218 -0.03552385 -0.046101045 -0.057269156 -0.12206787
-0.09518484 0.02367576 -0.122320324 -0.06527844 -0.07840255 -0.020426767 0.016490277 -0.051088136
-0.03356352 -0.06911018 -0.12264352 -0.036746282 -0.051978186 -0.102740034 -0.012531869 -0.07645753
0.04951712 -0.06969945 0.093794435 -0.038173515 -0.027773889 0.07157054 -0.12454883 -0.14976086
-0.06063853 -0.023565307 -0.017036146 0.06039445 -0.020282654 -0.004908485 0.17247514 0.036012854
0.13956888 -0.031140225 0.13597043 0.049472112 -0.011154286 0.11123363 0.039058644 -0.023685917
-0.01772895 0.02922463 -0.025581239 -0.15230465 -0.064034104 -0.0036638163 0.123745054 0.055224735
-0.15214553 -0.15727033 0.102439895 -0.015682727 0.058190577 -0.09249063 -0.097889476 -0.07194493
0.049800776 0.046783388 -0.060694147 -0.10575584 0.10346183 -0.029321436 -0.09077039 0.053265326
0.017814163 0.06316006 0.014196498 -0.0071943603 -0.014156792 -0.021977127 -0.074263185 0.05646086
0.040311646 -0.030482253 0.0017867925 0.010023086 0.046434067 -0.01708448 0.09107011 -0.011324037
-0.08780122 0.12528537 0.08556806 0.069069274 0.021987658 -0.02627762 -0.04187971 -0.20902379
-0.056146987 0.1023224 -0.014638221 0.033469014 0.14651203 0.1368968 -0.17988625 0.021724671
-0.06910753 -0.097663105 0.14359564 0.025133444 -0.021625565 0.21506433 0.00011277571 -0.13694277
00000000: 8243 81bd 728b 11be 95f1 1ebe 93f3 b63b
00000010: 96ce 863d 5319 01be 6ab2 8f3d 5152 67bd
00000020: a18c c53d c5fb 703d 26f8 c2bc 9e6b 023e
00000030: 3234 1fbe fc3e 913d 5365 e9bd 772e 2abd
00000040: 5a22 0d3e 6791 0bbd aa5c 48bc e349 343d
00000050: 5fd8 be3c 4d02 9b3d c56c 683e f883 ee3d
00000060: fca0 e93d 29a5 d13c 7b19 b33d a38a 5d3c
00000070: b2ed 1b3d cf58 8cbd 953c 81bd 3ea5 fa3d
00000080: 1250 a63d c38d d3bc 0298 73bd e499 fabc
00000090: 6cfc 0bbd 546a 92bc 2767 18bd a4a2 cabd
000000a0: b079 24bd efa0 5abc 6748 df3c 5d2d 083e
000000b0: 0a9e 243d 7ba7 b8bc d935 c3bd a63e d03d
000000c0: 1064 b7bd 386d bebd d5cf bd3a 972d 4f3b
000000d0: 6150 cdbc 8346 c43d d234 b83d e4f5 8f3d
000000e0: df20 c0bc 4ed2 8ebd 0511 fdbd 70f7 d43c
000000f0: 9849 9abd 0ee4 5dbd 7757 91bd e533 57bd
00000100: 396b 853d fa21 a3bc 5330 853c edbb 223b
00000110: d651 18be 2d1e 9fbc e9fd 86bd 0280 0dbe
00000120: 0973 babd d292 e43c d72f b83c a63b 08bb
00000130: 591e 4dbd 8054 8fbc 8d5c b5bd 7956 c13d
00000140: 9c84 f1b9 1e44 fabb f743 563d 2054 6e3d
00000150: b638 1dbd 8eea 553c 43bd 803d 1677 babd
00000160: fe1a a1bd cb9b fcbd 794f 9ebd c380 3d3c
00000170: 470f 613d 2eac ab3b 4bd2 13bd b262 9a3d
00000180: 862d e33d c571 57bd 2f16 4f3d 0313 f63b
00000190: 92fe fcbc 972a 6b3c 0bed acbd eba5 24bc
000001a0: fd3c 8b3d 3329 1d3d c419 e4bc c9d0 8d3d
000001b0: 279c cbbc 4c1c d6bd 769d b5bd 4422 0ebe
000001c0: 975e f03d 0bcf 7e3d ec9e 0ebe 91c5 c8bd
000001d0: c28e e8bb fb51 bc3d 0d2e f33c be3b 2f3d
000001e0: 91d7 1abe 81df 85be ab08 f53c 247b 273e
000001f0: 65ca 25bc 8329 0e3d dbc8 85bd e39d 1e3d
00000200: 0dda 8e3d 85c8 9c3d 50e3 033d dc1f 9a3d
00000210: 4b5a 2a3d a9e1 883d a653 e7bd a5f2 4d3d
00000220: f93b c53d f408 623e 4c4c 8d3d ba2e 22bb
00000230: ba26 66bd bd62 8e3d 2ef4 33bd 470b 513c
00000240: 9d3b 523d 3854 54bd 528f 01be 2bd9 1cbe
00000250: 7581 11bd 73d4 3cbd 1093 6abd b8fe f9bd
00000260: 45f0 c2bd abf3 c13c 1483 fabd b4b0 85bd
00000270: 8491 a0bd 0956 a7bc 9e16 873c cb41 51bd
00000280: e779 09bd a389 8dbd 872c fbbd 4583 16bd
00000290: 14e7 54bd 5e69 d2bd 7852 4dbc c495 9cbd
000002a0: 77d2 4a3d 96be 8ebd 4c17 c03d d55b 1cbd
000002b0: 1186 e3bc 9393 923d 7513 ffbd e95a 19be
000002c0: 1b60 78bd 080c c1bc 638f 8bbc 2c60 773d
000002d0: cf27 a6bc 5bd7 a0bb 539d 303e 3782 133d
000002e0: 25eb 0e3e c919 ffbc d53b 0b3e 45a3 4a3d
000002f0: 77c0 36bc 75ce e33d f5fb 1f3d f808 c2bc
00000300: 4e3c 91bc 7e68 ef3c bf8f d1bc c0f5 1bbe
00000310: 5024 83bd a31c 70bb 0c6e fd3d 5533 623d
00000320: 0acc 1bbe 790b 21be 02cc d13d 1079 80bc
00000330: 3e59 6e3d ba6b bdbd 477a c8bd dd57 93bd
00000340: e6fb 4b3d f09f 3f3d 6d9a 78bd 8596 d8bd
00000350: cce3 d33d 8233 f0bc d4e5 b9bd be2c 5a3d
00000360: 02ef 913c 105a 813d 6e98 683c abbe ebbb
00000370: e4f1 67bc 6009 b4bc 4c17 98bd 8143 673d
00000380: d31d 253d ebb5 f9bc cf32 ea3a df37 243c
00000390: a631 3e3d c0f4 8bbc f782 ba3d 7488 39bc
000003a0: 20d1 b3bd cf4a 003e 4f3e af3d 3174 8d3d
000003b0: 761f b43c 2a44 d7bc 0f8a 2bbd 550a 56be
000003c0: 62fa 65bd 688e d13d 26d5 6fbc ce16 093d
000003d0: 4007 163e ad2e 0c3e 1a34 38be f0f7 b13c
000003e0: 4088 8dbd 9803 c8bd bc0a 133e a7e4 cd3c
000003f0: 1928 b1bc d339 5c3e 0082 ec38 ba3a 0cbe

convs.0.lin_l.bias f4 [32]
-0.028226955 -0.0031701527 0.07586847 0.035459574 0.07466286 -0.012109564 -0.07445744 0.061698567
-0.065796696 0.033607237 0.09216476 -0.0025095958 0.091165856 0.023318442 0.0002796594 0.12059958
0.016808845 -0.011355941 -0.031410135 -0.04874105 -0.075574726 0.069439344 -0.13019848 0.0050165285
-0.13859667 0.049779683 0.017979933 -0.0054404954 -0.014712073 -0.11511039 -0.04214336 -0.098978914
00000000: 373c e7bc 56c2 4fbb ee60 9b3d 0f3e 113d
00000010: d7e8 983d 3167 46bc 247d 98bd a3b7 7c3d
00000020: 6bc0 86bd bea7 093d e1c0 bc3d 0878 24bb
00000030: 2ab5 ba3d 5106 bf3c 409f 9239 eafc f63d
00000040: b4b2 893c 450e 3abc eaa7 00bd b2a4 47bd
00000050: ecc6 9abd 3736 8e3d c052 05be b161 a43b
00000060: 49ec 0dbe c8e5 4b3d a74a 933c 2f46 b2bb
00000070: e80a 71bc ffbe ebbd 849e 2cbd 75b5 cabd

convs.0.lin_r.weight f4 [32, 1443]
-0.10582391 0.0024245617 0.050101608 -0.05668834 0.105542995 -0.050673183 0.04357569 -0.21163109
0.06647241 0.08075579 -0.079535894 0.17628987 -0.05573072 -0.12263288 0.12898836 0.2097917
0.03383905 -0.05323438 -0.006233752 0.013444015 0.050857943 -0.013210464 -0.0637361 -0.07022623
0.06818363 -0.06563145 0.028810889 -0.035172172 0.010565732 -0.012497506 0.038259093 0.09856761
0.030858936 -0.020264769 0.060368262 0.20885725 0.011779046 -0.019115757 0.011055829 0.059803925
-0.03872879 0.03433824 0.079447515 -0.10675995 0.039067317 0.03547096 -0.06630014 -0.019342966
-0.09652604 -0.109319046 0.06074388 -0.0066548865 -0.10695924 -0.18360357 -0.1892138 0.21364696
0.005491311 -0.104283586 -0.05353167 0.1506911 0.14372283 -0.05809034 0.110130645 0.0010044663
0.07633597 -0.070283435 0.09286219 -0.0737512 -0.1754774 -0.02803467 0.08882072 -0.03315642
-0.14863458 -0.05991955 0.02323503 -0.0678978 0.020503685 0.09388317 0.07148105 -0.061172377
0.12325287 0.15363295 0.11740604 0.09684168 0.021033153 -0.068769604 -0.020434402 -0.020069873
-0.13004339 -0.095298074 -0.048240535 0.044045612 0.0147202825 -0.036043704 0.06849395 0.21521102
0.21370335 0.033064943 0.057694633 0.02841161 -0.037333585 -0.055089902 -0.089537784 0.07885327
0.2143943 0.07021505 0.11446445 0.05178618 -0.07442511 0.12002816 -0.12869903 -0.06373089
-0.07372459 0.033759747 -0.07064126 -0.042662654 0.02532418 -0.11559188 -0.08233671 0.119876124
0.0152069265 0.08171322 -0.12335144 0.046348985 0.029387802 -0.052754037 0.007986334 -0.15748844
0.11341279 0.08694448 0.06645903 0.098735094 0.017942153 0.07599334 -0.08701945 0.0490262
-0.10262198 -0.008799428 0.1740526 0.1304458 -0.044670347 0.038665142 -0.09461115 -0.007979275
0.06060737 -0.07498031 0.08996526 0.05502992 -0.15936938 -0.04008958 -0.0959589 0.20535699
0.13688558 0.041165438 0.023816554 0.03330083 0.25267246 0.015874913 -0.01067616 -0.00044454937
-0.15692368 -0.09826883 -0.09596376 -0.04546674 -0.011702765 0.0043757893 -0.15496449 -0.05977875
-0.17026234 0.029971296 0.002632919 -0.0942403 -0.04347636 0.068883546 -0.11005992 0.0999149
-0.0675429 0.06208957 -0.064517185 -0.023958579 -0.3136588 -0.13006385 0.099568 0.1166457
0.07486909 -0.053499304 0.099384256 -0.08876154 -0.03663597 0.18476595 -0.039965786 0.14854388
-0.0997368 0.015333102 0.05521427 -0.18221876 -0.104778476 0.099818125 -0.07232695 -0.08786068
-0.03375859 0.0118031455 0.106929734 -0.02146093 0.08583918 0.085050255 -0.046199664 0.09081257
0.15177295 -0.010178191 -0.026106704 -0.06380591 0.0179276 -0.12082252 -0.112220675 -0.082266666
0.06928133 0.066861525 -0.027827775 0.09470311 0.07508991 0.1568529 -0.03020334 0.0183069
0.22415896 -0.12962702 -0.04106211 0.051452287 0.0031401191 -0.058530122 0.11594797 0.07431257
-0.00635341 -0.08620272 0.007684426 -0.057622224 -0.124601796 -0.021127807 -0.059015 -0.12162113
-0.075129725 0.10862885 -0.12989576 0.12877375 0.023709374 -0.087574184 -0.06833489 -0.05790859
-0.15629971 -0.04922951 0.07620331 -0.03133029 -0.037477303 -0.025268314 0.052753244 -0.011312894
00000000: 35ba d8bd 65e5 1e3b 5837 4d3d 0832 68bd
00000010: ed26 d83d af8e 4fbd 6c7c 323d d2b5 58be
00000020: b022 883d 4b63 a53d b7e3 a2bd 5585 343e
00000030: e545 64bd f326 fbbd 8615 043e a3d3 563e
00000040: d19a 0a3d 4b0c 5abd 8044 ccbb 4944 5c3c
00000050: 6b50 503d b470 58bc 1388 82bd c5d2 8fbd
00000060: dca3 8b3d c869 86bd d004 ec3c b210 10bd
00000070: e41b 2d3c 57c2 4cbc 91b5 1c3d d1dd c93d
00000080: e1cb fc3c 4d02 a6bc b644 773d adde 553e
00000090: e6fc 403c a698 9cbc 8223 353c f6f4 743d
000000a0: 14a2 1ebd 41a6 0c3d 61b5 a23d f6a4 dabd
000000b0: 0d05 203d ff49 113d 5ec8 87bd 2475 9ebc
000000c0: 72af c5bd aae2 dfbd 93ce 783d 3c11 dabb
000000d0: 720d dbbd 9302 3cbe 43c1 41be 45c6 5a3e
000000e0: 75f0 b33b a292 d5bd 0644 5bbd c54e 1a3e
000000f0: 142c 133e 23f0 6dbd 2d8c e13d 4ca8 833a
00000100: 0856 9c3d c3f0 8fbd 882e be3d df0a 97bd
00000110: 59b0 33be f7a8 e5bc a3e7 b53d 07cf 07bd
00000120: aa33 18be 346e 75bd 6457 be3c 000e 8bbd
00000130: 58f7 a73c d245 c03d a864 923d e38f 7abd
00000140: 006c fc3d f551 1d3e 9472 f03d ee54 c63d
00000150: b84d ac3c 14d7 8cbd 0c66 a7bc 9369 a4bc
00000160: 182a 05be a32b c3bd de97 45bd 2c69 343d
00000170: 572d 713c 90a2 13bd 8e46 8c3d 4760 5c3e
00000180: 0dd5 5a3e 1b6f 073d 3551 6c3d 77bf e83c
00000190: 1aeb 18bd f3a5 61bd 965f b7bd d37d a13d
000001a0: 2e8a 5b3e e8cc 8f3d 566c ea3d bf1d 543d
000001b0: 316c 98bd 53d1 f53d aec9 03be 5785 82bd
000001c0: ebfc 96bd a947 0a3d 5dac 90bd 09bf 2ebd
000001d0: a874 cf3c 70bb ecbd 26a0 a8bd 9d81 f53d
000001e0: 7926 793c 4359 a73d ae9f fcbd 6fd8 3d3d
000001f0: b0be f03c 9e14 58bd 1dd9 023c a644 21be
00000200: f744 e83d f30f b23d ac1b 883d a035 ca3d
00000210: 6cfb 923c 65a2 9b3d 4137 b2bd b2cf 483d
00000220: 792b d2bd 7a2b 10bc d83a 323e 9593 053e
00000230: 41f8 36bd 575f 1e3d 7ec3 c1bd 81bb 02bc
00000240: 6f3f 783d 478f 99bd b53f b83d 0e67 613d
00000250: ba31 23be f934 24bd 1a86 c4bd 1a49 523e
00000260: bc2b 0c3e 179d 283d ef1a c33c 7366 083d
00000270: 495e 813e 1b0c 823c 10eb 2ebc 6812 e9b9
00000280: 9ab0 20be 2b41 c9bd a688 c4bd 553b 3abd
00000290: f4bc 3fbc c862 8f3b 03af 1ebe 90da 74bd
000002a0: 4059 2ebe 5d86 f53c 0d8d 2c3b 0f01 c1bd
000002b0: 4514 32bd d112 8d3d 1867 e1bd 2fa0 cc3d
000002c0: ef53 8abd a251 7e3d 9621 84bd c844 c4bc
000002d0: e397 a0be 752f 05be 4fea cb3d f1e3 ee3d
000002e0: f754 993d 1622 5bbd f989 cb3d 9cc8 b5bd
000002f0: 990f 16bd 4933 3d3e 2ab3 23bd e31b 183e
00000300: cf42 ccbd b137 7b3c 5c28 623d 8e97 3abe
00000310: 1996 d6bd 726d cc3d 2720 94bd 4df0 b3bd
00000320: 7346 0abd fb61 413c fafd da3d d5ce afbc
00000330: 74cc af3d d42e ae3d dc3b 3dbd f1fb b93d
00000340: 5e6a 1b3e 6dc2 26bc badd d5bc acac 82bd
00000350: e7dc 923c cc71 f7bd f4d3 e5bd 6d7b a8bd
00000360: 5fe3 8d3d b2ee 883d 13f7 e3bc b4f3 c13d
00000370: bdc8 993d 0c9e 203e ff6c f7bc 5af8 953c
00000380: ed89 653e f2bc 04be be30 28bd a2bf 523d
00000390: 75ca 4d3b 48bd 6fbd 2176 ed3d 3031 983d
000003a0: 4430 d0bb 0d8b b0bd a3cd fb3b 4805 6cbd
000003b0: 3a2f ffbd 3914 adbc b6b9 71bd 8014 f9bd
000003c0: 9ddd 99bd cd78 de3d 6503 05be 44dd 033e
000003d0: 293a c23c 185a b3bd 2af3 8bbd 8f31 6dbd
000003e0: 080d 20be e2a4 49bd 7b10 9c3d 3154 00bd
000003f0: cd81 19bd 7fff cebc c913 583d b759 39bc

convs.1.lin_l.weight f4 [9, 32]
-0.40497607 -0.06690688 -0.27843 0.18731023 0.12095946 0.32109064 0.1289458 -0.417881
0.26445314 0.101334564 -0.3050136 0.35795146 -0.2885656 0.022357337 -0.36248037 0.07694826
-0.102585465 -0.25307262 0.12293514 -0.27929738 -0.37208188 -0.27566916 -0.13969788 0.19918686
0.20195046 -0.28026065 -0.31931046 -0.34438097 0.076195374 -0.36917734 -0.12254008 -0.25878823
0.13228469 -0.1387402 -0.3389815 -0.2346944 0.35056582 -0.28268695 -0.12123822 0.15364577
-0.25075614 -0.09561531 -0.27874094 -0.11517184 -0.07658954 -0.042442527 0.10299347 -0.028607437
0.08434297 -0.12836719 -0.15492918 -0.14466989 -0.30944073 0.09530083 -0.24549815 -0.23361401
-0.064404905 -0.15097047 0.17697783 0.040886175 -0.12580386 -0.2535759 0.18302874 -0.02050143
-0.031315386 0.017045729 0.2993789 0.15205942 0.038640697 0.20176877 -0.011104468 0.108339414
-0.038867753 0.043559447 -0.017100213 -0.0036711972 0.28750253 -0.0850227 0.18276173 0.2191201
-0.14559378 0.2440214 -0.097769864 -0.13853894 0.17169118 0.20841385 0.11393857 0.256326
-0.06975228 0.1622692 0.02905254 -0.12213647 -0.046934627 -0.012655921 -0.09195794 0.124092735
0.43034264 -0.19354898 0.10873162 -0.2980574 -0.41938964 0.30217695 -0.34211335 -0.3427126
0.46169463 0.1992041 -0.33436662 -0.08682053 -0.122990176 0.35977924 -0.1751755 -0.083673865
0.05544568 -0.333461 -0.0350969 0.19333336 -0.015479736 -0.31711924 0.2840442 -0.13960439
-0.16659209 0.12011619 0.30141574 0.040726095 -0.11013738 0.09684996 0.41175243 -0.16047645
-0.18022174 -0.21075517 -0.15254061 0.16506976 0.057913035 -0.15318322 0.28573498 -0.080418885
-0.21442544 -0.14132282 0.020666124 -0.30010417 -0.20868203 -0.24653175 -0.1731489 -0.09697271
0.30663446 -0.116259985 0.05928937 -0.08346565 0.15433837 -0.28167582 0.19896227 -0.19461761
0.25515306 0.003096489 0.20236854 0.18205506 -0.07144047 -0.28017673 -0.17164044 -0.03863502
-0.30149972 -0.20475744 0.05944789 -0.21131873 0.11606407 0.23681365 -0.18834914 -0.1265669
-0.09564199 -0.34042865 -0.3355823 -0.2336675 0.15618359 0.21173385 0.124912865 -0.07371705
-0.2056902 -0.33441985 -0.2555292 0.32371712 -0.20473394 -0.21520795 -0.19796805 -0.23279297
-0.22148612 0.018567603 0.13339767 0.067434385 -0.25388137 0.08445521 0.040063415 -0.36290205
-0.2747549 -0.106462486 -0.04687021 -0.19062056 -0.2198103 0.012719356 -0.018734237 -0.20644924
0.01968594 0.03986024 -0.12225628 0.023478191 -0.30660656 -0.25102127 -0.32782772 -0.12533528
-0.15164208 -0.2413066 -0.2834782 -0.28672317 -0.21104169 0.034039058 -0.3292958 -0.078506984
-0.2742811 -0.24433246 0.05734898 -0.017119203 -0.08030534 -0.007178559 -0.28228858 -0.108139314
-0.264579 0.2787258 -0.010182335 -0.24826023 -0.24385858 -0.2766142 -0.23225306 -0.27065966
-0.10637888 -0.26737 0.30339134 0.0014576243 -0.048954204 0.11495962 -0.2599209 -0.006005505
0.1661657 -0.17100559 0.22465225 0.30028367 0.20729534 -0.18557526 -0.18308541 0.0016113484
-0.26534253 -0.20059471 -0.19921975 0.3921447 0.37567204 -0.30237713 -0.10233263 0.17424318
00000000: 0659 cfbe 7906 89bd 618e 8ebe 41ce 3f3e
00000010: 98b9 f73d fe65 a43e 5e0a 043e 80f4 d5be
00000020: 6766 873e 7f88 cf3d be2a 9cbe 6a45 b73e
00000030: dfbe 93be bc26 b73c 0797 b9be 0d97 9d3d
00000040: 5418 d2bd bc92 81be 6bc5 fb3d 1100 8fbe
00000050: 8481 bebe 8224 8dbe f60c 0fbe a4f7 4b3e
00000060: 1acc 4e3e 537e 8fbe a97c a3be b452 b0be
00000070: 520c 9c3d d004 bdbe 4bf6 fabd e47f 84be
00000080: a375 073e e911 0ebe fc8e adbe bb53 70be
00000090: 5d7d b33e 58bc 90be be4b f8bd 5155 1d3e
000000a0: 1c63 80be f6d1 c3bd 22b7 8ebe 37df ebbd
000000b0: fada 9cbd 37d8 2dbd 3eee d23d 255a eabc
000000c0: 02bc ac3d b072 03be c1a5 1ebe 5824 14be
000000d0: 046f 9ebe 152d c33d de63 7bbe 8338 6fbe
000000e0: b8e6 83bd 0198 1abe ad39 353e 4378 273d
000000f0: bad2 00be b3d4 81be e36b 3b3e 9df2 a7bc
00000100: 9044 00bd 7ca3 8b3c 3148 993e 77b5 1b3e
00000110: b545 1e3d 799c 4e3e 84ef 35bc 0ee1 dd3d
00000120: cb33 1fbd 646b 323d bf15 8cbc 7898 70bb
00000130: 8833 933e 6220 aebd e425 3b3e 0561 603e
00000140: 8916 15be bfe0 793e 913b c8bd 27dd 0dbe
00000150: d0cf 2f3e 716a 553e a058 e93d 293d 833e
00000160: 49da 8ebd e629 263e 98ff ed3c b022 fabd
00000170: 863e 40bd c85a 4fbc 7254 bcbd 5524 fe3d
00000180: df55 dc3e b431 46be afae de3d fb9a 98be
00000190: 3dba d6be f0b6 9a3e 7b29 afbe 0778 afbe
000001a0: 3d63 ec3e 29fc 4b3e 1a32 abbe f6ce b1bd
000001b0: 46e2 fbbd fc34 b83e 3561 33be 345d abbd
000001c0: 021b 633d 66bb aabe c4c1 0fbd 2ef9 453e
000001d0: b89e 7dbc 745d a2be 3e6e 913e 74f4 0ebe
000001e0: 1e97 2abe 7aff f53d 2a53 9a3e 68d0 263d
000001f0: b58f e1bd 4659 c63d 37d1 d23e f053 24be
00000200: 0c8c 38be 34d0 57be 9b33 1cbe 0c08 293e
00000210: 3836 6d3d 10dc 1cbe db4b 923e a8b2 a4bd
00000220: 5892 5bbe eeb6 10be 014c a93c 41a7 99be
00000230: beb0 55be d272 7cbe f24d 31be a199 c6bd
00000240: 31ff 9c3e b719 eebd 69d9 723d 0af0 aabd
00000250: e10a 1e3e d037 90be c4bc 4b3e d749 47be
00000260: 6ca3 823e 77ee 4a3b b339 4f3e a46c 3a3e
00000270: 624f 92bd 5373 8fbe 83c2 2fbe c13f 1ebd
00000280: 2c5e 9abe efab 51be a17f 733d f063 58be
00000290: 00b3 ed3d 477f 723e 99de 40be c19a 01be
000002a0: f3df c3bd aa4c aebe 71d1 abbe 8846 6fbe
000002b0: 97ee 1f3e c2d0 583e 51d2 ff3d f7f8 96bd
000002c0: 74a0 52be 1439 abbe b9d4 82be 40be a53e
000002d0: c6a5 51be 795f 5cbe 23b8 4abe 4861 6ebe
000002e0: 42cd 62be 161b 983c 6699 083e 0a1b 8a3d
000002f0: bdfc 81be daf6 ac3d 8919 243d 4cce b9be
00000300: adac 8cbe 0109 dabd fafa 3fbd 0932 43be
00000310: f415 61be d964 503c 8b78 99bc 6e67 53be
00000320: 6944 a13c 7e44 233d 8061 fabd 5655 c03c
00000330: 89fb 9cbe dc85 80be 09d9 a7be e457 00be
00000340: 1048 1bbe 1419 77be 0e24 91be 61cd 92be
00000350: 501b 58be 8a6c 0b3d 7699 a8be 45c8 a0bd
00000360: 936e 8cbe 4a32 7abe c4e6 6a3d 923d 8cbc
00000370: 2077 a4bd 1e3a ebbb 2188 90be 2578 ddbd
00000380: e676 87be 26b5 8e3e cfd3 26bc ee37 7ebe
00000390: 10b6 79be 60a0 8dbe bfd3 6dbe e793 8abe
000003a0: 2cdd d9bd b8e4 88be 1c56 9b3e c10d bf3a
000003b0: 3484 48bd f36f eb3d 5a14 85be d4c9 c4bb
000003c0: 5727 2a3e 171c 2fbe 3d0b 663e c8be 993e
000003d0: 3b45 543e 7107 3ebe be7a 3bbe e133 d33a
000003e0: fada 87be b368 4dbe 4300 4cbe 31c7 c83e
000003f0: 1658 c03e 2dd1 9abe c593 d1bd ce6c 323e

convs.1.lin_l.bias f4 [9]
0.09139833 0.11903483 -0.04156405 -0.011792091 0.083226606 -0.049837347 -0.10880423 -0.20431216
-0.120424256
00000000: 0c2f bb3d 88c8 f33d 113f 2abd 9d33 41bc
00000010: b672 aa3d 3f22 4cbd c1d4 debd 3537 51be
00000020: fea0 f6bd

convs.1.lin_r.weight f4 [9, 32]
-0.28091028 0.08501344 -0.18044351 -0.42378587 0.07637044 0.23981546 0.3772703 -0.41938987
0.28859746 0.3634561 -0.24543893 0.3867192 -0.389622 -0.061002444 0.15460823 -0.34368992
0.39312676 -0.27549112 0.3948084 0.26870906 0.25886327 -0.16875622 -0.37771904 0.4024086
0.12677933 0.10620595 -0.44999453 -0.34851348 0.3609945 -0.400852 -0.28167975 -0.32735437
-0.021157498 -0.07944261 0.05022598 -0.18703496 0.29777923 -0.21003775 -0.015183284 -0.2447432
-0.1286753 -0.08624825 -0.17132041 -0.007877645 -0.20158905 -0.28749958 -0.33183286 -0.29489803
-0.2629357 -0.13474946 -0.2861817 0.16399243 -0.18427077 -0.11716334 -0.27519867 0.08846657
0.16168068 -0.024900367 -0.32317472 0.10590181 -0.1695867 -0.29858527 0.16259195 -0.069933765
0.110451914 -0.12403554 0.2355119 0.2519916 0.006863627 -0.046305075 0.017519645 0.34633657
-0.104265034 0.14366426 0.304896 0.12615898 0.1498728 0.11010812 0.22587958 0.31781065
-0.011786604 0.24619351 0.14836153 -0.16626732 -0.16901852 0.3360928 -0.18754706 0.06276185
-0.11616252 0.31603122 0.12704934 -0.15000261 -0.06775214 0.014312464 -0.15539052 -0.25616747
0.35434687 -0.30051452 -0.3589482 -0.28167203 -0.43123826 0.14684193 -0.018988393 0.0272734
0.24400726 -0.30447114 0.06454463 -0.25942978 -0.36257672 0.31478706 -0.095186315 -0.28121176
-0.33090228 0.04122888 -0.37049827 0.3364223 0.2863601 -0.2755676 0.4233206 -0.36208996
-0.42281887 -0.20544297 -0.33245695 -0.31497222 -0.12787451 0.4554502 0.41306552 0.0009679668
-0.34251463 -0.19943962 -0.097029336 0.22564022 -0.27938944 -0.26797432 0.1829818 -0.2939812
-0.24333556 0.2573171 -0.0825336 -0.06452958 0.06525825 -0.36923873 -0.20646816 0.09209031
0.33631054 0.005095726 -0.32164145 -0.000119621734 -0.3207138 -0.18440564 0.31043226 -0.34297657
0.35246074 -0.30768117 0.2922446 -0.14132552 -0.026567746 0.12590171 0.2575641 0.23490663
0.25909644 0.29476503 -0.1158842 -0.23611653 -0.014189822 0.22804447 -0.20447691 -0.07052136
-0.3636817 -0.26297504 -0.35002407 -0.17690517 -0.31539005 -0.20945917 0.115506075 -0.11818406
0.025470348 -0.011108447 -0.32671276 0.37427863 0.28760996 -0.044431392 -0.15920636 -0.06756153
0.2785086 -0.37416437 0.3681883 0.021014318 -0.19837992 0.022013964 -0.2910324 -0.2778641
0.011424568 -0.16570495 -0.18058436 -0.11877318 -0.18606737 -0.06782606 -0.18329583 -0.17280707
0.028376197 -0.07594959 -0.2551858 -0.099212475 -0.04021893 -0.08450929 -0.25921968 -0.22446759
-0.023595456 -0.18305968 -0.32447758 -0.104953885 -0.046986338 -0.10657403 0.011477216 -0.25225466
-0.17412046 -0.29335466 -0.15899512 -0.16769429 -0.021309586 -0.29126054 -0.20072095 0.02674621
-0.1966671 0.37117127 -0.24009301 -0.3863786 -0.26597518 -0.14281373 -0.25647587 -0.21082067
-0.12412872 -0.29390708 0.34100685 -0.1141498 -0.17651421 -0.3990849 -0.18384537 0.29521376
0.32983053 -0.15840793 0.1596503 -0.31476736 0.43986896 -0.13952625 -0.09412455 0.47404006
-0.23871905 -0.25946108 -0.34679428 0.31588423 0.28288403 -0.2866032 -0.11466902 0.3954075
00000000: 79d3 8fbe 871b ae3d 2fc6 38be 76fa d8be
00000010: 1b68 9c3d 2f92 753e 9329 c13e 45ba d6be
00000020: 0cc3 933e eb16 ba3e 5854 7bbe 0f00 c63e
00000030: 897c c7be b3dd 79bd 9f51 1e3e 20f8 afbe
00000040: e947 c93e 2c0d 8dbe 5424 ca3e 3c94 893e
00000050: ba89 843e 6ece 2cbe 6464 c1be 8008 ce3e
00000060: 71d2 013e 8182 d93d af65 e6be 5c70 b2be
00000070: 45d4 b83e 793c cdbe 5438 90be fe9a a7be
00000080: 7d52 adbc cfb2 a2bd c2b9 4d3d 1886 3fbe
00000090: 8576 983e 2314 57be 4fc3 78bc f69d 7abe
000000a0: 75c3 03be eca2 b0bd 9e6e 2fbe 3d11 01bc
000000b0: 5c6d 4ebe 2533 93be ffe5 a9be e0fc 96be
000000c0: 829f 86be c3fb 09be 6886 92be a2ed 273e
000000d0: 7ab1 3cbe 55f3 efbd d7e6 8cbe f62d b53d
000000e0: 9f8f 253e dbfb cbbc 2877 a5be 0ce3 d83d
000000f0: 23a8 2dbe 2be0 98be 817e 263e 6f39 8fbd
00000100: 9d34 e23d 5806 febd 082a 713e 0b05 813e
00000110: 47e8 e03b 64aa 3dbd 5c85 8f3c 0753 b13e
00000120: e888 d5bd b91c 133e 541b 9c3e d22f 013e
00000130: 4178 193e 5e80 e13d fa4c 673e 14b8 a23e
00000140: 9a1c 41bc 271a 7c3e 16ec 173e fb41 2abe
00000150: 3113 2dbe 5b14 ac3e 560c 40be 4989 803d
00000160: 9ee6 edbd d8ce a13e 3919 023e 499a 19be
00000170: a2c1 8abd d37e 6a3c b11e 1fbe 6228 83be
00000180: f46c b53e 0add 99be 0fc8 b7be 5137 90be
00000190: 43cb dcbe bb5d 163e 8c8d 9bbc 776c df3c
000001a0: 0add 793e a4e3 9bbe fa2f 843d fbd3 84be
000001b0: a8a3 b9be c52b a13e 0bf1 c2bd fdfa 8fbe
000001c0: 066c a9be 9ddf 283d f3b1 bdbe 8b3f ac3e
000001d0: cb9d 923e 3217 8dbe 7abd d83e db63 b9be
000001e0: b77b d8be a45f 52be cc37 aabe 0a44 a1be
000001f0: 89f1 02be c530 e93e 537d d33e 27bf 7d3a
00000200: 145e afbe e639 4cbe 51b7 c6bd 3b0e 673e
00000210: 220c 8fbe ee33 89be 955f 3b3e b484 96be
00000220: f52c 79be 11bf 833e 6007 a9bd 1628 84bd
00000230: 1ea6 853d dc0c bdbe 646c 53be d899 bc3d
00000240: e530 ac3e 0cfa a63b 30ae a4be 6edd fab8
00000250: 9934 a4be d5d4 3cbe faf0 9e3e a09a afbe
00000260: bc75 b43e 6388 9dbe 16a1 953e a3b7 10be
00000270: 9aa4 d9bc 61ec 003e 71df 833e 5d8b 703e
00000280: 4aa8 843e 71eb 963e b254 edbd 88c8 71be
00000290: 6d7c 68bc 7d84 693e 6562 51be 816d 90bd
000002a0: 7d34 babe aaa4 86be 5b36 b3be a126 35be
000002b0: ce7a a1be 777c 56be 738e ec3d 7c0a f2bd
000002c0: 31a7 d03c 3400 36bc e546 a7be 73a1 bf3e
000002d0: 9d41 933e b1fd 35bd fe06 23be b35d 8abd
000002e0: ae98 8e3e 7992 bfbe 2d83 bc3e 3826 ac3c
000002f0: 1b24 4bbe a156 b43c 3302 95be 3444 8ebe
00000300: 1c2e 3b3c 8fae 29be 1beb 38be 5a3f f3bd
00000310: 7288 3ebe 64e8 8abd e7b1 3bbe 56f4 30be
00000320: 3375 e83c 758b 9bbd b7a7 82be e92f cbbd
00000330: 9bbc 24bd 3513 adbd 71b8 84be d5da 65be
00000340: 424b c1bc ff73 3bbe ed21 a6be 10f2 d6bd
00000350: bf74 40bd 7c43 dabd ef0a 3c3c 8627 81be
00000360: a24c 32be 9532 96be 9ecf 22be 0db8 2bbe
00000370: 7191 aebc 1a20 95be cb89 4dbe de1a db3c
00000380: 1a63 49be 290a be3e f1da 75be 6ad3 c5be
00000390: e62d 88be c33d 12be ce50 83be 60e1 57be
000003a0: 3337 febd fd7a 96be 7398 ae3e 5fc7 e9bd
000003b0: 24c0 34be db54 ccbe f641 3cbe 4226 973e
000003c0: 8cdf a83e b035 22be 5e7b 233e 3029 a1be
000003d0: 8136 e13e f8df 0ebe 5fc4 c0bd 61b5 f23e
000003e0: c472 74be 15d8 84be 058f b1be 94bb a13e
000003f0: 2dd6 903e a8bd 92be 97d7 eabd da72 ca3e

bns.0.weight f4 [32]
1.2844973 1.2205911 1.2345452 1.2606432 1.3110502 1.259845 1.2013929 1.2611705
1.1901777 1.2311404 1.2551547 1.2425374 1.2007084 1.2949994 1.2336323 1.2327507
1.1760612 1.2082722 1.2904053 1.1480548 1.2966148 1.2198603 1.2486207 1.2377158
1.2027649 1.2362083 1.2612191 1.0588566 1.1324351 1.2381884 1.1857487 1.242398
00000000: 686a a43f 543c 9c3f 9405 9e3f c25c a13f
00000010: 7ed0 a73f 9a42 a13f 3ec7 993f 096e a13f
00000020: be57 983f 0296 9d3f e9a8 a03f 770b 9f3f
00000030: d0b0 993f 8ac2 a53f aae7 9d3f c6ca 9d3f
00000040: 2c89 963f aaa8 9a3f 002c a53f 76f3 923f
00000050: 79f7 a53f 6224 9c3f ced2 9f3f 796d 9e3f
00000060: 33f4 993f 133c 9e3f a16f a13f 9d88 873f
00000070: a2f3 903f f57c 9e3f 9dc6 973f e606 9f3f

bns.0.bias f4 [32]
0.27525443 0.100708805 0.20095024 0.22863364 0.21191825 0.2383956 0.11448976 0.22229086
0.0898016 0.18450214 0.22155859 0.19089405 0.18360111 0.2571579 0.20151016 0.20659715
0.04964101 0.18385464 0.2560362 0.016267588 0.27999476 0.19316882 0.15598911 0.19070318
0.10459114 0.20586193 0.17204522 -0.01117505 0.023629928 0.19282387 0.045261327 0.12040219
00000000: 26ee 8c3e 6b40 ce3d e6c5 4d3e f01e 6a3e
00000010: 1901 593e fa1d 743e 9b79 ea3d 37a0 633e
00000020: e7e9 b73d 21ee 3c3e 41e0 623e bb79 433e
00000030: ee01 3c3e 33aa 833e ae58 4e3e 348e 533e
00000040: 5f54 4b3d 6444 3c3e 2d17 833e 9b43 853c
00000050: 795b 8f3e 0cce 453e 9cbb 1f3e b247 433e
00000060: e133 d63d 78cd 523e 9f2c 303e 8f17 37bc
00000070: 8d93 c13c 9f73 453e f163 393d 6c95 f63d

bns.0.running_mean f4 [32]
-0.1371384 -0.043707687 0.16412902 -0.0939651 0.19733708 0.13861038 -0.5551616 0.074421056
-0.32109454 -0.012996836 0.21530057 -0.13393603 0.14672713 -0.022604592 0.035693176 0.5311264
-0.30406374 -0.13907512 0.044730976 -0.010994882 -0.15103757 0.29649514 -0.45494658 0.10291937
-0.48641798 0.20728245 -0.10672378 -0.2907442 -0.07714022 -0.48341396 -0.38713416 -0.38501406
00000000: 026e 0cbe d506 33bd 7011 283e c670 c0bd
00000010: bb12 4a3e e1ef 0d3e 121f 0ebf 116a 983d
00000020: 8166 a4be aef0 54bc c177 5c3e 8726 09be
00000030: a33f 163e 442d b9bc 0233 123d e6f7 073f
00000040: 3eae 9bbe b569 0ebe d437 373d e123 34bc
00000050: 98a9 1abe 36ce 973e c2ee e8be 64c7 d23d
00000060: c70b f9be da41 543e ff91 dabd 6cdc 94be
00000070: b1fb 9dbd 0982 f7be 7336 c6be 9020 c5be

bns.0.running_var f4 [32]
0.19107854 0.2068758 0.18035552 0.1690376 0.22244215 0.2164084 0.21540801 0.19856524
0.20886604 0.2296582 0.22179843 0.21491516 0.18662226 0.19603217 0.18781394 0.1885232
0.20883738 0.22726513 0.18882619 0.214481 0.18532296 0.20771122 0.17846963 0.23370136
0.20915505 0.19601877 0.19010101 0.2709623 0.21174707 0.22488941 0.22144581 0.22946838
00000000: 18aa 433e 40d7 533e 1eaf 383e 3118 2d3e
00000010: e0c7 633e 2a9a 5d3e eb93 5c3e b054 4b3e
00000020: fbe0 553e 852b 6b3e 211f 633e b812 5c3e
00000030: e819 3f3e a8bc 483e 4c52 403e 3a0c 413e
00000040: 77d9 553e 31b8 683e a75b 413e e8a0 5b3e
00000050: 4dc5 3d3e 40b2 543e bec0 363e 694f 6f3e
00000060: be2c 563e 25b9 483e d7a9 423e 92bb 8a3e
00000070: 39d4 583e 6949 663e b1c2 623e c2f9 6a3e
