saved/cora_GPR_s9.pt (torch, 188087 bytes, 5 tensors)

lin1.weight f4 [32, 1443]
00000000: 1def 1f3d 2c19 37be ff8f bf3d 807a 0c3e
00000010: 3b01 80bd 687f 863c 2ae2 963e 55ed 023f
00000020: 95c0 88be 216d 813e b1ea 1ebe 67dc 803e
00000030: 1a26 92bd 923d c83e 314b 223e 2087 8a3d
00000040: a8d8 babd 6f07 c23d 2235 d93c f7b8 4f3e
00000050: 51c6 cabd 2895 093d 8aa5 1e3f 4ba9 6cbe
00000060: ec52 ec3e 9345 5cbd d823 9f3c 10e7 aa3e
00000070: 23a0 fc3d 86e0 dc3e fa6d 30be 8393 08bf
00000080: 12e3 00bc d137 6ebe 5af4 033f c07a c53e
00000090: 2336 89be 880a 93be c4e9 0e3e de4a 52be
000000a0: 7ef9 1bbd c108 b83d 271e a33d dc3d c03e
000000b0: 75d4 853e 0516 c93d c08f aa3d 4bec 033e
000000c0: 7764 4cbe faa3 f3be ea85 4cbd b3a1 b5bd
000000d0: 20e6 42be 346c cc3d c136 9c3e 53d2 f63e
000000e0: 62b4 3b3e 21b5 a53e cb26 803d a66c 8bbd
000000f0: de3b 073f a2ed eebd 1d62 b7be f0f7 be3d
00000100: c98e b03c 280f bebc 89f1 233c 670d 103e
00000110: 0777 debe 21c1 2dbe 920b 36bd c27f b6be
00000120: 9ba9 bebe ed48 a23c 527e 983e db4a ea3d
00000130: 7d46 f6bd cbe8 cd3d f898 643c 241b 95be
00000140: b394 1a3d 48db 283e 9d3c c43d 31df b53e
00000150: df44 44be bea9 c33d 91d0 123e bb47 853e
00000160: 741f c43c b3de 563e 8d5e 8fbe bf1f f23d
00000170: 5b93 17be ec02 52be 39a2 01be 8247 873e
00000180: d905 773d 8098 e63c 0a1f 063e 001b 1e3e
00000190: 2184 a2be 6ba9 38be 0803 3cbe 5dcf 62be
000001a0: c90e 243c 1e44 453e e214 423e 8a21 1ebe
000001b0: f04b 223e 5975 a33e 3f02 b93d 3dfe 823e
000001c0: 6c2e a0be 3b34 133f 7e55 83be 249b 48bd
000001d0: b45e a8bc c947 7e3e ae1b 043e 38a3 fe3d
000001e0: 8845 c63e e8c5 2f3e ef1b e63a 965a 9d3e
000001f0: a59b 293e 4d34 3b3d 4e4b 68be d9be 863e
00000200: a1a1 e33e 934f 8b3e a2cd 5abd d783 d83d
00000210: a5a6 f53c 0867 a43e 51ab 043e 3f19 023e
00000220: 55bb 4f3e eea2 b73e 98aa 833d 8b43 6ebe
00000230: 34bc 213d 12ef c93e cec3 153e a0d0 3cbe
00000240: 024e 2b3d 37e0 d6be a876 0e3e 0696 ed3d
00000250: 7d06 173e a416 6abe 0dea 7bbe aca8 5cbd
00000260: 86f7 35be 8b6b 053b 889c 963e 4f82 723e
00000270: fdd9 c43e 8f1f 503e 6fa8 e83d 89db cb3a
00000280: ff09 01be c092 a93e 8c6b a13e d275 f03e
00000290: 6e4e 8c3e 3f03 363d bf6e d5be 22b0 48be
000002a0: 8e9f 16be 00c6 7a3e c975 333d 74ca 76be
000002b0: 56b4 87bd f4d3 e63d c912 97be 9a7e 8dbd
000002c0: 87d6 10be 85c2 bbbe 5596 c2be 4f88 8c3d
000002d0: 637d 053f 90dd 8e3e 2bb0 ce3e 08df 1b3d
000002e0: 96a8 cbbe 03c6 a0bd ab28 85bd d070 2d3d
000002f0: a9da e0bd abed 773e 9f07 d63d 8acf f1bc
00000300: 101f b8bd bb4d 513e a6cc ccbd 3b83 70be
00000310: bb06 30be 47a7 683e 87a7 d43e a252 ed3e
00000320: e0fe ed3e 726a aa3e b564 3b3e 3cad 7ebd
00000330: 8390 a83e 0ca8 8b3e e884 5a3d ba39 4f3e
00000340: fa59 dfbd 1e68 f73e 3314 763e 9054 3c3d
00000350: 4de5 16be ca16 af3d 76b7 783e fee8 4bbe
00000360: 51b4 c73d fb2b c73d 957d 38be 9079 d93d
00000370: a0c1 4a3e b351 a43e 4fb9 4dbd 1a1c e8bd
00000380: 2e3d 13bd 65a5 e63d d3c5 b33d 62f5 99be
00000390: 5f90 06be ec33 87be 17ed 073e 008e 09be
000003a0: bc2e b9be c87b bb3b 0539 733e 63a5 b63e
000003b0: 8fad e6bd 3e46 47bd d8cd 60bd ddf7 073f
000003c0: 9cfa 583e 7a1a c33e 08eb f8be aebe b1bc
000003d0: 4a6b 00be 0114 023f 95e4 75be 4f16 793d
000003e0: ac0a d8bd a860 31be 049d 83bc b2e4 3abe
000003f0: 52c8 b83d 8737 35bd 5579 a83d 341b a6be
0.039046396 -0.17880696 0.09353637 0.13718605 -0.06250235 0.016418174 0.29469424 0.5114339
-0.26709428 0.2527857 -0.15519215 0.25168154 -0.071361735 0.39109474 0.15848996 0.06764054
-0.09123355 0.09474074 0.026514594 0.20285402 -0.09901107 0.033589512 0.6197134 -0.23111455
0.46157014 -0.05377729 0.019426271 0.33379412 0.12335231 0.43140048 -0.17229453 -0.53350085
-0.007866638 -0.2326348 0.51544726 0.38570213 -0.26799116 -0.28718972 0.13956362 -0.20536372
-0.03807973 0.08986045 0.079647355 0.37547195 0.26138654 0.09818653 0.083281994 0.12883107
-0.199602 -0.47586042 -0.049932398 -0.08868732 -0.19033098 0.099815756 0.30510524 0.4820734
0.1833053 0.32364753 0.06257399 -0.068078324 0.52825725 -0.116664186 -0.35817042 0.09324634
0.02155246 -0.023200586 0.010006317 0.14067613 -0.43450186 -0.16968204 -0.044444628 -0.35644346
-0.37238774 0.019810164 0.29783875 0.11440059 -0.12025163 0.10054167 0.013952486 -0.2912227
0.037739467 0.16489899 0.095818736 0.35521844 -0.19166897 0.0955386 0.14337374 0.26031289
0.02394078 0.2098339 -0.28001824 0.11822461 -0.14802305 -0.20508927 -0.1265954 0.26421744
0.06030831 0.02814889 0.13097778 0.15439987 -0.3174143 -0.18033378 -0.18360531 -0.22149415
0.010013291 0.19264266 0.18953279 -0.15442482 0.1584928 0.31925467 0.090336315 0.25584593
-0.31285417 0.5750157 -0.25651163 -0.04897608 -0.02055297 0.24832071 0.12901184 0.12433475
0.38724923 0.17165339 0.0017555932 0.30733174 0.1656328 0.045704175 -0.22684976 0.2631748
0.4445925 0.27209148 -0.053418763 0.105720215 0.029986689 0.32109857 0.12955977 0.12704943
0.20286305 0.35866493 0.064290226 -0.23267953 0.039486125 0.3944021 0.14625475 -0.18438959
0.04182244 -0.41967937 0.13912451 0.1160088 0.14748569 -0.22860199 -0.24601002 -0.053871796
-0.17770204 0.002035829 0.294163 0.23682521 0.38447562 0.20324539 0.11360251 0.0015553097
-0.1260147 0.33119774 0.31527364 0.4696489 0.27403587 0.04443669 -0.41686055 -0.1959844
-0.14709303 0.24489594 0.0438135 -0.24100667 -0.06626193 0.112708956 -0.2950652 -0.06908913
-0.14144336 -0.36671844 -0.3800532 0.06861936 0.5214445 0.27903414 0.4036878 0.038054496
-0.39777058 -0.07850268 -0.065018974 0.042343915 -0.10979206 0.24211757 0.10450672 -0.029517908
-0.089903 0.20439808 -0.09999971 -0.2348756 -0.17190067 0.22720061 0.41534063 0.46352106
0.46483517 0.33284336 0.18300135 -0.062176928 0.32922754 0.27276647 0.053349406 0.20236865
-0.109058335 0.48321623 0.24031143 0.045979083 -0.14735909 0.085492685 0.24288735 -0.19913098
0.097511895 0.097251855 -0.18016656 0.10618889 0.19800425 0.32093582 -0.050225552 -0.11333485
-0.035947017 0.11262015 0.08777966 -0.30070025 -0.1314101 -0.264068 0.13274036 -0.13433075
-0.36168468 0.005721543 0.2375222 0.35673055 -0.112635724 -0.048650973 -0.054883808 0.53112584
0.2118935 0.38106138 -0.48616815 -0.021697368 -0.12540928 0.50811774 -0.24012978 0.06081229
-0.105489105 -0.17322028 -0.016066082 -0.18251303 0.09022583 -0.044242408 0.08226267 -0.3244263

lin1.bias f4 [32]
00000000: 4a02 303d 2f76 9a3d 93fa 753d 5fe7 a5bd
00000010: bc3c 653e 0e76 613e 1300 163e 4458 ab3d
00000020: 14f2 393d 59f2 2dbd 8dfd 623d 49f5 683e
00000030: cb46 1abd afdc 6dbd 1566 1b3d 98a9 8cbd
00000040: c51b 663d ac56 8f3d 7c68 273e 46cc b43d
00000050: 024f bd3d 5fe8 a03d f71e d63d 2691 f63c
00000060: 7e24 593e 96e3 9cbd ed17 a03d 7254 62bd
00000070: 19b7 a0bd 0fe6 a4bd 7f39 a93d fd4a 8fbc
0.042970933 0.07542073 0.06005342 -0.08100771 0.2238645 0.2201769 0.14648466 0.08366445
0.04539688 -0.04246745 0.055417586 0.22749819 -0.03766517 -0.05807179 0.03793915 -0.06868285
0.056178827 0.06998953 0.16348451 0.088280246 0.09243585 0.07856821 0.10455125 0.030098509
0.21205327 -0.07660596 0.078170635 -0.055256315 -0.07847423 -0.08051693 0.0826292 -0.017491812

lin2.weight f4 [9, 32]
00000000: 1889 bfbe 4605 3e3d 2850 b7bc c2cb 23be
00000010: 73cb 28bf ea23 153f c806 213e 304a bc3e
00000020: 6acc a7be 2b48 2e3c 25d4 633d b3df 813d
00000030: bc31 a33e 1b6e b93d 780f 193e 2896 b43d
00000040: 5873 93be c3f0 40be a11c 07bf 6f6c 133f
00000050: a76b dcbe 1bfe 973e 3464 2abf cd16 92be
00000060: 53a4 2f3e d082 babd 3645 47be 3211 64bd
00000070: 963f 10be 4930 99bd 3609 82be 4a0e 7d3e
00000080: 8fc7 493e 75f1 76be 9db9 eb3d e9cc da3d
00000090: 54fb 6a3e 0e73 a83e 028c 413d cfc3 f4bd
000000a0: ff03 3ebe 90c0 12be e2ed 0bbe 0b52 b4bd
000000b0: c818 103f e992 3bbd af15 51bd e3da 19be
000000c0: 0e69 2ebe 6b64 8bbe 25c3 573d 7144 08be
000000d0: 6846 793e 325d 5bbe 9483 063e c6c9 9d3d
000000e0: c2f8 aebd 0cdc bbbd 291c 81be c573 ab3d
000000f0: 87cf cebc 07d1 31bd 2f0b 7cbe 913d 7fbe
00000100: a6b5 8a3e 5c68 683e 92c9 433e e8a1 1fbd
00000110: 31e5 ddbe 1a4e 37be 7e26 f23c 123b 753e
00000120: 9f67 5b3e b9c8 d5bd 15a3 a73e 80d1 99be
00000130: 12ee 4dbd 99a0 44bd e37b 963e 20ab 38bd
00000140: f587 6f3e d8c8 a93d cb77 dabe d91d 0fbe
00000150: 7294 393e f7b7 3c3e 22ca 9fbe 984b a73e
00000160: 2cc7 b63d 4cce d3bd 9e40 443e 074c a43d
00000170: 5d7c 57bd 4d90 a4bc e8bb ff3d d87e 2abe
00000180: 3a78 8d3e dfc4 5c3e 8b85 bdbe 127b e1bd
00000190: d015 1d3f 842f d53e 08e2 a9be e9ce bebe
000001a0: 82c6 903e 16b3 a5bd 09dc 8d3e a707 72be
000001b0: b5b5 d3be 939f 553e 2635 153e 2949 ccbd
000001c0: 6d37 13ba fcd9 323e 3d51 1f3f 1cfa 893e
000001d0: ec16 02bf 8b3c 7abe d544 1abf 33d9 59bd
000001e0: 7078 f3be 43a3 e7bd 693c a43d 5ad9 39bd
000001f0: 02d3 8fbd f3f0 82bc 6ab3 5abe 7445 5dbe
00000200: 8b50 bbbe ffc8 dcbd b989 fa3d f1d7 b23d
00000210: c174 3b3d 4f9d 283f 2e28 8bbe 431a f23e
00000220: 8d54 e6be 17d7 a53d 5b45 50be 628f 1dbf
00000230: c02f bebe 3703 853d 46eb c7be 7b9b ccbc
00000240: 2324 073d 5065 2d3c 2f83 bc3d 51ec 0cbf
00000250: abcd 713e 8e93 22be e28b e7be 337a 28be
00000260: 6c26 0f3f e9ca 813d 1293 2b3c afba b6bd
00000270: a198 1d3d d159 1abe 70bf 00be c143 de3e
00000280: 3001 233e 2a6f 73be ac3c aa3d 3aa7 35bd
00000290: e113 dc3d 0f54 67be 0b79 97be 239f 8c3e
000002a0: a224 893d 2f86 1cbe e498 34be c987 f93d
000002b0: 2619 5cbe d2dd f5bd 2297 803e 906f 01bd
000002c0: 2d4d 94be 2a74 5abd 0fac 9bbd 1668 1b3f
000002d0: e8ed 2b3e 5d0c 8abd 5789 433f 42ce c5be
000002e0: 98d7 dabe bc79 5dbe 3900 53be ff4c 213d
000002f0: a4a5 84bd 5978 07be 54a2 e8bd 21dd f4bd
00000300: 3216 38be 9928 13be 72f2 a1be d221 ffbd
00000310: ddbe 8c3e a301 24be 3353 98be b7bd c6bd
00000320: bc00 62bc 345b 8c3a aef1 20bc fba9 d83e
00000330: d8f9 11be c435 b5bd ea58 83be 4bf1 35be
00000340: 56a9 dfbd 9d91 75be e770 b0bc 76d2 3bbe
00000350: d8bf 94be ada1 293b e8d6 3f3b cb06 79bd
00000360: 5666 07be 9240 02be dc01 4ebe fe23 32bd
00000370: 81ed 62be 7a05 d23d df96 23be b52b 69be
00000380: 6615 46be 8f66 0bbe 08c2 99bd d65a bc3d
00000390: 6aa2 a1be 6fe8 d2be e0ab ba3e 681a 49be
000003a0: b4a3 3a3e 8089 a63d e9ef 54be 6ae8 1abf
000003b0: 12ec fbbe f84f adbd 4e5f 6abe c186 313b
000003c0: f434 933d 7f78 903d 3a72 2a3f 4292 fcbe
000003d0: a7be 48be 4e32 cc3e c9f4 203f 9d74 75bd
000003e0: ee68 ab3e db5a 18be 00fd 90bd 0b4a 02bd
000003f0: 7397 8c3d 46a8 eabd a562 7e3e 1527 c8bc
-0.37409282 0.046391748 -0.022377089 -0.15995696 -0.6593544 0.58257926 0.15725243 0.3677535
-0.32773143 0.010637323 0.05562224 0.06341495 0.31873882 0.09054204 0.14947307 0.088177025
-0.28798938 -0.18841843 -0.5277806 0.5758733 -0.43050882 0.29686055 -0.6655915 -0.2853302
0.17152528 -0.09106982 -0.19459996 -0.05568046 -0.14086756 -0.07479913 -0.25397652 0.24712482
0.19705032 -0.24115546 0.11510012 0.10683615 0.22947437 0.3290028 0.047252662 -0.1195141
-0.18556212 -0.1433127 -0.13664964 -0.08804711 0.56287813 -0.0457944 -0.05104607 -0.15024905
-0.17032263 -0.2722505 0.05267634 -0.13307358 0.24343264 -0.2142227 0.1313613 0.07704501
-0.085435405 -0.0917283 -0.25216797 0.08371691 -0.025245441 -0.043412235 -0.24613641 -0.2492583
0.27091712 0.2269606 0.19119862 -0.038972765 -0.43338922 -0.17900887 0.02955937 0.23948315
0.21426247 -0.104386754 0.3274161 -0.30042648 -0.05027587 -0.04800472 0.29391393 -0.045085073
0.23391707 0.08290261 -0.4266952 -0.1397623 0.18123034 0.18429552 -0.31208903 0.3267486
0.08924708 -0.103420824 0.19165275 0.080223136 -0.052608836 -0.02008834 0.12487012 -0.1664995
0.27630788 0.21559475 -0.37015948 -0.11009802 0.6136141 0.41637814 -0.3318026 -0.37267235
0.2827645 -0.080907986 0.27706936 -0.23635732 -0.4134957 0.20861654 0.14571056 -0.09974892
-0.0005615864 0.17465967 0.62233335 0.2694863 -0.50816226 -0.24437158 -0.6026128 -0.053185653
-0.47552824 -0.113104366 0.08019335 -0.0453733 -0.070226684 -0.015984034 -0.21357504 -0.21608526
-0.36584887 -0.107805245 0.122333 0.08732594 0.045765642 0.65865034 -0.27179092 0.4728566
-0.44986382 0.08097666 -0.20338957 -0.6154691 -0.37145805 0.06494754 -0.39046687 -0.024976483
0.032993447 0.010583237 0.09204709 -0.5504809 0.23613612 -0.158766 -0.4522391 -0.16452865
0.55918 0.0633753 0.010472076 -0.08922326 0.038475636 -0.15073325 -0.12573028 0.43411067
0.15918422 -0.23772874 0.083123535 -0.044348933 0.10745979 -0.2259066 -0.29584536 0.27465162
0.0669644 -0.15285562 -0.17636448 0.12184102 -0.21493968 -0.120051995 0.25115305 -0.031600535
-0.2896513 -0.05333344 -0.07601177 0.607057 0.16789973 -0.06740639 0.7638144 -0.38633925
-0.4274261 -0.21628469 -0.20605554 0.03938007 -0.06476906 -0.13229503 -0.11359087 -0.119562395
-0.17977217 -0.14370956 -0.31630284 -0.124576226 0.27489367 -0.1601625 -0.29750976 -0.09704154
-0.01379412 0.0010708333 -0.009823246 0.42317185 -0.14255464 -0.088481456 -0.25653774 -0.17767827
-0.1092097 -0.23981328 -0.021538211 -0.18342003 -0.29052615 0.002588372 0.0029272381 -0.060797494
-0.13222632 -0.12719944 -0.20117897 -0.043491356 -0.22160913 0.10254951 -0.15975522 -0.22770579
-0.193441 -0.13613342 -0.07507712 0.09197013 -0.31569225 -0.41192958 0.36459255 -0.1963898
0.1822651 0.08131695 -0.20794643 -0.60510886 -0.49203545 -0.084625185 -0.22887918 0.0027088376
0.071878344 0.07054233 0.66580546 -0.49330336 -0.19603978 0.3988213 0.6287351 -0.059925664
0.33478492 -0.14878409 -0.07079506 -0.031808894 0.06864824 -0.11457877 0.24842317 -0.024432698

lin2.bias f4 [9]
00000000: 97f3 ee3d 3a3d 793c 5198 b0bd 1271 2abe
00000010: d93a fa3d 5956 89bd dc25 8ebe d85c 4e3d
00000020: c865 2e3e
0.11667555 0.015212351 -0.08622802 -0.16644695 0.122182555 -0.06705923 -0.2776326 0.05038151
0.17031014

prop1.temp f8 [11]
00000000: 3dc1 f460 0980 e23f 5477 e701 4312 df3f
00000010: 91b3 dfd5 4866 da3f bd75 c8cf a6d2 d53f
00000020: c745 e738 b15d d23f 2b89 5890 12ad ce3f
00000030: 796c 804a 89d2 c93f 9947 34c6 e0b3 c53f
00000040: b2ba 7bfb 4947 c23f ddf6 9410 08bc be3f
00000050: a2c3 e8c0 5084 da3f
0.578129472129184 0.48548960863069124 0.41249295126072477 0.34098215380967273 0.28696852261517986 0.239656753999108 0.2017375577714551 0.16955194166126544
0.14280056743105757 0.12005663304168075 0.41432589377205364
