saved/directed_ogb-arxiv_GCN_s8.pt (torch, 46667 bytes, 26 tensors)

layers.0.bias f4 [32]
00000000: 6e9a 533d 3e27 743d 5a0f 10bd ee24 9abc
00000010: f500 17bc bf66 c53c 19e0 793c 0f7f bcbc
00000020: a642 1dba a4ac 6ebc 40ad c53c 2ef5 32bc
00000030: 877d ba3b 0a6a b13b f72b 79bb 0385 47bb
00000040: 5f9b c63c 1853 e8ba c9e6 b4bc 4cc9 ac3c
00000050: 327c a93c c527 df3c a282 8ebb ea3c 0a3c
00000060: 419d bd3b 4a56 4b3c 9d7a 5f3c 70b9 db3c
00000070: e287 8c3c 8766 31bd d048 173d cf03 5ebc
0.051660948 0.059607737 -0.03517089 -0.018816438 -0.009216537 0.024096845 0.015251183 -0.023009805
-0.0005999006 -0.014567528 0.024130464 -0.010922713 0.0056912336 0.005414252 -0.003802059 -0.0030444271
0.024244009 -0.0017724959 -0.022082703 0.02109208 0.020689104 0.027240643 -0.0043490687 0.008437375
0.0057865684 0.01241071 0.013640073 0.026821822 0.017154638 -0.04331067 0.036934674 -0.013550713

layers.0.lin.weight f4 [32, 128]
00000000: 565b e93d 3923 72bc bbc2 19be b6e7 1e3e
00000010: 9868 22bd 9fac 783e 2336 193e 1880 4c3d
00000020: 13d6 25be 732c 10be bcea 683e f695 633e
00000030: bc14 003c f1c3 263e 0b00 b83e 83a6 8fbb
00000040: 4245 8f3d c36f 2d3e 9a12 223e 606b b83d
00000050: 51b7 473e 3cbc e93d 57e6 023d e9fc b2be
00000060: 3039 bf3d bc52 15bd 0f04 7d3d 1aaf 2cbe
00000070: 16dc cb3c dc3d 83be a497 213e 054e 14be
00000080: 055c 94be 8169 83be 05a7 c7bd f6d0 273e
00000090: a0f1 af3e 14fe f3bd 2a95 bbbd 6aa5 9c3e
000000a0: ad87 c2bd a55a d43d fea9 7dbe 7c20 5e3d
000000b0: 1e90 233d d847 953d 6d74 89bc 8a1e 34bd
000000c0: 0453 a63e 926e 113e fc6e bf3c 610d 8d3d
000000d0: 898f 5e3e eda6 c1bd f5ef 4f3b 7118 16bd
000000e0: 9b4b 4e3e 5fe3 04bd 5b5e ed3d 4e9a 85bd
000000f0: 3b94 813d 12c3 17be 9323 2a3e 4b04 03be
00000100: 2303 623e 2749 8b3d ad78 c7ba 0047 423e
00000110: 6e21 fbbc a29d 29be 207c 72bd fb82 2ebd
00000120: 7656 793e 77eb 70bd de52 0ebd 1fc4 713b
00000130: 4e03 a73e 3f68 98be 0853 67bc a298 dabc
00000140: 08bd 44be 3d08 01be 3d6d 20be 786e 483e
00000150: 097d 9dbb 09f6 adbc a61f d4bc 338e 613e
00000160: d640 52be d5ad 363e b34a 873e 3592 11be
00000170: 6cab f73d e601 52be 6b3b fbbd 45e0 69be
00000180: 782e 823d 0544 8d3e 6217 85bc 3178 613e
00000190: 5c8f c13d 8be6 63bd db6d a6bd 6f98 57bc
000001a0: 2e74 473d 6eee 813e f2e4 ae3d 0523 4abe
000001b0: b981 f83d a36f c4be e0e3 a7bd 327a b1bc
000001c0: 4b6a ae3d 2ac2 173c 0e26 353e 3b37 e43d
000001d0: 7322 c23d 4895 353e 72d1 32be 1b10 2e3e
000001e0: 1ff5 b0be 9585 23be 302e 5ebe be79 53be
000001f0: efa1 04be ec2f 42be 7653 7ebd 0bd1 edbd
00000200: 75aa 00bd 991b 0cbe 23d3 953e 412f bd3d
00000210: 222f 8ebd 069b 303d d2d3 44bc 4213 613e
00000220: f9bc 13be 6b30 42be 8fd8 87bd 9847 edbd
00000230: b7ba c23d e008 58bc 50ee 1cbe 3e54 0ebe
00000240: 8828 44be d38f 98be 1785 09be e2f6 6d3e
00000250: 56d1 5cba 437e a3bd 6bea df3d 6f81 843d
00000260: 0e08 ffbd f357 323d 3360 8b3c d8af b73d
00000270: 0d63 1dbd c098 69be e6c0 e3bd 7574 763e
00000280: 2e77 d7bd d381 303e a9ae 30be 2203 d2be
00000290: ecd2 6dbd cbf1 2a3e 2f96 d83d 54d6 d53c
000002a0: 0a7a e8bd ff89 853c 2eac 9abd 14cb 24bd
000002b0: 6977 6ebe 17c2 c3bd 92d1 193e a7b4 0a3e
000002c0: 4a01 d83d 04b8 9c3d 6243 eebc 1ff7 4c3e
000002d0: 4c0c 073d de61 bd3d d2c6 5bbe 1efd 33be
000002e0: 0936 b23d 1f32 5f3e 61d0 cebc fb7e b43d
000002f0: 4e54 81bc e411 b93c 2e69 0abb fe40 563d
00000300: 47a0 953d 06ee 41be 809b d93d 2edd edbd
00000310: 3ca3 90be 19f5 9a3e 2d0a 90be c25c e43d
00000320: c3ab 6c3d 14c4 33be a9b5 8fbe f36d 4d3d
00000330: d8fc 2bbe 401d 44bb 1c08 a33d a8a3 4abd
00000340: adb1 81be c608 febd ccc4 60be f9b0 9bbd
00000350: da3d 8939 e1af 91be 7d9f 493e aec9 acbd
00000360: c84c 253e 0fd9 f3bd 8f12 39bd 5152 463b
00000370: 8fb4 73be eb69 10be a961 8fbe 3824 68bd
00000380: 94a7 a9be 21ac dc3d 8a75 8cbe 0ac0 a13e
00000390: b804 b8be a1df 51bc b2ac bb3e a500 0ebe
000003a0: 9d3d 39bd fb81 68bc 11f4 54bd ea47 5ebe
000003b0: 7e5b 7abe 6ae2 2cbe ab9d f8bd 897f dcbd
000003c0: 049d 10be 17aa 1b3e 6ab3 29be 8750 0fbe
000003d0: 93cc afbd 67a1 94bd 02e7 c63d 7a0a 90be
000003e0: 2d9b 8ebd 4a11 473e 77d8 1c3d ff58 d13d
000003f0: f9fa 8abd c00d 733d f248 103e 48f2 4fbe
0.11394374 -0.014778906 -0.1501569 0.15518078 -0.03965053 0.242846 0.14962058 0.049926847
-0.16194944 -0.14079456 0.22745794 0.22225174 0.007817443 0.16285683 0.35937533 -0.0043838634
0.06995632 0.16937165 0.15827408 0.09004855 0.19503523 0.11412856 0.03195795 -0.3495858
0.093370795 -0.036455855 0.06177145 -0.16863671 0.024885219 -0.25633132 0.15780503 -0.14482887
-0.28976455 -0.2566643 -0.09748653 0.16388306 0.34364033 -0.11913696 -0.0915931 0.3059495
-0.09498534 0.103688516 -0.24771878 0.0542302 0.039932363 0.07289094 -0.016779149 -0.043974437
0.3248521 0.14202335 0.023368351 0.068873174 0.21734442 -0.09455667 0.003172872 -0.036644403
0.20146029 -0.0324434 0.115902625 -0.06523572 0.06327101 -0.14820507 0.16615133 -0.12794606
0.22071509 0.06801062 -0.0015218459 0.18972397 -0.030655589 -0.16564038 -0.059200406 -0.04260538
0.24349388 -0.058818307 -0.034746997 0.003689058 0.3261971 -0.29767033 -0.014118917 -0.02668411
-0.19212735 -0.12600799 -0.15666671 0.1957339 -0.004806165 -0.021235483 -0.025893997 0.22026901
-0.20532545 0.17839749 0.26424178 -0.1421593 0.12093243 -0.20508537 -0.122671925 -0.22839458
0.063565195 0.27590957 -0.016246501 0.22018506 0.09451172 -0.055639785 -0.08126422 -0.013158902
0.048694782 0.2537722 0.085397616 -0.19739921 0.12134118 -0.38366422 -0.081977606 -0.021664713
0.085163675 0.009262601 0.17690298 0.11143347 0.09479227 0.17732728 -0.1746271 0.16998331
-0.34562013 -0.15968926 -0.21697307 -0.2065191 -0.12952398 -0.18963593 -0.062091313 -0.116121374
-0.03141256 -0.13682403 0.29262647 0.092375286 -0.069425836 0.043116592 -0.0120133925 0.21980003
-0.14427556 -0.18963782 -0.06633102 -0.11585921 0.09508269 -0.01318571 -0.15325284 -0.13899323
-0.19156086 -0.2979723 -0.13429676 0.2323871 -0.00084235275 -0.07983067 0.109333836 0.0647
-0.12452708 0.043540906 0.017013645 0.089690864 -0.03842454 -0.22812176 -0.11120777 0.24067862
-0.105207786 0.17237024 -0.17254128 -0.41018015 -0.05806248 0.16693799 0.1057552 0.026103176
-0.11351402 0.016301153 -0.07552372 -0.040232733 -0.23287739 -0.09558504 0.15021351 0.13545476
0.10547121 0.07652286 -0.029084865 0.20016144 0.03297071 0.09247182 -0.21462563 -0.17577025
0.08701713 0.21796463 -0.025245847 0.08813282 -0.01578727 0.022591539 -0.002111982 0.052308075
0.07305961 -0.18938455 0.106253624 -0.11614452 -0.28249538 0.3026512 -0.28132764 0.11150505
0.057780992 -0.17555267 -0.28068283 0.050153684 -0.16795671 -0.002992466 0.07960531 -0.04947248
-0.25330868 -0.12404017 -0.21950072 -0.07602114 0.0002617676 -0.28454497 0.19689746 -0.08436905
0.16142571 -0.11906635 -0.045183714 0.0030261467 -0.23799346 -0.14102904 -0.28004196 -0.056675166
-0.33135664 0.107750185 -0.27433425 0.31591827 -0.359411 -0.012809665 0.36655194 -0.13867433
-0.045224775 -0.014191146 -0.051990572 -0.2170712 -0.24448964 -0.16883245 -0.12139448 -0.10766513
-0.14122397 0.15201603 -0.16572347 -0.13995562 -0.08583941 -0.072573476 0.0971203 -0.28132993
-0.06963191 0.19440189 0.038292374 0.10222053 -0.067861505 0.059339285 0.14090326 -0.20307267

layers.1.bias f4 [32]
00000000: 5f50 cf3c ce6b 2b3b a8ba 8b3c a0bc 9abc
00000010: 0ed9 373c 4fb1 48bc 6e48 3a3c f375 a039
00000020: 203d edbb 4ce0 173b 6f0b b93c 4181 7fbb
00000030: 2f92 523a 6e9d c7ba 7c84 b53b af43 ccbb
00000040: ae51 81ba 8092 b7bb 15d2 16bc 2c7f 193b
00000050: dbb1 fc3b d01b 1bbc c50c 9c3b 3440 c9bb
00000060: c1eb 8bbb f7a8 e0ba 2c00 323b f7f5 8b3b
00000070: 6183 bfbb d418 c53b 7112 553a 03e0 16bb
0.025306879 0.0026156786 0.017056778 -0.018888772 0.011221183 -0.012249305 0.011369808 0.00030605457
-0.0072399527 0.0023174463 0.02258846 -0.0038986953 0.00080326473 -0.0015229413 0.005539475 -0.0062336545
-0.0009866261 -0.005602181 -0.009205361 0.0023421748 0.0077116317 -0.00946708 0.0047622644 -0.006141687
-0.0042700474 -0.0017140199 0.0027160747 0.0042712647 -0.005844519 0.0060149226 0.0008128053 -0.0023021705

layers.1.lin.weight f4 [32, 32]
00000000: 87cc 7e3d 5032 48be 7d49 b33e 574a 93bd
00000010: a0f3 04be feb5 0cbd e9dc 58be ef82 883e
00000020: 301e 8fbe cfe0 19bd b012 cf3a 6c0a 60be
00000030: cbd3 223e 166d f2bd 55be 1f3e b176 d53c
00000040: 7662 98be 932f 6abe d4cd 6abe d8a5 a5bc
00000050: 719e 113c 5252 54be 4934 bd3e b9dc f1bd
00000060: 444d 8cbe 0074 a53b 7740 a13d 5b4e 813e
00000070: 2894 a63e afcd 8b3e 486b 9abe 71af 7c3e
00000080: c3e1 d63e 69f2 0abd a5b3 a5be 6983 ccbd
00000090: 7b89 54be 6b2d 0abe adbe 15be 75b0 18be
000000a0: a80d bebe c943 a43d f12f 8b3e 5e58 c43b
000000b0: bb91 273e f87a be3d fc16 c7bd a135 1cbe
000000c0: 6bb6 a53c 2b67 5ebe 476d d8bd bdd3 ca3c
000000d0: c6e5 27be 5f66 cb3d cdd8 bbbe 4d3f 453e
000000e0: 1db3 b1be 56b2 c2be 6f32 0b3d 02f4 12be
000000f0: 1531 263e 958d e93e 8ce0 b83e fb24 103e
00000100: 3feb c23d c8de 8dbe 3349 593e ce71 b2bd
00000110: d26a 46be e0df 79be 5b38 2dbe 74e8 ff3d
00000120: 1e23 62be 5eef 343e 0089 913e e60e 823e
00000130: eba7 663e 3dac 05be 508e 7abe 6fcd 0fba
00000140: 865f 803d aaa1 65be ba0e febc 523e bebb
00000150: 4816 59bd 3552 b8be 2cea a33d 140e 413e
00000160: 60e1 16be 3f36 bb3e 9ec6 52be 2c80 f03d
00000170: e11f 84be 3c35 5fbc 8152 833e 2785 83be
00000180: 012c 5f3e b414 1d3e af05 cabd 9f94 203d
00000190: 77c8 643e 261f a43e 78ff 75be fb93 193e
000001a0: 3e1c 763e e93f 78be bd28 c9bc aad6 663d
000001b0: 8952 46bd 11a7 e3be 6fb7 9ebe bc6d d3be
000001c0: 8b2b 573e 330d 9fbe b2ee 05be 1250 aebd
000001d0: 71cb deb8 6b16 99be 268f 7fbe 09f4 1fbe
000001e0: 28df 293e f0af 383e d6db a83e 9f73 4f3d
000001f0: e3df 1439 1606 2a3e 5507 59bd f7d7 d33d
00000200: 6ab9 d2bd c298 4d3e 60b0 11bf 3daf 923e
00000210: cf94 6c3d dbe5 b13e ab4d 4dbd 0e7a 8f3e
00000220: f774 1ebe 4bad d03e 0754 953e 1677 ba3c
00000230: 6de0 a4be c5f2 833e d36c c63d f4ea 2fbe
00000240: a8da 43be 618c 91bd 9990 8cbe 3260 0dbe
00000250: ab8d 773e 8c7e 68be 4e12 f3bd 4b78 013e
00000260: 9fd8 7f3e f7d7 91be 7f05 713e 12b8 adbd
00000270: 3be6 54be ff31 813d d505 453c e916 64be
00000280: 8a23 9e3e e5d4 523e 62b3 f3bd f9f5 37be
00000290: c605 debd 71e2 d5bd 5213 08be 8dd2 2abe
000002a0: 6bf3 f4bd f20a 67be 6896 7a3d 6dfa 54be
000002b0: c436 febd f0a7 283e 1d94 9ebc 78cd 8a3e
000002c0: 68a0 a5bd 644d 633e 5838 b53d e9c3 f8bd
000002d0: 1a7d c43d 6036 a5be 55e0 12bd 6f01 0cbe
000002e0: f82e 8cbe be61 d53e c594 c73d b8dc 56bd
000002f0: b059 203b 701e a9bc 050e acbd 7e29 9f3e
00000300: b621 933e 06fe 25be fec1 c43d e8ac 31bd
00000310: cfa5 9ebd 6b7a 59be 69f7 443e a034 c93e
00000320: d22b 88be 61a4 b23d b2b2 01bd 8f52 353e
00000330: 2e1d 97be ca86 343d 1c94 40be 2e41 163e
00000340: b4e1 2cbe 50a3 403e 7410 77be 46f4 633d
00000350: e823 5bbe 5485 8abe d244 e3be 4726 013e
00000360: 2a4c 56bd f1cb 9ebe 965a a7bc 4dfc 31be
00000370: 60b6 953e 0f29 243e 47bb a33d 2277 1cbe
00000380: 1fdf 5ebe a70f d83e 0078 823d dbf4 94be
00000390: d660 d6bd bf98 35bd 1ca4 1abd b285 2c3e
000003a0: 665e 783d 1c6b 763e c10a 04be f76e edbe
000003b0: 2b16 453e c695 a7be 1bd6 a4be dfd6 28be
000003c0: 7929 e2ba 5385 5b3e 7da7 94be c592 af3e
000003d0: dcd9 d9be 9c44 2f3e a4f1 b93d da1a 6bbd
000003e0: e8f0 c53e 056a f83d cc72 57bd 6d2e 1e3d
000003f0: 5cca 0bbe 857f 1abc 21db 9cbe e33d 1abb
0.06220677 -0.19550443 0.35017005 -0.071919136 -0.1298356 -0.03435325 -0.2117802 0.26662394
-0.2795272 -0.03756791 0.0015798416 -0.21878976 0.15901105 -0.11837213 0.1559995 0.026057573
-0.2976262 -0.2286971 -0.2293008 -0.020220682 0.008887873 -0.20734528 0.36953953 -0.11809678
-0.274027 0.0050492287 0.07873624 0.25255093 0.3253491 0.27305362 -0.30159974 0.246763
0.41969118 -0.033922587 -0.3236362 -0.09986002 -0.2075557 -0.13493888 -0.14623518 -0.14911063
-0.37119794 0.080207415 0.27185014 0.0059919795 0.16364186 0.09300798 -0.09721181 -0.15254833
0.020228585 -0.21719043 -0.10567718 0.024759168 -0.16396245 0.09931635 -0.36688843 0.19262429
-0.34706965 -0.38026685 0.033983644 -0.14350894 0.16229661 0.4561583 0.36108816 0.14076607
0.09517526 -0.2770903 0.2121933 -0.08713113 -0.19376686 -0.24401808 -0.16916029 0.12495509
-0.22083709 0.17669436 0.28424835 0.25401992 0.22524993 -0.13053985 -0.2446835 -0.0005485629
0.0626822 -0.22424951 -0.031012882 -0.005805769 -0.052999765 -0.3600022 0.08003649 0.18853027
-0.14734411 0.36564824 -0.20583579 0.11743197 -0.25805572 -0.013623532 0.25648883 -0.25687525
0.2179413 0.15339929 -0.09864365 0.039204236 0.22342096 0.32055014 -0.24023235 0.14997856
0.24034211 -0.2424313 -0.024555558 0.056357063 -0.048418555 -0.444634 -0.30999324 -0.41294658
0.21012704 -0.31064758 -0.13079336 -0.08511366 -0.00010623679 -0.29899916 -0.2495695 -0.15620436
0.16589034 0.18035865 0.32980222 0.050647374 0.00014197784 0.16603884 -0.052985508 0.103439264
-0.10289271 0.20077804 -0.5690975 0.2864932 0.057759102 0.34745678 -0.050122898 0.28022808
-0.15474306 0.40757212 0.2916567 0.022761863 -0.32202473 0.25771156 0.09688725 -0.17179471
-0.1912638 -0.07106853 -0.2745407 -0.13806227 0.24175136 -0.22704524 -0.11868726 0.12643544
0.24984978 -0.2848508 0.23537253 -0.08482374 -0.20790951 0.06308364 0.012025316 -0.22274365
0.3088649 0.20589025 -0.11899449 -0.17964925 -0.10840945 -0.10443581 -0.1328862 -0.16681881
-0.11960491 -0.22562769 0.061178595 -0.20798655 -0.124127895 0.16470313 -0.019357735 0.27109885
-0.08087236 0.22197491 0.08848637 -0.12146742 0.09594174 -0.32268047 -0.03585847 -0.13672422
-0.27379584 0.41676134 0.097451724 -0.052456588 0.002446752 -0.020644397 -0.084011115 0.31086344
0.28736657 -0.16210184 0.096073136 -0.043377787 -0.07746469 -0.21238105 0.19235004 0.39297962
-0.26595932 0.08722759 -0.031664558 0.17707275 -0.2951445 0.044073857 -0.18806499 0.14673302
-0.16882974 0.18812299 -0.2412737 0.05565288 -0.21400416 -0.27054846 -0.44388443 0.12612258
-0.05231873 -0.3101497 -0.020428937 -0.17381401 0.29240704 0.16031288 0.07994705 -0.1527982
-0.21764801 0.42199442 0.063705444 -0.2909306 -0.10467689 -0.044335123 -0.037754163 0.16847876
0.0606369 0.24064296 -0.12894727 -0.46373722 0.19246738 -0.32731456 -0.321946 -0.16488217
-0.0017254791 0.21437578 -0.29034033 0.34291664 -0.42549026 0.17116016 0.090792924 -0.057398655
0.3866036 0.121295966 -0.052599713 0.038618494 -0.13651413 -0.009429817 -0.30635932 -0.0023535423

layers.2.bias f4 [32]
00000000: 4e83 b03a 623f 2bbc a094 afbb 35cf 03bc
00000010: 0eed 353a 8d1e 7fbb 63d2 443a 0740 e2bb
00000020: 78cb f339 6c49 233b 6e44 9039 3216 56ba
00000030: bc2b 0f3c b48e b93b 1e93 ddb9 1878 18bb
00000040: fb8f ffbb c253 113c 6712 ec3a a29f 88bb
00000050: ef0f 08bc 337c 033b 1db5 8537 5268 913c
00000060: 51e2 a9bc d748 92bb a1c7 023b aa00 97bb
00000070: d1fb 9fbb 2bad 37bc a127 423c 0cf6 083c
0.0013466866 -0.010452123 -0.0053582937 -0.0080450075 0.0006939926 -0.0038928122 0.00075081567 -0.0069046053
0.00046500168 0.002491559 0.00027516804 -0.00081667595 0.008738454 0.0056627635 -0.00042262016 -0.002326494
-0.007799146 0.008870067 0.0018010855 -0.0041694203 -0.00830458 0.0020063042 1.5939173e-05 0.01774994
-0.020737799 -0.0044642496 0.0019955414 -0.0046082335 -0.004882314 -0.01121072 0.011850269 0.008359443

layers.2.lin.weight f4 [32, 32]
00000000: f235 b3be 2f6b 363d d9eb 5e3d d2f7 c8be
00000010: 5ae7 8cbe 82ff 4a3e 36c6 d2bd 9166 003e
00000020: 6da8 7f3e 1e23 97bd 7873 c9bd aea7 22be
00000030: c78a 1dbe 9616 9abe 890d 1cbe 63a5 a83d
00000040: 7ac0 5d3e 5000 d9bd c15f 71be 2452 823e
00000050: c0bc 17be 3f07 513e 8686 3f3e d0d9 863e
00000060: ed8f 5ebe 30ec f53c fbde 80be 1636 b8be
00000070: 30cb 98bd e5b7 87be 4374 3a3e ebc2 99be
00000080: 865f 2b3e 51b6 cd3d 2b7d c93d 825a 5fbd
00000090: 683a a63b 5fe4 44be 3abb a9be acd3 e93d
000000a0: 0e3b 8b3d 7ec2 fe3d c2b7 153c f31b 87be
000000b0: 6bcc b7be 0de8 b43d c49d 88bc df0e 92bc
000000c0: 642d 96be 3ff2 7d3c cabf b73e d71a f0bd
000000d0: 3801 2ebe 59c6 e7be 406a 58bc d128 86be
000000e0: 4eb8 293b 7831 24be 0ffd c8bd cab2 27be
000000f0: 0d67 dabe 4731 b23e 321b 4f3e 852b 25bd
00000100: adcf 07be f66b 1cbd 6473 7abc c1bb 32be
00000110: b573 893e 66e7 d4bd 000b 043d fcde f3be
00000120: 5843 a23e 8455 9abd 106a a6bd 8641 3cbd
00000130: 0fa6 7cbc ee56 febd 69ac 89be 754f 243d
00000140: ede1 843e 8063 90be 52a2 7c3e d089 ccbe
00000150: 25f9 c0bd 7203 27be 063c e63d d283 2cbe
00000160: cee0 313e 12f7 1d3e 8444 bebe d277 533e
00000170: c318 0f3e 7279 813e 883f 353e 45ab 443e
00000180: 89ab 5a3d 6cc4 473d aa04 7fbe 2ee5 8cbe
00000190: 6272 abbc f26c 3d3e 5066 c83d 581a c6be
000001a0: 03e7 afbd 412b 30be 713b 1f3e 0506 c93c
000001b0: c720 a23d c25b 283e 621e 603e 3ad2 08be
000001c0: ecad 583d 8511 85bc c90b 8fbe 2f14 ad3e
000001d0: f3f9 a53e 989f 8a3d f6c3 a53e f5c0 803e
000001e0: d725 bcbd 7418 f0bb 50ed 59bd 9cbf 913e
000001f0: 3cce 72bc 4e07 d8be 7383 a23e 6e5c b73e
00000200: 66a9 5eba f032 a83e 3cc1 2d3d de6d 1fbe
00000210: f161 c7be 9527 493e 4300 e93d 017a c53d
00000220: c7a7 083e f9ff 62bd 14eb 8e3d e987 143e
00000230: c767 f73c 46b5 e63c fcce d2be 1960 89be
00000240: d353 bfbb 1817 aabe d507 603d d719 99bc
00000250: ab70 253e c77e a73e 8add 613e d240 c1be
00000260: 0166 c23d 68df 75be 9ff9 c93d f7e5 80be
00000270: 6355 75be f933 713e 9d71 d03d 74c5 be3e
00000280: 9c34 533e 97b7 653d 7b2e b63d 6db5 c5bd
00000290: 05bb cb3d c1b9 0ebd c398 6fbe a7bc 08bf
000002a0: 6db0 633e b989 cd3d 79b4 38bd 65a5 313e
000002b0: d2fe a63e 05b2 703e 7516 373e 9ad8 83be
000002c0: 9487 adbd d368 96be 954c a9be 288a 2ebe
000002d0: 25f9 6cbe 01f6 a3be c8d5 86bd 28fc d5be
000002e0: 6be7 b3bc 4daa 113e f8dc d93c e022 393e
000002f0: a910 803e 4d63 663e d5fa 1c3e 1c4f 0dbe
00000300: abbc ebbd 475b 85be 5b37 ae3d 6831 623e
00000310: c129 393d 3a8f 68bd 1933 8e3e 6de6 e0bd
00000320: 888e a43e 63d3 543e a455 083d 8709 1e3e
00000330: 48dc 6a3c 82ac b2be f191 69be 67a3 1b3e
00000340: 8325 9ebe ed81 70be 02f8 b23c 6f31 8a3e
00000350: 449e 7cbe eb4c 163e c39a 1fbe 585b 8abe
00000360: c6b6 0abe 6804 1ebe 2c0b f2bd 65a8 243e
00000370: 71cc b33d c9a0 cfbd 46f6 9e3e f91a e9bd
00000380: e1ef 97be 6798 1ebe 79b1 973e 2622 f7be
00000390: 0306 123e f8db 8c3e 975f 403e caf3 4abc
000003a0: 7ca8 193e 4577 40bc 976a e63d e3a6 6a3d
000003b0: 0159 b93e bb8e 473e a286 82be dacd 623e
000003c0: 5430 d8bc 7cc1 913e 1ff1 9abd 04ed 663e
000003d0: deb8 04be ecda 663d 0430 7c3e a9ec 2f3e
000003e0: 7e2d 453e d887 d53c 5ec2 083d 6b97 733e
000003f0: 1d12 503e 1316 04be d98d 0fbe bb9a b7be
-0.35002095 0.044535812 0.05442414 -0.39251572 -0.27520257 0.19824031 -0.10291712 0.12539126
0.24966593 -0.07379745 -0.09836477 -0.15884277 -0.1538497 -0.30095357 -0.15239538 0.0823467
0.21655455 -0.10595763 -0.23571683 0.25453293 -0.14818096 0.2041292 0.1870366 0.26338053
-0.21734591 0.03001985 -0.2517012 -0.35978764 -0.0746063 -0.26507488 0.18208413 -0.30031523
0.16735658 0.1004454 0.09838327 -0.054529674 0.0050728805 -0.19227742 -0.33150655 0.11417326
0.06798373 0.1243944 0.00913805 -0.2638851 -0.35898146 0.08833323 -0.016676791 -0.017829357
-0.29331505 0.0154996505 0.3588851 -0.11723869 -0.16992652 -0.45268515 -0.013208926 -0.26203015
0.0025897208 -0.16034496 -0.09813892 -0.16376796 -0.42656747 0.3480322 0.20225218 -0.040324707
-0.13262816 -0.038188897 -0.0152863 -0.17454435 0.2684609 -0.10395698 0.032237053 -0.4763106
0.31692004 -0.07535842 -0.081256986 -0.045960926 -0.015420451 -0.12418924 -0.2688935 0.04011484
0.25953618 -0.28200912 0.24671295 -0.39948893 -0.094225205 -0.16309908 0.11241917 -0.1684716
0.17370912 0.15426281 -0.37161648 0.20651177 0.1397429 0.25287968 0.17700016 0.19205959
0.053386245 0.048771307 -0.24904123 -0.275186 -0.020928565 0.1849859 0.097851396 -0.38691974
-0.08588984 -0.17204 0.15550019 0.024539003 0.07916408 0.16441253 0.2188659 -0.13361445
0.05290024 -0.016243706 -0.2793868 0.3380446 0.3241726 0.06768721 0.3237607 0.25147215
-0.09186905 -0.007327134 -0.053204834 0.284665 -0.014819678 -0.42193073 0.31740913 0.35812706
-0.000849387 0.32851362 0.04242061 -0.15569255 -0.3894191 0.19644006 0.11377003 0.09642411
0.13345252 -0.055419896 0.06978431 0.1450497 0.030200852 0.02816261 -0.41173542 -0.2683113
-0.00583885 -0.33220744 0.05469497 -0.01868908 0.1615626 0.3271391 0.22057167 -0.37744766
0.09492112 -0.24011004 0.098620646 -0.2517545 -0.23958354 0.23554982 0.1017792 0.3726002
0.20625538 0.056083288 0.08895584 -0.09653745 0.099477805 -0.034845117 -0.23398118 -0.5341286
0.2223527 0.10036034 -0.045093987 0.1734825 0.32616287 0.23505409 0.1787966 -0.2575119
-0.08473125 -0.2937685 -0.3306624 -0.1704489 -0.23141916 -0.32023624 -0.06583744 -0.41793942
-0.021960935 0.14225121 0.026594624 0.1807971 0.2501271 0.22498818 0.1533006 -0.13799709
-0.11510595 -0.26046202 0.08506652 0.2208916 0.045205835 -0.056777216 0.2777336 -0.1098145
0.32139993 0.20783763 0.0332848 0.15433322 0.014334746 -0.34897238 -0.22809578 0.15199052
-0.30887994 -0.23487063 0.021846775 0.2699084 -0.24669749 0.1467778 -0.1558638 -0.27022815
-0.13546285 -0.15431368 -0.11818537 0.16079862 0.087792285 -0.10138089 0.31047267 -0.11382098
-0.296752 -0.15487824 0.29627588 -0.4826824 0.14260106 0.27511573 0.18786465 -0.012387225
0.15005678 -0.011747186 0.11250799 0.05728806 0.36200717 0.19488041 -0.25493342 0.22148839
-0.026390232 0.2846793 -0.075655214 0.22551352 -0.12961146 0.056361124 0.24627692 0.17180122
0.19255635 0.026065752 0.033388488 0.2378823 0.2031941 -0.12899046 -0.14018954 -0.35860237

layers.3.bias f4 [32]
00000000: 8290 d8bb 5f49 febb 473f 05bd 85fd 45bc
00000010: 236f 433c d81f 5a3c 3df1 7ab8 5967 4fbc
00000020: 425c c73a 6ee3 0cbc 1f7a 22bc 255e 08bc
00000030: ad67 83bb ebb9 5c3b 62b6 dc39 09ee 7a38
00000040: a2f4 fc3b 2995 fbbb 7c33 a83b 8684 26bc
00000050: 7aaa 8dbb 4a07 e6ba 6cc6 e6bc 5f99 933c
00000060: 86a4 51ba 0ea2 59bc 7eec 0fbc caeb 83bc
00000070: 17f6 9b3a 9ec1 83bc b5fb 08bc cfd2 2ebb
-0.0066090235 -0.0077602114 -0.03253105 -0.01208437 0.0119283525 0.013313256 -5.9829315e-05 -0.012658917
0.001520999 -0.008599145 -0.009916811 -0.008323227 -0.004010162 0.0033680152 0.00042097556 5.9826332e-05
0.007719592 -0.0076776934 0.0051330905 -0.010163432 -0.004323301 -0.001754978 -0.028170787 0.018017469
-0.0007997233 -0.013283266 -0.0087844115 -0.016103644 0.0011898902 -0.016083535 -0.008360793 -0.0026675945

layers.3.lin.weight f4 [32, 32]
00000000: b97f 2e3d 97a3 b8be c14a a5bd adcd 2cbe
00000010: 9a5b dbbe e0c0 45be 9f4c dbbd b798 52bc
00000020: 2030 b03e 383d 833e 4bcd 8bbe 600f 4bbe
00000030: 35bc d03d 9d03 09be 6f60 89be 371d 0dbe
00000040: 3ae6 4ebe a952 5cbe 02fb fa3d 45c7 25bd
00000050: daf5 3a3d e0b2 933e edee 49be 60cd 85be
00000060: 1433 553d cd4b 183e cc75 2abe 931d a9be
00000070: afc7 843e 56eb 75be d1b7 29be a25e edbe
00000080: cc40 c8bd 2ced b9be af3f 43be 01a5 ef3d
00000090: 89c2 d33d 58cc 3bbe 66f9 75be a4a5 94bd
000000a0: 86b3 47be a879 0d3f dc47 2d3c fc44 46be
000000b0: 6b02 85be 5a29 733c eed0 683e 46bb 643e
000000c0: ef10 4bbe c497 2b3a eb1e 88bd 4302 683d
000000d0: a729 933e 97f8 30be 95c9 1f3e dcf3 de3d
000000e0: 70bb 10be 7e83 ca3e 3be1 913d bd4f 1b3e
000000f0: 9215 81bd 1106 64bd 78e5 f3be f219 03bd
00000100: 17e4 343d d6d0 a63d e5bf 57be 1886 c13d
00000110: 78db 96bd 7b50 12bc 444d 513e 335d 6ebd
00000120: 0045 47be 19f4 17be 9529 583e 7181 c43e
00000130: 66e4 94be 0d8c 273e 48b0 56bd 06ac c7be
00000140: 8066 abbe 7e77 b8bd 55d7 91bc 6f31 d3be
00000150: 17d3 813d 2db1 02bd f07e a33c 6081 16be
00000160: af63 dfbe 8c34 11be 3e76 d13d d463 c23c
00000170: 6c67 30be 8db8 f7bd 6f07 10be f5d2 df3d
00000180: 5e47 283e dbf4 3dbe 3e23 2fbd 800e 1f3e
00000190: 56cb 4abc a85f 0a3e fa5e b1be a96c 2cbd
000001a0: 9483 b33d f6b2 b23e ca7d 953c 399d 42be
000001b0: b736 c1be eafb c2be 8b20 4ebd 918b 453e
000001c0: 1a95 cdbe d359 ebbc 869f 25be 4cf6 14bd
000001d0: 2d9a 683e ff14 6fbe 6c94 923d c628 583e
000001e0: 5274 393e ab63 77be 632a 923e 78e6 c1bd
000001f0: a982 87bd 6eef bf3e 687d 43be 76e0 a23d
00000200: 78fe 00bd cfb6 91be 78ea 72be a5dd 3fbe
00000210: ecbe 94be ecc6 d53e eedf 2cbe 7e78 543e
00000220: 2a62 b0bd 1d80 d8be c94a 38be af61 c43d
00000230: b01a 49bd c7f8 a6bd c006 07be e4ef d83d
00000240: ea6a 46bd 851b 0f3f 603b e1bc efc4 193e
00000250: 6495 5e3d a814 d2be fbd7 953c b3a9 6ebd
00000260: 6bee 00be b1ae 15be 68cc 49bd 4f15 ca3e
00000270: 0dcf 883d 7b06 a3bd 24c6 89be 7fe4 023d
00000280: de2c d03d f6f8 0e3d da38 a8bc 9c1f 94bd
00000290: 00c8 afbe 7935 ae3e d8f8 e03d a62c adbe
000002a0: b680 2cbd 9499 bfbe b35a 16be cb04 1abe
000002b0: 942e eebd 0515 2c3e 4077 c5be 506c 0c3e
000002c0: ff81 dcbe 961d e73e 810d c63e fa5d 00bd
000002d0: 80c1 19be b352 713e a109 04be 5ad7 b8be
000002e0: cc02 90be 6238 dcbd ec54 cc3d ec9b 93be
000002f0: 0266 b83d f745 c93c 6635 04be 356c 4ebd
00000300: 9496 ad3b 98ea b33e 17a8 89be 8d58 82be
00000310: 1e97 5b3e 3829 1abe c7b8 803d f6de 993e
00000320: 4488 62be 6687 fcbd c663 ccbd b76e d93d
00000330: 4695 69bd 31b6 6fbe fd40 bd3c 4a98 7e3e
00000340: 7827 29bd c875 cbbe 3c31 fabc 772d 5cbe
00000350: 928f 4a3d bc86 08bf 57b7 813e eef9 e1be
00000360: e8c5 89bb 5960 a5b9 1ae8 163e 439a cd3d
00000370: e1d4 d73d 6db4 c4be 2f93 b63e 3969 783c
00000380: 47ab 733d d01a 8dbe 4ee7 e5bd 1869 5f3e
00000390: 5b70 eabc 3a14 d2bd 036e c33c 9ee4 acbd
000003a0: a9ae 76be 47ae f8be 59f4 85be f2ae 89bd
000003b0: 9ef8 193b 1bf2 7e3b 4157 c3be 167d 7b3e
000003c0: 3ed4 b1bd 9d38 2bbe 3c91 573e 36e0 acbe
000003d0: 688c 30be a42c 9abd 4901 2f3e 160a 30be
000003e0: 6895 0d3e 8080 cdbb 6ba0 9e3e 719b 8a3d
000003f0: fccc 113e 04b6 99be 4256 ebbc b270 06be
0.042602275 -0.3606231 -0.08070899 -0.16875334 -0.42843324 -0.19311857 -0.10707974 -0.012853793
0.34411716 0.25632644 -0.27305064 -0.19830084 0.10192148 -0.13380285 -0.26831385 -0.13780676
-0.20205012 -0.21515907 0.12254907 -0.04047324 0.04564462 0.28847408 -0.19720049 -0.2613325
0.052050665 0.14872666 -0.16646498 -0.33030376 0.25933596 -0.24015555 -0.16574027 -0.46361262
-0.09777984 -0.3631376 -0.19067262 0.11701394 0.10339839 -0.1833967 -0.24020919 -0.07258156
-0.19502077 0.5526376 0.010576215 -0.19362253 -0.25978407 0.014841402 0.2273595 0.22337064
-0.19830678 0.0006545747 -0.06646522 0.056642782 0.28742716 -0.1728233 0.15604241 0.10886356
-0.14134002 0.39553446 0.071230374 0.15167136 -0.06302942 -0.055669848 -0.47636008 -0.032007165
0.044162836 0.08145301 -0.21069296 0.094494045 -0.07366079 -0.008930321 0.20439631 -0.05819435
-0.19459915 -0.1483921 0.21109612 0.38380006 -0.29080504 0.16362019 -0.05241421 -0.3899843
-0.3347664 -0.09007166 -0.017802874 -0.41248652 0.0633909 -0.03190725 0.01995799 -0.1469779
-0.4363074 -0.14180201 0.10227631 0.023729242 -0.17226952 -0.12095747 -0.14065336 0.10928909
0.16433474 -0.18550436 -0.04275822 0.15532875 -0.012377581 0.13513052 -0.34642774 -0.042095814
0.08765331 0.3490216 0.018248457 -0.19005288 -0.37737057 -0.3808282 -0.050324004 0.19291522
-0.40152818 -0.028729355 -0.16174135 -0.0363677 0.22715063 -0.23347853 0.071572155 0.21109304
0.18110779 -0.24159114 0.28547964 -0.094677866 -0.06616718 0.37487358 -0.19090807 0.07952969
-0.03149268 -0.28459784 -0.23722255 -0.18736894 -0.29051912 0.41753328 -0.16882297 0.20749089
-0.08612473 -0.42285243 -0.17997278 0.09588944 -0.049097717 -0.08152919 -0.13186169 0.105926305
-0.048441805 0.55901366 -0.027494133 0.1501653 0.05434169 -0.41031384 0.018291464 -0.058267307
-0.12590949 -0.1461742 -0.049267203 0.39469382 0.06680117 -0.079602204 -0.26908982 0.031956192
0.10164808 0.034905396 -0.020534921 -0.072325915 -0.34332275 0.3402517 0.10984963 -0.33823127
-0.042114936 -0.37421858 -0.14683037 -0.15040891 -0.11629978 0.16804893 -0.38567543 0.13713193
-0.4306793 0.4513976 0.38682178 -0.031339623 -0.1501522 0.23566703 -0.12894298 -0.361018
-0.28127134 -0.10752942 0.09977135 -0.28829896 0.090038314 0.024569495 -0.12910995 -0.050396163
0.0052974913 0.35139918 -0.26886055 -0.25458184 0.21444365 -0.15054786 0.062852435 0.30052918
-0.22122294 -0.12330513 -0.09979968 0.1061682 -0.057027124 -0.23409344 0.023102278 0.24862781
-0.041297406 -0.39738297 -0.030541055 -0.21501718 0.049453326 -0.5333059 0.2533519 -0.44135994
-0.0042045005 -0.00031543037 0.14736977 0.10039189 0.1053865 -0.38418904 0.35659167 0.015161806
0.059489515 -0.2755952 -0.112257585 0.21817434 -0.028618028 -0.10257764 0.023856169 -0.08442043
-0.24090065 -0.48570463 -0.26162985 -0.06722821 0.0023494135 0.003890163 -0.38152507 0.24559435
-0.0868306 -0.16720815 0.21051496 -0.3376481 -0.1724106 -0.07528046 0.17090334 -0.17191347
0.13826525 -0.006271422 0.30981764 0.06767929 0.14238352 -0.3002168 -0.028727654 -0.13128927

layers.4.bias f4 [40]
00000000: 75f3 e2bd 6e92 10be 7c1f ef3d da27 27be
00000010: 60f7 8c3d 8240 023e 6b20 dfbd 8c4c 9ebd
00000020: b362 5b3c 72c9 7ebd f1a9 223e 7ef7 ccbd
00000030: cddb 53be 9464 89bc 1878 a6bd 370e 14be
00000040: ca1e fd3d 3f57 cdbd f11d 4ebe e412 e6bd
00000050: 0366 4a3e 3e81 97bd 7842 0fbe 6f69 02bd
00000060: 6a26 3c3e c82c 52be b327 0b3e bff8 b9bd
00000070: 68f0 e83d ec9e 15be 18d0 003e 6b97 233b
00000080: 2c5d 15be 3df7 bfbd 345f 053e 5169 26be
00000090: c95d 27bd d4fd 13bd b21c e9bd 1acf 023d
-0.11081592 -0.14118358 0.11675927 -0.16323796 0.068831205 0.1271992 -0.10894855 -0.07729444
0.013390231 -0.062203832 0.1588514 -0.10008143 -0.20689316 -0.016771592 -0.08128375 -0.14458548
0.12359388 -0.100264065 -0.20128609 -0.11234072 0.19765477 -0.07397698 -0.139902 -0.03183883
0.18374029 -0.20524895 0.13589363 -0.09080648 0.11373979 -0.14611405 0.12579381 0.0024962078
-0.14586323 -0.09373329 0.13024598 -0.16251113 -0.040860925 -0.03613074 -0.11382426 0.03193579

layers.4.lin.weight f4 [40, 32]
00000000: c780 a93e 9072 8cbe f7a0 9d3d 8d75 2dbe
00000010: 67aa 2dbe fa30 e8be 4814 d0be 0f27 b0be
00000020: fbc1 d0be dcb4 453e d7cc 9a3d b1cc 6bbd
00000030: 007e e1bd 91cc c6be db6f ad3e 4698 143e
00000040: 9877 4ebc d40d e13d f9ad 023e a988 893e
00000050: 267a e03d 3b76 783d 4e19 703d a99a a43d
00000060: a986 bebe a196 2c3c 972c 463e 4eeb 30be
00000070: 073c 77bd 1a0c a7be d7b6 a3be 53b1 b0bc
00000080: 20ea d8be de56 87be 065d 1c3e c473 2abe
00000090: 1570 f6bd f250 4abe c06b b9be d8ec bc3c
000000a0: faa4 e2bc 8bd4 adbc 78d2 8ebe 080b c83e
000000b0: 7341 62be db41 8dbc b9d2 abbd b41d 85be
000000c0: 9fc0 80ba 7214 abbe 1a54 4dbe 07d2 8ebe
000000d0: 8369 633d cdfe cf3d 1755 593d 7867 85be
000000e0: ff0b 513d 6e14 bd3d 029e ec3d 6bb7 7bbd
000000f0: 3ac3 7ebc 8ee3 843b 04ff 56bd 4da1 e1bd
00000100: e3dd 203e 3a5f a3be ca3f b0be 04f8 52be
00000110: f4e1 d33d 14d7 96bc bce7 b63e 01e0 953e
00000120: 83dd e13e c034 00be e5df 493d 6d4b c1be
00000130: e154 34bd fb8c 783e 028f 2fbc 871b 82bd
00000140: bc9d 67be aea8 903e 45c8 153e 3e97 5e3e
00000150: 4aab 05be 6aba 8abe 195c 96be 784f 753e
00000160: 92b6 89be f90e 1cbe aa31 033c 47c3 153f
00000170: 1614 b3be b417 7d3e 3fff db3d 1762 28be
00000180: 1c0d 53be 7f80 8d3e 8259 2fbe 607d 7dbe
00000190: 8846 823e 58cc a8be 5b2c 5d3d 5821 80bd
000001a0: e2d7 bc3b c316 adbe fb99 32bd 562f 2cbe
000001b0: 1923 123f 7cc2 29bd 544b c93c 4b9e 54be
000001c0: 4767 5f3d 51e1 0ebe d249 d2be b18b a0bd
000001d0: 3417 ffbc 3001 cbbd c15b 7dbe ba99 49be
000001e0: 769e d43e c1ae e03d ecf5 03bf 7cd2 f4be
000001f0: f21c bbbe 8f85 91be 9ef5 99be 16d3 793e
00000200: 2cf1 1ebe 2b02 6dbe e8b3 443c 6d6f bf3e
00000210: d642 903e 27be d33e deef 62be 4ba9 d83c
00000220: e524 32bd 8763 bdbe 2079 c93c a87f d03e
00000230: 04fe 5e3d e56f e73e 4535 0e3e de43 b3be
00000240: d4c8 263f 76d5 02bf 6791 a2bd 7735 463e
00000250: 368d 0b3f 9d4f 9cbe 4966 a8be bf52 60be
00000260: 6e9c 84be 6c74 66be 927c 433d 7f3a ca3e
00000270: 79fb 2abd 331c eebe 279a f3bc af05 98be
00000280: 7dec 703e 718b 80be d39b a3be 860d bd3e
00000290: cbb3 393e 3c5a a43d bbb4 91be 70a0 48be
000002a0: d6a7 b33e 3d33 f2bc edc7 52bd 1853 f73e
000002b0: 7271 d0bd 3377 8fbe 32b4 1abe 2ba7 e9bd
000002c0: bea7 05bd ee3c f13e e502 44be 49f1 05be
000002d0: 2929 083e 6a15 9dbe 3194 cf3e e9c5 4dbd
000002e0: 4343 fd3e 7186 fe3d b24b cfbd df2e bfbe
000002f0: b302 5e3e 61b7 20be c6e7 0dbe 1962 d9bd
00000300: fcde efbe b980 85bd 21c8 cdbe 279b 80be
00000310: 2ef3 cf3c 08dc 983d 055d 093f eb71 3ebe
00000320: d5ea 053f 7473 e3be 3420 79be d552 7a3b
00000330: 150d 283f 3052 f93d aef5 343b 02cf 5cbe
00000340: 426a 123d ce2d f6be 9f16 87be 6f22 9dbd
00000350: 9f45 b5be a211 bfbe dd01 52be a63e aabe
00000360: 77e4 ce3e 72a0 85be ec47 6cbe 5ef7 f9bd
00000370: 8025 84bd 5843 8cbe 68a4 07bf ef26 613d
00000380: 4e11 d8bd a3b1 833d ff65 283e 826e 63be
00000390: 9e35 3cbd 9fc7 afbe cbd7 593e cb48 92be
000003a0: f7a5 0cbe 8aef 983e 81e2 113e 7130 09be
000003b0: 2f7b 803c ce2e 80be 4c0d 943b 898d 82be
000003c0: 8aa4 02be 5fd0 183e 6c98 78be f92a c0be
000003d0: a124 99bc 4e0b 1f3e 5073 c73d 8944 023e
000003e0: a65e c2be 4541 ba3d ffc3 383d 462f e3bb
000003f0: 8d01 023e 0056 0fbe e12c f03d 215b 0abe
0.33106062 -0.27431154 0.07696717 -0.16939373 -0.16959535 -0.45349866 -0.40640473 -0.344048
-0.40772995 0.19307274 0.07558601 -0.057568256 -0.11010361 -0.38827947 0.338744 0.14511213
-0.012601756 0.10988966 0.12761678 0.26862076 0.10960798 0.06065963 0.058617882 0.080373116
-0.37212113 0.01053396 0.19352947 -0.17277262 -0.06035998 -0.3262642 -0.31975433 -0.02156893
-0.42366123 -0.26433462 0.1526986 -0.16645724 -0.12033097 -0.1975744 -0.3621502 0.023062155
-0.027666558 -0.021219512 -0.2789495 0.39070916 -0.2209528 -0.017243316 -0.083898015 -0.25999224
-0.000982303 -0.33414036 -0.20051613 -0.27894613 0.055520546 0.10156021 0.053059664 -0.26055503
0.05103683 0.09232412 0.11553575 -0.061454218 -0.015549475 0.004055447 -0.052489296 -0.11017094
0.15709643 -0.3190859 -0.34423667 -0.20602423 0.103458315 -0.018413104 0.35723674 0.29272464
0.44114313 -0.12520123 0.049285788 -0.37752858 -0.04402626 0.2427253 -0.010715248 -0.06352907
-0.22618765 0.28253692 0.14627178 0.21737382 -0.13053623 -0.27095348 -0.2936714 0.23956096
-0.26897103 -0.15240087 0.008007446 0.58501095 -0.34976262 0.24716073 0.10742044 -0.16443668
-0.2061047 0.27637097 -0.17123988 -0.24754858 0.25444436 -0.32968402 0.05399738 -0.0625636
0.00576304 -0.33806428 -0.04360388 -0.16814932 0.57084805 -0.04144524 0.024572052 -0.20763509
0.054541852 -0.13953139 -0.41071945 -0.07839144 -0.031138994 -0.09912336 -0.24742033 -0.19687548
0.41527146 0.10970832 -0.5154712 -0.47816837 -0.3654552 -0.2842221 -0.30070204 0.24396929
-0.15521687 -0.23145358 0.012005784 0.373897 0.28175992 0.41356012 -0.22161815 0.026447913
-0.043492217 -0.36989996 0.02459389 0.40722394 0.054441467 0.45202556 0.13887508 -0.35012716
0.6515019 -0.51106966 -0.079378895 0.19356333 0.54512346 -0.3052949 -0.32890537 -0.21906565
-0.25900596 -0.22505349 0.04772622 0.39497754 -0.04174373 -0.4650589 -0.029736592 -0.29691836
0.23527713 -0.25106385 -0.31954822 0.3692438 0.18134992 0.08025023 -0.284582 -0.19592452
0.35088986 -0.029565448 -0.051460195 0.48305583 -0.10177888 -0.2802063 -0.15107802 -0.11408838
-0.032630675 0.47116798 -0.19141729 -0.13080324 0.13296951 -0.306804 0.4054275 -0.05023757
0.4946538 0.124279864 -0.101218596 -0.37340447 0.21680717 -0.15694954 -0.13857946 -0.10614414
-0.4684981 -0.065186925 -0.4019175 -0.25118372 0.025384512 0.07463843 0.5365756 -0.18598144
0.5231145 -0.4442402 -0.24328691 0.0038196344 0.6564496 0.12173879 0.0027612257 -0.21563342
0.035745867 -0.4808182 -0.26384446 -0.07672583 -0.3540468 -0.3731814 -0.20508523 -0.33250922
0.4040868 -0.26098973 -0.23074311 -0.12205385 -0.06452465 -0.2739513 -0.5298524 0.05496877
-0.105501756 0.06430366 0.16445158 -0.22210124 -0.04594957 -0.34331986 0.21273725 -0.28571162
-0.13735186 0.29870254 0.1424656 -0.13397385 0.015683739 -0.2503571 0.0045181867 -0.25498608
-0.12758079 0.14923237 -0.24276894 -0.37532786 -0.018694224 0.15531656 0.09738791 0.12721457
-0.37962836 0.090944804 0.04510879 -0.0069331257 0.12695904 -0.1399765 0.1172731 -0.13511325

bns.0.weight f4 [32]
00000000: deb1 863f 892b 693f 6522 913f 96bb 823f
00000010: ca3a 8b3f e914 873f 24cf 613f 9153 8f3f
00000020: 6d32 7a3f 54fe 843f 828f 7e3f 202f 783f
00000030: 0c60 813f 16db 853f ec4f 793f 493b 863f
00000040: 4a57 753f db19 843f 32db 5d3f 640b 7f3f
00000050: 5b69 633f 9978 723f e7b1 863f af74 813f
00000060: 8ebe 813f c0bd 8d3f 9c6f 613f 5521 643f
00000070: 9095 713f 92db 923f af58 8a3f 5957 653f
1.0523031 0.91082054 1.1338621 1.0213497 1.0877316 1.0553256 0.88206697 1.1197377
0.97733194 1.0390115 0.99437726 0.9694691 1.0107436 1.0457485 0.97387576 1.0486842
0.9583632 1.032039 0.8666259 0.99626756 0.88832635 0.9471527 1.0523041 1.0113734
1.0136278 1.1073532 0.8806093 0.8911336 0.9436884 1.1473258 1.0808314 0.89586407

bns.0.bias f4 [32]
00000000: 69c5 a1bd 0e30 1fbe 3d6f 7a3e 96db 0b3e
00000010: bce3 333d 702e aabd f54a a6bd 79b5 4d3e
00000020: 6f33 d6bb 7e55 40bd ba8a c03d a743 37be
00000030: 5c77 d13d 744b bd3d f997 14bc c512 30be
00000040: ea8b bb3d 08df de3d ad5e 59be 4464 243e
00000050: bb5c 4d3c 083a b83d 63ef 063e 2e85 303e
00000060: cc2f f9bd 3fcf ffbd 0645 3a3e 6323 81bd
00000070: 32bd 013e f7f6 463e 92a9 7c3b 6780 2d3d
-0.07898981 -0.15545675 0.24456497 0.13657984 0.043918356 -0.083096385 -0.08119766 0.20088758
-0.006536893 -0.04695653 0.0940146 -0.17896901 0.10227844 0.09242907 -0.009069436 -0.1719466
0.09157546 0.108823836 -0.21227522 0.16053873 0.012534316 0.089954436 0.13177256 0.17238304
-0.1216732 -0.12490701 0.18190393 -0.063055776 0.12669829 0.19430147 0.003855322 0.042358782

bns.0.running_mean f4 [32]
00000000: b1a6 1fbe 917c 37bf ee6c aebd c95b bb3e
00000010: bd47 d1be 7870 713e 3e38 b03e 838b 42bd
00000020: 35b2 28bd 3223 82be 5eeb 2abf 4466 263f
00000030: 1ddb 88be d9d2 52bf 8e52 06bf df35 d63f
00000040: edb5 cebe 2c6f 94bf 9689 f43e 6aac 77be
00000050: 344e 0bbe ddc6 39bf 65ce 4dbf b926 51bf
00000060: 74a8 87bd 95c6 09be a6f9 b8bd c864 ecbe
00000070: 0a5b 28bf 543a 56bf 70f9 bebd b50e 22bf
-0.15590931 -0.7167445 -0.085168704 0.36593464 -0.40875044 0.2357806 0.3441791 -0.04749633
-0.041185576 -0.25417477 -0.6676539 0.64999795 -0.2672967 -0.8235298 -0.5246972 1.673519
-0.40373173 -1.1596427 0.4776122 -0.24186864 -0.13604051 -0.72569066 -0.8039306 -0.8169971
-0.06623927 -0.1345466 -0.09031992 -0.4617064 -0.65763915 -0.8368275 -0.0932492 -0.6330369

bns.0.running_var f4 [32]
00000000: 3a2e 6d3d 9952 023e bf53 ab3d 1bd3 e43d
00000010: 324f 013e 13c8 7b3d cea9 8c3d 3049 883d
00000020: fb70 a13d 30cc bf3d 6571 ef3d 2f15 ef3d
00000030: 1f91 9f3d 4f9b 363e c4e8 4d3e ec69 dc3e
00000040: 3090 0b3e 674b 5b3e 79c5 823d 28a6 f83d
00000050: f2a1 d73d 76ea 2b3e 4fd8 843e 6211 1f3e
00000060: ce73 b23d 3747 c63d 1e90 cd3d 5270 053e
00000070: ce68 223e 2ab7 823e 571c f53d 2842 fd3d
0.057905413 0.12726821 0.08365583 0.11173078 0.12627867 0.061470103 0.06868325 0.066545844
0.078828774 0.093651175 0.1169155 0.11673962 0.077913515 0.17832683 0.20108324 0.43049562
0.13629222 0.21415482 0.06385321 0.12141067 0.105289355 0.16788658 0.2594628 0.15533975
0.08713494 0.09681552 0.10037254 0.13031128 0.15860292 0.25530368 0.11968296 0.12366134

bns.1.weight f4 [32]
00000000: b463 903f 8f92 693f da99 803f 688e 843f
00000010: f508 843f 69d8 6b3f 1882 843f 2f80 7f3f
00000020: 6e3f 833f 178b 743f cf5f 8c3f 5d12 6e3f
00000030: 10e6 8b3f 4d54 833f 8758 763f 12e7 673f
00000040: 5d6a 843f a856 863f 9aa8 833f 69b6 883f
00000050: 3761 853f 9d38 843f 4e2b 7a3f 1a4a 853f
00000060: 9e1e 733f 9b4b 533f 0e10 683f 0611 843f
00000070: fd68 7a3f 9369 8c3f e947 8f3f 4dfa 803f
1.1280427 0.91239256 1.0046952 1.0355959 1.0315233 0.9212709 1.0352201 0.9980497
1.0253732 0.95524734 1.0966738 0.9299677 1.0929585 1.0260102 0.9622883 0.9058696
1.034496 1.0495195 1.0285828 1.0680667 1.0420293 1.0329777 0.9772233 1.0413239
0.94968593 0.8253724 0.906495 1.0317695 0.9781645 1.0969719 1.119382 1.0076386

bns.1.bias f4 [32]
00000000: cb7b a03d 344d a0bb 13db e4bd f328 763d
00000010: 6d02 843d d021 43be e6d5 c13d e81d d2bc
00000020: 7aa6 493c 9229 b53d 3302 d23d b42f 843d
00000030: 9c35 4cbd 4d09 8c3d 11f8 54bc 198a 92bd
00000040: e6c9 ac3d b473 143e fca3 07bb ffa2 c53d
00000050: 743b 633e c48b 243d 1fa6 b1bd bb1b 8ebd
00000060: 35de 14ba c618 1abd 9ed5 10bd 0cda 3d3d
00000070: 88a1 0a3c 9b8f 113e 2095 d23d 80cf a73d
0.07836112 -0.004892016 -0.111745976 0.060097646 0.06445775 -0.19055867 0.09464626 -0.025649026
0.0123077575 0.088458195 0.10254326 0.06454411 -0.049855813 0.068377115 -0.012998597 -0.07155246
0.084369466 0.14497262 -0.0020697108 0.0965023 0.22190648 0.040172353 -0.08674263 -0.06938883
-0.00056788634 -0.037621282 -0.03535997 0.046350524 0.008461364 0.14214937 0.102823496 0.08193874

bns.1.running_mean f4 [32]
00000000: 933d 023e 92da 41be 1549 6ebe b2c1 7cbe
00000010: c4c8 153b aaa3 acbe 4eb1 dbbe 5dff 05be
00000020: 931b 09bf 8b41 283f 07e1 75be 9ad9 f5be
00000030: 1c3b fd3e 7e18 c53c e78a 3dbf 1f07 2fbe
00000040: 6c5c b0bf 7bf9 8e3e 79a6 88bf 3976 76bf
00000050: 2dea b33e c1d9 99be 8578 94bf 94c1 83be
00000060: 1b59 7cbf 2245 6dbf 6e0d bf3e bffd 18be
00000070: 66d3 64bf ca76 62be 4329 0cbf 436b 33bf
0.12718801 -0.18931034 -0.23270066 -0.24683264 0.0022855261 -0.33718616 -0.4290871 -0.13085695
-0.535577 0.6572501 -0.24011622 -0.4801758 0.4945916 0.02405953 -0.74040073 -0.1709256
-1.3778205 0.27924713 -1.0675803 -0.96274143 0.351396 -0.30048946 -1.159928 -0.25733626
-0.98573464 -0.92683613 0.37314934 -0.14940546 -0.8938507 -0.22115627 -0.5475046 -0.70085543

bns.1.running_var f4 [32]
00000000: fa75 093f a6b1 203f ee07 b53e 2f48 f83e
00000010: 3407 363f bee0 bd3e 389e 643f 1e7f 513f
00000020: 3927 603f 9ac0 1f3f 654d 913f 2762 cb3e
00000030: cbd6 f43e da03 a33f 9b84 2a3f d984 073f
00000040: ec07 2d3f fdd2 883f 71e0 a13f ea9c 893f
00000050: 6f4d 273f 9aa0 613f 7d51 f23e 3886 523f
00000060: f19f da3f d0d9 313f ade3 483f e545 9a3f
00000070: 7286 133f 9233 243f aaf5 593f 3d8a 2a3f
0.5369564 0.6277107 0.35357612 0.48492572 0.7110474 0.37085527 0.8930392 0.8183459
0.8755985 0.6240326 1.1351744 0.39723322 0.47820124 1.273555 0.6660859 0.52937084
0.6759021 1.0689389 1.2646619 1.0751011 0.6535253 0.88135684 0.47327796 0.8223605
1.708006 0.6947298 0.78472406 1.205258 0.5762702 0.6414119 0.8514048 0.66617185

bns.2.weight f4 [32]
00000000: d007 863f 9943 7b3f b9ba 803f 3392 673f
00000010: 9649 983f 47cb 7e3f 20a0 6c3f 2b9d 583f
00000020: 78d3 853f ff5d a33f 1fba 5e3f 299f 753f
00000030: 2a45 723f f4b3 2f3f dd0f 923f ff6f 7c3f
00000040: 7ea9 733f b3d8 843f ade1 593f cece 883f
00000050: 962e 7c3f 5f16 553f 7443 4a3f 9b1b 993f
00000060: 2a7d 763f 88ba 8f3f 7be3 583f 7a0f 943f
00000070: 9172 6e3f 2ae2 7c3f a01e 8a3f 1228 853f
1.0471134 0.9815002 1.0056983 0.9045746 1.1897457 0.99528927 0.9243183 0.8461482
1.045516 1.276306 0.8700275 0.95945984 0.94636786 0.6863396 1.1411091 0.9860839
0.951805 1.0378631 0.8510998 1.0688112 0.98508584 0.8323726 0.79009175 1.196155
0.96284735 1.12288 0.8472211 1.1567223 0.93143564 0.987826 1.0790596 1.0402853

bns.2.bias f4 [32]
00000000: a33c f83d 2f7b b6bc c069 b7bb 1357 003d
00000010: 7583 a13d 9b3d 7c3d 12b9 02bc 30d5 bfbc
00000020: 81c7 c0bd 36f7 323e 8dd2 163e e395 b03d
00000030: 7ffb 2e3d 43d2 223e 95c1 183e 453a 023e
00000040: dbe4 f53c 5827 173e a258 47bd c460 1b3e
00000050: 5ea5 b9bd dac4 47bd 93c7 4cbe ee4e 4b3d
00000060: ccd6 3cbc 9e60 353e 9378 453b 6a37 05bd
00000070: 1fe0 adba fe36 50be 23e8 173e d0a1 8b3d
0.121209405 -0.022275535 -0.005597323 0.03133304 0.078864016 0.06158219 -0.0079786945 -0.023417085
-0.09413052 0.17477116 0.14728756 0.086223386 0.042720314 0.15900521 0.14917596 0.1271754
0.030016353 0.14761102 -0.04866851 0.15173632 -0.090647444 -0.048771717 -0.19998007 0.04963582
-0.011525821 0.17712638 0.0030131682 -0.03252355 -0.0013265646 -0.20333478 0.14834647 0.06817973

bns.2.running_mean f4 [32]
00000000: 1457 81bf bab8 38bf 910e 4cbe 776d 2b3f
00000010: 5fa8 f43d b0ac bebe 03b1 35be f7c9 4e3f
00000020: e9bb 86bf 81e2 70bf 4c8f 633f 5043 eebe
00000030: 38d9 f9be 5b4f af3e 29e4 7fbf c2f0 bbbf
00000040: a9ce 2abf ae20 73bf c6ea e4be 6096 7ebd
00000050: 484b 1c3e bd0e 74bf 36ac a73e f35e 20bf
00000060: 87b7 86bf 1f43 64bf e1d4 7fbf 3d48 cebd
00000070: 97f9 59be 03b9 5fbf 9370 ffbd 92ea 05bf
-1.0104699 -0.7215687 -0.19927432 0.66963905 0.11946177 -0.37241125 -0.17743306 0.80776924
-1.0526096 -0.9409562 0.8889053 -0.4653573 -0.48798537 0.3424023 -0.9995752 -1.4682848
-0.6672159 -0.9497174 -0.44710368 -0.062155128 0.15263093 -0.9533499 0.32748574 -0.6264488
-1.0524758 -0.8916492 -0.999342 -0.10072372 -0.21286617 -0.8739168 -0.12472644 -0.5231105

bns.2.running_var f4 [32]
00000000: 9baa 9a3f 8e4c 643f 4e38 213f acba dd3f
00000010: 71db fa3e 7262 4a3f 9126 083f 4af3 193f
00000020: 8c99 773f 6bfe 1a3f 9cba f93e 3b27 db3e
00000030: f739 193f e03e 493f b0dc b63f e1f9 b03f
00000040: e34d 933f d31e 7c3f ee59 b93f 7031 d93e
00000050: a2d6 da3e b7b8 313f 94a6 613f 4824 093f
00000060: c88e 5d3f 7483 733f f56c 893f 812a 103f
00000070: 94c2 c03f dac9 1d3f 900c 8f3f f75e c63f
1.2083315 0.89179313 0.6297654 1.7322593 0.48995546 0.79056466 0.5318385 0.60136855
0.9671867 0.6054446 0.48775184 0.42803368 0.5985407 0.78611565 1.4286098 1.3826257
1.1508144 0.98484534 1.4480569 0.4242053 0.42741877 0.6942248 0.88144803 0.53570986
0.8654599 0.95122457 1.0736376 0.56314856 1.505938 0.61636126 1.1175709 1.5497731

bns.3.weight f4 [32]
00000000: 389b 9f3f 160e a43f 6e71 9e3f c8b4 a33f
00000010: 446b a33f 5b5a 963f 2d54 903f 52f5 9a3f
00000020: db09 ad3f 5e94 a83f 5ce7 973f bb1a 833f
00000030: 666e a23f e1ae 9b3f d396 ae3f 7eab 873f
00000040: 68ba 9a3f 99d7 9d3f 4f7b 993f 1f98 a43f
00000050: 7d48 9b3f 79d1 9d3f 0151 a63f d0d0 883f
00000060: 6dba 953f 8848 a03f 099a 823f cac8 a43f
00000070: a5d1 9b3f 4e69 9a3f 62ac 993f f48e 9d3f
1.2469244 1.2816799 1.2378366 1.2789545 1.276711 1.1746324 1.1275688 1.2106116
1.3518633 1.3170278 1.186748 1.0242532 1.2689941 1.2162744 1.3639778 1.059921
1.2088137 1.233142 1.1990756 1.2858924 1.2131497 1.2329551 1.299347 1.0688725
1.1697518 1.2522135 1.0203258 1.2873776 1.2173353 1.2063386 1.2005732 1.2309251

bns.3.bias f4 [32]
00000000: ade6 4b3e 60e1 793e e675 393e 467d 573e
00000010: 4d60 913e c983 203e 2f02 af3d 569b 373e
00000020: 72c9 6e3e 598c 6a3e 4a2c 103e cea3 12bd
00000030: 2bfe 4d3e c144 5a3e 0557 2d3e 909b fb3c
00000040: c8c0 473e 8915 313e 8d99 3e3e d525 563e
00000050: e56b 523e a0be 0d3e 8650 913e c4a8 ec3c
00000060: 8cee aa3d 5b98 353e 59e5 173d 161f 3f3e
00000070: 131a 5e3e e454 983d 49c3 f43d 33fe 853d
0.19912215 0.2440238 0.18111381 0.21043882 0.28393784 0.15675272 0.08545338 0.1793035
0.23319033 0.22905101 0.14079395 -0.035800748 0.20116489 0.2131529 0.16927727 0.030713826
0.19507134 0.17293371 0.18613262 0.2091287 0.20548971 0.13842249 0.28381747 0.028889067
0.083462805 0.177339 0.037083957 0.18664202 0.21689634 0.074380666 0.1195131 0.06542625

bns.3.running_mean f4 [32]
00000000: b3b7 c2bf 9363 823a 354b 8abf 386c 62be
00000010: 2db4 ebbe 3ecb 5dbf 8653 f5be dc9e 8ebf
00000020: 44d2 58be 12b3 18bf 877f 22be bc40 01bf
00000030: 4f3f 1fbd 0c00 22bf 1b1a 5e3c 582e de3e
00000040: 7716 82ba 00d1 fdbe c663 58bf 15f3 b0be
00000050: 00f5 7ebf df26 123f 0c16 02bf 1589 79be
00000060: bcab 203f efc2 eebe 4ca1 febe 8261 28bf
00000070: 5692 f8bd 177b 06bd 166d 07be 7ce2 07be
-1.521231 0.0009947888 -1.0804201 -0.22111595 -0.460359 -0.8663825 -0.47915286 -1.114223
-0.2117396 -0.5964824 -0.1586896 -0.504894 -0.038878735 -0.6328132 0.013556029 0.43394732
-0.0009924908 -0.49573517 -0.8452724 -0.34560457 -0.9959259 0.5709056 -0.5081489 -0.24368699
0.62762046 -0.46633098 -0.49732435 -0.65773785 -0.12137286 -0.03283223 -0.13225207 -0.1326999

bns.3.running_var f4 [32]
00000000: d5e0 d03f 2119 1c3f 59a3 a33f aee7 3a3f
00000010: ec48 603f 5d9e 9c3f dcaa 593f 37d8 973f
00000020: 898d cf3e 9f3e c53f 35aa 023f 0554 2a3f
00000030: ed76 673f 0987 773f 60fd 5e3f 3bfd 883f
00000040: d8cb 5c3f 5007 433f 87e4 803f bb49 783f
00000050: ddf8 963f 8ada ad3f d4f3 1b3f 8c74 5d3f
00000060: b31b 473f 4db7 373f c07a 843f 2f77 343f
00000070: 0190 7c3f cf2d db3e 571c 503f 178d ed3e
1.6318613 0.60975844 1.2784225 0.73009765 0.8761127 1.2235829 0.85026336 1.1862859
0.4053767 1.5409735 0.51040965 0.66534454 0.9041584 0.9669042 0.8710537 1.070228
0.8624854 0.76183033 1.0069741 0.96987504 1.1794697 1.3582318 0.6091893 0.8650596
0.7777664 0.7176407 1.034996 0.7049436 0.9865723 0.42808387 0.81293243 0.46396706
