saved/elliptic_SAGE_s7.pt (torch, 81545 bytes, 31 tensors)

convs.0.lin_l.weight f4 [32, 165]
000000 b1 d9 bf 3d 8f ea ba bc 15 04 ee bc 0a 86 9c bd
       0.09367693 -0.022816924 -0.02905468 -0.076427534
000010 60 5e a3 3c 67 7e ff bd 71 02 39 bd 19 ee 58 3d
       0.019942462 -0.12475281 -0.045168344 0.052961443
000020 0c 26 f6 3d cd f1 1f 3e ff 8d 02 3e a2 7f ea 3d
       0.120189756 0.15619583 0.1274948 0.11450125
000030 88 bf 11 3e e2 78 b5 bc 98 1f 50 3d 45 ac e6 3d
       0.1423322 -0.022152368 0.05081138 0.112633266
000040 4e 62 b7 3d e4 06 bc bd c3 9f 04 be 5e 92 8d 3c
       0.08954297 -0.09181002 -0.1295157 0.017281707
000050 2c 1d 97 bb 52 9e 84 3d 7f 41 6a bc e5 14 26 be
       -0.004611632 0.0647551 -0.014297842 -0.16218908
000060 05 90 ab bd 75 de 3d 3c b9 29 20 bd 2a f5 83 3d
       -0.08377079 0.011588682 -0.03910229 0.06443246
000070 2b 3a 04 bd 99 dd f4 bd bf 10 08 bd 83 a4 db 3d
       -0.032282036 -0.11956329 -0.033219095 0.107247375
000080 39 4a 21 3d ab 46 11 3c 6a a2 ab bd a5 56 0b bd
       0.039377425 0.008866946 -0.083805874 -0.034018178
000090 a6 5f b2 bd 71 91 81 3c 2e a1 c6 bc 43 2b b8 bd
       -0.0870965 0.015816422 -0.024246778 -0.089926265
0000a0 a5 bf be bd a1 28 b6 bd 09 38 4b be ec 5b b2 bd
       -0.09313897 -0.08894468 -0.19845594 -0.08708939
0000b0 5a 56 ba bd 9a 42 17 be 79 36 fe bd 81 7a 8d bd
       -0.090985015 -0.147715 -0.124127336 -0.069081314
0000c0 78 dc 3e be a5 35 30 3d be 5d 65 bc 4a f9 30 be
       -0.1863879 0.04301991 -0.013999401 -0.17282596
0000d0 ba 66 c1 3d b0 3f 22 3e 04 0b 06 bd 09 a6 1a 3d
       0.09443422 0.15844607 -0.03272535 0.037756
0000e0 14 1b 83 3c a0 eb 05 3e 82 41 9b bd 01 78 2a 3d
       0.016004123 0.13078165 -0.07580854 0.04161835
0000f0 8d 92 42 bd c4 1c d6 3c ff 09 b6 3d 68 60 2c 3e
       -0.047503043 0.026136763 0.08888625 0.16833651
000100 af e2 b0 bd 91 ad 41 bd 12 c7 b3 bd 3f b1 34 3d
       -0.086369865 -0.047284666 -0.08778204 0.044114348
000110 56 1f 3d 3d a3 de 2b be 8f 90 85 bd 0b ad aa bd
       0.046172462 -0.16784148 -0.06521713 -0.083337866
000120 20 7c 99 bd 79 61 27 be 78 d1 23 bd e8 ae c3 3c
       -0.07494378 -0.16345777 -0.039994687 0.023887113
000130 a4 8f 06 be 87 68 62 be 38 8a 09 be 38 27 da 3b
       -0.13140732 -0.22110187 -0.13431633 0.0066575073
000140 18 5d d6 bd a6 84 43 3d 83 a0 f0 bd 56 47 c1 bd
       -0.10466975 0.047733925 -0.11749365 -0.094374344
000150 1c 78 f8 bd 12 f5 19 3d c4 e9 95 bd 53 c8 42 bc
       -0.12132284 0.037587233 -0.07319978 -0.011888581
000160 57 5b ec bd 54 3e 7f bd 6e 15 b7 bc ee bb c9 3d
       -0.11540859 -0.0623153 -0.022349086 0.09850298
000170 a5 f7 ac 3d f5 79 03 be 07 f5 aa 3d 42 a4 af 3d
       0.08445672 -0.12839492 0.083475165 0.085762516
000180 7f a2 31 bd ba b6 31 be e5 ea 82 3d 46 41 bb 3a
       -0.04336786 -0.17354861 0.06392459 0.0014286421
000190 8a 60 99 bd 3d a7 cd 3a db 84 b9 3c 01 98 c4 bd
       -0.074891165 0.00156901 0.022646358 -0.09599305
0001a0 2b cd cc bc 4c 57 4c 3d 4e 66 43 bd 07 6b a6 bd
       -0.025000175 0.04988794 -0.047704987 -0.081258826
0001b0 08 6d 83 bd 6f bd 1e 3e 35 ba e5 3b 08 9b be bd
       -0.064172804 0.1550195 0.007010723 -0.093069136
0001c0 cc 3e 43 3d 0e 2d 0f 3d 1a 49 8e bd 87 49 ed bd
       0.04766731 0.034955077 -0.06947537 -0.1158629
0001d0 54 cd d0 bd 1f c0 c0 bd 4a 63 55 3d d6 fc 60 3c
       -0.10195413 -0.09411644 0.052096643 0.013732156
0001e0 a6 c0 e3 3d d7 18 f4 bc 37 08 a6 bd 97 1c f5 bd
       0.11120729 -0.029797 -0.081070356 -0.11968344
0001f0 77 1f a0 bd 92 c3 8e 3d 30 37 6b 3b 6b 66 0c be
       -0.078185014 0.06970896 0.0035891049 -0.13710944
000200 40 70 75 bd 7d 60 6e bd dd 07 5f bb 96 a3 95 bd
       -0.059921503 -0.058197487 -0.0034031786 -0.07306592
000210 80 70 3d 3c 3f f7 ca 3b f7 2b 77 3d 4d 68 25 be
       0.011562467 0.006194025 0.060344663 -0.16153069
000220 37 41 8f bc cc 35 a4 bd 29 6d a3 bd 50 fa b8 3d
       -0.017487152 -0.080180734 -0.07979805 0.09032118
000230 bf 6f 92 3b 05 55 b5 bc 6f 6a 0c be 44 ff a4 bd
       0.0044688876 -0.022135267 -0.13712476 -0.080565006
000240 d3 00 1b bd 2c 8b 65 39 ab 78 09 be 65 7f 8b bd
       -0.037842583 0.00021890987 -0.13424937 -0.06811408
000250 2d 49 06 bd 59 98 86 3d ac 86 ed 3d 02 a7 07 3d
       -0.03278463 0.06572027 0.11597952 0.033118255
000260 67 5e 8c 3d 42 58 13 be c2 5f 18 be 58 9b dd bc
       0.06853943 -0.14389136 -0.14880279 -0.027051613
000270 83 c6 75 bc 8c d0 d4 bd 2d c5 91 3d c8 48 49 3e
       -0.015000942 -0.1039134 0.071176864 0.1965667
000280 16 cb 2c be ce e6 a5 bd 43 82 fa bd 82 f7 98 3b
       -0.16874346 -0.08100663 -0.12231877 0.004668177
000290 bb 0d ee bd a0 56 e9 3c ae d1 df bd 1e ba 2a 3e
       -0.11623713 0.028483689 -0.10928665 0.1667256
0002a0 fd c4 77 be 65 19 46 3d 15 16 70 be 34 08 cd bd
       -0.24196239 0.04836406 -0.23445924 -0.1001133
0002b0 d3 fc f9 3c 94 02 a7 bd 02 e1 42 bc fb 3b ba bc
       0.030516064 -0.081547886 -0.011894466 -0.022733679
0002c0 30 ae 4b 3c 66 01 bf bd 94 00 c0 3c 34 67 64 be
       0.012431666 -0.093264386 0.023437776 -0.22304994
0002d0 43 96 d8 3d 54 29 a9 3d 41 e0 54 3d 67 af d1 3d
       0.10575535 0.08259836 0.051971678 0.102385335
0002e0 35 c1 f5 bc fb 55 eb bd a8 f4 d8 3d a1 d4 a8 3d
       -0.029999355 -0.11491009 0.105935395 0.08243681
0002f0 da b7 41 3d 17 4b 06 3d e9 d5 1e bd 4e d2 83 bd
       0.047294475 0.032786455 -0.03877822 -0.06436597
000300 6b 5e 61 3d 26 2a a5 3c 81 05 b6 bc 86 72 d8 3d
       0.055021685 0.0201617 -0.022219421 0.105687186
000310 70 e2 af 3c da 2f 08 bd 5b 82 fe bd 99 b1 90 3d
       0.021470279 -0.03324876 -0.12427207 0.07065124
000320 cf 41 b6 3d 9e e1 14 be 28 2e 0b be 75 ed 37 be
       0.08899271 -0.14539191 -0.13591826 -0.17961676
000330 bd 14 e8 bd 77 36 b6 bc 03 d6 54 3d fb fd 1f be
       -0.113320805 -0.022242768 0.05196191 -0.1562423
000340 d7 1e ce 3d d2 98 c0 3d 08 32 be bc 6c 9a d6 bc
       0.10064476 0.09404148 -0.023217216 -0.026196681
000350 a6 72 8b 3d 31 e6 ed bd c1 c7 8c 3d 18 cd af 3b
       0.06808977 -0.11616171 0.068740375 0.0053650253
000360 d4 f1 1c 3e 43 7e a8 3d dc f7 6a bc c7 25 85 3c
       0.15326625 0.082272075 -0.014341321 0.016253365
000370 5c 7c 00 bc 0c d3 c8 bd 2e 16 0c be 57 a8 43 bc
       -0.00784215 -0.09805879 -0.13680336 -0.011941991
000380 c9 69 7b 3d b9 55 29 bd 8e e8 c3 3c ba 9d bc bd
       0.06138018 -0.041341517 0.023914602 -0.092097715
000390 56 21 0e be 6b 54 97 3d cf c7 9c 3d 67 55 87 3d
       -0.13879904 0.07389148 0.07655298 0.06608086
0003a0 93 b6 31 3d e5 e2 9a bd 76 5a 33 bd 9f 26 58 3c
       0.043387007 -0.07562808 -0.043787442 0.013192802
0003b0 e3 6e cb bc 2c 21 b7 bd d2 98 80 3d 9b dd 31 bc
       -0.024833148 -0.08941874 0.06279148 -0.0108560575
0003c0 c1 50 e9 3d 38 1c f2 bb 42 f8 80 3d 48 23 24 bb
       0.11392356 -0.007388618 0.062973514 -0.0025045443
0003d0 11 64 a8 3d a7 7d b6 3c c7 64 6f bc 1e 0f 07 3d
       0.08222211 0.022276713 -0.01461143 0.0329734
0003e0 04 7b 42 3b c8 bb 30 bd 27 7d 95 bd 61 ba 86 bd
       0.0029675374 -0.043147832 -0.072992615 -0.06578518
0003f0 c3 f5 1f be 04 ce cd 3b 58 43 f5 3d b1 0b d2 3c
       -0.15621094 0.0062806625 0.119757354 0.02564034

convs.0.lin_l.bias f4 [32]
000000 55 0d 48 bc 8d 8c 76 3d 4f 96 89 3d 6e 69 6d 3c
       -0.01221021 0.060192633 0.06718122 0.014490468
000010 7a cd eb bc 7a 9b 49 3c b6 2b 47 bd 36 3e 4b 3d
       -0.028784502 0.012305135 -0.04862567 0.049619876
000020 ba b0 96 3d ff 1a 17 3d d3 f6 77 3d 4e 76 9f 3d
       0.07357927 0.03689098 0.060538124 0.07786237
000030 65 40 bd 3c 28 2a d1 3c 20 37 0c 3d 3b 3c ee 3c
       0.023101995 0.025532797 0.03423226 0.029081455
000040 91 35 06 bd 19 19 85 3d c4 d7 7f 3d 9b 65 89 bd
       -0.03276593 0.064989276 0.06246163 -0.06708833
000050 cb 15 96 bd 58 42 8f bd d5 9e 9b 3d c7 65 13 3d
       -0.073283754 -0.06995076 0.07598654 0.035985734
000060 c9 09 eb 3c 31 7d 73 bd d4 63 b2 3b e0 27 66 3d
       0.02869119 -0.059445564 0.0054440293 0.05619037
000070 2b 2f 67 bc c5 84 44 bd e0 70 d5 3c a2 35 83 bc
       -0.014110367 -0.04797818 0.0260548 -0.016016785

convs.0.lin_r.weight f4 [32, 165]
000000 2b 40 37 be 1c 1c 15 be be f8 85 3e b9 23 8a bd
       -0.17895572 -0.14561504 0.26166338 -0.06745095
000010 a4 0b 44 bd 66 e0 30 3c 8d da 21 be d6 d9 68 bd
       -0.047862664 0.010795688 -0.15806027 -0.05684837
000020 90 ec da bd e4 0a 72 bd cb e1 1d be d0 b6 4a 3e
       -0.10689652 -0.059092417 -0.15418164 0.197963
000030 c3 38 54 3d ac ae 93 3d 9b cf b0 3e 74 2a 6d 3e
       0.051811945 0.072110504 0.3453339 0.23160726
000040 8a 26 2e be cb b2 c7 bb eb e5 b9 bc c4 ba 20 3e
       -0.17006889 -0.006094312 -0.022692641 0.15696245
000050 80 59 11 3e d6 56 c0 3d 3a 1b 60 bd 9d bc 67 bc
       0.14194298 0.09391563 -0.054713465 -0.01414409
000060 fe 8d 85 bc 5b 24 1f be e9 5c df bd ec 45 84 3d
       -0.016303059 -0.15541212 -0.10906393 0.06458649
000070 ae 2d e9 bb 46 ee 31 bd aa 13 9d bb 7c 60 81 bd
       -0.007116041 -0.043440126 -0.004793604 -0.06317231
000080 68 a2 2c be 91 c2 da 3d 48 23 9c 3d 24 e4 f3 bd
       -0.16858828 0.10681642 0.07623917 -0.11908749
000090 ad 86 e3 3d 61 35 b8 bc 59 7f a4 bc c7 69 35 be
       0.11109672 -0.02248639 -0.020080255 -0.17716132
0000a0 54 68 80 be 8b dd 33 be 5a e6 a9 be c9 ef 12 be
       -0.25079596 -0.1756498 -0.33183557 -0.14349283
0000b0 58 3f 59 be c0 c3 2c be be 49 6a be 68 ca bd bd
       -0.2121557 -0.16871548 -0.22879693 -0.092671216
0000c0 f0 87 60 be 3d 28 44 be ae 0f 59 be ce 12 06 3e
       -0.21926856 -0.19155975 -0.21197388 0.13093111
0000d0 ab 4b 1a 3d 79 b5 c8 3d b7 b1 fe 3d 17 40 a2 bd
       0.03766982 0.09800238 0.1243624 -0.079223804
0000e0 66 7e 37 be 5b d6 97 ba 22 99 05 bd 9d 7e 2f 39
       -0.17919311 -0.0011584269 -0.032616742 0.00016736468
0000f0 ff 25 f5 bd 7e 98 f9 3d ad f8 b8 3d d8 38 1c 3d
       -0.11970138 0.12187289 0.09031806 0.038140148
000100 dc 1c 71 bd 91 70 f0 bd cb ef 38 bd 9d f0 7a 3d
       -0.058865413 -0.1174022 -0.04515056 0.061264623
000110 56 79 e8 3d 31 2b b5 bd d2 d9 01 bd 28 30 58 bd
       0.11351268 -0.08846129 -0.03170187 -0.0527803
000120 42 c4 f7 bd 00 7d f0 bc de fb c5 bc 10 a4 49 3d
       -0.1209798 -0.02935648 -0.024167951 0.049228728
000130 db b2 00 be 8e 28 5a be 61 88 2e be 5c 7f fd bd
       -0.12568228 -0.21304533 -0.17044212 -0.123778075
000140 e7 e2 f6 bd 54 81 a0 bc a1 69 3b be 37 cc 61 be
       -0.12054997 -0.019592918 -0.18302013 -0.22050558
000150 0b 79 fc bd bb 5b 7c bd eb fe 4b be 71 64 27 bd
       -0.123277746 -0.06161092 -0.19921462 -0.040867273
000160 75 82 b7 3c 45 7e b9 bb 17 77 25 3d b7 41 98 bd
       0.022401074 -0.0056608045 0.040396776 -0.07434409
000170 47 d6 84 bd 94 da ca 3d 2f 89 e2 3c b3 8c c6 3d
       -0.06486183 0.09904972 0.027653305 0.09694805
000180 80 d2 cb 3d 61 07 5f bc fb 29 f5 bd fc 5d fe bd
       0.09952259 -0.013612599 -0.11970898 -0.1242027
000190 35 f5 4d bd 0c 00 ec 3d 61 81 4f bc 98 6b d6 bc
       -0.050282676 0.115234464 -0.012665124 -0.026174352
0001a0 53 20 19 be 78 67 b2 3e b7 f6 44 bd bf d4 71 3d
       -0.14953737 0.34844565 -0.048086848 0.05904078
0001b0 04 84 74 3d b6 55 db 3d 6d 9f 1e 3e 5a 78 04 be
       0.059696212 0.107097074 0.15490504 -0.12936535
0001c0 8b 27 b8 3c 53 a1 bf 3d 9b 69 19 bd 14 b1 8d bd
       0.022479793 0.09356942 -0.03745423 -0.069185406
0001d0 49 be 08 be da 31 37 3e 7a d4 56 bd d0 0a b5 3c
       -0.13353838 0.1789011 -0.052448727 0.022099882
0001e0 e9 fb d6 3d 68 ed ba bd 52 1e b4 bc c0 67 fe 3c
       0.10497267 -0.09127313 -0.021987114 0.031055331
0001f0 59 4b 9d 3d 66 21 47 3d d5 04 82 3d b4 f8 d3 3d
       0.07680387 0.048615836 0.06348578 0.10350171
000200 33 93 9d 3d 88 53 a9 bd 8a eb 17 be a9 a4 5e 3e
       0.07694092 -0.082678854 -0.14835945 0.217425
000210 70 d7 e2 bc 00 11 20 bc 56 1c 2e 3d 13 20 4b be
       -0.02769062 -0.009769678 0.042507492 -0.19836454
000220 a1 54 16 be 66 2e 3b bd d1 31 68 bd de a6 5e 3c
       -0.14680721 -0.045698546 -0.056688134 0.013589589
000230 e9 46 ba bc 92 38 15 be 4a 89 08 be ca bf cf 3d
       -0.02273889 -0.14572361 -0.13333622 0.10144003
000240 e3 34 88 be 96 62 8c bd 6f b1 04 3c bc 90 3c be
       -0.2660285 -0.06854741 0.008098944 -0.18414587
000250 b5 a4 37 3e 5b 02 62 3e 80 5f e3 bd e3 8a 16 3e
       0.17933924 0.22071211 -0.111021996 0.14701419
000260 22 6b eb 3d bf fa 66 be 05 48 03 be 8a ac 04 bd
       0.11495043 -0.2255659 -0.12820442 -0.03239111
000270 62 35 04 be 8b e7 d2 bd ff c8 0b be b8 5c 46 bd
       -0.12910989 -0.102980696 -0.13650893 -0.048428267
000280 1c 2d ab 3c 5f b5 33 3d 61 a2 da 3d 4f bc 64 3e
       0.020895533 0.04387414 0.106755026 0.22337459
000290 99 fa 5c 3e 30 cc 20 3c c6 34 87 3d 9f 63 a9 bd
       0.2157997 0.009814307 0.066018626 -0.08270954
0002a0 3d b4 21 3c 17 6c 8c 3d 88 ce b2 bc 73 25 a5 bd
       0.009869632 0.06856554 -0.021826997 -0.080637835
0002b0 7a 1e d7 3d d2 2b 11 3d 07 ba 85 3d 72 4b 47 3b
       0.1050386 0.03544218 0.065296225 0.003040996
0002c0 c2 61 06 3d 17 0e c8 bd 6c ed b1 3d 00 64 00 bd
       0.032808073 -0.097683124 0.08687863 -0.031345367
0002d0 e1 4d 7c 3d 56 00 c4 3d 50 69 c4 3d fc da e3 3c
       0.06159771 0.095703766 0.09590399 0.02781438
0002e0 d2 65 fb bd af 00 f3 bd 66 b9 40 3d a3 e8 d2 3d
       -0.1227528 -0.11865365 0.04705181 0.10298278
0002f0 9b f9 5a 3d 0e 3e 32 3d 08 93 0c 3c c9 65 ab 3d
       0.0534607 0.04351621 0.008579977 0.08369023
000300 51 ca a2 3c b5 f2 02 bc 87 6a 93 3d 8b 36 c7 bc
       0.019871863 -0.007992436 0.07198053 -0.024318
000310 9c 17 88 bc 26 6c f0 3d 38 98 0f be 6a 0e 1a bd
       -0.01661282 0.11739378 -0.1402291 -0.037611403
000320 de af e7 3c 6d af 54 bd 6e fc bc 3d 6c af ac 3c
       0.028282102 -0.05192511 0.09227835 0.021079741
000330 dc b2 29 3c 20 98 e9 bc 29 63 9d 3d 93 04 bc 3d
       0.010357585 -0.028514922 0.07684929 0.0918056
000340 d6 95 b5 3c 9d f0 fc 3c 77 de 97 3c cd 16 d7 bc
       0.022166174 0.030876452 0.018538697 -0.02625599
000350 f9 85 e0 3d aa 81 ad 3d 1c d0 91 3d 3b 16 df 3c
       0.10963053 0.08471997 0.07119772 0.02723228
000360 6c 24 02 3d dd 2d 6f 3d 23 fe 9e 3c 6d 25 ba 3c
       0.031773016 0.058393348 0.019408291 0.022722924
000370 ff 53 3f 3d e3 9e b7 bc bb 53 e3 bc d7 48 fb 3d
       0.046710964 -0.02241463 -0.027749887 0.122697525
000380 a1 1f e0 3d ae 46 cb 3d 4e c9 16 3d a6 4c c3 3c
       0.10943533 0.099255905 0.036813073 0.02384026
000390 8b c0 b7 3d 69 f0 87 bb d7 a5 01 bd a8 85 a8 3d
       0.089722715 -0.004148532 -0.031652298 0.08228618
0003a0 9c 34 51 bd c1 44 8f 3c 06 d3 2b bd 7d 7a 8f 3c
       -0.051075563 0.01748884 -0.041949295 0.017514462
0003b0 19 68 68 3d 96 ad 97 3d f9 9e 19 3e 8a 2d 30 3e
       0.0567399 0.07406156 0.1500205 0.17204872
0003c0 bb 39 39 3d 0c 9b 76 3d 4d bf 17 3d c7 c8 0a 3e
       0.04522107 0.060206458 0.037047673 0.13553153
0003d0 dd d6 76 3d 9f 81 36 3d 2b dd 66 3b d2 6d df 3c
       0.060263503 0.04455721 0.0035227041 0.027274046
0003e0 cb e5 bd 3d 4f 39 83 3d c1 7a 45 3d 3c 6f 43 3d
       0.09272345 0.06407415 0.04821277 0.047713503
0003f0 5d ed d6 3d 7c 0c 15 3e 23 e3 40 3d 86 88 c6 3d
       0.10494492 0.14555544 0.047091614 0.096940085

convs.1.lin_l.weight f4 [32, 32]
000000 c8 2a e8 bd e5 01 20 be c0 ce f4 bd 85 75 d9 bd
       -0.11336285 -0.15625723 -0.11953497 -0.10618118
000010 df c8 7d bd 3b 7d 87 bd ba fa d9 bd bf c8 c1 bd
       -0.061959144 -0.06615683 -0.106435254 -0.094621174
000020 e0 5c bf bd 54 70 3e be 17 b8 e4 3d 88 31 4c be
       -0.093438864 -0.18597537 0.11167925 -0.1994077
000030 1d d9 e0 3d ed 4d be bd eb 49 7c be 16 3a a3 3c
       0.10978911 -0.09292207 -0.24637572 0.019925158
000040 e8 b4 18 be 60 a7 40 bc 21 83 81 bd 3b 70 e5 3d
       -0.1491276 -0.011758655 -0.06323839 0.11203047
000050 91 e8 36 be 8d e4 9a bd c7 ee 5a be 7b 6c c3 3d
       -0.17862155 -0.07563124 -0.21380149 0.095421754
000060 5e c5 77 be 56 75 c9 bd 52 0d 11 3c b2 7a 17 3d
       -0.24196383 -0.09836833 0.0088532735 0.036982246
000070 b5 7e 11 be e3 9a a0 bd 6e 1f 6b 3e bf 8d 3b be
       -0.14208491 -0.07842042 0.22961208 -0.1831579
000080 37 b4 58 be 7d 14 7d 3d 20 f1 a9 3d c2 6a 0d 3c
       -0.21162497 0.061787117 0.08297944 0.00863141
000090 c1 30 e5 3c 80 fc d8 bc 55 dd 24 3d 2f 9d 97 bd
       0.02797735 -0.026487589 0.04025014 -0.07403027
0000a0 4d 24 03 be 02 18 18 be c9 da 33 3c c7 ed 24 bd
       -0.12806816 -0.14852908 0.010977455 -0.040265825
0000b0 8d 7a 87 bd 79 8f 4a be 83 89 32 be 2b 47 b1 bd
       -0.066151716 -0.19781293 -0.17435269 -0.08656152
0000c0 de 85 a6 3d 21 e8 52 bd de 68 1a bd c0 a3 4b 3d
       0.08131002 -0.051490907 -0.037697665 0.04971671
0000d0 6e fc bb 3d ba 74 0d be 6f 93 26 3e 55 d9 43 be
       0.091790065 -0.13814059 0.16267179 -0.19125874
0000e0 81 09 2a be d8 8b 8b be 57 71 8c be 65 74 07 be
       -0.16605188 -0.2725513 -0.2743022 -0.13227995
0000f0 bc 2e 2a be 61 ae 91 3b a1 d9 fe 3d df 81 4b 3e
       -0.1661939 0.0044458364 0.12443853 0.1987376
000100 69 2d 6f be ab 26 c0 bd 1b 37 2a be 53 62 58 bd
       -0.23357166 -0.09382375 -0.16622584 -0.052828144
000110 6c a0 01 be ea 36 95 bd ae 3e 7c bd 07 65 80 bd
       -0.12658852 -0.07285865 -0.061583214 -0.062692694
000120 13 36 76 be 8b 0d 9d 3c ff 7b d4 bb 86 cd 49 be
       -0.24044065 0.019171497 -0.006484508 -0.19707307
000130 ee 2e 08 3e f3 21 28 be 4b 2b 2f 3e f3 9a 58 be
       0.13299152 -0.164192 0.17106359 -0.21152858
000140 b1 78 79 be 54 6a 93 be 7f 6f 25 bd 6d 0d db bd
       -0.24362446 -0.2879206 -0.040389534 -0.1069592
000150 e9 e0 96 be 2c f0 e7 bc 56 15 5e be d4 2c 82 be
       -0.29468468 -0.028312765 -0.21687827 -0.25424826
000160 c7 48 49 3d 5a 6c 79 3d a3 15 42 3d 30 e2 1d be
       0.04914167 0.060894348 0.047383916 -0.15418315
000170 06 93 a0 3d 16 af 84 39 24 a6 e5 bd 79 7b 05 bc
       0.078405425 0.0002530745 -0.112133294 -0.008147114
000180 ef 51 6d 3d b2 92 33 3e d2 1c 4e be 37 05 54 bd
       0.057939466 0.17536429 -0.20128182 -0.051762786
000190 67 69 28 3d f1 28 66 3c f9 5c 11 3c 1a 1e 83 bd
       0.041116145 0.014047847 0.008872264 -0.06402226
0001a0 06 a9 45 be 32 f0 1c be 0e a8 21 bd cf 69 9d bc
       -0.19302759 -0.15326002 -0.03946691 -0.019215493
0001b0 a4 5e 0b 3e 67 3f 8d bc af f8 12 bd 59 50 8d be
       0.13610321 -0.017242147 -0.035881694 -0.27600363
0001c0 d7 0f 73 3e b3 0a 5c be 65 48 26 be ff 32 9c be
       0.23736511 -0.21488456 -0.16238554 -0.30507657
0001d0 27 d7 8c be ba 6f 6d 3e 9c 39 b7 3d 13 37 98 3e
       -0.27507898 0.23187152 0.08946535 0.29729518
0001e0 39 26 fe bd 87 1b 1e 3e 20 18 9e bd 7d ff 02 3e
       -0.12409634 0.15440188 -0.07719445 0.12792774
0001f0 39 91 89 3d 27 d9 d6 bc 52 b4 d0 bb 65 27 03 be
       0.06717152 -0.026226593 -0.006369152 -0.12807997
000200 82 14 33 be 17 a2 8d bd 99 14 18 be cf 5c 0e 3e
       -0.17488292 -0.06915682 -0.14851607 0.13902591
000210 79 3a 5d bd c6 63 be bd 46 3d c6 bd 2a c5 04 3d
       -0.054010842 -0.09296374 -0.09679656 0.032414593
000220 d2 9e 27 3e bd 3b ed 3c 6c 68 8e 3c 17 ab 38 be
       0.16369179 0.02895915 0.017383777 -0.18034016
000230 fc ce 76 3d 2a 07 fe 3d 60 af 58 3e 26 8f 5a 3d
       0.06025599 0.1240371 0.2116065 0.053359173
000240 fe fa 19 be 1d db 3a be 18 a3 18 bd b0 5b 09 3e
       -0.15037152 -0.18247648 -0.037264913 0.13413882
000250 d5 94 12 be ea 3b 7d 3e cc 63 4e 3d 00 53 b2 bd
       -0.14314587 0.24729887 0.050388142 -0.08707237
000260 03 f3 d8 bd c5 19 f5 bd 9c e9 50 3e 11 85 77 bd
       -0.10593226 -0.11967806 0.20401615 -0.060429636
000270 13 53 0e 3e 7e 41 f3 bd 01 65 6f bd d0 73 bd bd
       0.13898878 -0.11877726 -0.058445934 -0.09250605
000280 7d 3d 0a 3e bc d7 6d bc 03 4d 1d 3e f8 31 30 be
       0.13500018 -0.014516767 0.15361409 -0.17206562
000290 13 36 ec bd 3e 07 d0 3c 4d 31 f7 bd a3 10 88 3d
       -0.11533751 0.025394078 -0.1206995 0.06643798
0002a0 ea 7f 33 3b d3 bb e3 3c 0a 04 b5 3d f0 70 8e bc
       0.0027389475 0.027799523 0.08838661 -0.017387837
0002b0 55 37 99 3d 9d d0 46 3e d8 1d e2 bc 8a 06 d1 3c
       0.07481257 0.19415517 -0.027602121 0.025515813
0002c0 fe 85 37 bd 97 e0 72 3d d1 1c 92 3d a5 58 df bd
       -0.04480552 0.059296217 0.071344025 -0.109055795
0002d0 35 69 39 3d ae 71 02 bd b4 76 a6 bd 76 37 48 be
       0.04526635 -0.031846695 -0.081281096 -0.19552407
0002e0 66 73 8d bb 7f 08 3c 3e be 2c 47 be ef 30 15 3d
       -0.004316735 0.18362616 -0.19450662 0.03642362
0002f0 1b a0 3a 3e 3f 5c 51 3e f7 fc 88 3d 83 7e 14 3d
       0.18225138 0.20445345 0.06688874 0.036253463
000300 99 7d 22 3e 6d 5b 71 bd 32 b7 9d bc 50 32 b9 3d
       0.15868224 -0.05892508 -0.019252393 0.090427995
000310 df 10 f9 bd 12 5b e6 bd dc ef 91 3d a1 66 2f 3b
       -0.12161421 -0.11247839 0.07125828 0.0026764052
000320 c6 f0 81 3d a3 c8 03 be 06 c4 37 3c 93 38 81 bd
       0.06344752 -0.12869506 0.011216169 -0.06309619
000330 10 29 e8 3d 36 f3 d2 3c e7 1d f6 3d 4a 67 58 bd
       0.11335957 0.025750738 0.12017422 -0.05283288
000340 c8 35 9e bc 31 d5 9e bc 15 5e 2d bd 38 f9 21 be
       -0.019312754 -0.019388767 -0.04232605 -0.15817726
000350 9a 37 f9 3c 99 1e 8a bd 4a 65 f2 bd ce f6 45 be
       0.03042202 -0.06744117 -0.118357256 -0.1933243
000360 87 dd b8 3c 20 9b 54 3e c7 41 8e 3d 3a 83 a4 3d
       0.02256657 0.207623 0.0694614 0.08032842
000370 0e 67 ac bd 03 fe fb 3c 6f bf 7b be 44 7c b9 bd
       -0.084180936 0.03076077 -0.24584745 -0.09056905
000380 81 ea ab bb 45 e5 72 3e 02 e8 4c bd 7a 18 f8 bd
       -0.005246461 0.23720272 -0.050025947 -0.121140435
000390 d3 e8 f5 3c 8c 10 24 3e d2 2d 91 bd e1 50 14 3e
       0.030018246 0.16021937 -0.07088818 0.14483978
0003a0 0b 50 af bc f4 75 7d 3a d2 5a 0d 3e f0 67 26 be
       -0.021400472 0.00096687605 0.13804176 -0.16250587
0003b0 9d 62 2b bd 35 8c fa 3c 8e b5 22 be 62 55 34 be
       -0.04184209 0.030584434 -0.1588957 -0.17610696
0003c0 44 2b 76 bc 21 07 62 bd 45 c8 24 be 55 fa e7 3d
       -0.015024964 -0.05518258 -0.16092022 0.11327044
0003d0 fa f7 1a bd 63 00 ad 3c 62 f7 1d 3e db b6 11 bc
       -0.037834145 0.021118348 0.154264 -0.008893694
0003e0 0b bc 1d 3e 6f 1a 59 ba de 54 44 3e ad e2 88 3d
       0.15403764 -0.0008281832 0.19173 0.0668386
0003f0 34 bb 1c be d1 2b 84 bd c5 c0 40 3e fb c8 50 be
       -0.15305787 -0.0645367 0.18823536 -0.20389168

convs.1.lin_l.bias f4 [32]
000000 ba 81 97 bd 9c 51 01 be d6 24 3f 3d ed 8e 10 3d
       -0.0739779 -0.12628788 0.04666599 0.035292555
000010 e5 ec 55 bd e2 e9 36 bd 89 8a a3 3c d8 fa 4d bd
       -0.052227873 -0.04465664 0.01996352 -0.05028805
000020 ab 1e 21 be 56 7f e6 3d 72 ee 31 3d 68 20 a4 bd
       -0.15734355 0.11254756 0.04344029 -0.080139935
000030 a9 a6 0e be 5f 5e 94 bd 92 11 2f be 38 70 02 3e
       -0.13930763 -0.07244562 -0.17096546 0.1273812
000040 51 70 ad bd b6 3a 43 bd 34 36 20 3d 92 30 7f bd
       -0.08468688 -0.047663413 0.039114192 -0.06230218
000050 05 ea b1 3d 85 b9 0a be 09 f6 8b 3d 68 12 1b be
       0.08687214 -0.13547333 0.06834037 -0.1514374
000060 d6 04 fb bd 6b 27 95 bd a6 d8 79 3d 3c c8 1e be
       -0.12256782 -0.07282909 0.060997628 -0.15506071
000070 a8 80 fc 3d 1a 87 ad 3c 51 fa bc 3d 57 42 17 be
       0.12329227 0.021182586 0.092274316 -0.147714

convs.1.lin_r.weight f4 [32, 32]
000000 74 5d 18 bd ca 9f b9 bc a0 93 86 bd 72 33 8f 3d
       -0.0371985 -0.022659201 -0.06571126 0.06992234
000010 72 10 88 3d c4 70 25 3e aa 1b 71 3d 63 6f 60 be
       0.06643762 0.16156298 0.058864273 -0.2191749
000020 27 09 c6 3a 9a 85 69 bb 5f a7 2d 3d 08 a3 1f bd
       0.0015108929 -0.0035632611 0.042395946 -0.038973838
000030 8b c5 45 3e 63 e3 46 bd 3e e6 84 be 11 db e3 3d
       0.19313638 -0.048556697 -0.2595691 0.11125768
000040 dd 70 ee 3d 3c 6a 1e be 2a 93 57 bd 73 b0 c9 3d
       0.11642621 -0.15470213 -0.05263058 0.09848108
000050 73 c8 59 be 5a 81 5a be b8 dd e7 3d e4 55 3c be
       -0.21267872 -0.21338406 0.11321586 -0.1839214
000060 23 21 60 be 64 77 30 3d 1b 26 5a 3e 76 cd c4 3d
       -0.2188764 0.04308261 0.21303599 0.09609501
000070 23 2d ac bd e4 85 c9 bc 89 21 01 3e 84 96 54 3e
       -0.08407047 -0.024599977 0.12610449 0.20760542
000080 6e 09 f1 3c 48 4c e1 bd 1d e6 46 3e 8d 6d 5f be
       0.029423442 -0.110008776 0.19423719 -0.21819134
000090 b0 4c fd 3d 3e 29 7d bd f9 72 75 be d9 01 81 bd
       0.123681426 -0.06180691 -0.2396964 -0.062991805
0000a0 61 09 13 be 8d 48 6f 3c 24 8d 68 3e 8b 49 6c be
       -0.14359047 0.0146047 0.22710091 -0.2307493
0000b0 63 a0 f5 3c 12 af 37 bc 43 a7 a6 3d 7b f5 b6 3d
       0.029983705 -0.011211174 0.081373714 0.089335404
0000c0 a1 ec b9 3a 1c a5 65 3d 60 3b de bc b0 1e 29 3d
       0.0014184901 0.056065664 -0.027127922 0.04128903
0000d0 4c d6 04 be 14 01 66 3d c3 34 93 3c e8 8b 9a bd
       -0.12972373 0.056153372 0.017969495 -0.07546216
0000e0 e1 72 de 3d 19 ac 2c bd d4 e8 0a be af e2 aa 3d
       0.10861755 -0.042156313 -0.1356538 0.08344018
0000f0 d4 a0 38 3e 81 29 2c be d6 41 05 3b c7 57 6c 3d
       0.18030101 -0.16812707 0.002033343 0.0577009
000100 b7 f7 3a 3d 37 eb 10 3e 6b c2 8b bd bb 88 8c 3c
       0.045646396 0.14152227 -0.06824192 0.017155042
000110 ee 6b a4 bd c9 52 7e 3d 99 f0 8a bd 03 5f 56 3e
       -0.080283985 0.06209067 -0.067841716 0.20934682
000120 8c 53 fe 3d cd 98 1b be 28 b3 2f 3e 9d 4b 55 bd
       0.12418279 -0.15195008 0.17158186 -0.052074064
000130 66 a2 29 bc 5f 08 7b be e3 28 54 bd b3 7b f4 bd
       -0.01035366 -0.24514912 -0.051796805 -0.11937656
000140 19 8b f2 bd 86 e9 42 be 0c 94 28 3e 3d 74 f8 bd
       -0.11842937 -0.19034395 0.16462725 -0.12131546
000150 c6 f6 74 3d ea 49 33 be 73 b1 67 3d f4 3c 81 be
       0.059805654 -0.17508665 0.056565713 -0.25241816
000160 8d 53 3d 3e d2 74 26 3e d9 6a e0 bc f8 d2 51 be
       0.18488903 0.16255501 -0.027394699 -0.20490634
000170 ac b0 23 bc a4 8b c9 be 72 8f e4 bd d9 70 b3 3d
       -0.009990852 -0.3936435 -0.111601725 0.08761758
000180 4d 6f 34 bd f6 0b 90 be 9d 35 4a be e8 e8 61 3d
       -0.044051457 -0.28134125 -0.19747014 0.055153757
000190 b7 4a fe bd 55 00 10 bb e3 7f 31 be 99 3e 20 3e
       -0.124165945 -0.0021972854 -0.17333941 0.15648879
0001a0 c5 73 5d 3e 99 5c 6a be 91 21 51 3e f9 d7 8d 3d
       0.21626194 -0.22886886 0.20422961 0.06925959
0001b0 77 b3 42 be fb ad 80 3d d1 68 dd 3c c9 56 ba bd
       -0.19013773 0.06283184 0.02702752 -0.09098584
0001c0 1c 76 02 be 8f c8 28 3e 8b 9e 5a be b7 89 89 bd
       -0.12740368 0.16482757 -0.21349542 -0.0671572
0001d0 fb 14 20 be 7f 27 6b bd 90 53 38 3e eb 74 4b 3d
       -0.15633003 -0.057410713 0.18000627 0.04967205
0001e0 43 8c fa bd 08 db 55 3d 63 96 58 3e fb f2 0d be
       -0.12233784 0.052210838 0.21151118 -0.13862221
0001f0 99 40 db 3c 49 ed c5 3c 7c 8e 51 3c 0b 30 3b 3e
       0.026764201 0.024160998 0.012790319 0.18280046
000200 97 ce 15 bc 53 aa 84 bd 4a a9 73 be e5 5a 92 bd
       -0.009143493 -0.06477799 -0.23795047 -0.07146243
000210 88 ea 15 bd f9 c6 91 3e 17 c2 ab bd 68 ca 80 3d
       -0.03660062 0.28472117 -0.08386629 0.06288606
000220 8b a8 46 bc 23 1f d6 3d 12 50 b7 bc c1 2a e3 bd
       -0.012125145 0.104551576 -0.022377048 -0.11092139
000230 0a 80 cb bd 5c 23 89 be 1f 20 e3 3c 24 ee de bd
       -0.09936531 -0.2678479 0.027725277 -0.108852655
000240 5c 34 39 3c 47 6a 30 be 75 fa c3 bd ee 84 94 3c
       0.011303987 -0.17228042 -0.09569255 0.018129792
000250 61 6f 8c be 02 01 d6 bc 26 10 7d 3e ba 9e 74 3e
       -0.27428725 -0.026123527 0.24713191 0.23888674
000260 f2 c4 67 3d ad 9b a1 3d ac a2 2f 3e 17 a1 d7 3d
       0.056584306 0.07891021 0.17151898 0.10528772
000270 a6 22 ee 3d dc 31 88 be 5b 94 02 bd 04 34 1d 3e
       0.116277024 -0.2660054 -0.031879764 0.15351874
000280 ae 42 72 be 8f c0 b6 3d 0f a1 3a be 3c 3d 6b 3d
       -0.23658249 0.089234464 -0.18225501 0.057431445
000290 0b d6 7e be c9 b6 5c be 41 17 18 3e 08 49 b1 bd
       -0.24886338 -0.21554102 0.1485262 -0.08656508
0002a0 a9 91 24 be 84 44 0c bd 5b b8 75 3d 29 de 1e 3e
       -0.1607119 -0.03424503 0.05999027 0.15514435
0002b0 e3 55 c6 bd 61 50 c6 bd 6d 9a 4a 3c 6e d6 35 3e
       -0.0968435 -0.096833 0.01236592 0.1775758
0002c0 7b eb 08 3e f2 18 5a be 91 00 3f bd 75 a6 ae bd
       0.13371079 -0.21298578 -0.0466314 -0.08527843
0002d0 e7 89 8a bd fc 17 c6 bc 55 26 e8 3d 6b 01 68 3e
       -0.06764584 -0.024181359 0.11335436 0.22656791
0002e0 21 c1 61 bd df 89 8a be 22 7e 28 be 5e 71 d7 bd
       -0.055115823 -0.27058312 -0.16454366 -0.1051967
0002f0 9e e7 90 bd 69 2e e8 bd b2 ee 0f be 14 f6 6e be
       -0.070754275 -0.11336977 -0.14055899 -0.23336059
000300 7c 84 18 3e 86 e7 fe bd e2 6e 0b be 2e 50 80 3d
       0.14894289 -0.12446503 -0.13616517 0.06265293
000310 76 33 f6 bd 77 02 12 be f1 f1 c4 3d fd f0 66 bb
       -0.12021534 -0.14258753 0.09616459 -0.0035238855
000320 4e 54 e1 bd f2 34 04 3e 9d e8 3c bd ee 9f c6 3d
       -0.11002408 0.12910822 -0.046120275 0.09698473
000330 80 09 34 be 03 f5 7f be 4b 70 87 bc 5a 35 59 3e
       -0.17581749 -0.24995808 -0.016533038 0.21211758
000340 53 cf e5 3c d6 de 91 bd ea 1f 7a 3e da 99 14 be
       0.028052961 -0.07122581 0.24426237 -0.14511815
000350 2c 07 0b bd 2f f9 9a be 79 f6 52 be 8a 81 24 3e
       -0.033942387 -0.30268237 -0.20601834 0.1606504
000360 db 43 85 bd 20 64 7b 3e 68 3a 09 be e6 21 ed bd
       -0.06507083 0.24549913 -0.13401186 -0.11578731
000370 5f be 61 3e 69 9e a1 3d a2 0d b7 3d 70 96 c8 bd
       0.22045277 0.078915425 0.08938147 -0.09794319
000380 b8 12 02 be 88 84 ae bc 33 90 2c 3e 02 da 5c 3d
       -0.12702453 -0.02130343 0.16851883 0.053918846
000390 a5 95 63 3e 14 9e 75 bd a0 48 1e bd 24 35 62 3c
       0.22225054 -0.05996521 -0.03864348 0.013806615
0003a0 60 ab 40 bd 88 f9 2d be c2 53 01 3e 6c 52 46 bd
       -0.047038436 -0.1698972 0.12629607 -0.048418447
0003b0 aa 37 15 be e7 8d 5f 3e c7 92 00 be 4d 22 50 bd
       -0.14572015 0.21831475 -0.12555991 -0.05081396
0003c0 32 ec de bb aa 02 15 3d f5 4b 2d be 64 99 73 3d
       -0.006803059 0.036379494 -0.16923507 0.059472457
0003d0 57 e0 36 3e 71 7e 9d 3d 4a 64 ba bc 3c ce 9d 3d
       0.17859016 0.076901324 -0.0227529 0.07705352
0003e0 67 b2 c8 3d c1 4b fb 3d 5c 0f 31 3c 72 dc fe 3b
       0.097996525 0.12270308 0.010806885 0.007777744
0003f0 19 d5 00 be 6d 18 75 bc 61 c4 d2 3d 4d a5 87 3d
       -0.1258129 -0.014959437 0.102913626 0.066233255

convs.2.lin_l.weight f4 [32, 32]
000000 61 b4 f4 3d 9f 83 33 3d da 9b 2a 3e 57 24 b8 3d
       0.11948467 0.043826696 0.16661015 0.08991306
000010 f3 3d 1f be 19 7c 18 be 79 b7 cb 3d a1 04 c8 bc
       -0.15550976 -0.1489109 0.09947104 -0.02441627
000020 ec 66 17 3d ac 68 01 3d 83 18 c1 3d 94 a0 b6 3d
       0.03696339 0.031593964 0.09428503 0.089173466
000030 49 d5 1c 3e 55 51 1f be 8c e9 88 bd d7 56 16 3d
       0.15315737 -0.1555837 -0.066851705 0.03670391
000040 fc d0 6d bc 4e 2c aa bc 5c 83 e4 3d 4d 20 18 3d
       -0.014515158 -0.02077308 0.11157867 0.03714018
000050 5e 78 40 3e cb cc 5d 3d 2b 7b b0 bc dd a0 32 be
       0.18795916 0.054150384 -0.021543106 -0.17444177
000060 c6 6a 5c be df 10 96 bd d5 72 6b be c4 dc 52 bd
       -0.21525106 -0.07327437 -0.22993024 -0.05148007
000070 61 dd cc bd cb 88 96 bd b0 e7 b5 3d c2 0b a2 3d
       -0.10003162 -0.0735031 0.088820815 0.07912399
000080 1f 84 ca 3d 57 ae 8d 3d 31 1c 1f 3e 4c 37 80 3d
       0.09888481 0.06918018 0.15538098 0.06260547
000090 30 68 e8 bd a2 11 85 bc 1a f5 ca 3d 77 5d 52 be
       -0.11347997 -0.01624376 0.09910031 -0.20543467
0000a0 1a ae 3e 3e e2 1d 04 be 30 a6 04 be cc a0 f0 bc
       0.18621102 -0.12902024 -0.1295402 -0.029373549
0000b0 a9 6c fc bb 47 12 91 bd d5 d1 52 bd 3a 25 61 3e
       -0.007703383 -0.07083564 -0.051469643 0.21986857
0000c0 86 a9 24 3e b8 52 32 be bb 44 9e 3d 5f 17 9b bd
       0.16080293 -0.17414367 0.07727953 -0.07572817
0000d0 9b 71 39 bd fa bd 15 bd a8 16 8d bd 27 ff ed 3c
       -0.04527436 -0.03655813 -0.06889087 0.02905233
0000e0 ff 43 22 be 12 1b f5 bc 0b ed 2d 3d b4 ad 59 be
       -0.15846251 -0.029920135 0.04246239 -0.21257669
0000f0 f9 2e 34 3a 39 b3 7c be 8e 79 86 3d ad c8 f8 3d
       0.00068734545 -0.24677743 0.065661535 0.12147651
000100 6e de a5 3d ae ed 4e 3a 5b 5b 88 3e 10 12 1e 3e
       0.08099066 0.00078936934 0.266322 0.15436578
000110 40 f7 36 3e 6d b4 39 3e 76 21 05 be ed e0 3b bd
       0.17867756 0.18135233 -0.13001046 -0.045868803
000120 f8 62 8b bd 33 cc 53 3e de 0f 35 bd 99 8d 94 bd
       -0.06805986 0.20683365 -0.044204585 -0.0725357
000130 c9 da 32 3e e6 36 41 3d bb 3c a0 3d 6d cf b3 3d
       0.17466272 0.047171496 0.078240834 0.08779798
000140 de bc 89 3e 2f b9 20 be cb 6d ec 3c 95 95 35 3e
       0.26901907 -0.15695642 0.028860947 0.17732842
000150 d4 99 1f 3d 74 a2 cb 3d 7f 9f 4a be 0d f4 91 bd
       0.03896506 0.09943095 -0.19787405 -0.07126627
000160 a7 66 c2 3c 9a c2 81 3e 0b 3e 37 3c a8 f1 07 bb
       0.02373059 0.25343782 0.011184226 -0.0020743404
000170 6a d2 ba bd ce 76 2c 3d ad 75 56 3e 61 45 29 bd
       -0.091221645 0.04210549 0.20943327 -0.04132593
000180 9b 78 96 3e 6a d3 78 3e d5 65 d3 bd 11 30 8e bd
       0.2938889 0.24299398 -0.10322157 -0.06942762
000190 50 ce 06 be fa 2e 3e 3e 1d d0 13 be b4 63 65 3e
       -0.1316464 0.18572608 -0.14434858 0.22401315
0001a0 c1 40 70 3d c2 ef 7c be 31 68 7c bd 0c 2e 18 be
       0.058655504 -0.24700835 -0.061622802 -0.14861315
0001b0 29 bc 6b be 44 bc ee bd 7c 23 58 3e 73 e4 1f bd
       -0.23020996 -0.116570026 0.21107286 -0.039036226
0001c0 58 39 64 3d 1c 28 1b be 49 ed 16 3d 4b f3 29 be
       0.05571875 -0.1515202 0.036847387 -0.16596715
0001d0 6d 9d e2 bd af 66 5f 3c fa 63 76 3d 75 84 34 be
       -0.11065183 0.0136353215 0.06015394 -0.17628653
0001e0 63 2e ef 3d 87 6e 94 bd 70 f6 73 bd 7e 30 e7 3d
       0.116787694 -0.07247644 -0.059561193 0.11288546
0001f0 c3 78 ee bd c7 84 71 bd 8e e9 9c bd 22 d7 88 bd
       -0.11644127 -0.058964517 -0.076617345 -0.06681658
000200 19 c1 8f bd 84 c8 c6 3e e6 00 c1 3c 39 5a 1b be
       -0.07019252 0.38824856 0.023559999 -0.15171136
000210 d3 56 07 3e d2 e2 0c be 75 56 bb bc 94 30 81 3d
       0.13216715 -0.137584 -0.022868374 0.06308094
000220 91 60 ea bd 06 0f 81 3e dd ed 99 3d ad be b3 bd
       -0.114442 0.25206774 0.07516072 -0.08776603
000230 c5 90 34 bd 70 bc 88 3d 98 6c 88 3e 9c 1d 29 be
       -0.044083375 0.066765666 0.2664535 -0.16515201
000240 45 af 39 bd 2a 90 63 3e b0 52 8b bd b8 c4 9b 3c
       -0.045333166 0.22222963 -0.06802881 0.019014701
000250 82 18 27 3d ae 99 3f 3d ef cf 96 bc dc e8 96 3d
       0.040794857 0.04677742 -0.018409697 0.07368633
000260 bb b3 f8 3b d6 15 8f bd 66 a7 a6 3d 81 cf 22 be
       0.007589785 -0.06986587 0.081373975 -0.15899469
000270 80 f4 08 3e 64 50 17 3e 3a be 20 be cd 0c 4f bd
       0.1337452 0.1477676 -0.15697566 -0.050549317
000280 8b 0c 09 be 66 cf a9 3d 30 03 12 3c e9 36 ef 3c
       -0.13383691 0.08291511 0.008911893 0.029200988
000290 05 c1 44 be e4 06 5d bd a8 fe 19 be b3 d5 6b be
       -0.19214256 -0.05396165 -0.1503855 -0.23030739
0002a0 43 2f 94 bd 6e 17 34 be dc 0e 60 be b1 cc 5e be
       -0.07235577 -0.17587063 -0.21880668 -0.21757771
0002b0 ec e8 d5 bd f3 d5 f2 bc ff e5 5f 3e 1b 85 52 be
       -0.10444817 -0.029643035 0.2186508 -0.20558588
0002c0 90 bd 48 3d 9d 8e ed 3d 13 1c f4 bd 00 7c 00 be
       0.049008906 0.11599467 -0.11919417 -0.12547302
0002d0 42 f0 e4 3d b6 5e 8c 3c 60 72 6b 3e 6a aa 33 be
       0.11178638 0.017135005 0.2299285 -0.17545477
0002e0 fd 29 07 be 51 09 28 be 83 67 b0 bc 64 c9 a5 bd
       -0.13199611 -0.16409804 -0.021533733 -0.08095053
0002f0 e9 6e 31 bd 05 1e d3 3c 34 e7 e7 3c b8 a5 94 bd
       -0.043318663 0.02577115 0.028308488 -0.07258171
000300 a4 77 1d be 0c 10 9d bd 81 d8 52 be a3 88 14 3d
       -0.1537767 -0.07669076 -0.20590402 0.03626312
000310 b8 58 7e 3d 75 c0 c5 3d f4 9e a1 bc 3f 8e 0c 3b
       0.062096328 0.09655849 -0.019729115 0.002144709
000320 0f 07 73 3d b1 b8 5b be 59 56 cd bd e2 40 ef bd
       0.059332903 -0.21457173 -0.10026235 -0.11682297
000330 24 21 26 be ce 4a 0b 3e 08 4f 0e 3e 66 8a 2c 3d
       -0.1622358 0.13602754 0.13897336 0.042124175
000340 65 26 32 be 5d 6d d7 3d 00 d0 3f be 67 10 3e be
       -0.17397459 0.10518906 -0.1873169 -0.18560944
000350 27 4a fa bd d5 2f 5f 3d f2 08 3c 3e 46 de e8 bd
       -0.12221175 0.054488976 0.18362787 -0.1137052
000360 5f 55 f1 bd 32 9b 52 bd cc 78 aa 3d 37 b4 47 3d
       -0.11783861 -0.051417537 0.083238214 0.04875585
000370 eb ce 6e bd c3 b7 4c 3d 28 35 25 bd f5 6e 5d be
       -0.0583028 0.049979936 -0.040333897 -0.21624358
000380 08 3d 80 ba 0b 2c 04 3e 95 42 87 3e 39 35 07 3d
       -0.0009783814 0.12907426 0.26417986 0.03300974
000390 bc 01 30 3e c5 0c 22 be fe 6d ce 3d 26 c3 73 3a
       0.17188162 -0.15825184 0.10079573 0.0009298794
0003a0 b4 2e 31 be 6d 0e db bd 51 25 0e 3e f1 b9 b4 bd
       -0.17302972 -0.10696111 0.13881423 -0.08824528
0003b0 00 f8 fe bd ff 2f 32 bd e8 bc 62 bd 41 3c 1b bd
       -0.12449646 -0.043502804 -0.055355936 -0.03789926
0003c0 6c 88 0b 3e c7 c6 0b be 4c 2f 60 bc 57 42 0c 3c
       0.1362626 -0.13650046 -0.013683151 0.0085607385
0003d0 26 98 a3 bc 40 1f c1 3c 7b 09 c7 bc ea 3b fc bd
       -0.019970011 0.023574471 -0.024296513 -0.12316115
0003e0 ff ca 00 3d 76 c3 6f bd a7 df bb bc 3f 5c 09 bd
       0.031443592 -0.058536015 -0.022933794 -0.03353524
0003f0 e1 1e 1f be b7 07 a0 3d 14 c6 cd 3d 23 8d 26 3e
       -0.15539123 0.078139715 0.10047546 0.16264777

convs.2.lin_l.bias f4 [32]
000000 a5 48 9e bd d9 84 78 bd 3f 45 8c 3c 04 38 1c 3e
       -0.077286996 -0.06067357 0.017122863 0.15255743
000010 31 3a a3 bd 5c 50 1b 3e fb 9d e6 3d 0d e7 23 3e
       -0.079700835 0.15167373 0.11260601 0.16006108
000020 df ec a6 3d 01 ee 32 bd 7a 1d dc 3d 37 2e 46 3a
       0.08150648 -0.04368401 0.1074781 0.0007559987
000030 f7 20 17 3c 48 ed 96 3c 12 e3 b8 bd ac 02 1f 3d
       0.009224168 0.018423691 -0.09027685 0.038820907
000040 da 9c 20 be c8 77 99 bd 40 ed 38 3d 4f 25 72 3d
       -0.15684834 -0.074935496 0.045148134 0.05911761
000050 2b 9b 14 be 85 75 fe bd 37 b7 b5 bd 5b b7 14 3e
       -0.14512317 -0.12424759 -0.08872836 0.1452307
000060 fc 72 c4 bd bf dc f1 bd 60 4f 2e 3e ce b4 14 3e
       -0.09592244 -0.11809682 0.17022467 0.14522097
000070 63 9e cc 3d b2 fe 1e 3e 90 5b 96 bd b9 45 21 be
       0.09991147 0.15526846 -0.07341683 -0.15749253

convs.2.lin_r.weight f4 [32, 32]
000000 9b 7d 17 be d8 51 a7 3d c1 8b 92 bd a2 1b 99 bd
       -0.14794008 0.08169907 -0.07155562 -0.07475974
000010 c0 63 32 bd 30 d5 32 bd 53 ad 8d 3d 78 16 8a be
       -0.04355216 -0.043660343 0.069178246 -0.26970267
000020 90 34 99 3e e9 0e 9d 3c 7d ff 23 3d a9 5d 77 3e
       0.29922915 0.019172149 0.040038574 0.24156822
000030 aa b6 2f bd ca 96 39 be b0 ab bb 3c 18 72 03 bd
       -0.04289881 -0.18123928 0.022909015 -0.03209123
000040 d5 95 2f bd 1c 31 9b be 1e f5 5e bb 28 32 b6 bd
       -0.0428675 -0.30310905 -0.0034020613 -0.08896285
000050 39 89 08 3e 79 9d 06 3c 89 ba 3b be ba f1 88 bd
       0.13333596 0.008216255 -0.18332876 -0.06686731
000060 7d f0 4b be 9e de a0 3d b5 01 c9 bd 70 89 65 bd
       -0.19915958 0.07854961 -0.09814779 -0.056039274
000070 87 79 9b bd d5 fe 23 3d ff 9e ac be 0b c1 00 be
       -0.07591539 0.04003795 -0.33715054 -0.1257364
000080 97 89 3a be bf 23 05 3b d1 a7 1c be 8a 76 e9 3d
       -0.18216549 0.0020315496 -0.15298392 0.11399563
000090 66 65 1c be dc 98 e3 3d ab 96 16 be 51 01 4f be
       -0.15273055 0.1111314 -0.14705913 -0.20215346
0000a0 f3 45 df bc e1 43 01 3e ab d1 0b 3d fd 97 fd bd
       -0.027255034 0.1262355 0.0341355 -0.12382505
0000b0 f6 12 b2 bd 10 1c 74 bd f9 ac 7b 3d d9 0c 48 3e
       -0.08695023 -0.059597075 0.061444256 0.19536151
0000c0 fd 1d b0 3d c5 4d ca bd d8 07 5f 3e 4e c7 0f bd
       0.0859947 -0.098781146 0.21780336 -0.03510218
0000d0 dd ac 06 3d 80 43 f1 3d 1c 73 e9 bd b9 33 0b 3e
       0.0328797 0.11780453 -0.113989085 0.1359395
0000e0 bf 26 7e 3e 34 98 84 bd e8 dd 4e be 58 16 5a 3d
       0.24819468 -0.06474343 -0.20201838 0.053243965
0000f0 a8 e8 76 3e b2 3c 6c 3d c1 25 81 3d 37 f4 83 be
       0.24112189 0.05767507 0.06306029 -0.2577226
000100 3c 8c f8 3b 63 c9 ac bd a1 3f 93 bd 2f 70 58 bd
       0.0075850766 -0.08436849 -0.071898706 -0.05284136
000110 c7 79 1f bd dc 36 9c bd 14 78 bf 3d af 3c 3e 3e
       -0.038934495 -0.07627651 0.09349075 0.18577836
000120 d1 6b f1 3d 04 0a 3f 3e 24 b0 2e 3e 3d 7c 98 be
       0.117881425 0.18656164 0.1705938 -0.29782286
000130 88 43 59 3e f6 0f c9 bd 56 f4 15 3c 3c 7f 26 3e
       0.21217167 -0.098174974 0.0091524925 0.16259474
000140 a8 c8 80 3e e4 72 08 3e 87 04 08 3e b9 10 30 3e
       0.2515309 0.13325077 0.13282977 0.17193879
000150 25 8b 60 3e 47 d5 07 3e aa f4 1f 3c 13 57 b1 bd
       0.2192808 0.13264953 0.009762922 -0.08659186
000160 cb 2d 8d bd d9 22 16 3e 74 5e a3 bc 84 ed c9 3d
       -0.068935 0.14661731 -0.0199425 0.09859756
000170 8c 2d d4 3d 30 c3 18 3d e5 ee 26 3e 56 d4 2f 3d
       0.1036025 0.03729552 0.16302069 0.04292711
000180 86 d9 be bb 32 ec b5 3d 92 44 85 bd ba 82 19 3e
       -0.0058242707 0.08882941 -0.065072194 0.14991274
000190 5e 71 af bd 85 75 70 be 0d a8 de bc 4d da f6 3d
       -0.08566545 -0.2348233 -0.027179742 0.12053356
0001a0 5e 2f c6 bd 6e e3 fd bc ca 6c 9d 3c db db f6 3b
       -0.09677003 -0.030992236 0.019216914 0.007533533
0001b0 e6 f9 0e 3c 43 93 1c bd 56 64 b4 bd 58 cd 85 3e
       0.008726573 -0.038226377 -0.088082 0.26133227
0001c0 37 4a 1e be c9 a3 8a 3d a8 90 f7 3c 2d 71 20 be
       -0.15457998 0.06769521 0.030220345 -0.15668173
0001d0 76 bf 02 3e a3 97 8a 3d aa 6a a8 3e 9a 2c 49 bd
       0.12768349 0.06767204 0.32893878 -0.0491148
0001e0 13 80 1a 3e 32 db 97 3d 2e 5b 0d 3d 42 59 da bc
       0.15087919 0.07414855 0.034510784 -0.02665389
0001f0 0b a5 71 be 8c 7a 5f bd 20 bf e2 bd 6e 28 cf 3c
       -0.23598115 -0.05456023 -0.110716105 0.025287833
000200 32 46 17 3e 2f e5 31 bc 8b 64 83 3d 40 1f d5 3d
       0.14772871 -0.010857864 0.064156614 0.10406351
000210 41 0c 21 3e 34 37 1a 3e e8 02 0a 3e 99 fd c8 bd
       0.1572733 0.15060121 0.13477671 -0.09813995
000220 13 71 4d 3e 49 d7 93 be ed e8 30 be a8 bf 9a bd
       0.20062666 -0.28875187 -0.17276354 -0.07556087
000230 73 0e 92 3d 1a 16 0a be a8 59 98 bc f0 f7 0d 3e
       0.07131662 -0.13484994 -0.018597439 0.13864112
000240 75 0d 92 3d 09 a9 63 be 1f 78 03 be ce 7e d3 bd
       0.07131473 -0.2223245 -0.12838791 -0.103269204
000250 6f 98 3d be d2 ac bc bc f7 82 8a be 7e dd f6 bd
       -0.1851518 -0.023031626 -0.27053043 -0.12053965
000260 a9 3d 50 be 3c f4 87 3d 83 22 f3 bd b0 dd 9b 3c
       -0.20336021 0.06638381 -0.11871817 0.019026607
000270 70 13 4a be 8c ba 82 3d be 94 2d be fc 33 10 3e
       -0.19733977 0.06383237 -0.16951272 0.1408233
000280 18 8d 94 3d 00 b8 9b 3d 76 84 b4 be 6d f2 3d 3e
       0.07253474 0.076034546 -0.3525731 0.1854951
000290 76 d6 64 3d 9f 04 ff bd 59 a6 5a be e1 0e 2e be
       0.05586859 -0.12452053 -0.21352519 -0.16997863
0002a0 00 5d 1c be 07 dd 08 3e 64 ec a2 3d a5 57 89 3c
       -0.15269852 0.13365565 0.07955244 0.016765425
0002b0 22 78 3e 3d 8c 78 34 3e 7c 4a 1b 3e 29 7c 92 bd
       0.046501286 0.1762411 0.15165132 -0.07152588
0002c0 de d7 6a bc 94 99 f3 3d b4 cf db 3c ef ea ef bd
       -0.014333693 0.11894527 0.026832439 -0.11714732
0002d0 2e 72 a4 bd f0 24 22 3e 1c 69 11 3e 2a 75 06 3e
       -0.080295905 0.15834403 0.14200252 0.13130632
0002e0 df 2c aa 3d f0 ec 1d be 91 14 13 3e a1 9f 84 be
       0.0830934 -0.15422416 0.14363314 -0.25903037
0002f0 0d f7 85 3e e5 e3 26 bc 98 78 d2 3b db 44 82 be
       0.26165047 -0.01018617 0.0064230673 -0.25443158
000300 28 b7 0f 3e 6f 5b 84 3c 90 49 44 be 3c fa 77 3d
       0.14034712 0.01615688 -0.19168687 0.060541376
000310 a1 bc c6 3c 96 de 94 bd b6 b4 89 be 50 43 02 be
       0.024259867 -0.072690174 -0.26895684 -0.1272099
000320 e6 08 03 be bf d9 87 be 31 73 e5 3d 2b be 11 3e
       -0.12796363 -0.26533315 0.11203612 0.142327
000330 fd 03 1f be de d9 3e 3d d7 cb 3c 3e d0 30 cc 3d
       -0.15528865 0.046594493 0.18437134 0.09970248
000340 fb 63 d8 bd 3e 84 b9 3d 41 75 fd bd 6f 81 7f 3d
       -0.10565945 0.09058426 -0.1237588 0.062379297
000350 07 5c 96 bd 07 3e 1c 3e e0 c7 94 3e b1 d6 0e 3e
       -0.073417716 0.15258037 0.29058743 0.13949086
000360 d4 35 e5 3d 49 a0 fa bd 79 d0 a5 3d 99 bd 8c bd
       0.111919075 -0.12237603 0.08096404 -0.068721004
000370 6a 85 71 3e 72 70 1d be 90 cd 62 bb c6 44 88 be
       0.2358605 -0.15374926 -0.0034607388 -0.2661497
000380 06 9d 58 be 15 07 3f bd 24 18 88 be d1 83 97 be
       -0.2115365 -0.046637613 -0.26580918 -0.29592755
000390 6e 14 04 3d 94 81 08 3e f2 f1 3f 3d fe 45 9a 3d
       0.032246046 0.1333068 0.046861596 0.07532881
0003a0 6c 54 97 3d fb 7f 46 be df 09 74 bd 53 11 14 3e
       0.07389149 -0.19384758 -0.059579726 0.14459734
0003b0 44 ca 5a 3d 4e 5e d6 bd 2d db 3f be 7a 44 83 bd
       0.05341555 -0.10467206 -0.18735953 -0.06409545
0003c0 72 b6 5a bd fe 8e 2c 3e f2 b4 c8 bb 14 ba 03 3e
       -0.05339665 0.16851422 -0.006125086 0.12863952
0003d0 0d 36 a5 bd a5 d4 d9 3c d4 5c a1 be 8d 76 5f b9
       -0.0806695 0.026590655 -0.31516135 -0.00021311101
0003e0 1a 60 83 3d 5c 22 08 bd 4a 30 4d 3d e5 da b4 bc
       0.06414814 -0.033235893 0.05009488 -0.022077033
0003f0 3b 76 55 3d 93 29 76 be 28 35 58 be 66 16 b4 bd
       0.052114706 -0.24039297 -0.21114028 -0.08793335
