saved/elliptic_GPR_s9.pt (torch, 23635 bytes, 5 tensors)

lin1.weight f4 [32, 165]
00000000: a501 bc3d 495f b63c 93ad 1cbf 5d3d c2bd
00000010: dc11 b8bd 3ef7 d6bd 776c 1fbe 31a0 ba3d
00000020: 5392 d43c 11ee 05be e2fa ed3d 7c1f 073d
00000030: 4c3a 60bd 76f4 4abe f695 163e 115d 293e
00000040: e356 333c 50bd 6a3e d078 923e 479b 923e
00000050: 29f8 a13e ca45 b7bc bbc2 11bd 182b c8bd
00000060: ea06 1f3b 7256 98bd 8ff9 c53c f25b ae3b
00000070: 81ce 0bbd fc02 d6bd 3e7e 9cbd 1375 c5bd
00000080: 44bc d73d 607a 8f3d 5ebe 433e 7f54 9fbd
00000090: 967a 563e 2a41 43bb 8ceb 87bd df11 ac3c
000000a0: a4ce 8cbd e7dd bcbc c4fc 0e3d 202f 79bd
000000b0: 739c 01be c98b 833d aa9c 1f3d 961f 1cbd
000000c0: 1706 20bb 3fc5 69be aeaa 2dbe d320 dcbe
000000d0: 9c63 dcbe 14d8 42be 86f6 ccbe 1983 50bd
000000e0: 0b26 86bd 492c e0bd fa40 02bd e0be a7bb
000000f0: 19c3 cc3b 110b a63c f9d6 4c3d 0aed f2bd
00000100: 4bba bdbd bc1c 453c d9db febd 4eda 103e
00000110: 5a31 d7bc 2739 fabc 0580 a63c 7d24 b4bc
00000120: 0860 b1bd 8472 1a3e 6274 073e 70f3 f3bd
00000130: 40cc fcbd 2c0b babd 6849 17bd f0d1 2bbe
00000140: 08f5 e7bd ac55 aebd 0d30 a9bc 34e6 b7bd
00000150: d3e3 8ebd 8fd5 233e 7558 a2bc bc2e 803d
00000160: 2f03 18bd 469c 2ebd 1083 0e3c 605d 383e
00000170: c9b4 ae3d 46c2 d1bd b6eb 6abe 54fe 31be
00000180: 67e9 55be 1206 ad3e 1d01 353e d983 ca3c
00000190: b501 ff3d 65e4 a73e d4a2 e83d 504c 83bd
000001a0: 4433 febd 5cda d63d 4fa9 30bd 84a6 8b3c
000001b0: c7eb e13a 0c07 4f3e 348f 263d 8ac0 283e
000001c0: 8f1e 123e 9f2b b3be 28eb 5a3e 550e a23d
000001d0: 914a 2b3e e958 fb3e 5f60 d1be 60ed 29bf
000001e0: 1708 dd3d e3a5 b73e 21c6 1d3e f96f e2bd
000001f0: 7c44 ecbd 9d06 a7bd 1860 33be d28e b5bd
00000200: dc52 0bbd 7a82 873e dcec febd 973d d1bd
00000210: 2265 16bd db94 c6be 0be1 12be 08d5 193d
00000220: 0cd0 01bc 768d 55be 65c1 823d 4afd 883e
00000230: 2842 af3e b6af 223f 32fb 493e 44a8 1c3e
00000240: 80c4 6a3e 056d 993e 5c63 893e 8465 f33d
00000250: e259 90be 3ad5 94be 6b2e a53d 6173 c4be
00000260: cc9d e8be b2a9 1fbe 4a0e f3be 33a2 b7be
00000270: 2986 f0be a7f9 b7be 4778 e1be 05b4 393d
00000280: 5f11 66be ecb4 5ebf b8bd 05bf f082 cbbe
00000290: 0dac d1be f24b 3fbe 78cd 28bf 9e29 4fbe
000002a0: 3e69 26bd 3819 0a3e bdef 11bd 8527 0a3e
000002b0: 86c0 16be 5a7c 41be 7d96 7c3e 7d6d 5fbe
000002c0: 6fb6 00bd ddf6 bebd 9eec 943d f83c 47be
000002d0: 009d 00bd 86a0 4ebe 8159 2fbe 3913 28be
000002e0: 19c5 003f 0450 9c3e 9252 013e 5f3d 0c3e
000002f0: d205 b93d 5557 583d 0205 273e 9408 9dbe
00000300: 0b3c 713d be8d fe3d efa2 203e 0c11 183e
00000310: 1dac 733e 25ae 0abe c613 4cbe dc73 0fbe
00000320: fd41 fb3d c293 09be cb44 b43d dd37 733c
00000330: 1ab5 00bd 04f8 9f3d 4c85 993d 0a37 ea3d
00000340: c609 e5bc 85a7 55bd 80db 7fbd 2221 033d
00000350: 8f7a b33d a74b df3b 2379 233e bab7 833e
00000360: c066 6b3e 6dfd aa3d d318 5b3d 546c 3e3e
00000370: 0255 8fbd 993e df3c ae26 843e b6a2 1a3d
00000380: 0f05 503d e532 cf3d 3d0b 153e 3228 813d
00000390: 8a64 733e 52cf d63c d4f1 923c c5ce 6f3d
000003a0: 0939 283e 5d79 663d f457 f13c d588 e43c
000003b0: 3ea2 d03d 7258 523e c531 733e fc92 013e
000003c0: 69ea 883e 19d8 3c3e f51d ab3d 28d7 8d3d
000003d0: c234 523e f934 5d3e e4b1 833e b691 443e
000003e0: 6616 223e 2f3d 183e 7a34 203e 87bc ba3d
000003f0: 695f a03c 30b9 abbd 4d0f 9bbc effc 14bc
0.09180001 0.022262232 -0.61202353 -0.0948436 -0.089877814 -0.104963765 -0.1556872 0.09112585
0.02594868 -0.13079096 0.11620118 0.03298901 -0.054743096 -0.19819817 0.14705643 0.16539408
0.010946008 0.2292378 0.28607798 0.28634092 0.31634644 -0.022372145 -0.0355861 -0.097738445
0.0024265596 -0.07438363 0.02416685 0.0053210193 -0.034132484 -0.10449788 -0.07641266 -0.09641471
0.10533956 0.07005763 0.19115588 -0.07779788 0.209452 -0.002979348 -0.06636724 0.021004615
-0.06875351 -0.02305503 0.034909025 -0.060835958 -0.12657337 0.06423146 0.038967766 -0.03811606
-0.0024417692 -0.2282915 -0.1695964 -0.42993793 -0.43044746 -0.1902774 -0.40031832 -0.050906274
-0.06550225 -0.10945947 -0.031800248 -0.0051191896 0.0062488434 0.020268949 0.0500097 -0.11861618
-0.09264048 0.012030777 -0.12444276 0.14145777 -0.02626865 -0.03054483 0.020324716 -0.021990055
-0.08660895 0.15082747 0.1322799 -0.119116664 -0.12343645 -0.09084162 -0.03693524 -0.16779304
-0.11326033 -0.08512434 -0.020652795 -0.08979455 -0.06977048 0.15999435 -0.01981757 0.06258914
-0.03711241 -0.042629503 0.00869824 0.1800437 0.08530576 -0.10242133 -0.22941479 -0.17382175
-0.20889817 0.33793694 0.17676206 0.024721073 0.124514975 0.3279144 0.11359182 -0.0641104
-0.12412122 0.104908675 -0.043130215 0.017047174 0.0017236405 0.20217532 0.040663913 0.16479698
0.1426947 -0.34994218 0.21378767 0.0791289 0.16727664 0.4909127 -0.40893838 -0.6637783
0.10792559 0.3586875 0.15407611 -0.11056513 -0.115365 -0.08155558 -0.17517126 -0.088651314
-0.034014568 0.26466733 -0.12447521 -0.102168255 -0.03671754 -0.38785443 -0.1434366 0.037556678
-0.007923137 -0.20854744 0.06384543 0.26755744 0.3423016 0.63549364 0.1972473 0.15298563
0.22926521 0.29965988 0.26833618 0.11884597 -0.28193575 -0.2906893 0.08065494 -0.38369277
-0.4543289 -0.15592077 -0.4747184 -0.35865936 -0.46977356 -0.35932657 -0.44037077 0.045337696
-0.22467564 -0.86994815 -0.5224261 -0.39748335 -0.40951577 -0.18681315 -0.6593852 -0.2023072
-0.04062771 0.13486183 -0.035629023 0.13491638 -0.1472188 -0.18895093 0.24666782 -0.2181911
-0.031423982 -0.09324429 0.07271694 -0.19456851 -0.031399727 -0.20178422 -0.17123987 -0.16413583
0.5030075 0.30529797 0.12629154 0.13695286 0.09034313 0.05281766 0.16310504 -0.30670607
0.058895152 0.12429379 0.15687154 0.14850253 0.23796125 -0.13542993 -0.19929418 -0.1400904
0.12268446 -0.13435271 0.08802184 0.014844862 -0.031422712 0.07810977 0.074961275 0.11436279
-0.027958762 -0.052161712 -0.06246519 0.03201402 0.087636106 0.0068144384 0.15964179 0.2572611
0.22988415 0.083491184 0.05349047 0.18596011 -0.06998636 0.027251529 0.2581076 0.03775283
0.050786074 0.10117129 0.14555068 0.06306495 0.23768821 0.026221905 0.017937578 0.0585468
0.16428007 0.056268085 0.029460885 0.027897278 0.10187195 0.20541552 0.23749454 0.12653726
0.2674134 0.1844181 0.08355323 0.069258034 0.20527938 0.21602239 0.25721657 0.1919621
0.15828857 0.1486709 0.15645018 0.0911799 0.019576745 -0.08384931 -0.018928194 -0.009093507

lin1.bias f4 [32]
00000000: 8438 14be 08aa 203e 7dd3 093d 0dcd 1bbe
00000010: 8179 49be db8d 113e 0f26 523c b317 563e
00000020: db4b 26be bee5 673e af7c 3f3e 4b8a 643d
00000030: ee96 e0bd a954 883d 2c44 ab3d b054 9b3d
00000040: a3ef 16ba 2068 723e cc9f 47be cd68 e23d
00000050: 0a66 22be db90 463e 2029 33be b638 0ebe
00000060: 6500 643e 47ac c5bc 6e2f f83d 85b2 0fbe
00000070: c3c8 7bbe 9bff 90bc d2c9 91bc be99 4c3e
-0.14474684 0.15689862 0.033648957 -0.1521494 -0.19675256 0.1421427 0.012826457 0.20907478
-0.16239874 0.22646233 0.18699907 0.05579595 -0.109662876 0.06656773 0.08362612 0.07584512
-0.00057577546 0.23672533 -0.19494551 0.110551454 -0.15859237 0.19391195 -0.17496157 -0.13888821
0.22265776 -0.02413 0.121184215 -0.14032944 -0.24588303 -0.017700007 -0.01779643 0.19980523

lin2.weight f4 [2, 32]
00000000: 3b2b edbe fc20 1a3e 72cb 0e3f cfdb 4bbe
00000010: 653f d3be a315 f03e 13af 5a3e 893c 843e
00000020: 2422 cabd 33b9 4e3e ac33 6f3e f41d b1ba
00000030: 2d52 9d3e dd93 9b3e 127a 6f3e 771a 423e
00000040: 76ad e33c d855 2a3e 8a12 19bf 5bc7 723e
00000050: 6289 80be 5b9f a83e 009a 303e 1b06 90be
00000060: 70ce 763e 16d4 583d 6c68 8ebd ec4b ecbe
00000070: 03f2 ebbe 80fe a13e 72a6 91be 98e2 603e
00000080: 9490 f43e bf44 76be 9ab3 05bf 5fbf 6a3e
00000090: b8b1 853e d6ea abbe 48b5 16be 2923 dcbd
000000a0: b808 1bbd 8336 77be c73b 03be 80c9 b5bd
000000b0: 7dd8 84bd 631c 2abe 6341 05be 8479 36be
000000c0: 8d89 48be 7ad2 c3be 4934 103f 056a 3abe
000000d0: db2b 7d3e 4299 bcbe 8851 87bd 12b4 9c3e
000000e0: 93fc 3bbe 9a3b 0abe c4b5 1dbe cd29 0a3f
000000f0: 462d f43e f947 98be e4d9 cf3d 1da4 84be
-0.46322045 0.15051645 0.5577918 -0.19908069 -0.41259304 0.46891508 0.21355848 0.25827435
-0.09869793 0.20187835 0.23359555 -0.0013512955 0.30726758 0.30386248 0.2338641 0.18955408
0.027792674 0.1663431 -0.59793913 0.2370886 -0.25104815 0.3293408 0.17246246 -0.28129658
0.24102187 0.052936636 -0.06953511 -0.46151674 -0.46083078 0.3163948 -0.284473 0.21961439
0.47766554 -0.24049662 -0.52227175 0.22924565 0.2611215 -0.33577603 -0.14717591 -0.10748894
-0.03785011 -0.24141888 -0.12815772 -0.08876324 -0.06486604 -0.16612391 -0.13013224 -0.17819792
-0.19583721 -0.38246518 0.5632978 -0.18204506 0.24723761 -0.36835676 -0.06607348 0.30606133
-0.18358068 -0.13499299 -0.1540137 0.5397003 0.4769079 -0.2974241 0.10148981 -0.25906458

lin2.bias f4 [2]
00000000: 9653 3b3e 54c5 5e3d
0.18293604 0.054387406

prop1.temp f8 [11]
00000000: b8d4 cae7 6286 e93f e1f6 2936 a8c1 c63f
00000010: 3ff0 6503 ea14 d13f 025f 6e1f c98b ba3f
00000020: 41fd 4ae8 d4ab ba3f 85ff 3c7e aee7 ac3f
00000030: 1376 ed50 5f71 a73f d5f3 4c07 d77c 9c3f
00000040: 56db 4f62 b4ae 933f d09b 2982 1e77 853f
00000050: e719 5db4 7961 d43f
0.7976545836633226 0.1777849449608118 0.26690149623732745 0.10369545953141926 0.10418444319929156 0.056455090436883494 0.04578683722386869 0.02781997663554477
0.019221132755741742 0.01048110804295091 0.31844942678108484
