saved/ogb-arxiv_SAGE_s6.pt (torch, 81966 bytes, 31 tensors)

convs.0.lin_l.weight f4 [32, 128]
00000000: 884f 9bbb af00 abbd 764f 4f3d 162a 94be
00000010: 5e28 12be 33d6 043e cb67 c23b a6f1 dabd
00000020: 1719 f53c 31e4 3b3d 47bb be3d 5b1a 9a3b
00000030: 9109 74bd c6be 13be dc26 203e 765f 8bbe
00000040: dd60 183e b930 66bc 9384 32bc 5d17 483e
00000050: 8650 8e3d 7bbd 14bd 170b 123d be61 a5be
00000060: 3c5d 2abe 2e6b 0dbe b9bc adbe 5ed2 083e
00000070: a741 2e3e 67c7 d2be d7be 683e 797c 14be
00000080: 9eec 16be 7878 043d 69d7 54be 2567 adbd
00000090: 3b03 4c3e ddd7 c73d 6cbe 1c3e 6208 36be
000000a0: 90a8 30be 2e5b 83be 486d eebd e1a6 0c3e
000000b0: d234 ed3c 48bd d0bc 16da fabc a289 2abd
000000c0: 9a37 f63c 630b 20bd 2d2a e8bc 42ca 453e
000000d0: dc00 67be 407a d43d 2171 2a3e c1bc 16bc
000000e0: ea5c 7bbc 16da a83d 6ada cd3d 1fd0 673d
000000f0: e462 843c 2d50 16be f66d 51be e3b7 0c3e
00000100: c99d db3d a551 cd3d e842 b4bd 69d6 54bd
00000110: e322 ac3d 5964 423c f8c4 8fbe 2add 9cbc
00000120: ca6e 6a3d 24d4 a43c 41e5 12be e1f9 2b3e
00000130: dce8 68be 44f2 843d 6ed7 b73e 5d64 0d3e
00000140: 6e25 013e 65ed 0b3d d568 583d a394 8dbd
00000150: 5d65 f83c 5935 f9bc 5b05 febc 2543 b3ba
00000160: c3b9 73bc ed11 983a 5a4d 78be ceb4 9bbd
00000170: 26bd 9c3e b7df c53d 3ae9 fd3b 50de f7bd
00000180: ba7a 7cbe 0568 133b 7572 4c3e d7e6 1c3d
00000190: 50b4 b1bd 3d26 60bd 37a5 c5bb 6fc6 993d
000001a0: a78d a83d 5eca cbbd d0c3 ad3c af73 93bb
000001b0: 08e0 f8ba c48f f53d d930 8ebd e64f 853e
000001c0: 1215 dbbd 110d ef3d 06fc 9c3d 5257 5abe
000001d0: ebcd 91bc 59ee 083e 2156 86be cb7d 0ebc
000001e0: 8619 a539 8e6c 5e3d 240a 403d 1ce9 1b3c
000001f0: 2c9f a53d bafd cc3c 81d0 163e 94ce ff3d
00000200: f31c 753d afe0 fbbd 99bc 4abc f6bb 413d
00000210: 9bd3 88bd d307 a5bd 6d97 2b3e 819b 963d
00000220: 4bf3 60bd 2f81 983d 3edb 0c3e 395d d93d
00000230: cac0 da3d a040 01bd 2e3e 093e bf59 f2bc
00000240: e2ca 3f3d eea7 8cbc fcc9 253d 4411 68be
00000250: 839a e53d 58be 66bd 476b 543c 693c cc3c
00000260: e769 693c 383a 783d ca17 45bd 00de bdbc
00000270: 6e22 6a3e 96aa 233c 107e 843d 760f 813e
00000280: b2df bfbc a6a5 d93d 22b2 1dbd e53e e43d
00000290: 467a e23c e744 733a 9aa0 6b3d cb79 623e
000002a0: 9825 e9bd 69bd 063e ef3a bcbd 1545 c7bd
000002b0: 3980 403d d1e8 a4bd c097 933d 10f4 c43d
000002c0: 0dea 75bd 8ba1 58be fb67 91bc 8818 bdba
000002d0: 1d97 a9bd 6907 263e af4e 44bd 22a5 3b3c
000002e0: 7be6 b33d 3e09 c0bd f4b8 51be 4e3e 6f3e
000002f0: a4cd d33d 8eac 6c3d b2b2 b9bb 3584 b1bd
00000300: f076 febd 2819 2e3d 87c0 0c3e 0c5e 363e
00000310: a306 cebd 78b7 17be 38c7 e5bd eb99 573c
00000320: 2d64 7cbd 2446 eabc 87ae 753e 4557 7abe
00000330: 4a79 2d3e 5b7d 7a3e c73c b73c 7088 b73e
00000340: ff92 38be a2cd 94be 3f77 75bd e99a e93d
00000350: daf9 763d 243a 5fbd 6304 963d dfc4 5e3d
00000360: 25ff 503d f929 7b3a ba63 2e3e 527c e6bd
00000370: f0ff 55bd 0c6d 53be 25b3 b9ba 8e36 1ebe
00000380: 44bf ccbd c695 be3d e266 5cbd ecbe 7c3d
00000390: 32bd edbd 0a8e 273e 7d56 34bd 5c86 9f3c
000003a0: 874c 8f3d 3354 32bc a2c7 013e f9e4 9a3d
000003b0: 1f3f 92bc e41a 66bd 8cff a9bb 014d a8bd
000003c0: 6107 9ebd 89f1 15be a6c9 2a3d 3e08 6f3d
000003d0: 5bd3 ae3d 2dfc 4bbd 1d8d c7be 806a b63e
000003e0: 490d c23d 144c 573d be87 cb3d 2fe5 33bd
000003f0: 3868 e83d a622 68bd 7dae eb3d c330 c1be
-0.0047397055 -0.0834974 0.05061289 -0.2893836 -0.14273211 0.12972336 0.0059327832 -0.10690622
0.02991919 0.045871917 0.09313064 0.004702849 -0.059579436 -0.14428243 0.15639824 -0.27221268
0.148807 -0.014049702 -0.010895866 0.19540162 0.069489524 -0.036313515 0.035655107 -0.32301134
-0.16637129 -0.13810417 -0.33933046 0.13361499 0.17017232 -0.41167757 0.2272905 -0.14500608
-0.147387 0.03234145 -0.20785297 -0.08466939 0.19923107 0.097579695 0.15307015 -0.17776635
-0.17251801 -0.25655502 -0.116419375 0.13735534 0.02895585 -0.025480881 -0.03062157 -0.041635163
0.03005581 -0.03907336 -0.028340423 0.19315436 -0.22558922 0.1037488 0.16644718 -0.009200276
-0.015341977 0.082447216 0.10051425 0.056594964 0.016160436 -0.14679022 -0.20452103 0.13742022
0.107234545 0.10025338 -0.08801824 -0.05196229 0.084050916 0.011864745 -0.28079963 -0.019148428
0.057234563 0.020120688 -0.14345266 0.1679454 -0.22745079 0.06491521 0.35906547 0.13807817
0.12611935 0.034161944 0.05283435 -0.06913116 0.030321771 -0.030420946 -0.031008413 -0.0013676627
-0.014875832 0.0011602022 -0.24248257 -0.07602845 0.3061306 0.09661811 0.00774875 -0.121029496
-0.24656191 0.002249242 0.19965537 0.038306084 -0.0867697 -0.054723967 -0.006031658 0.07508551
0.08230143 -0.09950708 0.021211535 -0.0044998745 -0.0018987665 0.11990312 -0.06942911 0.2603752
-0.10697378 0.11672414 0.07665257 -0.21322373 -0.017798385 0.13372172 -0.26237586 -0.008696984
0.0003149027 0.054302745 0.04688467 0.009516027 0.08087 0.02502333 0.14727975 0.124905735
0.05984206 -0.12298714 -0.012374067 0.047298394 -0.066809855 -0.08058133 0.16756983 0.07353879
-0.054919522 0.07446515 0.1375551 0.10613484 0.10681303 -0.03155577 0.13402626 -0.02958381
0.046824344 -0.017169919 0.04047583 -0.22662836 0.112111114 -0.05633387 0.01296503 0.02493115
0.0142464405 0.060602397 -0.04811839 -0.023177147 0.22864696 0.009989401 0.06469357 0.25207108
-0.023422096 0.10627298 -0.03849996 0.11144809 0.027646195 0.00092799816 0.05752621 0.22116773
-0.113841236 0.13158192 -0.09190928 -0.09729973 0.046997283 -0.08052219 0.072066784 0.09616864
-0.06003766 -0.21155374 -0.017749777 -0.0014426867 -0.08280776 0.16213764 -0.0479266 0.011452945
0.08784195 -0.09376763 -0.2048071 0.23363611 0.10341957 0.05778175 -0.005667054 -0.086677946
-0.12425029 0.04250446 0.13745318 0.17809314 -0.100598596 -0.14816082 -0.112196386 0.0131592555
-0.061618973 -0.028597899 0.23992358 -0.24447353 0.169408 0.24461882 0.022367848 0.3584628
-0.18024825 -0.29063135 -0.059928175 0.114065 0.06029687 -0.054498807 0.073250555 0.05438697
0.051024575 0.00095811445 0.1703023 -0.11254181 -0.052246034 -0.20647067 -0.0014167769 -0.15450498
-0.099974185 0.09305911 -0.053809054 0.061705515 -0.11608352 0.16362777 -0.044027794 0.019473247
0.06997018 -0.0108843325 0.1267381 0.07563204 -0.017852364 -0.05617799 -0.0051879343 -0.08217812
-0.07716251 -0.1464292 0.041696213 0.05835747 0.085364066 -0.04980104 -0.38974848 0.35628128
0.0947519 0.052562788 0.09938 -0.04391974 0.11348003 -0.05667367 0.115078904 -0.37732515

convs.0.lin_l.bias f4 [32]
00000000: f4d9 72bd 2eeb 0f3d dcf4 58bd debf 09bd
00000010: 5b8c 063e cff0 56bc 9e0d e6bd 009a 6ebd
00000020: f7e6 133c 0c5b 403d 9ff7 94bb e375 f8ba
00000030: 934d 073e b738 f9bd 2b1f e63b f36e 9d3d
00000040: 35aa bf3d 1ac9 7bbd 7653 6ebd 1f6a 0d3d
00000050: c00d a538 40b2 c93c a1e4 60bd 944d 88bc
00000060: ed1f c43c d856 693e f33d 163d c36e 5cbd
00000070: 3b85 cdbd 1d32 0abd 2261 613e d566 1fbc
-0.059289888 0.035136394 -0.05296789 -0.033630244 0.13139479 -0.013118937 -0.11233066 -0.058252335
0.009027234 0.04696183 -0.0045461203 -0.0018956031 0.13213186 -0.121690206 0.0070227585 0.076871775
0.09358636 -0.061471082 -0.058185063 0.034525033 7.870374e-05 0.024621129 -0.054905538 -0.016638555
0.023941005 0.22787035 0.036680173 -0.053816568 -0.10035177 -0.033739198 0.2200971 -0.009729107

convs.0.lin_r.weight f4 [32, 128]
00000000: 0a32 503e 436b 63bd 40e0 1bbd 1b00 3c3e
00000010: 00e8 3b3e 6c84 5a3d 1b02 8e3d 488d 1f3e
00000020: 0119 d0bd 464c 3fbd 1e08 673e fb13 2cbe
00000030: cd76 c7bd 410b 4abe 77f9 fc3b 9719 d1bc
00000040: 8f17 c43d d6bc 933e d864 aabd 72fb 363e
00000050: 3997 5e3e 049b d93d 9753 98be b996 2dbe
00000060: f6ca 99be 7b40 8abc ab54 25be 2b14 313e
00000070: 89ee 94bb 4c24 41be 660a 0b3e 49be dabc
00000080: 9ed7 ffbd c19e 043e 9421 8dbc 0f62 d7bd
00000090: 3d32 b03d 823a ad3c 0663 9f3d 08b6 22be
000000a0: 0776 01be 6256 abbe 62c3 a8bb f9bc 383e
000000b0: 6f5c 6bbe b973 98bd 7f18 8abe 4d4c 47be
000000c0: 28c5 32bd 404d 8a3e f6eb 1a3d cf80 2c3e
000000d0: 9666 303e c6bb ee3d 6dea 8cbc b83c ee3d
000000e0: 115e a63d 76f5 1bbe b627 113e a9a6 c5bd
000000f0: 4b3a 90bd 657d 5ebd 259d 37be 5fd7 42be
00000100: bb7b d8bd 73ca 333e 7432 c3bd 2724 493c
00000110: 692c adbd d515 1d3d e164 04be a392 c43d
00000120: fc6c a5be bb8d 66be 2957 223a fd85 513e
00000130: e5bf 6abe 3dd2 ab3c 82a3 5abe 2083 993d
00000140: 9c59 153e 9aa5 9dbc 51f1 0cbe ff75 2dbe
00000150: 2f7d 313d f884 bbbe 8184 a73e 0cab 38be
00000160: 4ae4 403e 5a8c 8d3d 2070 43be 7363 36be
00000170: 79b7 cc3d 3542 d4bc 8cdd 003d 64c5 f9bd
00000180: c9b2 b8bd 4352 753e 471d 863e 1168 0f3e
00000190: 7ffe 273e 4a41 30be c53b 933d 076f 103e
000001a0: 5278 30bd ebde 0ebe 1294 cd3d 719b 69bd
000001b0: cabe 82bd 90c9 1b3e d83a 02be cead 043e
000001c0: 9faa 993d ff9d 89be 7f0a 973e e289 44be
000001d0: 67aa b6bd 7520 d1bd ec7b bdbe fc14 513e
000001e0: 38b3 47bd 524a 8a3e 6cf9 973d cb73 b2bc
000001f0: ef47 a3bd 97c6 ac3e 7ae1 6abe 6e71 713d
00000200: c47e 2dbe 296c f63d 17dc 6abd 681e c1bd
00000210: cbd4 47be f77c 27be 4337 843e 9505 bfbd
00000220: 0186 06be 3691 a83c 7410 a43e c9b2 183e
00000230: 8cf8 723d 5fbd 883e e4ad 363c 4813 f03d
00000240: e96d 283e e711 8a3d 115e ffbd 5c53 30be
00000250: 56bc f8bd 8a89 20be 4d5a d63d bc84 1fbd
00000260: b657 193c 86bb e23d 039c 06be 15e7 8c3d
00000270: 4ea6 103e 44d8 2fbe 95c4 71bd 0db4 2b3e
00000280: a767 43be fb24 4d3e 90ba a4be 384f 153e
00000290: 7fc0 2cbd f22f 29be 623d 88bb 8b7c 1fbc
000002a0: 4075 093e b9d0 343d 134f 733d ccb4 19bd
000002b0: fdb2 673d 9ae8 22bd c278 dc3d bd56 8d3e
000002c0: 0d7a be3d a7a8 ecbd 3bd2 c0bd 4794 83be
000002d0: efe9 ffbd aa07 323d a9d8 b63d 12dc 273d
000002e0: e52e 59be e346 03bc 36ba 10be e631 893d
000002f0: 902a ad3d 01ea 01be 5741 99be dcaf 823e
00000300: 42f4 90be 4f4c a63c b9e6 593e 652e 9bbd
00000310: bd47 ecbd 4cd1 fd3d a394 cfbd cf22 c93d
00000320: c7ed c23b b246 ad3d f708 c83d cf7c 2ebe
00000330: 9335 1bbd c364 313e fe3d 7e3b d581 613e
00000340: 791d 56bd 6e69 b2bd 2852 d43c 6505 3f3e
00000350: a7c5 cc3c 44b2 cfbc c822 f4bc 29dc ed3d
00000360: 067b dbbd 5495 55be 060e 05bd ae1f 3abd
00000370: 46ce 87bd e881 44bd 04a4 8c3d 0cc4 ca3d
00000380: f3b0 6bbd a7c3 38bd f698 debb e588 41bd
00000390: 73d5 80bc 00ce ef3d 0a00 603e 363c 923d
000003a0: fda3 58bc 2c5e 6a3e df6f e4bd 2ac4 903d
000003b0: 27a9 2e3d f0bf 4ebe ef31 cc3d 34db c93c
000003c0: 15ae aebd 248a 7abd 4211 023e 3262 18be
000003d0: 27b1 c6bd 8ee1 8c3c 123c b1bd 47ed 0f3e
000003e0: b87e e93d b823 aabe 75e1 12be dba4 4f3d
000003f0: 61bc 41be 37ad 8cbd 6a87 abbc 0800 48be
0.20331588 -0.055522215 -0.03805566 0.18359415 0.1835022 0.053348944 0.06933995 0.15581238
-0.10161019 -0.0467036 0.2256169 -0.16804497 -0.09739456 -0.19730856 0.007720168 -0.025524898
0.09574806 0.28855008 -0.08320016 0.17869356 0.21737374 0.1062527 -0.29751274 -0.16952027
-0.3003766 -0.01687645 -0.1614558 0.1729285 -0.004545037 -0.18861502 0.13578185 -0.026702063
-0.124922976 0.12951185 -0.017227925 -0.1051675 0.08603332 0.021146063 0.07782559 -0.15889752
-0.1264268 -0.33464342 -0.0051502446 0.18040837 -0.2298448 -0.07443947 -0.26971814 -0.194627
-0.043645054 0.27012062 0.037822686 0.16846012 0.17226633 0.11656909 -0.017201627 0.11632675
0.081234105 -0.15230355 0.14175305 -0.096509285 -0.070423685 -0.054318804 -0.1793104 -0.1902747
-0.10570475 0.17557697 -0.095311075 0.012276686 -0.08455736 0.0383509 -0.12929107 0.09598281
-0.3230971 -0.22515003 0.00061927974 0.20461269 -0.22924764 0.020974273 -0.21351436 0.07495713
0.14584965 -0.019244004 -0.1376393 -0.16939543 0.043332275 -0.36624885 0.3271828 -0.18033999
0.18837085 0.069115356 -0.19085741 -0.17811374 0.09995932 -0.025910476 0.031461284 -0.121958524
-0.090184756 0.23957162 0.26194212 0.14004542 0.16405676 -0.17212406 0.071891345 0.14104854
-0.043083496 -0.13952224 0.10038008 -0.057033006 -0.063840464 0.15213609 -0.1271776 0.12956926
0.075032465 -0.26878354 0.29500195 -0.19193223 -0.089192204 -0.10211269 -0.37008607 0.20418161
-0.0487549 0.27009827 0.0742062 -0.02178373 -0.079727046 0.33745262 -0.22937575 0.058946066
-0.16942888 0.12032349 -0.0573388 -0.09429628 -0.19514768 -0.16356264 0.2582341 -0.093272366
-0.13137056 0.020577054 0.32043803 0.14911951 0.059319064 0.2670698 0.011149857 0.117224276
0.16448177 0.06741696 -0.124691136 -0.17219299 -0.12145297 -0.15677467 0.10466442 -0.038944945
0.009359291 0.110709235 -0.13145451 0.06880013 0.1412594 -0.17172343 -0.059025366 0.16767903
-0.19082509 0.20033638 -0.32173586 0.14581001 -0.042175766 -0.16522196 -0.004157708 -0.009734283
0.13423634 0.044144366 0.059401583 -0.037525937 0.05656718 -0.039772607 0.1076522 0.2760524
0.09300623 -0.115556054 -0.09415098 -0.25699064 -0.12495791 0.04346434 0.089280434 0.04098136
-0.21209295 -0.008012506 -0.14133534 0.066989705 0.08455384 -0.12686922 -0.29932663 0.25524795
-0.28311354 0.020300059 0.2127942 -0.075772084 -0.115371205 0.12393436 -0.10135772 0.09821092
0.0059487554 0.0846075 0.09767335 -0.17039798 -0.03789289 0.17323594 0.0038794274 0.22022183
-0.0522742 -0.08711515 0.025918081 0.18654402 0.024996592 -0.025353558 -0.029801741 0.11614258
-0.10716824 -0.20857745 -0.032484077 -0.04544037 -0.066311404 -0.04797545 0.06867221 0.09900674
-0.0575418 -0.045108464 -0.0067931367 -0.047249693 -0.01572678 0.11709213 0.21875015 0.071403906
-0.013222692 0.22887486 -0.1115415 0.07068665 0.042641785 -0.20190406 0.099704616 0.024640657
-0.08529297 -0.061166897 0.12701896 -0.14881209 -0.09701758 0.017197397 -0.08654036 0.14055358
0.11401123 -0.33230376 -0.14343818 0.050694328 -0.18919517 -0.068689756 -0.020938594 -0.19531262

convs.1.lin_l.weight f4 [32, 32]
00000000: 3ffa 5abd 2df0 38be 4f1b e1be 5b40 21be
00000010: cdb2 adbe 19c8 0cbe c2f8 a0bd 3e1b 91bc
00000020: d90c c1be 4001 bdbc 8b1d 003e ad0e 01be
00000030: e8d4 60be b67e f93d f933 4d3e b9d1 883d
00000040: 550b 6f3e 704a 703e 47ab 133e cdd9 cdbd
00000050: 83a3 173e 9ed0 7abe 5d3a ddbd 8a85 8b3e
00000060: 9d98 aabe 5cdc 81bd 0af0 a43b bd16 09bd
00000070: 4c40 cabe 24b3 15be 529b 74bd ce73 113d
00000080: b839 c03d 8340 fabc b3f4 a4bd 573d e1ba
00000090: f8ad 1dbe 8df9 e7bd d2dc 1dbe fd66 b3bd
000000a0: a425 34be bf27 23bc 51b6 123e 6ba7 04be
000000b0: 7742 5d3c b063 03be 167e 9b3e 4330 38be
000000c0: f45a 11be 0efb 7a3e d107 25bd d6f7 e73d
000000d0: 0257 37be f634 6c3e 4ce2 74bc 2d49 373e
000000e0: 90b0 65be f376 a93d 3d35 ae3d 4013 0e3e
000000f0: 1862 553e 9661 ac3d f24d 2f3c fcd4 943c
00000100: ed6e 48be 04cb 8f3d 950b ea3d 85fc 18bf
00000110: 8fdb 49bc 6b0b ce3d 1024 2d3e 118e 283e
00000120: 6567 d43d bb34 ffbd 60ef 6f3a d11a 993e
00000130: b03b 643d 6763 1c3e 1651 41be 9ea0 023e
00000140: 33ff 813e eeba 0fbd b778 12be 0e74 453d
00000150: b24d 01bd e83a 2d3e 48ae 373d 7082 a93d
00000160: 8ff5 e1bc 9791 ddbd 6967 313e 6fb1 00be
00000170: d838 2abc 2505 023d f257 033e e403 b43d
00000180: fab4 f13b ac75 4c3e 4541 583e 1dab 25be
00000190: e100 3ebd e626 613e 2b21 be3d 7b49 39bd
000001a0: bf00 28bd 4a2d cebd bb4c e33d 6baa 833e
000001b0: 79c4 51bd f3b2 dabc e693 43bb 9819 c1bd
000001c0: 6278 85be 4e63 5d3e 4d5a dbbd eee4 96bc
000001d0: b6cc bfbe e9a5 14be e339 8c3e b34b c0be
000001e0: 4edf 233e e284 8ebd 352c 00bc 9c1e c53e
000001f0: 664b b2be 2ecc 58bd 5363 683d 95ac 913e
00000200: 9af7 bcbd 2839 d73d c9e6 613c 5ef1 88be
00000210: 842e 883e 1613 453a d308 a03d 973c 433c
00000220: e1e6 9f3d 4eef f73d 6b61 8cbe 3ff3 9cbe
00000230: 5903 893e ba0e 48be 27c7 b1be 180e 54bd
00000240: cf86 45bc 71a9 8b3d c6ec 243d 6239 0ebe
00000250: 553d f0bd 6d02 c23d fae9 b73c 8c48 d43d
00000260: 066a bebd 6ef0 9abd 1734 bc3d 8d03 663c
00000270: 6cb9 393c 78b2 733d fea6 17be 0e64 60bd
00000280: 1655 d83d 2125 013c ddb4 873d 0e3f a63c
00000290: 74d3 833e c867 263e 97af 85be d68f 8e3d
000002a0: 0f7f 5e3d 80df d63c 9c54 21bd eb77 17be
000002b0: b2e7 953d abc3 d03d 9ed8 9c3d 5645 073e
000002c0: 9f0e b33c 3333 4f3e a81a a7be ba58 ef3d
000002d0: c862 8b3e 3445 e8be 0311 e53d fc5e 4e3e
000002e0: 361c be3d fdf5 bb3d 7ca3 eb3d 2c1c 79bd
000002f0: c3d3 1abe 48e0 2e3e b0f7 2a3c 0bdc 783d
00000300: 81e4 41be 0a6d a9bd 76d0 d83e 92b7 18bd
00000310: bea6 95bd 4ddf 603e ca72 383e f043 4dbe
00000320: a312 483e dfab 6fbe efbd b03c 2757 0e3e
00000330: a9f4 47be 3b51 2cbe bcaa 493e b35a 8abe
00000340: f2fe bfbd e193 873d 81c6 8f3e 5ab3 483e
00000350: e069 a3bd 068e 753d ec5d ed3d 92da 24be
00000360: 6beb 59bd f789 8ebd 80e6 a4bd b08f 72be
00000370: f86f 92be 926a e93d 6fe5 8dbe dd2d a3be
00000380: ee2c e03c 3492 743e 408f b13c 58f0 3ebe
00000390: 585c f13d 1404 f9bd 344e 65be 5bc3 30be
000003a0: ebf2 143c ea11 5cbe 27b7 813e 5f4d 6e3d
000003b0: b40c 53bc e5ee 293e c67e 4d3e 8e69 ecbd
000003c0: 25da 193e bd6f f33d 6bc3 5c3d 4cdd 293e
000003d0: cc24 8ebc 865f f7bd 8846 8f3e 709f a0bd
000003e0: d3a7 51be 2318 493d 9c09 43be 10bf 853e
000003f0: 804b 9fbc 77e4 dbbe 9906 2bbc 13a3 0abd
-0.05346131 -0.1806037 -0.43966147 -0.15747206 -0.33925477 -0.13748206 -0.07859947 -0.017713185
-0.37705114 -0.023071885 0.1251127 -0.12603255 -0.21956217 0.12182371 0.20039357 0.066806264
0.23344167 0.23465896 0.14420806 -0.10051308 0.14808469 -0.24493644 -0.108021475 0.2725032
-0.3331956 -0.06340858 0.0050334977 -0.03346895 -0.3950218 -0.14619118 -0.059718437 0.03551083
0.09386009 -0.03054834 -0.08054485 -0.0017184418 -0.15398395 -0.11326895 -0.15416268 -0.08759878
-0.17592484 -0.009958207 0.1432736 -0.1295449 0.013504616 -0.12830997 0.30369633 -0.1798716
-0.14194852 0.24509832 -0.040290657 0.11326568 -0.17904285 0.23067078 -0.0149465315 0.17899008
-0.22430634 0.08274641 0.08506248 0.13874531 0.20838201 0.084170505 0.010699736 0.018167965
-0.19573565 0.07021144 0.1142799 -0.59760314 -0.012320413 0.100607716 0.16908288 0.16460444
0.103712834 -0.124612294 0.0009152796 0.29903272 0.055720985 0.15272294 -0.18878588 0.12756583
0.25390014 -0.03509038 -0.14303862 0.04820638 -0.031568237 0.16917002 0.044843942 0.08276832
-0.027582912 -0.10818785 0.17324604 -0.12567686 -0.010389529 0.031743187 0.12826517 0.087898046
0.0073763104 0.19966763 0.21118648 -0.16178556 -0.046387557 0.21987495 0.0928367 -0.045236092
-0.041016337 -0.10067232 0.110986196 0.25715956 -0.05121276 -0.026696658 -0.0029842793 -0.0942871
-0.26068407 0.21619913 -0.10710583 -0.018419709 -0.3746087 -0.14516415 0.27387914 -0.37557754
0.16003153 -0.06958939 -0.00782304 0.38499916 -0.3482315 -0.052929096 0.056735348 0.28451982
-0.09226914 0.105089486 0.013787934 -0.2674665 0.2659799 0.00075177976 0.07814183 0.011916301
0.078077085 0.121061906 -0.27418074 -0.30654332 0.26760367 -0.19536868 -0.34722254 -0.051771253
-0.012056067 0.06819428 0.040264867 -0.13889077 -0.11730448 0.09473119 0.022450436 0.103654
-0.09297566 -0.075653896 0.09189623 0.0140389325 0.011335712 0.059496373 -0.14809796 -0.05478292
0.10563104 0.007882387 0.06626294 0.020293739 0.25747263 0.16250527 -0.26110527 0.06961028
0.05432039 0.02622962 -0.03938733 -0.14791839 0.07319583 0.10193571 0.07658504 0.13210043
0.021857558 0.20234375 -0.32637525 0.11686845 0.27223802 -0.45365298 0.11184885 0.20153421
0.092827246 0.09177778 0.115057915 -0.060817882 -0.15119843 0.17077744 0.01043503 0.060756724
-0.18934824 -0.08272751 0.42346543 -0.03728444 -0.07307194 0.21960182 0.18012539 -0.20045447
0.1953836 -0.23405407 0.021574942 0.13900433 -0.19526924 -0.16827862 0.19694036 -0.27022323
-0.09374799 0.066200025 0.28081134 0.19599667 -0.079791784 0.059949897 0.1159018 -0.16099003
-0.053203028 -0.069599085 -0.08051777 -0.23687625 -0.2860105 0.1139728 -0.27714106 -0.31870928
0.027365174 0.23883897 0.021674752 -0.18646371 0.11785191 -0.12158981 -0.22393113 -0.17262022
0.009091119 -0.21491209 0.25335047 0.058179256 -0.012881447 0.16595037 0.20067891 -0.115435705
0.15024622 0.11886547 0.053897303 0.16588324 -0.01735153 -0.120787665 0.279835 -0.0784291
-0.20474176 0.049095284 -0.19046634 0.26122332 -0.01944518 -0.42947742 -0.010438585 -0.033846926

convs.1.lin_l.bias f4 [32]
00000000: 8705 b43d e638 08be 460a ed3d 01f9 363e
00000010: 31a9 67bd 86a4 863c aa84 a9bb a0e3 11be
00000020: 8e73 d4be a5b8 263d a040 823e 91cd 91bd
00000030: 0018 b6bd bf3c f1bd 35f6 413e efcb 6f3e
00000040: c8af cabd 7f54 83bd a05a 0b3d 09c3 a4bc
00000050: f5e9 85be 9950 78bd 4208 303e 7c5e 2d3e
00000060: a6b8 10bd be7d 0b3c f928 fdbd eb0b 6fbe
00000070: f7a5 9ebb 8892 fdbe 059d c63c 41a2 26be
0.08790117 -0.13302955 0.11574225 0.17868425 -0.056557838 0.016435873 -0.0051732855 -0.14246988
-0.4149441 0.040703434 0.2543993 -0.07119287 -0.088912964 -0.117791645 0.18941577 0.23417638
-0.09896809 -0.06412601 0.034021974 -0.020112531 -0.26155058 -0.06062374 0.1719065 0.16930574
-0.035332344 0.008513866 -0.123613305 -0.2334439 -0.004841562 -0.49525857 0.024244795 -0.16272832

convs.1.lin_r.weight f4 [32, 32]
00000000: ecfe f23d bde2 2d3e 2055 08be 4ba9 673e
00000010: c921 0a3d e42b 2fbd 3d47 04be ccb2 0abc
00000020: 313c aabe 4bd0 05ba cf77 dcbc 10c5 1fbe
00000030: df02 b13c 466e 563e 4854 503e 3a9e 063e
00000040: a822 2abc 9dd6 95be 08ea 38bd df82 983d
00000050: b11d f03d 65b6 94be ec0a 0abe 36d1 5f3e
00000060: d298 7dbe cf64 07be 8ce4 193d 4a03 b33d
00000070: 044f a5bd 58cb 10be 6296 0abd 51b5 7d3d
00000080: 2cf2 0a3d 0e1d 2fbe ca1b 0d3e baea 70be
00000090: ac73 a7bd 3ea8 cdbe dbd8 82be 3ed8 b7bc
000000a0: b8e1 2a3d 39b2 b7bc 0ccc a4bd efe2 82be
000000b0: f62d d13d 3c6e 2bbd 894f d23d 026c 56bd
000000c0: 97fa e6bc 50d7 f13d 0d17 33be f887 7cbe
000000d0: f653 41be a522 443e bfd7 36be f9b8 993e
000000e0: c629 5dbe 1944 353e 9cdf 7abd 8447 e23d
000000f0: 0474 9a3e 5bb2 f3bc 4db8 cebc 205b 3c3e
00000100: 87be 4cbe 2bcd e73c 293b cd3c 00a8 aabe
00000110: 433c 463e 97ff 11be 531e 08be 7818 823d
00000120: bf22 05be 0455 9bbd 62b3 83be 3400 763e
00000130: 4e43 c5bd 832c cebd ded5 5dbd 1452 92bd
00000140: 4371 eb3d 205c fd3c 1610 203d 5a39 013e
00000150: 04fc 15bc efcc 85be f4dc ae3d 6f4c 983c
00000160: 4656 3cba 09d7 113d 6834 2c3e 6ad7 f4bd
00000170: 1cf2 6bbe 6705 e6bc 3a31 853e 1543 c6bc
00000180: d9b3 833d 0d9e 763e 5044 efbd d367 ed3d
00000190: 58ca bbbc f263 62bd 5c64 1bbe 6973 48be
000001a0: 86a3 963d b10b 85bd b4ab 123e beb8 de3d
000001b0: 4555 203e 9652 40be 1b85 c33d 9ed1 01bd
000001c0: d320 01bd 9c44 dabc 646c 3d3c 5bf3 bf3d
000001d0: 7f55 fabd 98b3 69be 5240 0fbe 8d5e a0bd
000001e0: e698 483e 454d b63c d91c 9cbb 3357 b13d
000001f0: beeb 99be 8d08 033d 0420 b1bd 16f4 3e3e
00000200: 1cc6 6cbc 1425 993d 4a59 90bd 43a9 52be
00000210: 3653 acbd 87b7 41bd 0dac 13be 5ffc 7c3d
00000220: e925 b03d b4cc c7be 92d9 63be 253e 2d3e
00000230: 9e58 71be 1401 18bf eeb2 b2bd a37c 283e
00000240: 2774 83bc 3c88 30be 9809 093e bb69 0cbe
00000250: 05f4 b7bd 984b 563e 6d35 393e b1dc cc3d
00000260: d9a2 143e 38ff 7c3e d3fa f8bd 5eb5 4e3e
00000270: 156b f83d 29c9 c03c 9282 d3bd dc11 c23d
00000280: bbcf 6a3b ea2f 84bd f5ed 243d 4a9c 64bd
00000290: 95f6 503e 49a7 33bd c0ac 97be 19cb 01be
000002a0: 8743 ffbc 9b04 8cbe 91aa 123d 817a c3bd
000002b0: 1680 14be 5c8d 34bc 97ad 2bbe f922 cbbc
000002c0: ef8f 2bbd bb34 5b3c 3b7d 1cbe 21a5 33bd
000002d0: dfa0 c93d 1521 00be 8c77 373d a242 023d
000002e0: 2fac bcbd 78cc 6bbe 6fcd 1abd aa93 80be
000002f0: 5e6f 2cbd ab78 71be fdf9 17bd 6f9a 483e
00000300: 2167 813d 0ee2 14be 34c9 6a3d cad2 74bc
00000310: c356 1ebe d097 3b3d ddae 7cbd d26b 86be
00000320: c9a2 62bc e7c8 f6bd f514 0b3e 568c a1bd
00000330: 0e0c 0bbe 8bac 7d3d 5cf9 b63e 7f37 143e
00000340: 46a1 79be 805a 81bd dad3 bb3d b86b 173e
00000350: 2f46 fa3d bad1 693d b944 2a3e 2b3a 98bd
00000360: b289 acbb 2c53 01bd 3a4d 293e 6b6e 213e
00000370: 94b9 58be c95e 3b3e eb44 843d 06b7 0c3c
00000380: adbc bf3d f006 2abe 8680 17be bb7f d5bd
00000390: 920d 8c3e 0302 bfbd 047a 03be 68ad f13d
000003a0: 7c75 d2bd 2ffe cf3c 55ee afbe 0327 303e
000003b0: 12a0 233e 14a6 59bd 61f4 b13c 7582 5d3c
000003c0: 3c2d 093e 1471 b73c beca 0c3e 1cf6 27be
000003d0: c4c7 283e 941a 68bd d720 a1bd 9ed5 52be
000003e0: 178d 063e 9426 b3bc 8cb3 a3bc d846 053e
000003f0: 6c18 11be 36f4 c9be 7170 113e 3c34 54be
0.11865029 0.16981025 -0.13313723 0.22623174 0.033723626 -0.042766467 -0.129178 -0.00846548
-0.33249047 -0.00051045854 -0.026912598 -0.15602517 0.021607814 0.20940503 0.20344651 0.13146296
-0.010384239 -0.292653 -0.045145065 0.07446837 0.11724413 -0.29045406 -0.13480729 0.21857151
-0.24765328 -0.13222049 0.037571475 0.08740862 -0.08071712 -0.1414007 -0.033834822 0.061940495
0.03392236 -0.17100927 0.13780132 -0.23527041 -0.081763595 -0.4016742 -0.25556073 -0.02244198
0.04171917 -0.02242385 -0.08046731 -0.25563762 0.102138445 -0.041853175 0.102690764 -0.052349098
-0.028195662 0.11808646 -0.17489262 -0.24661243 -0.18879685 0.19153841 -0.17855738 0.30023935
-0.21597967 0.17701758 -0.061248407 0.11048797 0.30166638 -0.029748132 -0.025234366 0.18394136
-0.19994555 0.028296074 0.025052624 -0.333313 0.19358926 -0.14257656 -0.13292818 0.06352323
-0.13001536 -0.07584575 -0.25722796 0.24023515 -0.09631978 -0.10067084 -0.054159038 -0.071445614
0.11496212 0.030927718 0.03907784 0.12619534 -0.0091543235 -0.26132914 0.08538237 0.018591134
-0.00071844866 0.035605464 0.16816866 -0.119551495 -0.23041576 -0.028078748 0.2601412 -0.02420191
0.064307876 0.24083729 -0.116829515 0.115920685 -0.022923633 -0.055271097 -0.15175003 -0.19575275
0.07355408 -0.064963706 0.14323312 0.108750805 0.15657528 -0.18781504 0.09546872 -0.031694047
-0.031525444 -0.026644044 0.011561487 0.09372588 -0.12223338 -0.22822416 -0.1398938 -0.07830534
0.19589576 0.022253642 -0.004764181 0.0865921 -0.3006267 0.031990577 -0.086486846 0.18647799
-0.01445153 0.07477775 -0.070482805 -0.2057238 -0.08414309 -0.047294166 -0.14421101 0.061764117
0.08600981 -0.39023364 -0.22250965 0.16918238 -0.23568961 -0.59376645 -0.087255344 0.16453795
-0.016046597 -0.1723947 0.13382566 -0.13712208 -0.0898209 0.20927274 0.18086787 0.10003031
0.14515246 0.24706733 -0.12157216 0.20186374 0.12129799 0.02353342 -0.10327639 0.09476063
0.0035829383 -0.064544514 0.040265996 -0.05581311 0.20406564 -0.043860707 -0.29623985 -0.12675132
-0.03116013 -0.27347264 0.035807196 -0.0954485 -0.14501986 -0.011020031 -0.16765438 -0.02479695
-0.041885313 0.013379271 -0.15282147 -0.04385865 0.09845137 -0.1251262 0.044791743 0.031801827
-0.09212529 -0.23027217 -0.037793573 -0.2511266 -0.042098396 -0.23581187 -0.03710364 0.19590162
0.063184984 -0.14539358 0.05732079 -0.014942834 -0.15462784 0.045799077 -0.0616902 -0.26254135
-0.013832756 -0.12050038 0.13582213 -0.07888095 -0.13578817 0.061932128 0.3573712 0.14474295
-0.24377927 -0.0631609 0.09171267 0.14787185 0.12220418 0.057084776 0.16627778 -0.0743297
-0.005265438 -0.03157346 0.16533366 0.15764777 -0.21164542 0.18297876 0.064584576 0.008588558
0.09362159 -0.16604209 -0.14795122 -0.10424753 0.27354103 -0.093265556 -0.12839514 0.11800653
-0.102763146 0.025389759 -0.3436152 0.17202382 0.1597903 -0.0531369 0.021722974 0.013519873
0.13396162 0.022392787 0.13749215 -0.16402477 0.16482455 -0.056665972 -0.07867592 -0.20589301
0.13139759 -0.021868981 -0.019983076 0.13015306 -0.14169472 -0.3944413 0.14203049 -0.20723051

convs.2.lin_l.weight f4 [32, 32]
00000000: dfe4 01be bddd 993c 6668 6fbd 748c 133e
00000010: 7848 f4bd 250e 0b3e 7ec3 873c 587e 0e3e
00000020: ad94 1d3e 7305 ad3c 8140 d6bd cc6b aabc
00000030: e546 433e 131f 52be 02dd 8fbe c7a8 91bd
00000040: 631e b53c 6e0c a13d 988f 6abd 2d85 dbbd
00000050: 3a5a 293b 0b6a 72be 8365 c9be cd8b 2f3e
00000060: 5205 1e3e 6b61 a63e b3ae 36be db29 62be
00000070: ee87 8dbd b4bc d2be e164 133e cc4b 0bbf
00000080: 178f 8cbd 98cc 81be 81c3 0cbe a98a 993c
00000090: 17ac ec3c 3a93 983c 411c b3bc 2306 83be
000000a0: 781c 903d 0d1c f03c ab2a 043c 3ca5 1cbd
000000b0: b5b0 02be 3a9f 173e 446b cdbc 2734 96bd
000000c0: 1962 393d 8e56 783e e0a7 3f3d 7002 05be
000000d0: 8775 813d a0a3 89be 0d88 393e f851 79bd
000000e0: 9cbd 89bd 55d9 1bbe bb52 47be 59c4 a2bd
000000f0: c0c3 c7be f95e 8dbe 131b ea3d fddf 8cbd
00000100: 482a e7bd ef50 903d e174 49be 5850 57be
00000110: 85f8 153e ce6c ddbd c65f 803c bafc 0abe
00000120: 6420 1bbe 6e8f 863d 4cd7 0cbe 0c1a a0bd
00000130: 9900 4b3e 4d13 1abe 6c6a 103e 304c ad3d
00000140: deba 963d 0637 0e3e 1dd8 a7be 4760 b8be
00000150: 1eb5 7e3c 4e2b 8bbe 0de3 40be 7170 b638
00000160: 8567 5abc d223 ed3b a69b 88bd 4a37 52be
00000170: 4fc9 813e f547 4e3e e136 bf3e 2b5c 163e
00000180: 7681 f83d e516 8e3a 9489 adbd a33d 03bd
00000190: 0948 39be a6ab ebbd 1e31 d5be 5265 7d3d
000001a0: 4a2d 1bbd 7827 6cbd aa5f 40bd 5276 483d
000001b0: 20e4 a6bd c3d5 e43c 1704 0f3d 9298 593d
000001c0: 00d8 fe3c e118 12be be69 533e 3c40 473d
000001d0: 5dfd 893c feef 9cbd e457 76be 565b 0dbd
000001e0: 04eb 62be d23f 763d c9dc 223d 8d31 843e
000001f0: 0021 443e 1b06 a7bc c883 393d ff36 7cbe
00000200: 20b5 b13c cab4 473d 4f24 9f3b 8f2e 97bd
00000210: 7889 8bbe f7e7 a83c b110 a2bd 0aa7 29b9
00000220: c7c0 b63d e5fc 4c3e 1160 c83d b268 92ba
00000230: 5b33 babd 835e 033e e512 debd 8355 0d3e
00000240: 2ee4 3c3d 02a9 17be a332 fabd ec72 20be
00000250: 02f1 2a3e 0a43 253d 846e a0bd f9fb 6dbe
00000260: dafd f13e 0920 26be 8c9b 44bd 6b3c 1cbd
00000270: ba8f 46bc 1864 cfbb 6334 543d 551a 953d
00000280: e16b 07be 2178 9f3d f03a c43d b80c d3bd
00000290: dad5 6cbe c2ee 493e 882c 453e 999e 263c
000002a0: 39f0 7dbd 9125 2bbe 9b1b f5bd cdf5 a0be
000002b0: ae4b 24be 3147 d5bd c3d5 3ebe be29 96bd
000002c0: b2cf 053e d72e 32be 7403 1a3d 9314 733e
000002d0: b461 583b e803 f83d bbfc 77be 5d1b 853d
000002e0: 03a8 59be 78a1 953d 7365 343c 639e 58be
000002f0: a53a dd3d 3158 463e 2714 173e 70d6 efbe
00000300: 8ce3 0dbe 5f78 5ebc 6d7e 04be 1f64 cebd
00000310: f887 4dbd d416 e7bd 5689 693d 7d0d a7be
00000320: bec7 8dbe 3fb0 8c3d 0acf 5bbd c4bb ec3b
00000330: 3639 7a3d 729b fcbd d6a4 89be 6bae 21be
00000340: f8bf a23d 46ec 363d fb2d 2b3c 5649 7abe
00000350: 1fb9 2abe ad19 af3c ab68 c83d a258 3a3e
00000360: 0126 7cbd bcaf 173d 6018 94be f95e 7b3d
00000370: 3f8d 41be 121c 83bc 7ff0 543e bb5a ee3d
00000380: 72a0 0dbe efdf b9be ef65 673d 4001 b6bd
00000390: 9e0b 173e dc98 4d3e 5f1a b2bc 2bad 11be
000003a0: 75f6 49bd 6dc1 6cbd 00e3 233e cd66 63be
000003b0: 5d90 52be fecf e3bd 6083 0abd 007f b73c
000003c0: 247c 073c dd4a eebd 69b4 5cba 4ef9 733d
000003d0: 097b 84bd 51ff 85bd 93c0 46be 6fd7 07bd
000003e0: a386 97bc bd90 493e 9083 6d3c 7809 24be
000003f0: ed34 943e 9998 adbd 0e5f 1dbc 9a44 703e
-0.12684964 0.01878249 -0.05844917 0.14409047 -0.11927885 0.13579614 0.01657271 0.13915384
0.15388747 0.021120762 -0.10461522 -0.020803355 0.19070013 -0.20519666 -0.28098303 -0.0711227
0.022109216 0.07863699 -0.057265848 -0.10718761 0.0025841133 -0.23673265 -0.3933526 0.17143174
0.15431717 0.324962 -0.1784008 -0.22086279 -0.06910692 -0.41159594 0.14393951 -0.5441253
-0.0686323 -0.25351405 -0.13746454 0.018742876 0.028890653 0.01862489 -0.021864058 -0.2559062
0.0703668 0.02931025 0.008066813 -0.038243517 -0.12762721 0.14806834 -0.025075562 -0.07334166
0.04525957 0.24251768 0.046790957 -0.12989211 0.06321245 -0.26882648 0.18118306 -0.060869187
-0.06725618 -0.15219624 -0.19465153 -0.079476066 -0.39016533 -0.2761152 0.11430945 -0.0687866
-0.112873614 0.07046687 -0.19673492 -0.21026742 0.14645584 -0.108117685 0.015670668 -0.1357297
-0.15149075 0.06570326 -0.13754004 -0.07817468 0.19824447 -0.15046425 0.14103097 0.08461797
0.07359861 0.13888177 -0.3278207 -0.36010954 0.015546111 -0.27181476 -0.18836613 8.69938e-05
-0.013330345 0.007236936 -0.066703126 -0.20528904 0.253489 0.20144637 0.37346557 0.14683597
0.12134068 0.0010840563 -0.084735066 -0.032041203 -0.18093885 -0.11507349 -0.41639036 0.061864205
-0.037884988 -0.057654828 -0.046966232 0.048940964 -0.0814898 0.02793396 0.03491601 0.053124018
0.031108856 -0.14267303 0.20645806 0.048645243 0.016844446 -0.076629624 -0.24056965 -0.034510933
-0.22159964 0.060119458 0.03976134 0.25819054 0.19153214 -0.020388654 0.045291692 -0.24630354
0.021692812 0.0487564 0.0048566232 -0.07381927 -0.27253318 0.020618422 -0.0791334 -0.00016179323
0.08923488 0.20018347 0.09783948 -0.0011170118 -0.090918265 0.12829022 -0.108434476 0.13802151
0.046116047 -0.14810565 -0.122166894 -0.15668839 0.166935 0.040347137 -0.07833579 -0.23240651
0.47263986 -0.16223158 -0.047999904 -0.038143557 -0.012119228 -0.006329071 0.051807772 0.07280413
-0.13224746 0.07786585 0.09581554 -0.1030516 -0.23128453 0.19719985 0.19255269 0.010169649
-0.061996672 -0.16713549 -0.11968156 -0.3143753 -0.16044495 -0.10413969 -0.18636231 -0.073321804
0.1306751 -0.1740068 0.03760095 0.23738317 0.003301722 0.1211012 -0.24217503 0.0649936
-0.21255498 0.07306188 0.0110105155 -0.2115417 0.10802201 0.1936958 0.14753781 -0.4684329
-0.13856333 -0.013578503 -0.12938853 -0.1007769 -0.050178498 -0.11283651 0.05701574 -0.32627478
-0.27691454 0.06869554 -0.053664245 0.007224532 0.061089717 -0.12334336 -0.26883572 -0.15789191
0.079467714 0.04465892 0.010447974 -0.24442038 -0.1667218 0.021374548 0.09785589 0.18197873
-0.06155968 0.037032828 -0.28924847 0.06136987 -0.18901537 -0.016004596 0.20794867 0.11638399
-0.13830736 -0.3630366 0.056493696 -0.08886957 0.14750525 0.20077842 -0.02174109 -0.14226215
-0.049307305 -0.057801653 0.16004562 -0.22207184 -0.20562883 -0.11123656 -0.033816695 0.022399426
0.0082693435 -0.11635373 -0.0008419217 0.059563927 -0.064687796 -0.06542838 -0.19409399 -0.033164438
-0.018496817 0.1968412 0.014496699 -0.16019237 0.2894663 -0.08476371 -0.009605182 0.2346367

convs.2.lin_l.bias f4 [32]
00000000: d2bf debc 55f1 483a 6d9f c93d 2ae5 28be
00000010: 26bb 443e 80b3 19be 92eb 67be 25c5 40bd
00000020: 27cd da3d 67c4 6c3b 298a c3bd b9fa 4c3e
00000030: 8f70 043e 5d66 00be 1d66 4dbd 19fc 84bd
00000040: f0e3 53bc f66a 43bd e23e d03e 3f2c 52bd
00000050: 483b 8abd 2137 8b3c dbeb 5dbd 5d50 51bc
00000060: c7cd 71be 9cb9 d53d b248 873d 1b9c 05bf
00000070: 866c fb3d 920a 193e ae02 00be 51bb 8b3e
-0.027191076 0.0007665356 0.09844861 -0.16493669 0.19212016 -0.1500988 -0.22648457 -0.04706301
0.10683661 0.0036127807 -0.09547836 0.20017518 0.12933563 -0.12539048 -0.05014621 -0.06493396
-0.0129327625 -0.047709428 0.40672976 -0.051311728 -0.06749588 0.016994061 -0.054180007 -0.012775508
-0.23613654 0.10435793 0.066056624 -0.52191323 0.122765586 0.14945439 -0.12501022 0.2729135

convs.2.lin_r.weight f4 [32, 32]
00000000: 073d 5cbe 61d1 fb3d adbf 0bbe a417 033e
00000010: d96a 983d 39f0 663d 25c5 8bbc f27a 053d
00000020: 19f5 a13b cdcc 3ebd 5244 0eba ef98 0fbc
00000030: bfde e3bd b29a b63d 6c7a e3bd c133 bf3c
00000040: 9447 653e 1d28 cc3d bd7c 363d b5bd 0bbe
00000050: aa7c 1d3e 31e8 a1bd 3365 82bd d7ab 04be
00000060: 2be6 233e 4371 f7bd ac3f edbd 9b5b 0cbe
00000070: 86e5 253d d390 24be d80a c43e c49c 12bf
00000080: e2b2 73bd 333a 2bbe fc64 a13d 12f1 2c3d
00000090: 1594 a93e 2501 9bbe ed2f eabe a458 1d3e
000000a0: d5df 963d 6ef8 0d3c d375 e13c 9b1a 64bd
000000b0: 73d3 16bc 57a0 bfbd 039f 033e 0611 1cbe
000000c0: d52e 38bd 9d12 c53e f5b2 e43d e8e5 4d3d
000000d0: 5d7e 83be 9b49 4abe 621f 113e 6a0a 2abd
000000e0: 9641 3d3c d820 b53c a805 b7bd c4b9 07be
000000f0: 11b6 a53c 34e9 b0bd 776a cdbb 03d7 013e
00000100: 737e 58be 0c10 973d bed2 55be 7777 a13d
00000110: 6796 3abd 2e89 8dbe 3b18 373e b567 88be
00000120: 20a6 cfbe 5560 e23c 3132 17bd 9006 a93d
00000130: 4bc1 05be 64c5 d53c eca4 083e 2c2b 09bd
00000140: 4525 e6bd 24a0 173e 3141 ad3d d6a2 273d
00000150: 071d c03d e7b6 333d 5b0e 5abe b5c4 423e
00000160: f539 0fbe 12e8 10be 120e 0abe bbb3 c2bb
00000170: 04c4 2abe 0493 aa3d 9495 83ba 93fe 2b3d
00000180: 9047 1c3e 3375 8cbe 9388 a8be 2ae6 233e
00000190: 5922 cfbe 431c d9bd b80a 26bd c4d6 4ebd
000001a0: 49d5 433d 4484 7dbe 41fc 4b3e 004a 89be
000001b0: 2b50 c9be 156b 8bbd 165a 47be 790b 203e
000001c0: 8ec9 553e a43b 7b3e e500 1ebd 009d 683e
000001d0: cf5c 12be 1e59 283d 288f 61bd 92e5 6cbe
000001e0: 63b9 213e cee8 79bd 865d 41bd bae0 f4bd
000001f0: fb10 b9bd adf7 ef3d 783e 843e b92b 73bd
00000200: 8e9e 00be 72fa 44be 1074 823d d7c0 0abe
00000210: 682b 94bd 43a8 873d f0b8 06be 04c9 b63d
00000220: f6ab 4cbe fedf 33bd 0a64 e63c bd42 3ab8
00000230: 8048 48be be7d 97bb 4270 1fbe 9316 e6bc
00000240: f68a 2cbe 1db1 0bbd 78a8 523d a04a 0b3e
00000250: 04b9 f03c d542 7b3e 82b4 8e3c 04a5 45bd
00000260: e69e 703e 3b2b 9c3d 30cd 283e cb7d 113e
00000270: b858 303e d1d3 29be 0abb 07be 75af 81be
00000280: f80a 8bbc a0cf 4c3e cd60 203e 258e 5d3d
00000290: 91ea 4bbd 634c 903d 5a74 073e 4cd6 febd
000002a0: b0f8 233e 3c1f 513e 125b 80bd a281 3ebe
000002b0: e8c7 1a3d ee6a 40bd e458 38bd c0b9 843e
000002c0: 055d e13d 72b5 583d 978f dbbc 4979 333e
000002d0: f2cb 26bc 60b1 1e3d fb02 623e 8bf2 f0bd
000002e0: 18f8 acbd d208 18be 55f9 aa3c ffe1 9ebb
000002f0: 013a 71bd 5d1c 1abe aefe e4bc 641d bebd
00000300: 4d54 e03d 11e2 16bd 2db0 48be b559 003e
00000310: 9a4a 7abe ccf9 ae3d ad02 23bd 3d8e 49be
00000320: ddf4 68bd e252 25be 3cc9 633d 3d88 55be
00000330: c175 93bd fa07 393b 2ccd ebbd 083c 73be
00000340: 4d33 82be 72e5 85be 2f5b 87be 074c c2bd
00000350: 2bbf e6bd cc8f abbc 11cb 0bbe 6d65 23bd
00000360: 6111 c3be 3ae0 833e 7ad8 bebd 3301 f0bd
00000370: 5e22 4dbd 9422 46ba 16e6 163e d3f1 753e
00000380: 45ac f7bd 4887 98be ff07 c4bd 9860 b2bb
00000390: 2c06 153d 2f61 d13c fe63 163d 2469 433d
000003a0: 3cd3 833c 4b8d e1bd 064e b03d 808b 10be
000003b0: d827 87be db8e 45be a16f 833e d66a 253e
000003c0: 72be 723d b956 85be face 26bd ce5d 9cbb
000003d0: e385 063e e103 853d f7c4 64bc df85 b5bd
000003e0: 2c82 5d3e 6ea7 aa3c a09e 453e eebc 6cbd
000003f0: 95c7 133e 1839 113d 6d19 a8bc 4ebe a33d
-0.21507655 0.12295795 -0.13647337 0.12801987 0.074422546 0.056381438 -0.01706178 0.032587953
0.004942548 -0.046582032 -0.00054270506 -0.00876449 -0.1112647 0.089162245 -0.111073345 0.023340108
0.22390586 0.099685885 0.044552553 -0.13646586 0.15379587 -0.07905615 -0.063669585 -0.12956177
0.16005771 -0.1208215 -0.1158441 -0.1370682 0.040502094 -0.16070871 0.38289523 -0.57270455
-0.059496768 -0.1672142 0.07880589 0.04222209 0.3312079 -0.3027431 -0.4573969 0.15365845
0.07366911 0.008665187 0.027522003 -0.055689435 -0.009205687 -0.09356754 0.12853627 -0.15240869
-0.044966538 0.38490763 0.11166946 0.050268084 -0.25682345 -0.19754641 0.14172128 -0.041513838
0.011551281 0.022110388 -0.08936626 -0.13254458 0.020228418 -0.0863823 -0.006268795 0.12679677
-0.21141987 0.073761076 -0.20881173 0.07884114 -0.04555359 -0.27643722 0.17880337 -0.26641622
-0.4055643 0.027633825 -0.0369131 0.08253205 -0.13062017 0.0260951 0.13344163 -0.033488438
-0.11237577 0.14807183 0.084597 0.040926777 0.093805365 0.0438756 -0.21294539 0.1902035
-0.13986953 -0.14151028 -0.1348193 -0.0059418357 -0.16676337 0.08328822 -0.0010039085 0.041990828
0.15261674 -0.27433166 -0.32916698 0.1600577 -0.40455893 -0.106010936 -0.040537566 -0.050497785
0.047810826 -0.24757487 0.19920446 -0.2681427 -0.39318976 -0.06807534 -0.19467959 0.15629376
0.20877668 0.2453447 -0.03857507 0.22716141 -0.14293216 0.041100614 -0.055068165 -0.23134449
0.15793376 -0.061013035 -0.04720833 -0.11956926 -0.09036442 0.11717162 0.2582891 -0.05936787
-0.12560484 -0.19236162 0.063697934 -0.13550125 -0.072348416 0.0662389 -0.13156486 0.089250594
-0.19987473 -0.043914787 0.028123874 -4.440801e-05 -0.19558907 -0.004623144 -0.15570167 -0.028086936
-0.16849884 -0.034104455 0.051430196 0.13602686 0.029385097 0.24537213 0.017420057 -0.048253074
0.23498115 0.07625433 0.16484523 0.14208142 0.17221344 -0.16584708 -0.13254943 -0.25329176
-0.016973004 0.20001078 0.15661927 0.054090638 -0.049784247 0.070458196 0.13227978 -0.12443218
0.16012836 0.20422071 -0.0626737 -0.18604138 0.0377883 -0.046976976 -0.045006648 0.25922966
0.1100407 0.052907415 -0.026801867 0.17526735 -0.01018046 0.038743377 0.2207145 -0.117650114
-0.08445758 -0.14847115 0.020870844 -0.004848718 -0.058893207 -0.15049882 -0.027953472 -0.092829496
0.10953579 -0.036836687 -0.19598456 0.1253422 -0.2444252 0.08543739 -0.039797474 -0.19683166
-0.056874145 -0.16144899 0.055611834 -0.20852752 -0.07200194 0.0028233514 -0.11513743 -0.23753369
-0.25429764 -0.26151615 -0.26436755 -0.09487157 -0.11266931 -0.020942591 -0.13651682 -0.03989165
-0.38099197 0.2575701 -0.093186334 -0.11718979 -0.050081603 -0.0007558253 0.14736208 0.2401803
-0.12093405 -0.2979071 -0.09571838 -0.005443644 0.03638284 0.025559036 0.036716454 0.04770769
0.016091935 -0.110132776 0.08608632 -0.14115715 -0.26397586 -0.19292776 0.25671104 0.16154036
0.059263654 -0.26042727 -0.040724732 -0.0047719246 0.13137011 0.064948805 -0.013962976 -0.088634245
0.21631688 0.02083179 0.19298792 -0.057797365 0.14431603 0.03545484 -0.020519936 0.07995282

convs.3.lin_l.weight f4 [32, 32]
00000000: f828 2b3d 4edd a43d c495 62bd 379a 74bd
00000010: 8289 833e 4ce1 01bd 14ad f1bc b121 573e
00000020: 512e 00be e623 3d3e 048c 5ebd 4dd8 863e
00000030: 38eb 0a3d 5117 623e 37dc d63d be43 243c
00000040: aa21 1ebd bf70 603e 2aff 933c 467e 01be
00000050: 5fdc 583e 99c6 c1be 73c3 0ebe cdc3 b4bd
00000060: 93db 09be 398e 113c 8072 513a 79fe 023e
00000070: 5404 7abd aacb 1ebe ba4b 85be f4eb 9b3d
00000080: 2f27 60bd 7276 10be c5b9 9ebe 4324 0d3e
00000090: 17ac 283d 39fc 7ebd 6e85 87be 3617 b8bd
000000a0: 930a 3fbe 2154 413d 7008 0dbe 7ced 2d3e
000000b0: 537e eabd 8587 88be 34cc 35be 4a7c 00bd
000000c0: d56a 99bc e9d9 163e f2f2 183e 4cd3 f43d
000000d0: 469b c8bd 8336 0d3e 4726 803d c5d6 14be
000000e0: b98d 74be 7f30 fa3c 2cd7 473e 5620 c83d
000000f0: baba a1bd f95a ebbd 7724 d33d 6432 543e
00000100: 5966 35be 8359 dcbd 333f 83bd b79e 633e
00000110: 8b15 93bc ac67 81bd 40c1 bc3d 9235 d0bd
00000120: cd77 d63d 75b9 47be c405 3dbd eea9 413d
00000130: 76f1 363e f610 5b3d 86cf 73bc f656 aebd
00000140: cc08 7c3e 32b8 09be 44e9 8a3d 6a11 88be
00000150: 9cf2 39be fb6f 0fbd fa11 023e a8ad 483e
00000160: 7d95 a2bc 8e19 373d 0767 ddbd c455 073d
00000170: 88e4 563d da7b b4bd a62f 383d e212 91bd
00000180: 9208 8fbd cd39 61be f613 30be b36f 7a3e
00000190: b847 15be f9b0 b13e ff19 8cbc 126d 50be
000001a0: a3ab 92be f73b 84be 7709 243e 362e d9be
000001b0: a8b1 29be 5449 ae3c c790 1d3b a0e0 a73d
000001c0: 2afd e93d 4783 29be 7c50 55be 0b22 443e
000001d0: 1e8f 5e3c 5ed5 093e 4787 98bd 95f3 523b
000001e0: 8fa5 88bd a65f 123e bc36 c1bd 8b56 3038
000001f0: 2f78 8abd 774b 9bbd 41e4 a73d d38e 043d
00000200: 88c6 05be 8f84 313e 2d84 eebc be80 a53d
00000210: 9206 82bd 1a26 97be d5e7 8bbd 3ec6 3bbe
00000220: a4d4 373e fe1d 45bd 62f9 81be e4fc 92bc
00000230: 1b16 a73c 9d08 86be 07f5 233e edfb 9e3d
00000240: 2e16 6ebe 9e6e 26be 2370 363e 548e 903c
00000250: b471 e6bd cdce b6be 38dd e7bd 2f68 953d
00000260: 8070 e83c 1dcb 9d3d cf58 9abb 421e 033d
00000270: e8d1 11bd 80d1 26be 9684 183e 899f b5bd
00000280: a874 b6bd 3f06 6cbe 597d 34bd 38f4 ff3c
00000290: eaab f13d 3af8 60be 59c9 0abe f039 de3d
000002a0: a64f 8dbd 8f94 3e3d 99ff 873e 6837 473e
000002b0: 0db1 323c 8c7f 2d3e 1f27 2b3e 6f75 de3d
000002c0: a16b 05be 1fcf 473e 8c6c 123e a23f 34be
000002d0: 34cc b53d 41c7 873d 97dc b8bd a748 483d
000002e0: 339e 5ebe 7c8a 9cbd 0419 afbc d658 b8bd
000002f0: 96a3 f1bd d807 423d a37e 253e 1bad 813d
00000300: e829 56be 3c43 8d3c 5758 1abe c1e1 3e3e
00000310: cc61 fc3d 856a c63c 0f9f 98bd 2095 7f3e
00000320: b9a9 fc3d dfce af3c bbf3 403e 5f7d e0bc
00000330: 7ae0 f6bd 861b 86be 7848 61be e945 c23c
00000340: e79b 08be c501 5d3e 8dc3 7ebe 05b0 413e
00000350: 2877 bfbd 81cd 6f3c a483 e13c bd4a 41bd
00000360: a208 413e 7b9f 5f3d e245 fd3d a10d 81bd
00000370: 2594 90bd 1522 693d 69cb 04be 419d 1b3e
00000380: b70b 1e3d b241 75be 1cce 2fbe 2adc aabc
00000390: 00ef a7bd 3a93 b73d b6d1 7e3c 118c 0cbe
000003a0: ba90 3ebe ceef 083d 6610 773b f88c 07bc
000003b0: 1098 cb3d 6805 54be 81a8 033b 35dd a63a
000003c0: 625b 41be 1400 8bbe d411 0f3e 0cf4 893d
000003d0: 6e9c f5bd e774 d83d 5ea7 4abe bb89 dabd
000003e0: a839 05be 4232 e13c 6a0d e9bd a461 3cbc
000003f0: 4e5d d6bd d3b2 cdbd 23ab 6bbd 46dd 3f3c
0.041787118 0.08050023 -0.05531861 -0.059717383 0.25690848 -0.031709 -0.029501475 0.21008946
-0.12517668 0.18470725 -0.054332748 0.263369 0.03391573 0.22079207 0.104912214 0.010025917
-0.038606323 0.21918009 0.018066008 -0.12645826 0.21177815 -0.3784683 -0.13941745 -0.088264085
-0.13462667 0.008884006 0.0007989779 0.12792386 -0.061039284 -0.15507379 -0.26034337 0.07613364
-0.05472487 -0.14107683 -0.31001106 0.13783364 0.041179743 -0.062252257 -0.26468986 -0.08988802
-0.18656377 0.047199372 -0.1377275 0.16985124 -0.11449876 -0.26665893 -0.17753679 -0.03136853
-0.0187277 0.14731564 0.14936426 0.11954364 -0.09795241 0.13790326 0.06257301 -0.14535053
-0.23882188 0.030540703 0.19515675 0.097717926 -0.078969434 -0.11491961 0.103096895 0.20722347
-0.17714824 -0.107592605 -0.06408539 0.22228514 -0.017954608 -0.06318602 0.09216547 -0.10166468
0.10472069 -0.1950434 -0.046148077 0.0472812 0.17865548 0.053482972 -0.01488102 -0.0851268
0.2461273 -0.13449171 0.06782773 -0.26575786 -0.18158954 -0.035018902 0.1270217 0.19597495
-0.019846672 0.044702105 -0.108106665 0.033040777 0.052464038 -0.08812685 0.044967316 -0.0708368
-0.069840565 -0.21994705 -0.17195114 0.24456672 -0.1457814 0.34705332 -0.01710224 -0.20354107
-0.28646573 -0.25827 0.16019236 -0.4241807 -0.16571677 0.0212752 0.0024042593 0.08197141
0.1142524 -0.16553985 -0.20831484 0.19153611 0.0135839265 0.134603 -0.07447677 0.0032188643
-0.06672203 0.142943 -0.09434268 4.204227e-05 -0.067612045 -0.07582753 0.08197833 0.03236277
-0.13064015 0.17335723 -0.02911576 0.08081196 -0.063489094 -0.29521257 -0.06831328 -0.18337342
0.1795221 -0.048124306 -0.25385576 -0.017942853 0.020396283 -0.26178446 0.1601144 0.07762895
-0.23250648 -0.16253135 0.17816214 0.017645992 -0.11252156 -0.3570465 -0.11321491 0.07295262
0.028373957 0.077047564 -0.004710294 0.032011278 -0.035600573 -0.16290855 0.14894328 -0.088683195
-0.08908969 -0.23049258 -0.044064853 0.031244382 0.11800368 -0.21969691 -0.1355337 0.108508945
-0.06899957 0.046528395 0.26562193 0.1945473 0.01090647 0.16943187 0.16714142 0.108622424
-0.13029338 0.19512604 0.1429922 -0.17602399 0.08876839 0.066298015 -0.09026449 0.04889741
-0.21740036 -0.07643601 -0.021374233 -0.09001319 -0.1179878 0.04737076 0.1616159 0.063318454
-0.20914423 0.017243974 -0.15072761 0.18640806 0.12323341 0.024220714 -0.07452213 0.2495923
0.123370595 0.021460949 0.18842976 -0.027403532 -0.12054534 -0.26192874 -0.22000301 0.023714976
-0.13340722 0.21582706 -0.24879284 0.18914802 -0.09348899 0.014636398 0.027528591 -0.047190417
0.1885095 0.05459545 0.12366845 -0.06301428 -0.07059506 0.05691727 -0.1296822 0.15196706
0.03858539 -0.23950842 -0.17168468 -0.020856936 -0.081998825 0.08963628 0.015552929 -0.13725306
-0.18609896 0.03343182 0.0037698983 -0.008273356 0.09941113 -0.20705187 0.002008945 0.001273072
-0.18882516 -0.27148497 0.13971645 0.06736001 -0.11992727 0.10569172 -0.19790408 -0.10670801
-0.13010275 0.027489785 -0.11379512 -0.011497889 -0.10467015 -0.10043874 -0.057536256 0.011710471

convs.3.lin_l.bias f4 [32]
00000000: ea81 30bd 17e2 07be 2c49 3bbd a138 7e3e
00000010: fe4d cb3d bf8c 1abe c60b 1e3e f577 51be
00000020: a835 0c3e a59b 81bd dd35 5bbe c48d b33d
00000030: d09b 0abd 3bff fc3d 886f 453e 1855 afbd
00000040: 8577 a4bd 15a7 bdbd 9197 79be e261 2dbd
00000050: c48a 13be d327 283e 5880 c3bd 86b5 ff3c
00000060: 2faa 13bd cf6e 993c 9968 533e ba7f d3bd
00000070: 3b0b 86be 064c bdbd b8e1 a6bd aefe 823d
-0.043092646 -0.1326984 -0.04572408 0.2482629 0.09926985 -0.15092753 0.15434179 -0.20455916
0.13692343 -0.06328515 -0.21407266 0.08767274 -0.03384 0.12353369 0.19280827 -0.08561152
-0.08030609 -0.09260384 -0.24374224 -0.042329676 -0.14408404 0.16421442 -0.09545964 0.031214487
-0.03605097 0.018729595 0.2064537 -0.10327096 -0.26180443 -0.09243016 -0.08148521 0.063962325
