saved/ogb-arxiv_GCN_s2.pt (torch, 46315 bytes, 26 tensors)

layers.0.bias f4 [32]
-0.06716199 0.008368122 -0.00062726694 0.04251655 -0.054029804 -0.015393685 0.0044841524 0.030749386
0.004174557 0.018267991 -0.03501274 -0.015371319 0.034524083 -0.021852927 -0.011550054 -0.0011180049
0.0121802585 -0.04952922 -0.053678162 -0.0009640367 -0.027401743 -0.019501926 0.0010829059 0.036569014
0.0041393195 -0.06089028 0.019496934 0.027981363 0.038798857 0.0070065875 0.056021195 -0.017302068
00000000: 3a8c 89bd 731a 093c 2c6f 24ba d525 2e3d
00000010: 5b4e 5dbd cb35 7cbc ccef 923b 23e6 fb3c
00000020: b9ca 883b c1a6 953c 8569 0fbd fcd7 7bbc
00000030: 2069 0d3d e904 b3bc 703c 3dbc 058a 92ba
00000040: b58f 473c 27df 4abd a2dd 5bbd 68b7 7cba
00000050: 9f79 e0bc 81c2 9fbc 4bf0 8d3a 64c9 153d
00000060: 21a3 873b 1668 79bd 09b8 9f3c 2c39 e53c
00000070: 8deb 1e3d 8497 e53b 7b76 653d 11bd 8dbc

layers.0.lin.weight f4 [32, 128]
-0.074533 0.06648083 0.017923148 -0.2483186 -0.03191612 -0.03918801 -0.3561401 -0.09414341
0.114771426 0.059498783 0.029228576 0.00566738 0.14758424 -0.31984773 -0.17459387 0.10480272
-0.016264772 -0.35451028 -0.07232288 0.19712079 0.19072658 -0.1771839 0.31044042 -0.0824889
0.017408142 0.06509744 -0.202722 0.052017033 0.39366165 -0.12122093 -0.16792463 -0.043896955
-0.018597566 -0.06882462 0.24502234 -0.428741 -0.0034096239 0.0026283008 0.15764792 -0.12873214
0.047520027 0.015106465 0.19431695 0.17335068 0.1701219 -0.050416667 0.001249803 0.33136728
-0.18556006 -0.09470438 -0.17918159 -0.041246623 -0.19340745 0.021490645 -0.25106937 0.23608167
-0.034911543 0.06388514 -0.5006968 0.08122968 0.10596 0.10882916 0.105396844 0.10511254
-0.20594122 -0.0052335374 0.14274438 -0.11814486 -0.05648478 0.123440534 0.05624057 -0.22840391
-0.029467542 -0.023847478 0.08388478 -0.022362215 -0.23262128 0.22248308 0.13432968 -0.5113776
-0.19783364 0.05578975 0.044105463 -0.15444206 0.12854095 -0.039289605 0.27930164 0.16804942
0.2272002 -0.25292966 0.011918241 0.16908437 -0.15550806 0.15378198 0.22783786 0.04034142
0.12508154 -0.089287974 0.08516928 0.12455975 0.002987387 0.29019144 -0.15378813 0.14313808
0.46657705 -0.44328132 -0.27264595 0.14136392 -0.020546416 -0.0445579 0.1518275 0.12757622
0.11286885 -0.09002507 -0.19008183 0.009038446 -0.06966311 0.019718224 -0.2712799 -0.2877295
0.2667597 -0.023554785 -0.16200462 -0.42887285 0.08707414 0.3154741 0.2603823 -0.42052305
-0.040698137 -0.3628135 0.19153082 0.05006075 0.3734355 -0.18338458 -0.0705954 -0.100269295
-0.05364377 -0.11851145 0.03013469 0.03750561 -0.11235334 -0.42153063 -0.01063542 -0.31575468
-0.07806838 -0.06034085 -0.067102104 -0.2645192 0.08246745 0.34314296 -0.10893042 0.020993508
-0.20099528 -0.24344967 0.23119393 0.043593906 -0.015327958 -0.098746106 0.08037181 -0.18431729
0.08874045 -0.042511594 0.12595199 0.11615809 -0.16247153 0.17813428 -0.028997157 -0.034065
0.4883319 0.2771307 0.2716359 -0.11136053 -0.21111009 -0.040478792 0.28166127 0.025287207
-0.09837471 0.15088171 0.008285029 -0.14302845 -0.20716196 -0.013728435 -0.022172322 0.18747053
-0.10391333 -0.3151294 0.21085072 0.17546766 -0.1402964 0.1380486 0.038981367 -0.20415157
-0.09443483 0.2714111 0.20714693 0.013016158 0.08887653 -0.11555397 -0.087970726 0.13023598
-0.27521595 0.08699966 0.093761936 0.30718547 0.013712841 0.07057681 -0.004572649 0.056384023
0.030747825 -0.24873501 0.025659325 -0.079322346 -0.34039164 -0.11481192 0.36033088 0.025543137
0.23104277 0.035134587 -0.12875462 -0.23999836 0.029615106 0.14152844 0.26237378 0.16398102
-0.20041776 0.13387677 -0.25317144 0.0028116514 0.23661543 0.06328602 -0.053490173 -0.20941305
-0.06183946 0.059553992 -0.084037155 -0.327145 -0.13214113 0.15906903 0.023417922 0.16682877
0.11026126 -0.2961523 0.17876409 -0.16692759 0.100239895 0.14714086 0.08634613 -0.1520638
0.016862212 0.0843308 0.15177828 -0.31842965 -0.3616715 0.09240973 0.19964986 0.14823149
00000000: c2a4 98bd 1a27 883d 91d3 923c 3b47 7ebe
00000010: 7aba 02bd 9b83 20bd ff57 b6be 43ce c0bd
00000020: 480d eb3d ffb4 733d c470 ef3c 6eb5 b93b
00000030: 5320 173e 15c3 a3be bcc8 32be cfa2 d63d
00000040: b33d 85bc 5f82 b5be 051e 94bd 08da 493e
00000050: d44d 433e b26f 35be 0cf2 9e3e f1ef a8bd
00000060: 859b 8e3c ce51 853d 5b96 4fbe d00f 553d
00000070: 058e c93e ae42 f8bd 6ff4 2bbe 4bcd 33bd
00000080: ec59 98bc ecf3 8cbd 23e7 7a3e f183 dbbe
00000090: ff73 5fbb 923f 2c3b 756e 213e 5cd2 03be
000000a0: 5ca4 423d 1b81 773c 06fb 463e d782 313e
000000b0: 6f34 2e3e b581 4ebd 6ed0 a33a f9a8 a93e
000000c0: 7503 3ebe 5ff4 c1bd 617b 37be 38f2 28bd
000000d0: 9a0c 46be 260d b03c 2a8c 80be 65bf 713e
000000e0: 68ff 0ebd 36d6 823d aa2d 00bf bf5b a63d
000000f0: 8e01 d93d d3e1 de3d 4dda d73d 3e45 d73d
00000100: 41e2 52be 187e abbb 952b 123e eff5 f1bd
00000110: 965c 67bd 64ce fc3d 835c 663d b7e2 69be
00000120: ea65 f1bc c95b c3bc c9cb ab3d f730 b7bc
00000130: 4634 6ebe 9bd2 633e b88d 093e a4e9 02bf
00000140: e794 4abe cb83 643d eea7 343d 0f26 1ebe
00000150: 3da0 033e 23ee 20bd a000 8f3e 2615 2c3e
00000160: 2ba7 683e ff7f 81be ba44 433c 7424 2d3e
00000170: 813d 1fbe 0679 1d3e 544e 693e 0b3d 253d
00000180: 6015 003e 9ddc b6bd 3b6d ae3d 2f19 ff3d
00000190: 09c8 433b f993 943e a37a 1dbe ca92 123e
000001a0: 30e3 ee3e c5f5 e2be 4098 8bbe b4c1 103e
000001b0: f550 a8bc 5882 36bd ab78 1b3e 57a3 023e
000001c0: c927 e73d 105f b8bd d0a4 42be fd15 143c
000001d0: 88ab 8ebd 1d88 a13c 33e5 8abe 4851 93be
000001e0: ba94 883e f7f5 c0bc 8ae4 25be 3995 dbbe
000001f0: ed53 b23d d285 a13e d450 853e cc4e d7be
00000200: 17b3 26bd b1c2 b9be a820 443e 800c 4d3d
00000210: f032 bf3e 2bc9 3bbe 5294 90bd fd59 cdbd
00000220: 92b9 5bbd 22b6 f2bd 07dd f63c 7c9f 193d
00000230: 8219 e6bd ddd2 d7be 2f40 2ebc 99aa a1be
00000240: 51e2 9fbd f827 77bd d46c 89bd 106f 87be
00000250: b2e4 a83d 6fb0 af3e e916 dfbd 94fa ab3c
00000260: b5d1 4dbe df4a 79be 1abe 6c3e 868f 323d
00000270: 1e22 7bbc 663b cabd fa99 a43d acbd 3cbe
00000280: 8ebd b53d a320 2ebd 8ff9 003e 4be4 ed3d
00000290: f05e 26be d568 363e 728b edbc be87 0bbd
000002a0: a406 fa3e 13e4 8d3e dc13 8b3e fd10 e4bd
000002b0: 3e2d 58be 17cd 25bd e835 903e 1e27 cf3c
000002c0: ae78 c9bd bc80 1a3e eebd 073c 0d76 12be
000002d0: 4422 54be 3bed 60bc bba2 b5bc 46f8 3f3e
000002e0: 83d0 d4bd a458 a1be 40e9 573e cbad 333e
000002f0: dca9 0fbe 9d5c 0d3e edaa 1f3d 1c0d 51be
00000300: 0c67 c1bd 65f6 8a3e 531e 543e b941 553c
00000310: e604 b63d 8fa7 ecbd ff29 b4bd 955c 053e
00000320: 1be9 8cbe e12c b23d 4206 c03d 6a47 9d3e
00000330: d3ab 603c 938a 903d 29d6 95bb eff2 663d
00000340: dde2 fb3c 64b4 7ebe 8133 d23c c173 a2bd
00000350: d047 aebe 8322 ebbd 4a7d b83e d73f d13c
00000360: 7a96 6c3e 49e9 0f3d 40d8 03be 21c2 75be
00000370: 619b f23c d5ec 103e db55 863e a4ea 273e
00000380: 503a 4dbe fe16 093e b09f 81be af43 383b
00000390: 514b 723e 1a9c 813d 8318 5bbd 6070 56be
000003a0: 604b 7dbd e3ee 733d ac1b acbd 8d7f a7be
000003b0: 0150 07be fee2 223e f1d6 bf3c 29d5 2a3e
000003c0: a8d0 e13d 46a1 97be ef0d 373e 11ef 2abe
000003d0: 934a cd3d 18ac 163e 3dd6 b03d 9db6 1bbe
000003e0: 9f22 8a3c a0b5 ac3d c46b 1b3e 3609 a3be
000003f0: 022d b9be 5041 bd3d 0371 4c3e ffc9 173e

layers.1.bias f4 [32]
-0.006113162 -0.012326461 0.0059143063 0.010495425 0.0011305073 -0.01048403 -0.014913902 -0.00060690846
-0.0050024185 -0.012533526 0.00053939695 -0.00032991037 0.0057785064 -0.017690595 0.0019436914 0.005214221
0.0039225975 -0.010681584 -0.0015730243 5.618729e-05 -0.011995002 -0.0039606835 -0.016596094 0.0029667972
0.014507611 -0.0006366667 -0.0036025736 -0.004873382 0.0026257217 -0.011463831 -0.009402727 -0.012800857
00000000: eb50 c8bb edf4 49bc cccc c13b 01f5 2b3c
00000010: 882d 943a 35c5 2bbc 7059 74bc f018 1fba
00000020: 54eb a3bb 6b59 4dbc 5166 0d3a d2f7 acb9
00000030: a059 bd3b deeb 90bc 76c3 fe3a 0edc aa3b
00000040: 2289 803b cf01 2fbc f02d ceba a5aa 6b38
00000050: af86 44bc 9fc8 81bb 88f4 87bc 996e 423b
00000060: 55b1 6d3c fbe5 26ba 2819 6cbb e4b0 9fbb
00000070: 4d14 2c3b cbd2 3bbc e50d 1abc b0ba 51bc

layers.1.lin.weight f4 [32, 32]
-0.48120445 -0.089120016 0.022134935 0.07871587 -0.18926306 0.0741605 0.15626393 -0.23943809
-0.08978002 -0.049859285 -0.12042513 -0.022574386 -0.08884027 0.26127365 0.062850505 -0.14802644
-0.07564563 -0.04559042 -0.20562872 -0.0062609497 -0.28764713 0.14435793 0.35132968 0.12803803
-0.104385026 0.12616843 0.28911418 0.10955438 -0.04248724 0.28194267 -0.42965034 0.03181743
0.1464484 -0.31284896 0.038916953 -0.25128978 -0.021814302 -0.043470543 -0.04029567 -0.3997636
-0.06600835 0.073656164 -0.27386093 0.09075686 -0.19526131 0.01680899 0.06421489 -0.36925185
0.15532833 -0.300237 0.15667209 0.3283302 0.026140695 0.019830287 0.19980226 0.41783148
0.21803662 0.19444521 0.14001548 0.03779563 0.23308334 0.10120081 -0.3184848 0.141962
0.12191162 0.18689792 0.1898302 0.14615971 -0.3044535 -0.14159447 -0.24472891 0.09064756
0.12107923 0.058935557 0.12581055 0.30040804 -0.03423127 -0.061305963 0.07917935 0.18414703
-0.72823757 -0.25240985 -0.28561264 -0.35318312 -0.045919623 0.04323346 -0.097100794 0.10432741
0.2301452 -0.106321834 -0.2878642 0.1342613 -0.29103836 -0.14560637 -0.11524137 0.09422286
0.35168588 -0.13171306 -0.026234908 0.16269349 0.29622316 0.20817521 0.107759826 -0.101052046
0.07070856 0.14728753 -0.2420559 0.035249457 0.294645 -0.13116632 -0.052308217 -0.054003827
0.12317272 0.18715817 -0.2642143 -0.059719652 0.066489026 -0.48953277 -0.039918818 0.17894198
0.14391217 -0.35555014 -0.09949008 0.016532011 -0.3652925 -0.0344585 0.12125088 -0.6518093
-0.5210121 -0.42581385 0.120101966 0.18215705 0.15790288 0.07991402 -0.47104204 0.11072156
0.2770691 0.032833386 -0.10507441 -0.28644142 0.13213666 0.013305908 -0.41670468 -0.14321753
-0.14398868 -0.009751882 0.13002177 0.29663086 0.010861752 -0.14007498 -0.0026571683 -0.16347991
-0.11006651 -0.213357 -0.28380278 0.38602933 0.10094993 0.19052736 0.32491395 -0.18307324
-0.30119067 -0.07458418 0.18607576 -0.088758364 -0.057748877 0.08877794 0.1450454 -0.4978091
-0.11407987 -0.3334168 -0.3789179 0.07684788 -0.02739229 0.2772496 0.1852482 -0.20033917
-0.5250617 -0.07289055 -0.020733034 -0.40193698 -0.32596117 -0.25194654 0.1473336 0.03841593
-0.040692873 -0.4977428 -0.50353074 -0.06465466 -0.17483541 -0.1125016 -0.32796693 0.104023054
0.03380601 -0.15154764 -0.16391338 0.047134582 0.13962115 0.03579301 -0.30886084 -0.04660201
-0.08907433 0.17837249 -0.09138185 -0.09308594 0.028074384 0.51037526 -0.13386346 -0.21800846
-0.032481197 -0.17252344 -0.06299298 -0.0076296553 0.159975 -0.07075155 0.10753506 -0.028073018
0.012076164 -0.13398461 -0.43390024 -0.0040465323 -0.45764387 -0.21207684 0.2916512 -9.907896e-05
-0.16408642 -0.07558642 -0.31049085 0.4143355 0.17758048 -0.24617079 -0.3095368 0.06697926
-0.4077066 -0.18796735 -0.09253005 -0.10238228 0.025345257 0.11567818 -0.13489442 0.23093547
0.1072755 -0.21911415 -0.21954302 -0.028011363 -0.18694228 -0.264938 -0.060351636 0.0066557876
0.12207268 -0.15335347 0.09241634 0.1269486 -0.13308525 0.22052766 0.033028435 0.11327476
00000000: 6e60 f6be 8e84 b6bd 5354 b53c c935 a13d
00000010: 2dce 41be 76e1 973d a703 203e 422f 75be
00000020: 96de b7bd 4039 4cbd 73a1 f6bd ebed b8bc
00000030: e3f1 b5bd a9c5 853e c4b7 803d 3e94 17be
00000040: 19ec 9abd 05bd 3abd 5690 52be a728 cdbb
00000050: 7c46 93be 91d2 133e 7ce1 b33e 671c 033e
00000060: d1c7 d5bd 4c32 013e c606 943e 0c5e e03d
00000070: 1a07 2ebd ca5a 903e 21fb dbbe fe52 023d
00000080: 92f6 153e bd2d a0be 6267 1f3d 0ea9 80be
00000090: e8b3 b2bc 2b0e 32bd 130d 25bd d1ad ccbe
000000a0: 632f 87bd 0bd9 963d 8037 8cbe bcde b93d
000000b0: 95f2 47be 02b3 893c 1983 833d 940e bdbe
000000c0: 640e 1f3e aab8 99be a66e 203e e51a a83e
000000d0: 0325 d63c 2073 a23c f798 4c3e 02ee d53e
000000e0: fe44 5f3e a51c 473e 3860 0f3e 97cf 1a3d
000000f0: 66ad 6e3e 5f42 cf3d 7110 a3be 7d5e 113e
00000100: cdac f93d 2b62 3f3e d962 423e e4aa 153e
00000110: 54e1 9bbe 24fe 10be 379a 7abe 6ea5 b93d
00000120: 63f8 f73d 6966 713d 7bd4 003e 15cf 993e
00000130: 1736 0cbd f61b 7bbd c828 a23d 0a91 3c3e
00000140: c76d 3abf dd3b 81be d23b 92be 6bd4 b4be
00000150: 3716 3cbd 9215 313d c8dc c6bd 9ca9 d53d
00000160: 2fab 6b3e 43bf d9bd f062 93be cb7b 093e
00000170: fb02 95be d619 15be ab03 ecbd eaf7 c03d
00000180: 2c10 b43e cadf 06be 97ea d6bc 1f99 263e
00000190: 90aa 973e e22b 553e 2fb1 dc3d 60f4 cebd
000001a0: a6cf 903d 8bd2 163e 80dd 77be bc61 103d
000001b0: b6db 963e 7750 06be 2441 56bd 1e33 5dbd
000001c0: fb41 fc3d 64a6 3f3e 1947 87be 989c 74bd
000001d0: 662b 883d 0aa4 fabe ea81 23bd 913c 373e
000001e0: b65d 133e ab0a b6be 74c1 cbbd 246e 873c
000001f0: 9e07 bbbe 5b24 0dbd 6252 f83d f9dc 26bf
00000200: 0d61 05bf 4604 dabe 05f8 f53d 6187 3a3e
00000210: 4bb1 213e f6a9 a33d 6c2c f1be fcc1 e23d
00000220: 00dc 8d3e 4d7c 063d 4131 d7bd 73a8 92be
00000230: d54e 073e 0601 5a3c 515a d5be 9ea7 12be
00000240: c571 13be 5cc6 1fbc 6d24 053e 00e0 973e
00000250: 7df5 313c d16f 0fbe e323 2ebb 4767 27be
00000260: 8d6a e1bd 427a 5abe 994e 91be a3a5 c53e
00000270: d6be ce3d 9b19 433e 1f5b a63e 8d77 3bbe
00000280: aa35 9abe 97bf 98bd a58a 3e3e f2c6 b5bd
00000290: 168a 6cbd 35d1 b53d c886 143e d6e0 febe
000002a0: b5a2 e9bd 9bb5 aabe 8701 c2be 6c62 9d3d
000002b0: cc65 e0bc a9f3 8d3e b4b1 3d3e b625 4dbe
000002c0: 726a 06bf a447 95bd 53d8 a9bc afca cdbe
000002d0: 62e4 a6be 23ff 80be 9fde 163e 065a 1d3d
000002e0: 92ad 26bd 25d8 febe 64e7 00bf aa69 84bd
000002f0: 0e08 33be 3d67 e6bd 48eb a7be 0a0a d53d
00000300: 2c78 0a3d 4e2f 1bbe e9d8 27be 3110 413d
00000310: d9f8 0e3e b19b 123d 0223 9ebe c0e1 3ebd
00000320: 9a6c b6bd 47a7 363e 6826 bbbd d7a3 bebd
00000330: 40fc e53c f4a7 023f 8113 09be 9c3d 5fbe
00000340: 010b 05bd fca9 30be 7702 81bd 3002 fabb
00000350: 7dd0 233e 30e6 90bd 573b dc3d 63f9 e5bc
00000360: 1adb 453c 4333 09be 2c28 debe c698 84bb
00000370: 4c50 eabe ac2a 59be 4e53 953e 9dc8 cfb8
00000380: 4506 28be 0ecd 9abd a8f8 9ebe c823 d43e
00000390: a8d7 353e 3214 7cbe 9c7b 9ebe 6c2c 893d
000003a0: ebbe d0be 837a 40be 6580 bdbd cdad d1bd
000003b0: dba0 cf3c aee8 ec3d c321 0abe 597a 6c3e
000003c0: 42b3 db3d 765f 60be e3cf 60be 1678 e5bc
000003d0: cc6d 3fbe f4a5 87be 4733 77bd cb18 da3b
000003e0: 3e01 fa3d b108 1dbe c744 bd3d d0fe 013e
000003f0: 8047 08be 01d2 613e d348 073d 99fc e73d

layers.2.bias f4 [32]
-0.00318631 -0.013126285 0.0006740529 -0.0019296526 0.0024104235 -0.0017732825 -0.0041539986 0.0020301214
0.0054983334 0.0013841046 0.015181249 0.010988673 0.016009705 0.0013040977 -0.0024043266 -0.01264996
0.0055675623 0.010098846 -0.0071906345 0.003666808 -0.006833497 0.0038608422 0.011849238 -4.980984e-06
-0.0014613742 -0.0062581548 -0.0012546941 0.0055184015 0.010660861 -0.0010583552 0.0068765227 0.00293512
00000000: 69d1 50bb a10f 57bc edb2 303a 66ec fcba
00000010: 32f8 1d3b 7d6d e8ba 441e 88bb c90b 053b
00000020: 5d2b b43b d86a b53a c6ba 783c d609 343c
00000030: c926 833c 42ee aa3a e891 1dbb c741 4fbc
00000040: 1970 b63b a175 253c 6a9f ebbb d44e 703b
00000050: 87eb dfbb 2f06 7d3b 4e23 423c 5422 a7b6
00000060: 958b bfba 3511 cdbb 8c74 a4ba b5d3 b43b
00000070: e4aa 2e3c 82b8 8aba 7454 e13b 245b 403b

layers.2.lin.weight f4 [32, 32]
-0.12233638 -0.31958756 -0.09995038 0.2933662 0.018421168 0.34854257 -0.08050751 -0.23713751
0.37577465 -0.047009952 -0.587035 -0.015437389 -0.24198817 0.025249531 0.02338311 0.13861722
0.17935619 0.30059984 -0.06606105 -0.39857027 -0.15548041 0.12792838 -0.080277435 -0.22330089
-0.12245151 0.2564583 -0.16564445 -0.107103236 -0.48198166 -0.15726593 -0.13968329 -0.0308755
0.10099266 0.3932415 -0.059409533 0.11218434 0.011521204 0.28578302 -0.0573923 -0.030378932
-0.06583058 -0.10142069 -0.21459618 0.17486258 -0.33989677 -0.20784889 0.2452244 -0.30819905
-0.041464347 -0.12131485 -0.08709697 -0.18495105 0.27939972 -0.37111232 0.2925758 0.09047661
0.048282523 0.222727 0.07917193 -0.2769382 -0.01992116 -0.11212503 -0.37199685 0.09801773
-0.35673022 -0.30005825 0.25605658 -0.50160044 -0.324182 -0.09541097 -0.08507079 -0.36707613
-0.33323386 -0.27218926 -0.14916494 -0.0500212 0.08393169 -0.057313573 -0.095518224 0.09687582
0.05477815 -0.32901424 -0.0043911412 -0.046118 0.3095461 0.0033464173 0.54049945 -0.22517145
-0.16868219 0.2874462 -0.41213027 -0.1259673 0.19206956 0.057106197 -0.050936922 0.12580438
0.28460273 0.12436131 -0.15099661 -0.08393967 -0.04933269 0.24313387 0.565837 0.22574948
-0.1692404 -0.028038306 -0.24616833 -0.107314356 0.10794291 -0.08703039 -0.46588826 0.054242324
0.277004 0.17681192 0.10242537 0.034039278 -0.5203809 0.11019614 -0.27300268 0.06036445
0.33573756 -0.0044952654 -0.1551613 -0.09241989 0.30872655 0.055399887 -0.037671685 -0.20277081
-0.060870312 0.020066233 -0.11668982 -0.08725752 -0.47889677 -0.40119788 0.050176717 0.3673704
-0.17611054 -0.42003927 0.16582726 -0.105153 0.033093512 -0.18262914 -0.3740236 0.088016436
0.028138386 0.09164036 -0.010817375 -0.22665878 0.020852625 -0.21646462 -0.20254041 0.15328108
-0.0025340917 0.45400205 -0.19087687 -0.18913837 -0.2175088 0.32583117 -0.20259345 0.081410445
-0.08540553 0.2747446 -0.07634343 -0.34056026 0.302633 0.039363846 0.050263744 -0.26244062
-0.39006057 -0.18821514 0.16423951 0.03175026 0.31889683 -0.31714603 0.019649666 -0.1757803
-0.12387783 -0.2611829 0.12579413 -0.2677127 0.059220247 0.39145288 -0.24857385 -0.22719081
0.20789546 0.15775885 0.2803284 -0.036076687 0.28115508 0.19880131 0.075778045 0.110320814
0.28936931 -0.123779036 -0.0050843423 0.096138716 0.104540326 -0.5137699 0.21334766 -0.06376167
-0.4504146 -0.07945821 -0.53722227 0.1896719 -0.054936185 0.09583262 -0.4694081 0.21100599
-0.33097664 -0.066261545 0.12842354 0.28789338 -0.054358467 0.009530967 0.0073503586 0.2739743
-0.26835293 0.019625908 -0.28063294 0.07220528 0.0723004 0.093429804 0.01047425 -0.38714126
-0.27743527 -0.23413695 -0.13860169 -0.06965753 0.12768957 -0.17714715 0.23696445 -0.28340098
-0.45085782 -0.2136687 0.06432633 -0.19650917 -0.14082326 -0.008260959 -0.3462841 -0.18248856
0.2702841 0.02762116 0.23494825 -0.18498504 -0.11664956 -0.28930753 0.20460191 -0.38038296
0.08374737 0.47133687 0.17387547 0.5400816 0.14618288 0.0845664 -0.13968182 0.08112964
00000000: 7f8b fabd fba0 a3be c9b2 ccbd 1834 963e
00000010: fde7 963c 2c74 b23e 1fe1 a4bd 2dd4 72be
00000020: 8965 c03e 828d 40bd ed47 16bf 1aed 7cbc
00000030: bfcb 77be 1bd8 ce3c f08d bf3c acf1 0d3e
00000040: 26a9 373e 39e8 993e 044b 87bd 6711 ccbe
00000050: 4236 1fbe a8ff 023e 7f68 a4bd fda8 64be
00000060: dbc7 fabd 814e 833e b39e 29be f158 dbbd
00000070: 4dc6 f6be 520a 21be 2309 0fbe 9eee fcbc
00000080: 3dd5 ce3d f356 c93e 6957 73bd e7c0 e53d
00000090: 6fc3 3c3c 2752 923e 3014 6bbd 3ddd f8bc
000000a0: 2fd2 86bd a7b5 cfbd 1abf 5bbe 2d0f 333e
000000b0: f306 aebe 57d6 54be 1b1c 7b3e 44cc 9dbe
000000c0: 85d6 29bd ec73 f8bd e55f b2bd cf63 3dbe
000000d0: 7b0d 8f3e 6f02 bebe 7fcc 953e cd4b b93d
000000e0: e5c3 453d 8c12 643e e524 a23d d8ca 8dbe
000000f0: b331 a3bc cfa1 e5bd 5f76 bebe 85bd c83d
00000100: 58a5 b6be 3ca1 99be d919 833e e368 00bf
00000110: 2ffb a5be d466 c3bd 9839 aebd 67f1 bbbe
00000120: a19d aabe 645c 8bbe b2be 18be 08e3 4cbd
00000130: 61e4 ab3d a3c1 6abd 0f9f c3bd d466 c63d
00000140: 0e5f 603d 8e74 a8be 90e3 8fbb 3ae6 3cbd
00000150: d47c 9e3e 914f 5b3b 2c5e 0a3f 5893 66be
00000160: 06bb 2cbe 262c 933e bd02 d3be 92fd 00be
00000170: e2ad 443e 30e8 693d 3ca3 50bd ddd2 003e
00000180: 73b7 913e 24b1 fe3d db9e 1abe 90e8 abbd
00000190: 1311 4abd 16f8 783e b2da 103f df2a 673e
000001a0: 5b4d 2dbe 97b0 e5bc 8d13 7cbe a1c7 dbbd
000001b0: 2c11 dd3d fd3c b2bd e888 eebe 332d 5e3d
000001c0: 78d3 8d3e 2f0e 353e 64c4 d13d c56c 0b3d
000001d0: af37 05bf 84ae e13d 02c7 8bbe b740 773d
000001e0: cbe5 ab3e 054d 93bb 9be2 1ebe a446 bdbd
000001f0: 6811 9e3e feea 623d a04d 1abd 27a3 4fbe
00000200: 2653 79bd f161 a43c 13fb eebd 12b4 b2bd
00000210: f531 f5be cf69 cdbe 1a86 4d3d f917 bc3e
00000220: 5256 34be 630f d7be 9fce 293e 755a d7bd
00000230: 108d 073d 2203 3bbe 0580 bfbe f641 b43d
00000240: 7982 e63c f1ad bb3d 5c3b 31bc 3d19 68be
00000250: 20d3 aa3c e7a8 5dbe c166 4fbe b7f5 1c3e
00000260: 0113 26bb f572 e83e 3a75 43be 7dad 41be
00000270: a0ba 5ebe 58d3 a63e a874 4fbe 85ba a63d
00000280: 18e9 aebd 53ab 8c3e f259 9cbd ea5d aebe
00000290: b6f2 9a3e fc3b 213d 5be1 4d3d 9e5e 86be
000002a0: 05b6 c7be 78bb 40be 672e 283e 900c 023d
000002b0: 7246 a33e f760 a2be 56f8 a03c c0ff 33be
000002c0: a9b3 fdbd c4b9 85be 2dd0 003e a411 89be
000002d0: ee90 723d 836c c83e 258a 7ebe b5a4 68be
000002e0: 8ce2 543e 898b 213e 3487 8f3e 26c5 13bd
000002f0: 8ff3 8f3e 9292 4b3e 8531 9b3d e1ef e13d
00000300: 3728 943e dd7f fdbd 8e9a a6bb 60e4 c43d
00000310: 3d19 d63d 6d86 03bf cf77 5a3e 7a95 82bd
00000320: be9c e6be fcba a2bd 6687 09bf 5a39 423e
00000330: c404 61bd e543 c43d 4256 f0be f411 583e
00000340: c575 a9be 22b4 87bd 7681 033e c366 933e
00000350: fca6 5ebd c627 1c3c 47db f03b 5c46 8c3e
00000360: 8e65 89be 83c6 a03c 1faf 8fbe 5de0 933d
00000370: 3b12 943d 2058 bf3d 309c 2b3c 6137 c6be
00000380: ff0b 8ebe 99c1 6fbe 9aed 0dbe 9ba8 8ebd
00000390: 0ec1 023e 1066 35be cfa6 723e ef19 91be
000003a0: d6d6 e6be f8cb 5abe 86bd 833d b339 49be
000003b0: f933 10be f958 07bc 264c b1be 48de 3abe
000003c0: ad62 8a3e c545 e23c 4696 703e b86c 3dbe
000003d0: f7e5 eebd 1e20 94be 2a83 513e 8ec1 c2be
000003e0: be83 ab3d 1153 f13e 690c 323e ca42 0a3f
000003f0: f7b0 153e 2631 ad3d c008 0fbe 4c27 a63d

layers.3.bias f4 [32]
-0.023871819 0.003332308 -0.009691592 -0.014652038 -0.017046588 0.01512534 -0.0036474736 0.0031389368
0.001075392 -0.013187042 0.01969469 0.03202698 0.007980239 0.024419751 0.01111135 -0.0024209286
-0.011413526 -0.010249871 0.00073313597 0.025876826 0.008708765 0.010411161 0.0020366018 -0.004962363
0.009584164 -0.0040204665 0.0027905738 0.006753207 -0.01463947 -0.0065148356 -0.0036091334 -0.011064782
00000000: d58e c3bc da62 5a3b 7cc9 1ebc 1a0f 70bc
00000010: 49a5 8bbc 46d0 773c 740a 6fbb 9fb6 4d3b
00000020: 2bf4 8c3a 770e 58bc c256 a13c b92e 033d
00000030: 8cbf 023c ee0b c83c 610c 363c 71a8 1ebb
00000040: ccff 3abc 13ef 27bc ec2f 403a a3fb d33c
00000050: 35af 0e3c 9393 2a3c 8278 053b 519b a2bb
00000060: e606 1d3c 1ebe 83bb 0fe2 363b 024a dd3b
00000070: 63da 6fbc 677a d5bb 3687 6cbb 0f49 35bc

layers.3.lin.weight f4 [32, 32]
-0.22870305 -0.41683078 0.7552674 -0.40290534 0.27580553 0.06725337 -0.033366896 -0.096610285
0.01672311 -0.08001203 0.032550648 -0.23016593 0.5832097 -0.028310066 -0.059584647 -0.16926861
0.24467444 -0.005001131 -0.12815203 -0.31087244 0.09562962 -0.20657195 0.25835806 0.22843386
-0.044850495 0.0822364 0.29098028 -0.020045102 -0.32610917 0.0985423 -0.13513905 -0.12749854
-0.15635724 -0.40479445 0.52883065 0.07014355 0.51334614 -0.02260458 0.039214622 0.25462684
0.1510386 0.2979109 -0.13258928 -0.2587154 0.01669323 -0.0117685255 -0.32055178 -0.097043045
-0.06809257 0.29871005 -0.044319443 -0.21065637 0.12434223 0.27070007 -0.071780734 0.11581691
-0.09426201 -0.38386378 0.20955423 0.012114272 -0.12756237 -0.036185257 -0.21631223 -0.19411427
-0.32393616 -0.123296656 -0.009033277 0.06360505 0.33858678 0.17917246 0.32929912 0.40000153
-0.18543364 -0.07003582 0.24604215 0.025482446 -0.14507642 -0.1813764 0.09708501 -0.20683977
0.2393878 0.24001789 -0.29566914 -0.1712424 -0.019568834 0.1303597 -0.660805 0.17371081
-0.1906993 0.098849066 0.06165847 -0.013606135 0.18972424 -0.17252317 -0.09201731 0.44071
0.16544689 -0.29465568 0.15410142 0.27450076 -0.12500095 0.34717983 -0.25928178 0.1780582
-0.19747205 -0.18845119 -0.16946429 -0.30997187 0.16298269 -0.18456878 -0.20719527 -0.07169694
0.12243494 0.18205103 0.19784376 0.074892625 0.3110764 0.1445853 -0.013719456 0.126779
-0.1751578 -0.24402644 -0.19403036 0.17862804 0.18461263 0.24380252 0.3978104 0.070227064
0.15036412 -0.21971464 0.20337263 -0.093951106 -0.19815347 0.31460047 -0.2585235 -0.15050188
0.010812304 -0.34118375 -0.40824458 0.025662217 -0.09524878 -0.14446893 0.32831097 -0.07977991
0.43199018 0.21706428 -0.054239847 0.06709905 0.121116355 0.10171749 0.05219159 0.17314926
-0.10151227 0.27678528 -0.12691805 -0.319579 -0.2910099 -0.29679415 0.06511445 0.49255237
0.07082784 -0.042839773 -0.2706361 -0.10645775 -0.33179054 -0.21552019 -0.0657666 -0.17717335
0.42032176 0.08972047 -0.0029017427 -0.0070122224 0.28992382 0.10041794 0.17658801 -0.06489615
-0.21167661 0.19874276 -0.031515006 -0.16585894 -0.22289957 0.26260445 -0.052153204 -0.14730358
-0.5779254 -0.08356457 -0.17142801 0.012969627 0.11321373 0.2244683 0.33259037 -0.2053767
0.53314036 -0.2704349 0.07208307 -0.046543196 0.073131576 0.24002433 0.3362073 -0.35826916
0.0069181304 -0.028807411 0.047229465 0.21060552 -0.27475238 -0.22713643 0.21866596 0.10038526
0.055012967 -0.30648816 0.27629682 0.14965911 0.31517276 0.14935315 0.16476877 -0.2638569
-0.029371249 -0.40187314 0.24371961 -0.2094756 -0.06339255 -0.22480388 -0.3783855 -0.2034683
0.4111691 -0.1569248 -0.1179261 0.13213691 -0.027710142 0.2300626 0.10032793 -0.15998577
-0.1991886 0.20149887 0.049038876 -0.08104934 0.1075431 0.065078676 -0.024335153 0.4589458
0.0021317205 0.027231677 -0.39729208 -0.16218296 -0.020749623 0.035685647 0.038267802 0.5186464
-0.21296664 -0.039411806 0.037235815 -0.08276081 -0.17494309 0.17334475 -0.32939208 0.21744168
00000000: 2231 6abe d86a d5be 3459 413f 9c49 cebe
00000010: 6236 8d3e 23bc 893d baab 08bd 9ddb c5bd
00000020: e7fe 883c 59dd a3bd d453 053d 9eb0 6bbe
00000030: 3b4d 153f 83ea e7bc 080f 74bd c054 2dbe
00000040: f08b 7a3e 87e0 a3bb 493a 03be ac2a 9fbe
00000050: 76d9 c33d 9987 53be 8247 843e 91ea 693e
00000060: 27b5 37bd 8f6b a83d 5efb 943e a035 a4bc
00000070: c8f7 a6be 8cd0 c93d e461 0abe fa8e 02be
00000080: 1d1c 20be 3841 cfbe 7261 073f 6ca7 8f3d
00000090: a76a 033f 3d2d b9bc 839f 203d 735e 823e
000000a0: dda9 1a3e c787 983e 7cc5 07be 5876 84be
000000b0: 3ec0 883c c6d0 40bc 5d1f a4be 81be c6bd
000000c0: 1e74 8bbd 86f0 983e 4e88 35bd 4eb6 57be
000000d0: 24a7 fe3d 3399 8a3e c701 93bd 6b31 ed3d
000000e0: 710c c1bd cb89 c4be 6295 563e f17a 463c
000000f0: b69f 02be fe36 14bd f480 5dbe e4c5 46be
00000100: f6da a5be f582 fcbd 4f00 14bc 5d43 823d
00000110: 3f5b ad3e fc78 373e e599 a83e 00cd cc3e
00000120: 51e2 3dbe f16e 8fbd 79f2 7b3e 90c0 d03c
00000130: ea8e 14be bcba 39be 81d4 c63d cecd 53be
00000140: 1322 753e 40c7 753e f261 97be 2b5a 2fbe
00000150: d24e a0bc 037d 053e 842a 29bf 3fe1 313e
00000160: ad46 43be 6171 ca3d 988d 7c3d 44ec 5ebc
00000170: 1247 423e eaa9 30be 9273 bcbd bea4 e13e
00000180: e96a 293e 1cdd 96be c3cc 1d3e 5d8b 8c3e
00000190: 4000 00be 8ec1 b13e 95c0 84be e454 363e
000001a0: 1d36 4abe 59f9 40be 0c88 2dbe a2b4 9ebe
000001b0: efe4 263e 99ff 3cbe ff2a 54be d8d5 92bd
000001c0: 2bbf fa3d 966b 3a3e 8e97 4a3e 4e61 993d
000001d0: 6845 9f3e 2b0e 143e 92c7 60bc 5bd2 013e
000001e0: 915c 33be 11e2 79be e5af 46be 45ea 363e
000001f0: 180b 3d3e 5ea7 793e cead cb3e 35d3 8f3d
00000200: 0df9 193e e0fc 60be ea40 503e 7069 c0bd
00000210: bee8 4abe 5013 a13e 315d 84be 2a1d 1abe
00000220: 1726 313c a3af aebe 6f05 d1be 9239 d23c
00000230: cb11 c3bd aaef 13be 6018 a83e a663 a3bd
00000240: d12d dd3e 1946 5e3e 9a2a 5ebd 3a6b 893d
00000250: da0b f83d 4251 d03d d9c6 553d 0a4e 313e
00000260: aae5 cfbd cdb6 8d3e cef6 01be dc9f a3be
00000270: 40ff 94be 67f5 97be ba5a 853d d32f fc3e
00000280: 300e 913d c278 2fbd d190 8abe 8506 dabd
00000290: 73e0 a9be 53b1 5cbe a4b0 86bd ee6c 35be
000002a0: 6a34 d73e 5ebf b73d 2a2b 3ebb c9c6 e5bb
000002b0: e570 943e eca7 cd3d 7dd3 343e 46e8 84bd
000002c0: c1c1 58be 3983 4b3e e115 01bd edd6 29be
000002d0: c93f 64be 1774 863e 999e 55bd c0d6 16be
000002e0: ebf2 13bf e723 abbd d38a 2fbe 8f7e 543c
000002f0: 9adc e73d 05db 653e 4949 aa3e 454e 52be
00000300: e37b 083f 7176 8abe 4aa0 933d 14a4 3ebd
00000310: 02c6 953d f0c8 753e 5d23 ac3e 0e6f b7be
00000320: 7cb1 e23b 85fd ebbc af73 413d f9a8 573e
00000330: 58ac 8cbe 7496 68be f8e9 5f3e ca96 cd3d
00000340: 4755 613d 04ec 9cbe c776 8d3e 3d40 193e
00000350: 535e a13e 08f0 183e 25b9 283e 4018 87be
00000360: f99b f0bc 51c2 cdbe a291 793e c680 56be
00000370: f4d3 81bd fd32 66be bfbb c1be fe59 50be
00000380: c284 d23e e5b0 20be 3d83 f1bd e64e 073e
00000390: 6100 e3bc 8895 6b3e bb78 cd3d 4fd3 23be
000003a0: 19f8 4bbe b855 4e3e fddc 483d 32fd a5bd
000003b0: 8f3f dc3d f847 853d 845a c7bc f2fa ea3e
000003c0: 56b4 0b3b f714 df3c de69 cbbe 4a13 26be
000003d0: 1dfb a9bc 1d2b 123d b3be 1c3d 03c6 043f
000003e0: ed13 5abe 466e 21bd 9584 183d 807e a9bd
000003f0: 4824 33be 4981 313e 14a6 a8be 08a9 5e3e

layers.4.bias f4 [40]
-0.109583214 -0.18298633 -0.056687035 -0.2838158 -0.28689948 0.09994027 -0.21515983 -0.019249436
0.10553172 0.026312582 0.13151938 -0.08153796 -0.24317443 0.04951297 -0.061021443 -0.18347177
-0.035705484 -0.059734765 -0.16518524 -0.105114736 -0.071633816 -0.11997311 -0.4990366 -0.36397922
0.12705104 -0.19825082 0.014002425 -0.07203859 0.21322738 -0.18745355 -0.28905606 -0.08242217
-0.12495831 -0.12020206 0.14615342 -0.1452665 -0.26363665 -0.2553673 -0.21446851 -0.15031537
00000000: 2a6d e0bd c560 3bbe aa30 68bd 4e50 91be
00000010: 7de4 92be 7cad cc3d dc52 5cbe feb0 9dbc
00000020: 0421 d83d 7c8d d73c 04ad 063e 60fd a6bd
00000030: b802 79be 1dce 4a3d 9ff1 79bd 06e0 3bbe
00000040: ea3f 12bd 71ac 74bd 5226 29be 6546 d7bd
00000050: c0b4 92bd 76b4 f5bd ba81 ffbe 7c5b babe
00000060: ab19 023e 4302 4bbe 6d6a 653c f888 93bd
00000070: 4758 5a3e d3f3 3fbe 28ff 93be f4cc a8bd
00000080: 24ea ffbd 7f2c f6bd 3ea9 153e bec0 14be
00000090: 62fb 86be 81bf 82be a29d 5bbe 46ec 19be

layers.4.lin.weight f4 [40, 32]
-0.5004888 -0.1804099 -0.25956407 -0.11417638 0.5023904 -0.3605138 -0.10473519 0.09488766
-0.36785647 0.09866172 0.15205815 -0.4076284 -0.33368433 0.50840914 -0.2911575 -0.24554649
-0.20069775 -0.09636891 0.16236925 0.1915514 0.076833636 -0.022401663 -0.14516808 -0.13079153
-0.1794526 -0.44923788 0.17714202 -0.26896363 -0.43889177 0.54232806 0.103911124 -0.5003063
-0.060636763 0.3842528 -0.38629556 -0.21010198 -0.364194 -0.2856066 -0.45929295 -0.62194145
-0.18889324 -0.064742096 -0.42401463 0.4128645 0.42768252 -0.43488982 -0.17027071 0.37954494
0.15538114 -0.24845187 -0.5083261 0.015323431 -0.23910002 -0.4386289 0.3555162 -0.22564104
0.36335763 -0.57622784 0.06810895 0.34995615 -0.27346802 0.4768944 -0.7455387 -0.2671575
-0.59349823 -0.25329825 0.4627956 -0.16013204 -0.42790183 0.11027172 0.3363911 0.23397352
-0.49398267 0.673662 -0.13879769 -0.17437418 -0.20824602 -0.3094578 0.5331972 -0.1086758
-0.3694374 -0.21802099 0.1430872 -0.08237142 -0.12155015 0.46916303 -0.24536543 -0.26329225
-0.1137588 0.3242486 0.45388302 -0.39179546 -0.013834659 -0.30704513 -0.019827608 0.026340794
0.016519314 -0.27664247 -0.19315076 -0.071147494 -0.39763084 0.7921159 -0.51842076 -0.17520098
0.49102864 -0.84754 -0.35206667 -0.44023275 -0.1651538 -0.47880587 -0.6741687 -0.025723862
0.37264267 -0.38933614 0.07189282 -0.58067006 -0.38365346 -0.38408503 -0.16741912 -0.15143552
0.21821511 -0.05516067 -0.04758047 0.22450398 -0.11845642 -0.2592585 0.14821267 0.17860736
-0.61513925 0.28916654 0.0077146986 0.25859028 0.014534684 -0.070264824 0.05078996 0.29083556
-0.45510757 -0.21164668 -0.109822944 0.5220373 0.6537416 -0.26871267 0.2595902 0.6458777
0.4020672 -0.20157064 -0.5641394 -0.7365616 -0.6131753 -0.17849232 -0.086441085 0.33605212
0.35149655 0.38623986 -0.020832807 -0.0074305455 -0.3621512 -0.16884837 -0.14449543 0.029404698
0.03156597 0.35287446 0.42726168 0.42228726 -0.2666204 0.1818752 -0.2381008 -0.055282697
-0.5108472 0.016652051 0.10134703 0.44568413 -0.46635428 0.23338023 -0.38247633 0.32356665
-0.33514225 0.09207112 -0.71841395 -0.11352576 -0.07360915 -0.20628424 0.22804514 -0.5226815
-0.26160854 -0.26827163 -0.36810204 -0.21952935 0.50004053 -0.121364705 0.23043561 0.6072898
-0.048292667 -0.1592404 -0.2693388 -0.40066648 -0.4646194 0.43091372 -0.6551781 -0.3872174
0.6729711 -0.51426005 -0.39874732 -0.7032175 -0.2583381 -0.060461912 -0.7340595 -0.3082054
0.68700844 -0.5218197 -0.5116603 -0.297197 -0.20833766 -0.43409455 -0.24827062 -0.10541447
0.10852554 -0.34524724 0.74359447 0.3481538 -0.1872529 0.09348043 0.40097472 -0.35230622
-0.011363348 -0.3360247 -0.14924204 0.10675159 0.17988992 0.37050024 -0.2728652 0.05844231
-0.26861483 0.32465336 -0.26857513 0.33469534 -0.058187176 -0.14506553 -0.15607539 -0.30927488
-0.33630106 -0.30146712 0.053828444 0.32290617 -0.019527541 -0.1017859 -0.12163067 -0.56855994
-0.7010909 -0.34578437 -0.120049916 -0.051463217 -0.0017238527 0.54233634 0.15907234 -0.26140678
00000000: 0920 00bf 5fbd 38be 95e5 84be 4ed5 e9bd
00000010: a89c 003f 4495 b8be 677f d6bd 7654 c23d
00000020: af57 bcbe 280f ca3d 22b5 1b3e abb4 d0be
00000030: acd8 aabe 1a27 023f 9912 95be 8a70 7bbe
00000040: b683 4dbe 105d c5bd 2044 263e 0d26 443e
00000050: f45a 9d3d b183 b7bc f1a6 14be 37ee 05be
00000060: 6cc2 37be 8202 e6be b864 353e 9ab5 89be
00000070: 6cb6 e0be 03d6 0a3f 5bcf d43d 1314 00bf
00000080: 415e 78bd c8bc c43e 88c8 c5be f924 57be
00000090: a377 babe 073b 92be 7228 ebbe 8e37 1fbf
000000a0: 3b6d 41be 8197 84bd 7218 d9be fa62 d33e
000000b0: 34f9 da3e e1a9 debe 725b 2ebe b753 c23e
000000c0: 3c1c 1f3e 2b6a 7ebe a921 02bf 210f 7b3c
000000d0: a3d6 74be f893 e0be 3806 b63e 720e 67be
000000e0: 030a ba3e ab83 13bf b57c 8b3d 742d b33e
000000f0: 0004 8cbe 812b f43e a0db 3ebf dec8 88be
00000100: 80ef 17bf 4fb0 81be 8bf3 ec3e a7f9 23be
00000110: f315 dbbe 24d6 e13d 743b ac3e c196 6f3e
00000120: 4ceb fcbe 1d75 2c3f fb20 0ebe 258f 32be
00000130: 723e 55be 4171 9ebe 9d7f 083f 6b91 debd
00000140: e626 bdbe e540 5fbe 7385 123e 59b2 a8bd
00000150: 49ef f8bd 2336 f03e 1341 7bbe 3ece 86be
00000160: 60fa e8bd ea03 a63e 5b63 e83e 6a99 c8be
00000170: c4aa 62bc 0535 9dbe 826d a2bc a6c8 d73c
00000180: 8353 873c 15a4 8dbe 50c9 45be c7b5 91bd
00000190: 4596 cbbe 1cc8 4a3f 39b7 04bf e367 33be
000001a0: 1b68 fb3e 62f8 58bf 1542 b4be 3066 e1be
000001b0: 141e 29be 0b26 f5be 5296 2cbf d9ba d2bc
000001c0: 05cb be3e 1157 c7be 8b3c 933d cba6 14bf
000001d0: 3a6e c4be cba6 c4be eb6f 2bbe ea11 1bbe
000001e0: c873 5f3e 28f0 61bd bde3 42bd 5fe4 653e
000001f0: 4899 f2bd 88bd 84be 10c5 173e d9e4 363e
00000200: c479 1dbf a30d 943e 95cb fc3b f265 843e
00000210: e222 6e3c 01e7 8fbd 2209 503d 66e8 943e
00000220: dc03 e9be e8b9 58be daea e0bd 3da4 053f
00000230: 9c5b 273f b594 89be 02e9 843e 3e58 253f
00000240: c1db cd3e 8968 4ebe 716b 10bf 4d8f 3cbf
00000250: 0ef9 1cbf b1c6 36be 0608 b1bd 060f ac3e
00000260: 5bf7 b33e 3bc1 c53e 90a9 aabc ef7b f3bb
00000270: e26b b9be 96e6 2cbe 9cf6 13be 1fe2 f03c
00000280: 524b 013d f6ab b43e 0bc2 da3e 0936 d83e
00000290: 7882 88be 7e3d 3a3e b2d0 73be 1c70 62bd
000002a0: e2c6 02bf e269 883c 088f cf3d b630 e43e
000002b0: fdc5 eebe 3afb 6e3e f0d3 c3be 87aa a53e
000002c0: c497 abbe c98f bc3d fae9 37bf 3280 e8bd
000002d0: 65c0 96bd 2d3c 53be aa84 693e 74ce 05bf
000002e0: 8ef1 85be e65a 89be df77 bcbe 4dcc 60be
000002f0: a802 003f 0f8e f8bd 50f7 6b3e 5877 1b3f
00000300: 88ce 45bd ea0f 23be c6e6 89be 2824 cdbe
00000310: 98e2 edbe b9a0 dc3e c1b9 27bf 5c41 c6be
00000320: d647 2c3f 8ca6 03bf 9c28 ccbe 1006 34bf
00000330: e444 84be e9a6 77bd 53eb 3bbf 19cd 9dbe
00000340: c9df 2f3f fa95 05bf 2bfc 02bf 352a 98be
00000350: 7856 55be a441 debe a73a 7ebe 8be3 d7bd
00000360: a342 de3d 3fc4 b0be 355c 3e3f 3741 b23e
00000370: 39bf 3fbe ab72 bf3d 8f4c cd3e 7b61 b4be
00000380: 562d 3abc 6e0b acbe e8d2 18be 94a0 da3d
00000390: 1035 383e 35b2 bd3e fdb4 8bbe 3461 6f3d
000003a0: e287 89be f738 a63e ae82 89be 305d ab3e
000003b0: ad55 6ebd 0f8c 14be 3ad2 1fbe 4759 9ebe
000003c0: a72f acbe e659 9abe 377b 5c3d f553 a53e
000003d0: 39f8 9fbc 2075 d0bd 8019 f9bd 258d 11bf
000003e0: b17a 33bf a60a b1be bbdc f5bd 18cb 52bd
000003f0: e6f2 e1ba 8ed6 0a3f dce3 223e 1cd7 85be

bns.0.weight f4 [32]
1.0992879 1.1225992 1.0627401 1.0861009 0.98640907 1.0568093 1.0788314 0.9728854
0.9663671 1.040309 0.8322734 0.9931021 0.9864666 1.1252282 0.9569506 1.1696833
1.1556126 0.93579847 1.2090974 0.88116 0.98023254 0.91763365 0.87429893 1.0982145
0.9386668 0.92818606 0.9699019 0.9800858 1.1581626 0.96561414 0.99011785 0.8231979
00000000: 77b5 8c3f 55b1 8f3f de07 883f 5b05 8b3f
00000010: 4e85 7c3f 8745 873f 2617 8a3f 040f 793f
00000020: d663 773f d828 853f df0f 553f f03b 7e3f
00000030: 1389 7c3f 7a07 903f b7fa 743f 2fb8 953f
00000040: 1deb 933f 7d90 6f3f b4c3 9a3f b493 613f
00000050: 85f0 7a3f 0aea 6a3f 0ed2 5f3f 4b92 8c3f
00000060: 784c 703f 9a9d 6d3f 7e4b 783f e7e6 7a3f
00000070: ac3e 943f 7d32 773f 5d78 7d3f 19bd 523f

bns.0.bias f4 [32]
-0.5264646 0.0938894 0.26821357 -0.052939136 0.14423625 -0.091677785 -0.10919221 0.4166515
-0.2726458 0.0032363355 -0.028261296 -0.023567095 0.14266855 -0.11807296 0.20451868 0.043920096
0.0025549133 -0.18048692 -0.13776366 -0.04875425 0.37386888 0.24434015 -0.2576853 0.19643228
0.1543049 0.19548714 -0.04720272 0.20123075 0.008300154 -0.19209959 -0.07256781 0.25025722
00000000: 62c6 06bf 1649 c03d 4a53 893e b5d6 58bd
00000010: abb2 133e 90c1 bbbd 2aa0 dfbd 5853 d53e
00000020: 3b98 8bbe b318 543b 3c84 e7bc c80f c1bc
00000030: b417 123e 3cd0 f1bd 586d 513e 8fe5 333d
00000040: 5570 273b 90d1 38be eb11 0dbe 89b2 47bd
00000050: be6b bf3e 4e34 7a3e 54ef 83be 8b25 493e
00000060: 1b02 1e3e c82d 483e a457 41bd 6f0f 4e3e
00000070: 5efd 073c c1b5 44be 6f9e 94bd b721 803e

bns.0.running_mean f4 [32]
0.13062441 0.22533846 -0.37698886 0.019612428 0.08946668 0.16053161 -0.09437915 0.30247888
0.08552918 0.123526454 0.09868025 0.29415375 0.6933408 -1.4973783 0.21694858 -0.053668644
0.5932279 0.24216798 -0.10714103 -0.26948294 0.11815488 0.32949534 0.08046481 -0.18002518
0.3557924 0.05150497 0.50776166 -0.84573746 -0.2800448 -0.20034912 -0.63675576 0.04000813
00000000: 68c2 053e 20bf 663e af04 c1be 3eaa a03c
00000010: 4f3a b73d 6662 243e db49 c1bd 83de 9a3e
00000020: ec29 af3d 70fb fc3d df18 ca3d 529b 963e
00000030: c87e 313f 18aa bfbf c527 5e3e a7d3 5bbd
00000040: c9dd 173f e2fa 773e c26c dbbd abf9 89be
00000050: 30fb f13d 9db3 a83e bcca a43d 8558 38be
00000060: 6c2a b63e e0f6 523d abfc 013f 4082 58bf
00000070: 0862 8fbe 5228 4dbe 6d02 23bf 91df 233d

bns.0.running_var f4 [32]
0.02956979 0.05597911 0.06481033 0.04754595 0.07626163 0.044546504 0.082011275 0.053123645
0.053184845 0.04432465 0.04819391 0.06310946 0.06549064 0.15667774 0.03704028 0.038517278
0.088299155 0.034054406 0.04005238 0.04240261 0.062498946 0.04136615 0.037245266 0.05682871
0.06302669 0.07247988 0.063780844 0.09176329 0.058179643 0.06550819 0.09379298 0.045402132
00000000: 583c f23c 5a4a 653d 47bb 843d 8bbf 423d
00000010: 0f2f 9c3d 6576 363d 87f5 a73d 2e98 593d
00000020: 5ad8 593d c48d 353d fa66 453d 883f 813d
00000030: f51f 863d 2170 203e 8cb7 173d 4bc4 1d3d
00000040: 30d6 b43d a27c 0b3d f70d 243d 5cae 2d3d
00000050: e5fe 7f3d 8d6f 293d 7e8e 183d 39c5 683d
00000060: 2314 813d 5570 943d 889f 823d 64ee bb3d
00000070: c74d 6e3d 2829 863d 8916 c03d 96f7 393d

bns.1.weight f4 [32]
1.1445158 0.87774044 0.9736675 1.0146008 1.03291 1.05195 1.1708381 0.9504775
1.0431609 1.0836685 1.122033 0.8653628 0.92184424 0.8680308 1.082065 1.0898054
1.0934964 1.1192738 0.9133085 1.033685 1.0936145 1.0612887 1.1705762 1.0329081
0.82562196 0.91281617 1.1116265 0.9402156 0.99856114 0.7533537 1.0152541 0.9239541
00000000: 7e7f 923f 99b3 603f 4642 793f 70de 813f
00000010: 6536 843f 4ca6 863f 06de 953f 7e52 733f
00000020: 4c86 853f a6b5 8a3f c79e 8f3f 6b88 5d3f
00000030: fcfd 6b3f 4437 5e3f 1b81 8a3f be7e 8b3f
00000040: b1f7 8b3f 5d44 8f3f 96ce 693f ca4f 843f
00000050: 8ffb 8b3f 4fd8 873f 71d5 953f 5536 843f
00000060: f65b 533f 52ae 693f c749 8e3f f8b1 703f
00000070: b4a1 7f3f cadb 403f d9f3 813f 4288 6c3f

bns.1.bias f4 [32]
-0.019222979 -0.19694544 0.056513503 -0.10605556 0.13121948 -0.03350742 0.29974326 0.03086206
0.041196875 -0.070882365 -0.0847224 0.0713564 0.021838 -0.058391545 -0.018882131 -0.033251468
-0.0062707234 -0.015041832 0.008748529 0.24174483 0.17838451 0.24914299 0.12168153 0.06234
0.13113599 -0.18389124 0.1397465 0.30119947 0.13255721 -0.23545738 -0.15371093 0.0069004954
00000000: 8279 9dbc 11ac 49be b47a 673d a833 d9bd
00000010: 665e 063e 143f 09bd f377 993e 6ed2 fc3c
00000020: 0ebe 283d c62a 91bd f082 adbd 4e23 923d
00000030: 9be5 b23c f92b 6fbd b3ae 9abc b132 08bd
00000040: a47a cdbb 0472 76bc fd55 0f3c f58b 773e
00000050: 6eaa 363e 571f 7f3e 2a34 f93d 3a58 7f3d
00000060: 8348 063e fc4d 3cbe b519 0f3e d136 9a3e
00000070: 14bd 073e bd1b 71be 6666 1dbe 8d1d e23b

bns.1.running_mean f4 [32]
-0.3321325 -0.016394958 -0.47592223 -0.33226323 -0.621381 -1.816358 -0.7101581 -0.56081593
-0.007103128 0.04382605 -0.66756445 -0.57808393 -0.6882903 -0.20177917 0.1514152 -0.28667492
-1.4285551 0.41092637 0.025726143 0.13385719 -0.67289335 -0.2057487 -0.8895885 0.08818168
-0.12695348 -0.9390272 -0.89152724 -0.66637164 0.22979349 -1.0873266 -0.5876054 0.24847506
00000000: 450d aabe b84e 86bc 14ac f3be 681e aabe
00000010: d312 1fbf 6b7e e8bf eccc 35bf a291 0fbf
00000020: 5bc1 e8bb f282 333d 81e5 2abf 4ffd 13bf
00000030: cb33 30bf 339f 4ebe 960c 1b3e 0ec7 92be
00000040: e5da b6bf f164 d23e a2bf d23c dc11 093e
00000050: bd42 2cbf caaf 52be 12bc 63bf 9998 b43d
00000060: 1800 02be 1664 70bf 213b 64bf 5597 2abf
00000070: fc4e 6b3e 852d 8bbf 4f6d 16bf 3f70 7e3e

bns.1.running_var f4 [32]
0.18190818 0.5196506 0.58867335 0.6329983 0.7424954 1.090704 0.3273994 0.41599423
0.58171785 0.29465282 1.0352427 0.7584798 0.76112735 0.3123914 0.5154337 0.6438497
0.58321905 0.37045464 0.54582447 0.40167856 0.6486246 0.44474402 0.4159713 0.5720213
0.42030704 0.39114812 0.6089964 0.96987087 0.59650624 1.0735618 0.41073844 0.9890776
00000000: 2346 3a3e d207 053f 4cb3 163f 2d0c 223f
00000010: 2e14 3e3f 309c 8b3f e5a0 a73e 32fd d43e
00000020: 76eb 143f bcdc 963e d582 843f bb2b 423f
00000030: 3ed9 423f c4f1 9f3e 77f3 033f 55d3 243f
00000040: d84d 153f 3bac bd3e 27bb 0b3f d0a8 cd3e
00000050: 430c 263f 7db5 e33e 31fa d43e fd6f 123f
00000060: 7c32 d73e 9144 c83e 30e7 1b3f 7549 783f
00000070: a2b4 183f 796a 893f 4f4c d23e 3134 7d3f

bns.2.weight f4 [32]
1.0852404 1.0362002 1.1078573 0.974681 0.9821873 0.84653515 1.1017997 0.96580845
1.0701075 0.96051794 0.8900473 1.0728723 1.2058593 0.9632704 0.9896462 1.282008
0.9631775 1.1806731 1.0430253 0.73136896 1.0686877 0.83276194 1.1529802 0.8520751
1.0865002 0.9187383 0.7617107 1.0371044 0.98832667 1.0952172 0.9287039 1.0216013
00000000: 28e9 8a3f 35a2 843f 45ce 8d3f b284 793f
00000010: a070 7b3f 87b6 583f c607 8d3f 393f 773f
00000020: 48f9 883f 81e4 753f 24da 633f e153 893f
00000030: 9959 9a3f e498 763f 7459 7d3f d718 a43f
00000040: cd92 763f 4c20 973f da81 853f ff3a 3b3f
00000050: c2ca 883f e32f 553f db94 933f 9821 5a3f
00000060: 7012 8b3f 6f32 6b3f 79ff 423f d6bf 843f
00000070: fa02 7d3f 1430 8c3f 8abf 6d3f d5c3 823f

bns.2.bias f4 [32]
-0.21968798 0.17822023 0.059787106 0.15885834 0.1007984 7.0590846e-05 0.17296742 -0.13421181
-0.21427467 0.13610186 0.14088371 0.2533656 0.27325135 0.10754494 0.06437913 0.06581404
0.026873525 0.021418931 0.021413824 0.20537686 0.09024219 0.07046652 -0.10365293 0.24788968
0.03252936 -0.025942033 0.045960825 0.114897795 0.29242778 0.22579297 0.07898993 0.32316923
00000000: e3f5 60be 5d7f 363e 53e3 743d c3ab 223e
00000010: 646f ce3d 2c0a 9438 5f1e 313e d26e 09be
00000020: d26a 5bbe 495e 0b3e d243 103e 23b9 813e
00000030: 9ae7 8b3e 8640 dc3d 35d9 833d 83c9 863d
00000040: de25 dc3c c176 af3c 0b6c af3c 504e 523e
00000050: e6d0 b83d c050 903d fd47 d4bd cbd6 7d3e
00000060: 823d 053d 6384 d4bc 6b41 3c3d 894f eb3d
00000070: 18b9 953e 4636 673e 79c5 a13d 7076 a53e

bns.2.running_mean f4 [32]
-0.79731286 -0.32618016 -0.9518976 0.17398857 -1.018809 0.061831705 -0.5771659 -0.36763272
-0.8556604 -1.175354 0.47656834 -0.43674046 -0.4617874 -1.1739738 -0.4821813 -0.8639522
-1.0674788 -0.48267055 0.3255612 -0.34185743 -0.36601517 -0.85060537 -0.58066285 -0.70625657
-0.32649177 -0.46991637 -0.7842516 0.4276627 -0.2617752 0.0056366185 0.26202887 -0.57071704
00000000: b21c 4cbf 1601 a7be 90af 73bf 0f2a 323e
00000010: 5568 82bf 3e43 7d3d 25c1 13bf 5b3a bcbe
00000020: 8f0c 5bbf 0072 96bf c400 f43e 729c dfbe
00000030: 666f ecbe c644 96bf 78e0 f6be f92b 5dbf
00000040: 25a3 88bf 9820 f7be f5af a63e f007 afbe
00000050: 5766 bbbe 46c1 59bf 52a6 14bf 3bcd 34bf
00000060: ee29 a7be e198 f0be b6c4 48bf 9bf6 da3e
00000070: 6607 86be 62b3 b83b a628 863e 831a 12bf

bns.2.running_var f4 [32]
0.4599688 0.54504377 0.9106301 0.6218464 1.0259887 0.9141717 0.6872593 0.7333634
0.43066224 1.1804191 0.6454398 0.5742495 0.33832464 0.76756144 0.5272319 0.6763469
0.7300541 0.6376166 0.7511703 0.83562666 0.7676209 1.0356531 0.57065976 0.48808628
0.62832797 0.9391268 1.0252141 0.8448412 0.45353544 0.7218628 0.42939654 1.0392586
00000000: 0881 eb3e fd87 0b3f 0e1f 693f 5331 1f3f
00000010: 9953 833f 2807 6a3f 3af0 2f3f b4bd 3b3f
00000020: c37f dc3e f917 973f 8b3b 253f 0402 133f
00000030: e338 ad3e e87e 443f abf8 063f 1225 2d3f
00000040: d3e4 3a3f d73a 233f b24c 403f a1eb 553f
00000050: ce82 443f 4890 843f c216 123f 72e6 f93e
00000060: 1ada 203f 9d6a 703f 373a 833f 8347 583f
00000070: cc35 e83e 00cc 383f ddd9 db3e 6d06 853f

bns.3.weight f4 [32]
1.419283 1.4172134 1.5631397 1.0479267 1.401788 1.3930992 1.393147 1.4860443
1.54432 1.4334642 1.3290745 1.485631 1.404464 1.3926231 1.3815526 1.3589355
1.3021965 1.3463491 1.511924 1.3537605 1.2971579 1.3974499 1.0219148 1.2749768
1.2884043 1.432165 1.434575 1.3316706 1.6598974 1.3619906 1.1084688 1.2880344
00000000: 11ab b53f 4067 b53f f614 c83f 7622 863f
00000010: ca6d b33f 1351 b23f a452 b23f b336 be3f
00000020: 47ac c53f c17b b73f 1d1f aa3f 2829 be3f
00000030: 7ac5 b33f 7941 b23f b7d6 b03f 99f1 ad3f
00000040: 60ae a63f 2b55 ac3f ba86 c13f 0648 ad3f
00000050: 4509 a63f a3df b23f 1bce 823f 7132 a33f
00000060: 6fea a43f 2f51 b73f 27a0 b73f 2f74 aa3f
00000070: 8577 d43f b555 ae3f 4ee2 8d3f 50de a43f

bns.3.bias f4 [32]
0.3390408 0.33387142 0.4501129 -0.013873126 0.3450452 0.23097686 0.33608842 0.36445844
0.42690715 0.22525004 0.3160011 0.3252247 0.37312195 0.41033158 0.36024168 0.22294724
0.088169724 0.31100246 0.32802635 0.19331726 0.29348773 0.28372833 -0.07188431 0.24113497
0.29590958 0.37308267 0.103262834 0.22957426 0.42063114 0.2999646 -0.06345648 0.10569056
00000000: c196 ad3e 32f1 aa3e 3375 e63e 1c4c 63bc
00000010: c4a9 b03e 3385 6c3e c813 ac3e 4c9a ba3e
00000020: 9393 da3e f2a7 663e e5ca a13e da83 a63e
00000030: d709 bf3e fb16 d23e 9971 b83e 484c 643e
00000040: 5492 b43d b73b 9f3e 12f3 a73e f6f4 453e
00000050: 0644 963e d744 913e 1538 93bd 16ec 763e
00000060: 7681 973e b104 bf3e 777b d33d 8415 6b3e
00000070: f75c d73e f694 993e 79f5 81bd 4b74 d83d

bns.3.running_mean f4 [32]
-0.092272475 -0.09156954 0.16522628 0.2981732 -0.28922874 -0.29372758 -0.23982362 0.26526654
-0.17056628 -0.01025309 0.51583046 0.16904837 0.086092785 0.10345147 0.27089852 0.24275796
0.22403179 0.25020993 0.12598127 0.04523176 0.57824206 0.14198953 1.3060113 0.05096984
0.071511164 0.2661645 0.12544644 0.029013187 0.26347253 0.13484263 0.05050315 0.19742924
00000000: 5af9 bcbd d088 bbbd 1431 293e 28aa 983e
00000010: ca15 94be 7663 96be 5394 75be 04d1 873e
00000020: eda8 2ebe 94fc 27bc 770d 043f 041b 2d3e
00000030: 6a51 b03d 5dde d33d 36b3 8a3e 8b95 783e
00000040: 9768 653e 841b 803e 3c01 013e f044 393d
00000050: ac07 143f b465 113e 612b a73f c0c5 503d
00000060: 7274 923d b746 883e 0875 003e 10ad ed3c
00000070: dfe5 863e 3014 0a3e 64dc 4e3d e42a 4a3e

bns.3.running_var f4 [32]
0.8591048 0.97581875 0.38111302 1.005567 0.3628262 0.7056566 0.45684525 0.42181203
0.4159964 0.67451096 0.64959043 0.20177451 0.2932902 0.9911577 0.8122639 0.41665772
0.27249187 0.4450702 0.19968487 0.40655288 0.51457006 0.61741793 0.7229953 0.8902991
1.0502867 0.48373684 0.42120874 0.6982846 0.18910088 1.0272774 0.27400267 0.51911885
00000000: 4bee 5b3f 42cf 793f 3f21 c33e 6bb6 803f
00000010: 5bc4 b93e e9a5 343f 9fe7 e93e bff7 d73e
00000020: 7bfd d43e c0ac 2c3f 8f4b 263f fa9d 4e3e
00000030: 222a 963e 83bc 7d3f 87f0 4f3f 2954 d53e
00000040: 0e84 8b3e 3ee0 e33e 317a 4c3e b327 d03e
00000050: ddba 033f 1a0f 1e3f 3816 393f a4ea 633f
00000060: cb6f 863f 5bac f73e aca8 d73e c8c2 323f
00000070: a9a3 413e d37d 833f 144a 8c3e f9e4 043f
