saved/ogb-arxiv_GCN_s2.pt (torch, 46315 bytes, 26 tensors)

layers.0.bias f4 [32]
00000000: d520 963c b913 2abc 533d a9bd 872b 3cbd
00000010: d8f7 14bc 9b49 80bc 3fbd b43c ca69 523c
00000020: 7fd4 94bc 180a 483c ee78 a3bc a199 f6bc
00000030: b8d5 36bc 98fc 31bd 1bb5 c7bc 583b 793c
00000040: ad50 b23a 1510 03bd 6cb3 bebd 4c3a 2f3d
00000050: ffd1 cb3c c194 6f3c 08d4 babc 936e 263c
00000060: 3e7d 83bd 4186 58bd 6f29 ca3c 6750 78bc
00000070: 536c febc bde2 29bd eb01 133d 8f40 c6bc
0.018326202 -0.010380679 -0.0826365 -0.04593995 -0.009092294 -0.015660098 0.022062896 0.012842605
-0.018167732 0.012209438 -0.019955125 -0.030102553 -0.011159353 -0.043453783 -0.02437835 0.015211903
0.0013604366 -0.03199776 -0.09311566 0.042780206 0.024880407 0.014622868 -0.022806183 0.010158199
-0.064203724 -0.05286241 0.02467796 -0.015155888 -0.031057512 -0.041476 0.0358905 -0.024200706

layers.0.lin.weight f4 [32, 128]
00000000: ae1a 74bd e0f0 863d ff19 3f3c eaca 7bbe
00000010: edf3 08bd 4587 4cbd 6f36 babe bcaa cbbd
00000020: fc32 143e 100c 0a3d 9fb8 87bc 47f2 893c
00000030: c318 273e 518a b5be bf17 33be 6827 c33d
00000040: 72f6 91bc 1d0d abbe 799e 82bd 4f20 6b3e
00000050: 6455 403e 07e0 44be 9fb5 9c3e d31c cabd
00000060: 747b 7f3d 8a60 3b3d 922a 38be 17b7 6c3d
00000070: 88d3 bd3e c177 0dbe 4ae1 2fbe a188 5ebd
00000080: 26de 47bd 0d2b 8bbd c461 843e edf8 debe
00000090: 3c7d 143c 58bb dd3b 8788 3a3e 904e c5bd
000000a0: e76c de3c 051a 4f3c 60e0 483e 1a1d 213e
000000b0: e77e 343e 8121 40bd 3e84 af3c dc01 b23e
000000c0: 77b5 1dbe 7ad5 a2bd 5dd3 30be 125f 24bd
000000d0: 9ef7 5bbe 7137 2e3d d8cd 84be 7e8d 553e
000000e0: 82f4 12bd 8ceb 9e3d 94ca e6be 7859 913d
000000f0: 99db d43d 4e48 033e 0c3b da3d e44f a93d
00000100: 610e 5ebe d4d7 29bc 2409 053e 1abb 08be
00000110: b197 93bd c02a 013e 512d 903d 0fd9 6fbe
00000120: a681 7cbc d693 ebbc f14f ba3d 9d67 fc3b
00000130: 832a 64be 0389 4c3e 6296 f53d 761f fabe
00000140: 9454 43be 860b 4a3d b7e2 463d 51b6 24be
00000150: 6d65 053e a10c 80bc d393 893e 2d46 3f3e
00000160: 5ffc 743e 4a2c 75be 386d 0a3c 43c9 413e
00000170: a06c 2cbe f8d2 1f3e f22f 473e 768e 663d
00000180: 6bc9 053e 3b6f bebd 355a af3d 892b 163e
00000190: 6338 ca3c 9330 923e db2e 14be cfba 213e
000001a0: 76e0 e23e e5a0 ebbe f851 8ebe ad1b 163e
000001b0: d608 5fbc c8cc 7bbd 76ba 133e 249a 1f3e
000001c0: c8ea d33d 1a6e c6bd e61a 5bbe c7cb c43c
000001d0: 6bbd 84bd b6af 6b3c 347f 88be 5d45 8bbe
000001e0: cc78 893e dd58 f3bc 6776 46be 03a3 ddbe
000001f0: 659f bf3d f6cd a63e 27cc 843e f8fa e1be
00000200: c640 3ebd 2de6 b3be e25e 473e c096 2e3d
00000210: f2fd c93e bdae 3cbe 49bd 9bbd 8cc2 b3bd
00000220: c949 86bd c7bc dabd 5f8d ec3b eec5 373d
00000230: 7f8d e1bd 293c e4be b46c 2b3c 2d62 a3be
00000240: adb4 abbd f2a9 58bd 9020 9abd 74b0 88be
00000250: ed60 e33d 1eb1 b43e 4478 d5bd ff37 843c
00000260: 834a 39be 9955 6fbe 9f3b 563e 7246 ff3c
00000270: 19a6 0c3c 8b43 dbbd 0a06 f13d 1d85 15be
00000280: 9fb7 d73d ed3b a6bd bc78 e33d 2d0a dc3d
00000290: 8487 16be 0da7 243e 54a0 00bd 5111 bcbc
000002a0: a96c fb3e cd6e 923e 32f3 8c3e e7fc d3bd
000002b0: 83a8 5abe 4184 6fbd 975b 843e b040 c8bb
000002c0: dda1 d0bd aa50 093e aa60 fdbb ef5c 0cbe
000002d0: b904 55be b030 b2bc 5982 4b3c 72b5 213e
000002e0: a183 bcbd fffd abbe 0b67 343e caeb 363e
000002f0: bf34 11be f6f1 1a3e b9df 4a3d 69d4 55be
00000300: 9f4e c7bd 53fb 813e ee1f 453e 261e f0bb
00000310: 0c07 ca3d 4558 dabd 4e64 a4bd 8c4d e53d
00000320: 1e72 96be 24c6 f13d 2035 c83d 7c3f a63e
00000330: 722f e2bb 1641 593d 5d7d 863b 3fbd 913d
00000340: 5a81 003d 9dc4 72be 8e4e 043d fbc7 aebd
00000350: 4fe5 b4be df5f d8bd d091 b73e 25d6 b83c
00000360: f053 7d3e 94a1 9d3b ca00 e8bd fe01 64be
00000370: f28e 573c 314d 393e 04f1 823e 1769 553e
00000380: 0c0c 4bbe e33e db3d ffc6 6cbe 738f 153b
00000390: c560 7a3e 9e2f 7b3d 389f 6bbd 3d80 52be
000003a0: cfb7 bcbd 2858 a23d 33b5 bdbd bec4 a6be
000003b0: b0c5 fabd 27bf 353e efdc 6cbc 9ab1 1f3e
000003c0: 9762 b33d a5ae 9bbe 819d 4a3e d119 51be
000003d0: 0772 a83d d1a3 293e 39a2 d23d 8d84 19be
000003e0: ca1e b5ba d0ee 953d 51d9 213e 78c2 b5be
000003f0: 500d b6be 6237 a13d 2f0e 3c3e b9b8 1f3e
-0.059595756 0.06588912 0.011663913 -0.24589124 -0.03343575 -0.04993369 -0.36369655 -0.099446744
0.14472574 0.03370291 -0.016567526 0.01683916 0.1631804 -0.3545709 -0.17489527 0.095290005
-0.01781771 -0.33408442 -0.063778825 0.22961544 0.18782574 -0.19226085 0.30607316 -0.09868779
0.062373593 0.045746364 -0.1798499 0.057791796 0.37075448 -0.13815214 -0.17175785 -0.05432952
-0.04879584 -0.06795321 0.2585584 -0.4354929 0.009063061 0.006766718 0.18216144 -0.09634125
0.027151538 0.012640481 0.19616842 0.15733758 0.17626534 -0.04690695 0.021425363 0.34767044
-0.15401255 -0.07950874 -0.17268129 -0.04012973 -0.21481177 0.04253334 -0.25938296 0.20854756
-0.035877712 0.07759771 -0.4507643 0.07097143 0.103934474 0.12820551 0.106557935 0.08267191
-0.21685173 -0.010366399 0.12991768 -0.13352624 -0.07206667 0.12613964 0.070398934 -0.23422645
-0.01541177 -0.028757017 0.09097279 0.0077027814 -0.22281842 0.19974141 0.11991574 -0.48852128
-0.19075233 0.049327396 0.048556056 -0.16085173 0.13026972 -0.015631022 0.26870593 0.18679114
0.23924397 -0.23942676 0.008448891 0.18924432 -0.16838312 0.15607822 0.19451883 0.056288205
0.13065116 -0.09298559 0.085621275 0.14665045 0.02468509 0.28552684 -0.14470999 0.15793918
0.44311875 -0.4602119 -0.27796912 0.14658995 -0.0136129465 -0.06147459 0.14426598 0.15586144
0.10347515 -0.09688969 -0.2139698 0.02402295 -0.06481441 0.0143851545 -0.26659548 -0.27201357
0.26849973 -0.02970546 -0.19381104 -0.4328843 0.09356574 0.3257901 0.25937006 -0.44136786
-0.04644849 -0.35136548 0.19469789 0.042624235 0.39451557 -0.18426032 -0.07604463 -0.08777341
-0.06557042 -0.10680538 0.007219001 0.044866495 -0.11013316 -0.4457715 0.010462929 -0.3191084
-0.083840705 -0.052896447 -0.07525742 -0.26697123 0.111024715 0.3529138 -0.104233295 0.016139982
-0.1809483 -0.23372497 0.20921181 0.03116152 0.008584523 -0.10706242 0.1176873 -0.1460156
0.1053307 -0.08116899 0.11107013 0.107441284 -0.14700133 0.1607935 -0.0314029 -0.022957476
0.4910634 0.2860016 0.27529293 -0.10350972 -0.21353345 -0.058475737 0.25851128 -0.006111227
-0.10187123 0.13409677 -0.0077324705 -0.13707326 -0.20802583 -0.021751732 0.012421214 0.15791872
-0.09204794 -0.3359222 0.17617433 0.17863384 -0.14180277 0.15131363 0.049529765 -0.2088181
-0.09731793 0.25387058 0.19250461 -0.0073278127 0.09864625 -0.10661367 -0.08026944 0.111964315
-0.2938394 0.118053705 0.09775758 0.3247031 -0.0069026286 0.053040586 0.0041043 0.07116174
0.03137336 -0.23707815 0.032301478 -0.08534237 -0.353312 -0.10565161 0.35853434 0.02256305
0.24739051 0.0048105214 -0.113282755 -0.22266385 0.013156639 0.18095852 0.25574505 0.2084087
-0.19828814 0.10705354 -0.23122786 0.0022821098 0.24450977 0.06132471 -0.05752489 -0.20556732
-0.09214746 0.07926971 -0.09263077 -0.32571977 -0.12244737 0.177487 -0.014456972 0.15595093
0.08759039 -0.3040668 0.19786645 -0.20420004 0.08224874 0.16566397 0.10284848 -0.1499197
-0.001381838 0.073209405 0.15805556 -0.3549993 -0.35557032 0.078718916 0.18364786 0.1559781

layers.1.bias f4 [32]
00000000: 963e 87ba a9fa 95bc 809e 82b9 f5e6 daba
00000010: f3b2 ec3b fc8b 4c3c 5831 52bc a4fe 7ebb
00000020: af4e 53bb dbfc 22bc ead9 8abb 5f08 7f3b
00000030: add4 b13b c663 44bc 746c cbbb dfb1 a3ba
00000040: eda9 55bc 8476 1dbc 19eb e4bb c610 493c
00000050: 9808 39bb aa60 a4bc b716 83bc ba22 493a
00000060: 4112 203c eed0 98bb 8fdc 24bc 854c e4bb
00000070: 3e0a 5aba e3dc 2ab9 1c06 7f3a 6fa3 2bbb
-0.0010318335 -0.018308 -0.00024913624 -0.0016700911 0.007223481 0.012484547 -0.012829147 -0.0038909102
-0.0032242944 -0.009947981 -0.004237403 0.0038914902 0.0054269643 -0.0119866785 -0.006207997 -0.0012488923
-0.013041002 -0.009610776 -0.0069860336 0.0122720655 -0.0028233882 -0.020065624 -0.016002042 0.0007672716
0.009769977 -0.0046635782 -0.010062351 -0.0069671297 -0.0008317566 -0.0001629475 0.00097283884 -0.0026189943

layers.1.lin.weight f4 [32, 32]
00000000: 5848 f2be 02cd a8bd 2193 b03c f02b 9e3d
00000010: 4cd9 41be b55d bb3d 8c42 1a3e 4f5d 77be
00000020: 2b2d adbd ebd9 18bd 4c74 cbbd aed9 91bc
00000030: e8fb e1bd efd6 853e bbc1 803d fcf3 0ebe
00000040: b89a 98bd 5e3a 5bbd 5e76 54be 61ca 35bc
00000050: 788e 9cbe 6671 143e 5e86 b23e a5fc 013e
00000060: 0168 f9bd d1a3 fe3d 9117 993e 470b d63d
00000070: 7fe9 4cbd 27f0 913e 7265 dabe 4a4c c03c
00000080: ef92 283e a8df a2be 2cf1 2a3d 669b 78be
00000090: b954 b8bc 7da8 62bd ab9d 29bd 66fe d3be
000000a0: f6b6 86bd 7441 933d b5a4 94be 90bf cd3d
000000b0: 1d90 4bbe 76fd 5e3b 4c56 763d ecbc bdbe
000000c0: 995a 343e 776d 92be 47ab 1f3e d6c7 a43e
000000d0: 053d 173d 75e3 bdbb f367 563e 5e8f d23e
000000e0: 853a 6c3e 1554 363e 27d8 123e b3c5 bc3c
000000f0: c42b 5d3e d0b5 ed3d 25c3 a5be e541 1a3e
00000100: 51e6 b63d 8ecf 423e 8733 2d3e 4144 0a3e
00000110: 3c50 9ebe e329 efbd 6a28 82be 0ab5 cb3d
00000120: f2f0 0d3e 2125 5c3d d744 d73d 4c9c 903e
00000130: 6f97 17bc 7fb5 33bd c683 c43d 33dd 453e
00000140: a0af 3bbf 1770 87be 8f0a 95be 6aa0 a2be
00000150: 9ed6 17bd 378e f03c ca1c babd 5529 d83d
00000160: 2933 7c3e 81ce d4bd 4fe9 9abe 4d2c f33d
00000170: 51ad 9bbe 311e 03be 21cc ebbd 6992 b93d
00000180: f46d b23e c37a 07be de13 cabb c3b9 403e
00000190: 782c 9c3e 9678 3b3e 4688 dd3d b5ad e7bd
000001a0: ac9b 453d 7104 0b3e 1c56 83be 2574 273d
000001b0: 6735 983e 0684 0ebe 5902 bdbc 2cde 6abd
000001c0: 32de cb3d 80dd 4d3e 840d 88be 1ec6 a7bd
000001d0: 073c 7c3d 9083 f8be f584 22bd 30ac 273e
000001e0: ad65 f53d c184 b2be 0e21 fabd ca8e 033c
000001f0: 0649 bcbe 8372 1bbd ac36 1a3e 2368 27bf
00000200: f210 02bf b0be c5be 178c f43d 82c8 4e3e
00000210: adba 253e ee01 9b3d 2c2e f0be 3a89 fe3d
00000220: 82fd 9a3e 535f ce3c b63e e7bd 3e1e 96be
00000230: 96e8 073e 3e68 d23c 74b0 d3be 309d 16be
00000240: f4db bcbd a05f e5bc 2f7b e43d 9137 953e
00000250: 0912 e23c dc65 0dbe bd39 99bc 30be 36be
00000260: 2ca3 cfbd 7bbf 4abe 742c 91be af03 d13e
00000270: f28c e23d 801d 563e 55f3 ae3e e6fb 36be
00000280: 9973 a4be 00d1 95bd d3a7 373e 086f aabd
00000290: e386 6bbd 99fe 9b3d c9de 0f3e e292 f0be
000002a0: f45e fcbd bcb8 a0be 8bd7 c1be 1dc5 b03d
000002b0: fa69 2fbd 1468 933e 21cf 433e b891 3abe
000002c0: 4f36 05bf ed1a b3bd 2609 aebc 54a7 d5be
000002d0: bd3a adbe 3730 74be 954c 1f3e 4a55 743d
000002e0: 46f4 3abd 9db3 ffbe 16ac 0bbf a01d 8dbd
000002f0: cf05 3dbe ee72 05be 2cf6 96be c910 ab3d
00000300: 6409 0f3d 3e44 0cbe 770c 27be 7650 5d3d
00000310: d868 1a3e 7a06 393d a756 a2be ac09 15bd
00000320: 3082 d6bd 173e 3d3e 3bb8 dfbd 90ae a9bd
00000330: 61af 953c ad9b 043f 71d0 0ebe 9772 62be
00000340: d3b4 28bd 8cf3 3bbe 280e 87bd 2cd9 ab3b
00000350: b7c6 2a3e b41d 79bd 5cd1 da3d e116 a9bc
00000360: 5402 f0b9 d347 17be 8d88 debe 97ce fe3b
00000370: 2c3a e2be a864 43be 65d2 913e c84f 253a
00000380: ca07 37be eae1 9cbd 107e a2be 7bb9 d43e
00000390: 461b 3a3e 5211 6fbe 5e61 96be 8c31 823d
000003a0: 9f76 cebe cb93 26be 9c3a c9bd 52ed b4bd
000003b0: f68b 023d 5f44 153e a506 05be c1d7 6a3e
000003c0: 55df cc3d 2af4 59be 5fe3 67be 9719 15bd
000003d0: e610 59be 708e 8ebe 8397 97bd 3bc9 0cbc
000003e0: f2a8 ea3d 6209 2ebe f03b a53d 9824 f73d
000003f0: b0ed 0dbe 7291 5c3e a848 1d3d 30f8 fc3d
-0.4732082 -0.08242227 0.021554532 0.07723224 -0.18930548 0.091487326 0.15064448 -0.24156688
-0.08455881 -0.037317198 -0.09934291 -0.017803993 -0.110343754 0.26140544 0.06286951 -0.1396026
-0.07451385 -0.05352246 -0.20748278 -0.011095614 -0.30577445 0.14496383 0.3486814 0.12694032
-0.1217804 0.12433589 0.29900792 0.1045137 -0.050027367 0.28503534 -0.42655522 0.023473877
0.164623 -0.3181126 0.041733906 -0.2427803 -0.022501336 -0.055336464 -0.04141013 -0.41405028
-0.06577866 0.071902186 -0.29031911 0.10046303 -0.19879194 0.0034025586 0.060140893 -0.37058198
0.17612685 -0.2859914 0.15592681 0.32183713 0.036923427 -0.0057949373 0.20938091 0.41125005
0.23069198 0.17805512 0.14340268 0.02304349 0.21598727 0.116069436 -0.32375446 0.150642
0.08930648 0.19024488 0.16914187 0.135026 -0.3092059 -0.11677911 -0.25421458 0.0994664
0.13861445 0.053746346 0.10511177 0.28244245 -0.009252413 -0.04387426 0.09595446 0.19322662
-0.7331486 -0.26452705 -0.29109618 -0.3176301 -0.03706991 0.029364688 -0.09087522 0.105547585
0.24628891 -0.1039095 -0.30256125 0.11873684 -0.30405667 -0.12804486 -0.11513544 0.09061129
0.34849513 -0.13230424 -0.006166919 0.18820862 0.30502677 0.18307719 0.10817008 -0.11312429
0.048244163 0.13575913 -0.25651634 0.04088225 0.29728243 -0.1391755 -0.023072409 -0.057340786
0.0995449 0.20104027 -0.26572812 -0.08192085 0.061580684 -0.48537874 -0.03967758 0.16374278
0.11982284 -0.34866908 -0.12213336 0.008029649 -0.36774462 -0.037951004 0.15059918 -0.65393275
-0.50807106 -0.38622046 0.119407825 0.20193675 0.16184492 0.075687274 -0.46910226 0.12428518
0.30271536 0.025191939 -0.11291258 -0.29319948 0.13272318 0.025684472 -0.4134556 -0.147084
-0.0922164 -0.0279997 0.11156308 0.29143956 0.02759649 -0.13808388 -0.01870429 -0.17845988
-0.101385444 -0.19799607 -0.28354228 0.40823123 0.110620394 0.20909691 0.34170023 -0.17869529
-0.32119444 -0.07315254 0.17935114 -0.08321959 -0.057501685 0.0761692 0.1404983 -0.46987063
-0.12322798 -0.3139094 -0.3785976 0.086313464 -0.042825677 0.28790343 0.19121982 -0.1821965
-0.52035993 -0.0874537 -0.021244597 -0.41729224 -0.33833876 -0.23846518 0.15556557 0.05965165
-0.045643114 -0.49941722 -0.5455946 -0.06890416 -0.18459247 -0.13032123 -0.2948469 0.08352811
0.034921065 -0.13697907 -0.16313349 0.05403181 0.15079057 0.045172192 -0.31706735 -0.036386177
-0.1047405 0.18480717 -0.10923811 -0.08285248 0.018272104 0.5180004 -0.13946702 -0.22114025
-0.041188072 -0.18354625 -0.06594497 0.0052443948 0.16677366 -0.060819343 0.106844634 -0.020640792
-0.00045778102 -0.14773493 -0.43463555 0.0077760923 -0.44185007 -0.19081366 0.2848083 0.0006306139
-0.17874065 -0.07660277 -0.31736803 0.4154776 0.18174466 -0.23346451 -0.2937116 0.063571066
-0.40324876 -0.16267316 -0.09825632 -0.08834328 0.03187176 0.14576863 -0.12990816 0.22933866
0.10003535 -0.21284547 -0.22645329 -0.036401358 -0.21197852 -0.27843046 -0.074019454 -0.008592899
0.11458005 -0.16995767 0.08068073 0.120675266 -0.13860202 0.21539858 0.03839937 0.123520255

layers.2.bias f4 [32]
00000000: bb3b 92bb 62b8 19bc af96 e6bb d480 24bc
00000010: 01ba 5dba 7bf6 103c 7e1a eb3b b410 a13b
00000020: e0c9 83bc 5626 8c39 cf52 053c 36d0 ec3b
00000030: 2ed0 0539 c8e6 80bb 7349 f7bb b3bb 5fbc
00000040: 94a5 d13b e6d7 81bc 2537 683c 47cc b8b7
00000050: 3d5f f0ba 7224 e5b9 9e13 553c dc11 26bc
00000060: 4049 0a3b d836 563c b22f 103b f19b 60bc
00000070: 194d 62bb 4060 cd39 5e07 8a3b 1bd7 043a
-0.004462687 -0.009382339 -0.007037006 -0.010040481 -0.00084581977 0.008847828 0.007174789 0.0049153212
-0.016087472 0.00026731443 0.008137419 0.007226969 0.00012761421 -0.0039337613 -0.0075465976 -0.013655591
0.0063979123 -0.015850019 0.014173304 -2.2029633e-05 -0.001833893 -0.00043705438 0.013005165 -0.010136094
0.002110079 0.013074599 0.0022001085 -0.013709054 -0.0034530817 0.0003917236 0.004212304 0.00050674536

layers.2.lin.weight f4 [32, 32]
00000000: 68e1 06be 0faf 98be c5be acbd 54c9 973e
00000010: a86d 003d 2a9d b73e 3c81 80bd 6410 64be
00000020: c81b c33e b19d 44bd 26a6 18bf 1f4d ffbb
00000030: a000 62be 6c60 dc3c 3df7 133d 9824 fc3d
00000040: f8c7 343e 2bc4 9b3e 3cb4 b4bd 747a cbbe
00000050: bd89 32be f836 033e 1da4 8abd 0fd9 64be
00000060: 1b9e f7bd d21e 793e 315b 1ebe 7e78 e0bd
00000070: 3a00 fcbe 5fc9 2bbe 620f 28be 9605 60bc
00000080: dd4f d13d cf54 c93e 2512 b0bd bdac f13d
00000090: 3dd1 523d 418f 8d3e 830a 3abd 601d 543a
000000a0: 8157 8fbd 7c71 ebbd 6941 59be 6f8d 353e
000000b0: 4e4b b2be 08a2 50be c2df 783e a729 98be
000000c0: 289d acbd e204 ddbd 2dda cdbd 76c0 2fbe
000000d0: 1ce9 8d3e e4c4 bcbe 16c8 993e 54f3 c33d
000000e0: 0380 333d 9643 473e ea14 a53d 875a 97be
000000f0: 288e 0abd 5790 eebd 6267 bebe d476 b53d
00000100: b692 adbe cf02 99be 4909 9b3e 5bf6 fcbe
00000110: 56f3 9cbe e9ef bbbd b538 95bd e22f c8be
00000120: 8a9e b1be 4943 86be 0c8c 14be 67c7 20bd
00000130: 64fc 773d bef5 4abd c6fa fdbd c35d cd3d
00000140: b32b 863d c848 c0be f3e5 67bb 7751 35bd
00000150: 631d a43e 36f9 b5bc 7ab8 083f f347 58be
00000160: 1bbd 24be 7add 963e 1418 cbbe f174 d2bd
00000170: 6ab2 3d3e 9c64 563d 499c 75bd 4626 123e
00000180: 326c 943e d32d b83d 67c1 22be 10c7 36bd
00000190: 6dc4 97bd 8c0a 7c3e d10a 0b3f 9854 7d3e
000001a0: 1874 1bbe 4757 00bd 63e9 79be bee3 cbbd
000001b0: 8e14 ee3d 8318 9bbd 1b29 efbe be5c 353d
000001c0: 5fcd 863e ef89 303e f755 fc3d bd35 973c
000001d0: 7e5d 10bf 4edb e73d 87b6 90be 397c 893d
000001e0: 1af1 ad3e 80ae 91bc 359c 29be ee34 bebd
000001f0: 088d 983e 9f3c 4e3d daea 37bd acd8 35be
00000200: 364d 86bd 698a 943c 4321 00be dc40 aabd
00000210: 570b f7be c19a c2be 3668 663d 2985 c83e
00000220: 4168 32be 9a66 debe 2e3a 0d3e cef3 c2bd
00000230: ddcf c33c 99a8 3fbe 1cea c4be 7049 bc3d
00000240: e324 353d d306 af3d 3d0d beba 768b 70be
00000250: 1efd 883c 8993 5cbe 7c72 58be 2189 193e
00000260: 380f e5bb e6c4 e63e 9f1d 4abe 2573 42be
00000270: 1894 3dbe 6e2c a63e 59a9 50be 162e 583d
00000280: 97bd eabd 5d6f 883e deca 7ebd 5246 aebe
00000290: 897b 983e 9fee 233d c556 5d3d ca42 89be
000002a0: 9c9e c0be 96af 4fbe a032 1e3e d1da f13c
000002b0: e81f 923e c843 a5be b5ab ad3c 0487 3abe
000002c0: a71a febd 0535 8abe fa1d 0c3e bcf0 86be
000002d0: 7c7d 843d d698 ca3e a52c 83be dfc7 71be
000002e0: 8853 563e 2111 183e af61 953e e62c 20bc
000002f0: bf21 913e 6774 4b3e ae7d 903d ea47 ed3d
00000300: 6036 933e 831b fabd c7b2 b4bb 99bd cc3d
00000310: 20f9 bb3d 9a0d 05bf c5af 773e 2135 64bd
00000320: eced e8be 0edc 87bd 027c 07bf 56cf 463e
00000330: ce9e 99bd 616e b63d 2a42 e3be 41ee 4f3e
00000340: bc05 afbe a1c6 43bd 6f9e 143e 4974 943e
00000350: e6b8 88bd 5ffa 453c 86d4 923b 5812 8d3e
00000360: f382 95be 83fb 51bc be2f 91be 34fc 7d3d
00000370: 3874 893d cce8 b93d 79bc 8b3c 9104 c8be
00000380: 8c8f 99be bbd9 71be 57a0 01be 9529 48bd
00000390: 6519 f43d ec6e 29be 0b1f 7a3e 117c 93be
000003a0: 5807 ddbe 930e 5cbe 1a59 3b3d 4c74 5dbe
000003b0: 1f54 1fbe 4f01 5cbc d723 b8be 3676 2fbe
000003c0: e4ce 8a3e c3d5 ad3b f614 693e e0f7 27be
000003d0: b8b7 febd 7d33 92be ed45 543e 69da d0be
000003e0: baf4 a63d c0dc ef3e 2ed4 333e 8909 0a3f
000003f0: ecd3 033e b16c 9e3d d581 0dbe b110 963d
-0.13171923 -0.2982106 -0.08434824 0.2964579 0.031354576 0.35862094 -0.062746495 -0.22271878
0.38107133 -0.04800195 -0.5962852 -0.007791176 -0.22070551 0.026901446 0.036124457 0.12311667
0.17654407 0.30423102 -0.088234395 -0.39741862 -0.17435355 0.12813938 -0.067695834 -0.22348426
-0.12090703 0.24328163 -0.15464474 -0.10960482 -0.49218923 -0.16776036 -0.16412118 -0.013673207
0.10220311 0.39322516 -0.08597211 0.11800525 0.051469076 0.27648357 -0.04542018 0.00080915354
-0.06999112 -0.11496255 -0.21216358 0.17729734 -0.34823078 -0.2037431 0.24304107 -0.29719278
-0.08428413 -0.10791947 -0.10051379 -0.17163262 0.2771691 -0.36868966 0.30035466 0.095678955
0.043823253 0.19459376 0.0806063 -0.29561254 -0.033826977 -0.116486244 -0.3718825 0.08860555
-0.33900994 -0.29884955 0.30280522 -0.49406704 -0.306544 -0.091766186 -0.07286207 -0.39099032
-0.34691268 -0.2622321 -0.14506549 -0.039252665 0.060543433 -0.049550764 -0.12401347 0.10027649
0.06551304 -0.37555528 -0.0035384863 -0.044267144 0.3205367 -0.02221356 0.5340649 -0.21121196
-0.16087763 0.29465848 -0.39666808 -0.10276211 0.18525091 0.052342042 -0.0599635 0.14272413
0.28988796 0.08993115 -0.1589409 -0.044623435 -0.07410512 0.24613398 0.5431338 0.24739301
-0.15181005 -0.031333234 -0.24405436 -0.09955548 0.11625014 -0.075730346 -0.46711048 0.0442779
0.2632856 0.17240117 0.12321084 0.018458242 -0.5639266 0.11321126 -0.28264257 0.06713147
0.33973008 -0.017783403 -0.16563495 -0.09287439 0.29795098 0.05035078 -0.044901706 -0.17758435
-0.065576956 0.018132405 -0.12512688 -0.08313152 -0.4825084 -0.38008693 0.056251727 0.39164093
-0.17422582 -0.43437654 0.13791725 -0.09519158 0.023902828 -0.18716659 -0.3845986 0.091936946
0.04422463 0.085462235 -0.0014499795 -0.234907 0.016722258 -0.21540655 -0.21137422 0.14993717
-0.0069903396 0.45072097 -0.19737862 -0.18989237 -0.18513525 0.32455772 -0.20377101 0.052778326
-0.11461943 0.26647463 -0.062205188 -0.34038025 0.2978175 0.04002249 0.054037828 -0.2680877
-0.3762101 -0.20281824 0.15449 0.029523285 0.28539968 -0.32278275 0.02120004 -0.18215567
-0.12407427 -0.26993576 0.1368331 -0.2635554 0.06469247 0.3956973 -0.2562 -0.23611401
0.20930302 0.14850284 0.2917609 -0.00977633 0.2834606 0.19868623 0.070552215 0.11585982
0.28752422 -0.12212279 -0.005514476 0.099971004 0.09178376 -0.5197388 0.24188145 -0.05571473
-0.4549402 -0.06633769 -0.52923596 0.1941503 -0.07500993 0.08907772 -0.44386417 0.2030573
-0.34184062 -0.04779685 0.14513563 0.2899497 -0.066758916 0.012083619 0.004480901 0.27553058
-0.2920147 -0.012816313 -0.28356737 0.062008098 0.0671162 0.090776056 0.017057644 -0.39065984
-0.2999233 -0.23618214 -0.12658821 -0.04886778 0.11918906 -0.1654622 0.24425904 -0.28805593
-0.43169665 -0.21489935 0.04573927 -0.21626395 -0.15559433 -0.013428046 -0.35964844 -0.17134938
0.2711097 0.0053050234 0.22761902 -0.1640315 -0.12437385 -0.28554907 0.207298 -0.40791634
0.08152147 0.46848106 0.17561409 0.539208 0.1287381 0.07735575 -0.13819058 0.073274024

layers.3.bias f4 [32]
00000000: 8603 283b 74f5 ccbb f5bc 93bb 9089 44bb
00000010: 1be7 7bbc ffdc d8bb da22 edbc cbae 5b3c
00000020: 7268 9cbc 393a 4b3c 31ff a63c 0c83 58bc
00000030: e808 663c 4f75 033c 6ac8 143c 10a5 85bb
00000040: 71b6 f33b 2a53 2a3c 404e c2bc 0a7a 093b
00000050: ecbe d3ba eecf 143c a2d0 0abc c346 02bc
00000060: ca8d 073c d437 843c 83c5 db3a 8d0d fbbb
00000070: df7c 7c3c a326 683b 6e98 32bb 4ccf c43b
0.0025636866 -0.006254846 -0.0045086094 -0.002998922 -0.015374924 -0.0066181417 -0.028947283 0.013408373
-0.019092772 0.012404018 0.020385357 -0.013214838 0.014040209 0.008023574 0.009080986 -0.004078515
0.00743752 0.010395804 -0.023718953 0.0020977282 -0.0016154922 0.009082777 -0.0084725935 -0.007951441
0.008273551 0.016139902 0.0016767237 -0.0076615275 0.015410631 0.003542342 -0.00272515 0.006006157

layers.3.lin.weight f4 [32, 32]
00000000: bed3 7bbe 2587 d3be 0dd8 443f 1557 c8be
00000010: 7784 8e3e 94ea 833d 7c7f 1abd 11ee bdbd
00000020: 962d 6e3c 4fcb 9dbd e89a 9e3c 2c8e 6fbe
00000030: bc7f 143f 7f70 04bd a754 82bd 43da 33be
00000040: 6227 7c3e 7471 3dbc ee54 06be 7c8f 9ebe
00000050: 71b9 bf3d ab60 49be ed33 7e3e 383f 633e
00000060: eca3 22bd fa25 9a3d 3626 943e 9c85 1abd
00000070: 6ea2 a8be 09ac c73d 8c7e 0fbe a8ab 00be
00000080: 013c 09be e7c9 cfbe 0c99 063f ae09 9e3d
00000090: cd3d 043f 9d29 00bd 9777 333d faec 7d3e
000000a0: 18ae 223e bcb6 9d3e 3ae9 10be ecb3 93be
000000b0: 35de 443c d993 09bb e7cd 9abe 289c c9bd
000000c0: ec26 76bd 31b5 8d3e 5d7d 1abd eb9f 5ebe
000000d0: 5d59 073e de6a 873e 2f90 8dbd f639 f33d
000000e0: a4e4 bcbd a6d9 ccbe 56eb 543e 54a0 ca3c
000000f0: db3e edbd 2aae 00bd a770 5ebe 626b 43be
00000100: 145f 95be e04c fbbd 75c8 9abc 48ea 8e3d
00000110: 6759 ab3e 9e23 1e3e 4fe9 a53e b325 d13e
00000120: 0308 45be 536f 59bd a4f1 7d3e b1cf 913c
00000130: 2538 1ebe 1a29 34be 42b2 e23d 2075 41be
00000140: b7e5 813e 7245 733e 65ab 9bbe 984d 2fbe
00000150: a19a d9bb 3e2d 1a3e a228 2bbf a4e0 2b3e
00000160: 73fd 42be ef1c df3d 5799 773d e26e 023c
00000170: f8f8 3d3e dca3 31be 045f d3bd 727a dd3e
00000180: 9e19 2a3e f18c 97be 49d9 1e3e 969f 8b3e
00000190: 8630 f3bd a9ae b33e fe53 6ebe e242 373e
000001a0: 0bac 51be 84c4 3dbe e467 34be 3725 99be
000001b0: 5c4c 283e 4023 25be ea70 4abe add6 87bd
000001c0: 65fd e13d 1f68 3a3e ed73 4a3e 6391 903d
000001d0: 68f9 a23e ac9a 133e ad29 11bc 7f7c fd3d
000001e0: 3945 37be 7490 79be 34de 4abe 78e8 333e
000001f0: 64c6 3f3e a1a4 7b3e e69d d43e 6159 9b3d
00000200: 53d1 163e 7f9f 58be 556a 533e a1ac bcbd
00000210: b201 58be ed8e 9d3e 73fe 8cbe b22b 14be
00000220: f45f 683b 71bb b0be 4de0 cebe 3ac8 0e3c
00000230: 59f2 bfbd bc5f 05be 0c47 a83e 12ab 99bd
00000240: faf2 d53e ac32 683e b590 86bd 4779 663d
00000250: 96af fb3d abd5 b03d 3cad 183d 0e7d 283e
00000260: b918 c0bd ca5f 933e f75c 0abe ccb0 a3be
00000270: f71d 95be 140f 96be 0099 873d 2914 023f
00000280: 46c3 5a3d fd55 8dbd a2b4 84be 8fe4 d2bd
00000290: 7ce3 9fbe 0def 66be 30d6 a5bd 5f58 37be
000002a0: 95ee da3e 9592 aa3d c49a 12bb 519c e53a
000002b0: 8842 963e cb1f c13d 91bf 2a3e a97f 7abd
000002c0: 7fc3 5dbe 9396 413e d884 c0bc 1cb4 39be
000002d0: e5ac 71be 718e 873e 4817 0bbd ad34 0ebe
000002e0: e369 12bf 46a2 a6bd e7b6 35be ddcf 893c
000002f0: cabe f23d 2915 6a3e 4e65 a13e f5f1 58be
00000300: abd7 083f 1163 8fbe 3256 8b3d 9267 60bd
00000310: cf30 803d 7dad 893e 404b a83e 145d c2be
00000320: 24a6 bf3c 9c36 0cbd 83eb 793d 9769 423e
00000330: 6fe3 86be df7f 70be e8f2 623e e980 da3d
00000340: b32b 163d aee7 a3be 8ed1 8c3e 18a4 353e
00000350: 46aa 9b3e ca34 233e df54 2b3e 3b63 82be
00000360: e786 0abd 41f6 c8be 3a69 643e cd5e 60be
00000370: ca17 72bd 1004 66be 4ba4 c5be c6b7 3fbe
00000380: 59e2 d03e bc9d 14be 05f1 f5bd abf9 073e
00000390: 03ba 19bd 35cd 613e 9fad d13d d918 17be
000003a0: b925 4abe 110c 433e f9b3 223d 9206 95bd
000003b0: 8e2b de3d 6324 a53d 8518 56bd 369b eb3e
000003c0: 0569 873c 6c67 223d 97e2 d0be df6d 20be
000003d0: 8ba5 d2bc 40fa 103d c6a8 d23c 681a 063f
000003e0: 0248 53be 9073 24bd ca05 053d d6e2 abbd
000003f0: 4edd 2cbe e049 3d3e 7c2a b0be 9822 5d3e
-0.24592492 -0.41314045 0.7689217 -0.39128938 0.27835438 0.064412266 -0.037719235 -0.09273923
0.014537236 -0.07704794 0.019360974 -0.23394078 0.5800741 -0.032333847 -0.063638024 -0.17563729
0.24624398 -0.011562694 -0.13118336 -0.30968845 0.09361542 -0.19665782 0.24824496 0.22192085
-0.03970711 0.07526775 0.28935403 -0.037725076 -0.32936424 0.0974961 -0.14013118 -0.12565482
-0.13401796 -0.40583727 0.5257728 0.0771669 0.516568 -0.031289686 0.04381522 0.2479743
0.15886724 0.30803478 -0.14151469 -0.28848207 0.012015869 -0.0020992665 -0.30235216 -0.098442376
-0.060095713 0.276773 -0.037717212 -0.21740691 0.13217683 0.2644872 -0.069122665 0.118762895
-0.09223297 -0.40009803 0.20792899 0.024734654 -0.11584254 -0.031416096 -0.21722661 -0.19083932
-0.291741 -0.12270522 -0.018894413 0.06978279 0.33466646 0.15443274 0.32404563 0.40849075
-0.19241337 -0.053084683 0.2479921 0.01779923 -0.15451105 -0.17593804 0.11069156 -0.18892336
0.2537057 0.2375696 -0.304042 -0.17119443 -0.0066407477 0.15056321 -0.66858876 0.16784912
-0.19041996 0.108941905 0.06044897 0.007961007 0.18552005 -0.17347664 -0.10320857 0.4325748
0.16611335 -0.29599717 0.15512575 0.27270192 -0.118744895 0.35094193 -0.23274228 0.17896608
-0.20475785 -0.18531996 -0.17617756 -0.29911205 0.16435379 -0.16126728 -0.19769636 -0.06632743
0.11034659 0.18203782 0.19770785 0.0705898 0.31830907 0.14414471 -0.008860034 0.12377261
-0.178975 -0.2437151 -0.19811326 0.17569149 0.18728024 0.2457452 0.41526717 0.07585407
0.14728288 -0.21154593 0.20646031 -0.09212614 -0.21094397 0.30773106 -0.2753788 -0.14469793
0.0035457583 -0.34518006 -0.40405503 0.00871473 -0.09372396 -0.13024801 0.32866704 -0.07503332
0.4178694 0.2267558 -0.065705694 0.056268003 0.1228935 0.08634504 0.037274584 0.16453955
-0.093797155 0.2878402 -0.13512026 -0.31970823 -0.29124424 -0.2930838 0.06620979 0.5081201
0.053408884 -0.069011666 -0.25919062 -0.102975 -0.31228244 -0.22552128 -0.08097494 -0.17904805
0.4276015 0.083287396 -0.002237008 0.0017517899 0.29347634 0.09429892 0.1667464 -0.061156902
-0.21656607 0.18905096 -0.023500845 -0.18135113 -0.2360111 0.26475862 -0.03395775 -0.13887282
-0.5719282 -0.0813642 -0.17745553 0.01682275 0.118527964 0.22859634 0.31522602 -0.2118605
0.53454083 -0.2800527 0.0680355 -0.054786272 0.062593095 0.26890174 0.3286991 -0.37961638
0.023394652 -0.034231767 0.061015617 0.18985592 -0.26345393 -0.23486279 0.22162974 0.10669119
0.03666277 -0.32012695 0.27503628 0.17738378 0.30403346 0.15938106 0.16731595 -0.25466332
-0.03382006 -0.39250377 0.22305766 -0.21911164 -0.05910472 -0.22462487 -0.38601908 -0.18722448
0.4079769 -0.14513296 -0.120088615 0.13278835 -0.03753091 0.22050937 0.10238194 -0.14755572
-0.19740953 0.19047572 0.039722417 -0.07276644 0.10848151 0.08063581 -0.052269477 0.46016854
0.01652957 0.039649412 -0.40797874 -0.15666912 -0.025713703 0.035394907 0.025715243 0.5238404
-0.20632938 -0.04014927 0.032476224 -0.08392875 -0.16881296 0.18485212 -0.34407413 0.21595228

layers.4.bias f4 [40]
00000000: a380 e4bd 6cfb 3bbe a303 67bd 6c37 93be
00000010: 645a 91be f3f9 ce3d 8d68 5dbe c6e7 a0bc
00000020: 70f0 d73d a3a0 cc3c 731b 063e 833d a7bd
00000030: b645 78be fc69 453d f778 83bd 7511 3fbe
00000040: f02d 17bd 34b1 70bd b721 26be c797 d3bd
00000050: e244 97bd 331a f7bd 70e8 00bf a964 babe
00000060: bf3e 073e 325c 48be cb8d 883c 9d2e 98bd
00000070: 71e9 5a3e 0603 40be dede 94be b794 a4bd
00000080: 70ea 01be 9835 f3bd 5710 143e 9742 14be
00000090: 64f9 87be f8a0 82be d27e 5dbe ad2e 17be
-0.11157348 -0.18357629 -0.056399953 -0.2875322 -0.28389275 0.10106268 -0.21621914 -0.019641768
0.10543907 0.024978941 0.13096409 -0.08166029 -0.24245343 0.048196778 -0.064195566 -0.18659003
-0.036909044 -0.058762744 -0.16223799 -0.103316836 -0.07386185 -0.12065544 -0.5035467 -0.36404923
0.1320753 -0.1956642 0.016669175 -0.07430766 0.21378113 -0.18751153 -0.29076284 -0.080361776
-0.12687087 -0.118754566 0.14459358 -0.14478527 -0.26557457 -0.25513434 -0.2163041 -0.14763899

layers.4.lin.weight f4 [40, 32]
00000000: 8fba 01bf 45e9 3dbe ad0b 8abe c253 f9bd
00000010: 8bb4 013f d873 bbbe 30dd e4bd 8621 cb3d
00000020: bca4 bfbe 2953 cd3d 3244 173e 049c c9be
00000030: a99c acbe 150f 063f 7593 9abe edfd 7dbe
00000040: 3632 53be 1760 c1bd 8b13 273e 99be 3d3e
00000050: f911 993d 3e5e e5bc a821 15be c316 09be
00000060: b968 40be 08da eabe 4645 453e d58a 8bbe
00000070: af3c e2be 3f78 0b3f b62e dc3d 7150 01bf
00000080: c22f 4abd 7c05 c53e 7ce5 c2be 6f55 4fbe
00000090: c425 bcbe 5750 91be 1abe ecbe ce0f 21bf
000000a0: fa7a 45be 2d70 7bbd 65f4 ddbe 607f db3e
000000b0: bd99 d83e 670e e3be d0a4 34be 11d4 c03e
000000c0: 8988 283e 2bef 7ebe fe2b 00bf fd5f c23c
000000d0: ccc7 76be 23e3 dfbe cda9 b73e 989a 67be
000000e0: a357 b73e 30fc 14bf 6a25 843d 5001 b53e
000000f0: aa29 8bbe a0e0 f93e 3969 42bf aa00 8fbe
00000100: 977c 1abf 1f2c 84be 9224 ea3e 989b 2bbe
00000110: 313c debe 1ec7 db3d f529 ae3e 0d54 6a3e
00000120: cb0d 03bf a207 2d3f 4884 14be 4923 32be
00000130: de22 58be e067 9fbe d2c1 083f cb15 dabd
00000140: 071a c4be b007 62be f94e 223e 50ed 99bd
00000150: f82c f6bd 6829 f93e 3de3 79be 72b3 88be
00000160: b8d2 e7bd 4f4d a43e 377a e93e b182 c6be
00000170: e9bb 4cbc 1d74 9dbe fd5a bbbc 8853 903c
00000180: e529 d33c 15ab 84be f258 48be ee55 8dbd
00000190: 570a cebe c995 4b3f d704 05bf ba81 39be
000001a0: e32f fc3e efb1 5abf c353 b5be 61fa e3be
000001b0: 3431 2dbe c2e0 f8be 8512 2fbf 0e22 e1bc
000001c0: 3531 ba3e 1486 cabe cd4b 463d b938 14bf
000001d0: 2c7e c6be 65f0 cbbe eefa 2fbe d8d2 1abe
000001e0: 1fc1 5e3e e9f5 73bd 5f08 66bd 383e 6c3e
000001f0: f31d f1bd 4a29 88be 7f69 133e 3382 2e3e
00000200: a8cf 1ebf bf03 933e 3bef 2ebc eb1b 833e
00000210: d7f2 8f3c bad2 a4bd 172c 6c3d cade 8d3e
00000220: 452c eabe a3f3 62be 8e9b debd 2df3 073f
00000230: 1e6a 2a3f b371 88be 18a8 8a3e 91d2 253f
00000240: 0640 d13e 5098 55be 1f16 11bf 9822 3fbf
00000250: d5f5 20bf 02e3 42be 8fcc b4bd 129e b13e
00000260: e151 b33e db06 cb3e 5c25 debc 3275 ab3a
00000270: d1ac b8be e6d8 29be 982b 14be a4d8 ce3c
00000280: a327 153d 6cc2 b63e 743d dd3e 32fb db3e
00000290: b71f 84be bca9 3d3e 11da 79be 2bfc 64bd
000002a0: 1b40 06bf 6555 383b ab0f df3d 5b47 dd3e
000002b0: e6c3 efbe e7dc 773e 52ae c9be 588c a83e
000002c0: 9c3b abbe 4a24 ba3d cde6 39bf 0f61 dfbd
000002d0: 1934 7bbd ae36 51be 67f9 703e ef4e 09bf
000002e0: 46ac 8abe 353e 89be 536e b9be b724 63be
000002f0: 76d9 033f de0a efbd 3ac2 6c3e 9bbf 1c3f
00000300: ea63 47bd cb9c 2abe b1ce 8dbe ec2a cdbe
00000310: f81b edbe b884 d93e e2d6 29bf a829 c9be
00000320: 6cbc 2d3f b7c0 05bf 44e7 ccbe 445a 34bf
00000330: f64f 83be c549 81bd 1c48 3dbf 42e6 93be
00000340: f501 313f d729 07bf d1e6 04bf ddc4 96be
00000350: 12fe 53be 0cb0 e2be 0778 80be 3912 d9bd
00000360: a6e0 ec3d 9bd8 a8be a462 423f b20a ba3e
00000370: 5add 38be 89dd d53d a3e4 cf3e cd86 b0be
00000380: 450a a6bc c72f b4be 72d0 16be d6ca d33d
00000390: 3a79 3f3e 42db d03e 1e7c 8ebe 58b2 5d3d
000003a0: a0e5 89be 6ce9 a63e 4797 8abe f22f b73e
000003b0: 0284 83bd 8dc1 1abe 87b2 25be 2dd8 a1be
000003c0: 8adb a8be cb51 9ebe ea9d 893d 44fe a43e
000003d0: db9b c1bc bf1e bfbd cdd6 f5bd e0ab 12bf
000003e0: 1cbc 38bf 6b8c b7be 92e9 fcbd f820 73bd
000003f0: f2e9 70bc 8c59 0d3f d3df 353e 673d 86be
-0.5067529 -0.18546017 -0.26962033 -0.12174179 0.5066611 -0.3661182 -0.11175001 0.099185035
-0.3743037 0.10025627 0.14772108 -0.39376843 -0.33713272 0.52366763 -0.30190626 -0.24803896
-0.20624623 -0.09442156 0.16316049 0.18529738 0.07474131 -0.02799904 -0.1456362 -0.13387589
-0.18789949 -0.4586947 0.19264707 -0.27254358 -0.44186923 0.54480356 0.10751097 -0.5051337
-0.04936195 0.38480747 -0.38065708 -0.20247434 -0.36747563 -0.28381607 -0.46238786 -0.6291474
-0.19285193 -0.061386276 -0.4335052 0.42870617 0.42304793 -0.44346926 -0.17640996 0.37661794
0.16458334 -0.24895923 -0.50067127 0.023727411 -0.24099654 -0.4372798 0.35871735 -0.22617567
0.3580905 -0.5819731 0.06452449 0.35352564 -0.27180225 0.48804188 -0.7594181 -0.27930194
-0.6034636 -0.25814912 0.45731026 -0.16758573 -0.43405297 0.10731338 0.34016386 0.22883625
-0.5119292 0.6758977 -0.14503586 -0.17396273 -0.21107051 -0.31133938 0.53420746 -0.10648688
-0.38301107 -0.22073245 0.15850438 -0.07515967 -0.12020296 0.48664403 -0.24403091 -0.26699406
-0.11319488 0.32090232 0.45601055 -0.38771585 -0.012495973 -0.3075265 -0.022870535 0.017617956
0.025776813 -0.25911775 -0.1956518 -0.069011554 -0.40242264 0.7952543 -0.5196051 -0.18115893
0.49255285 -0.85427755 -0.35415468 -0.4452696 -0.16913301 -0.48608977 -0.68387634 -0.027482059
0.36365667 -0.39555418 0.048412133 -0.5789905 -0.38768137 -0.39831844 -0.17185566 -0.15119493
0.21753357 -0.05956069 -0.056160327 0.2307061 -0.117732905 -0.26594 0.14395712 0.17041855
-0.6203561 0.28713796 -0.010677154 0.25607237 0.01757185 -0.080480054 0.057659235 0.27709037
-0.457369 -0.22163253 -0.108695135 0.5310543 0.6656817 -0.26649246 0.2708137 0.64774424
0.40869159 -0.20858884 -0.5667438 -0.7466216 -0.6287511 -0.19031909 -0.08828079 0.3469091
0.35023406 0.39653668 -0.027117424 0.0013081192 -0.36069348 -0.16586646 -0.14469755 0.025249787
0.036414754 0.35695207 0.43210948 0.42965084 -0.25805447 0.1852178 -0.24399592 -0.05590455
-0.5244157 0.002812707 0.1089166 0.43218502 -0.46829146 0.24205361 -0.39390808 0.32919574
-0.33443916 0.09088953 -0.726178 -0.10907184 -0.06132898 -0.20431015 0.2353264 -0.5363607
-0.2708456 -0.26805273 -0.36216983 -0.22181974 0.51503694 -0.116719946 0.23120967 0.61229867
-0.04867927 -0.16661374 -0.27696756 -0.4007181 -0.463104 0.4248407 -0.6634351 -0.39289594
0.67865634 -0.52247185 -0.40020192 -0.70450234 -0.25646943 -0.063128985 -0.73938155 -0.2888661
0.6914361 -0.5279822 -0.519147 -0.2944707 -0.20702389 -0.44274938 -0.25091574 -0.10599179
0.11566286 -0.32977757 0.75931764 0.36336285 -0.18053189 0.10442645 0.40604123 -0.34477845
-0.020268569 -0.351927 -0.14727953 0.10341422 0.18698588 0.4079228 -0.2782907 0.05412516
-0.26933002 0.32599962 -0.2706854 0.35778767 -0.06421663 -0.15112896 -0.16181384 -0.31610242
-0.32979995 -0.30921778 0.06719573 0.3222524 -0.023633888 -0.09332036 -0.120038606 -0.5729351
-0.7216203 -0.35849318 -0.123492375 -0.059357613 -0.014704214 0.5521476 0.17761163 -0.2621872

bns.0.weight f4 [32]
00000000: 495a 8e3f f463 8d3f 9e87 893f 77ba 8c3f
00000010: d2e4 7d3f b798 853f 8741 8a3f 6202 793f
00000020: e032 743f 7f15 853f 5157 563f 482e 7c3f
00000030: ceee 7c3f a850 903f a9b5 743f 9d78 963f
00000040: 5968 923f ed79 6e3f 4c5f 9c3f b135 5f3f
00000050: 57ab 753f b1f7 693f eb2a 613f 63f5 8c3f
00000060: 8731 703f 287b 6b3f d274 793f e4c7 793f
00000070: b948 953f bdf3 783f dbbb 7b3f 3cc5 573f
1.1121303 1.1046128 1.0744512 1.0994405 0.9917728 1.043723 1.0801247 0.9726926
0.9539013 1.0397185 0.83726984 0.9850812 0.9880189 1.1274614 0.9558969 1.1755558
1.1438094 0.93154794 1.2216582 0.871913 0.9596457 0.9139357 0.8795611 1.1012386
0.9382557 0.91984797 0.9744388 0.97570634 1.1662818 0.97246915 0.9833352 0.8428533

bns.0.bias f4 [32]
00000000: fef0 09bf 3641 cc3d 6872 853e 7fb3 91bd
00000010: 2149 0c3e 5896 aabd c578 00be 16f2 d53e
00000020: 30b9 8dbe ff30 963b cde3 95bc 5a92 4bbc
00000030: bf6e 023e 7eaa 09be 5079 463e 07bd 093d
00000040: 399d c8bb a1ae 4cbe 1991 1abe 15e1 83bd
00000050: 4bb6 c73e acaa 833e d9d9 87be 0cad 4c3e
00000060: a10a 273e 2cf8 663e 4a73 34bd d9d7 4e3e
00000070: 23aa 78bc 754f 3abe fdf1 c4bd a8f4 633e
-0.5388335 0.099733755 0.26063848 -0.07114314 0.13699771 -0.08329457 -0.1254607 0.4178626
-0.2768035 0.0045834775 -0.0182971 -0.01242503 0.12737559 -0.13443944 0.19382215 0.033627536
-0.006122258 -0.1998849 -0.15094413 -0.06439415 0.39006266 0.2571615 -0.26533392 0.19987887
0.16312648 0.22555608 -0.04405526 0.20199527 -0.0151772825 -0.18194373 -0.09616468 0.22261298

bns.0.running_mean f4 [32]
00000000: feac 5a3e c923 463e c607 eebe 6d5c 8bbd
00000010: a17e 0b3e c0a5 ec3d 0086 c7bd 1ae6 8e3e
00000020: 0b16 013e 4f54 dc3d c6b9 9b3d 9b43 893e
00000030: 839f 233f 85c2 c0bf 7527 5e3e 0d03 29bd
00000040: 6c65 153f e32b 5c3e 8f6c 11be 6b44 3ebe
00000050: 971f 133e f809 ac3e 9a7c 873d 9b09 46be
00000060: ff7a 853e 04f5 953d f016 0c3f ea3c 6abf
00000070: 0575 bebe 93f8 82be 0078 2fbf 87e0 cc39
0.21355054 0.19349588 -0.46490306 -0.06804738 0.13622524 0.11555052 -0.09742355 0.2790993
0.12606065 0.10758268 0.07603793 0.2680939 0.6391527 -1.5059363 0.21694739 -0.041262675
0.5835788 0.21501116 -0.14201568 -0.18580787 0.1436752 0.33601356 0.06615563 -0.19339602
0.260704 0.07322124 0.547225 -0.914992 -0.37198654 -0.25580272 -0.6854248 0.00039077198

bns.0.running_var f4 [32]
00000000: 2939 fa3c 186c 5d3d 8036 883d 4662 493d
00000010: c24e 9c3d 88d8 373d 1b30 a43d c32c 5d3d
00000020: 7ccc 5b3d b82c 353d e6dc 473d 062d 813d
00000030: 24f0 873d 667b 1d3e 2c2d 163d 7361 1c3d
00000040: bbf7 b23d 2cf2 063d b514 213d ab87 253d
00000050: b944 813d ab2d 253d a2d7 183d f7c3 693d
00000060: 4462 823d 96c9 963d 5591 853d 6480 c23d
00000070: 54d3 743d dfe1 863d c815 c43d 0961 3a3d
0.030544834 0.054058164 0.0665102 0.049165986 0.07632209 0.044884235 0.08016988 0.053997766
0.05366181 0.0442321 0.04879465 0.06307416 0.066376 0.15379104 0.036664173 0.038178872
0.08738657 0.032945797 0.03932639 0.040412586 0.06311936 0.040326755 0.03731502 0.057071652
0.06366399 0.07362668 0.065218605 0.09497145 0.05977185 0.0658605 0.09574467 0.045502696

bns.1.weight f4 [32]
00000000: c8c1 933f 9c38 623f 06ba 793f 0618 813f
00000010: 9a45 813f 0d57 863f c370 953f d622 773f
00000020: b1c6 853f 4a57 8b3f f66f 8d3f eabf 603f
00000030: b06d 6c3f 4c23 5e3f f10e 8a3f 2137 893f
00000040: 244a 8e3f 0c3a 8f3f d1e3 673f 0758 853f
00000050: 869e 8c3f 8f9b 893f bea4 943f 5c42 863f
00000060: ed62 523f ca07 693f 1b17 8f3f 1138 723f
00000070: 4d48 7d3f 6564 403f e7bc 813f 3f15 6c3f
1.1543512 0.8836763 0.97549474 1.0085456 1.0099366 1.0495316 1.1675037 0.9653753
1.0451261 1.0886014 1.1049793 0.8779284 0.9235487 0.8677261 1.078581 1.0719949
1.1116376 1.118959 0.90581995 1.0417489 1.0985878 1.0750598 1.1612775 1.0489001
0.821822 0.9102751 1.1178926 0.946168 0.9893845 0.7515319 1.0135773 0.9221992

bns.1.bias f4 [32]
00000000: af54 5bbb 823e 41be f78d 283d f94c c7bd
00000010: 6f06 0a3e c5f3 24bd 7144 9b3e c4f5 3a3c
00000020: 129f 6c3c 879f 48bd cdbd b1bd e70b 783d
00000030: 0d7b a73c 071a 9cbc cd68 9bbc ea75 55bd
00000040: 0762 9ebc 2d62 ef38 2618 c83b c585 5b3e
00000050: 7b5d 213e 4c18 833e 7a6c fa3d 789b 873d
00000060: 5975 0d3e 584d 3cbe 1435 173e d79c 913e
00000070: 28bd 1b3e 9280 7abe 3dc4 15be 660d 613c
-0.0033467223 -0.18871501 0.041151013 -0.09731478 0.13479017 -0.04027154 0.30325654 0.011411134
0.014442222 -0.048980262 -0.0867878 0.060558226 0.020444417 -0.01905538 -0.018970871 -0.052114405
-0.019333852 0.00011414695 0.0061063943 0.21437748 0.15758316 0.25604475 0.122277215 0.0662145
0.13814296 -0.1838888 0.14766341 0.28439972 0.15208876 -0.24463108 -0.1462564 0.013736105

bns.1.running_mean f4 [32]
00000000: dca5 b4be 01a5 95bc 62d0 f1be c94c bbbe
00000010: acf5 0cbf 307d e6bf 17ae 2fbf fbc4 13bf
00000020: f2ca 6abc cd88 303d dfd5 25bf d591 13bf
00000030: 7a59 32bf 51cc 70be 2b9e 013e e99c 96be
00000040: 6b7c b5bf ea6d d53e 0f1d cf3c 2c0b 193e
00000050: f68b 2bbf 149f 52be b9d8 5bbf da36 c33d
00000060: 4287 1fbe 3d55 6bbf ecb1 62bf 11bf 2ebf
00000070: edde 5b3e bb94 89bf 8683 13bf a0dc 7d3e
-0.3528279 -0.018267157 -0.47229296 -0.3658202 -0.55062366 -1.8006954 -0.68625015 -0.57722443
-0.0143306125 0.043099213 -0.64779466 -0.576444 -0.6966778 -0.2351544 0.12657993 -0.29416588
-1.4178594 0.4168542 0.02528241 0.14945668 -0.6701044 -0.20568496 -0.8587757 0.095319465
-0.1557894 -0.9192694 -0.8855274 -0.68260294 0.21471758 -1.0748514 -0.57622564 0.24791193

bns.1.running_var f4 [32]
00000000: f750 3c3e 6fd3 073f 3d0f 133f ba12 213f
00000010: 1cad 2f3f c597 863f e9f9 a13e 3898 cf3e
00000020: a03c 103f c856 933e 281e 803f 0cee 3f3f
00000030: bba8 3f3f 300f a13e 0238 013f 966b 213f
00000040: 8def 143f 8be2 b83e 294f 0d3f 7061 cc3e
00000050: cd38 263f 5fae de3e c004 cc3e d7c2 0c3f
00000060: 39e0 d63e 0915 cf3e 8f27 1f3f e294 753f
00000070: 8d96 183f e978 873f 7a83 d13e ee31 813f
0.1839026 0.53057 0.57445127 0.629192 0.6862352 1.0515066 0.3163598 0.4054582
0.56342506 0.28777146 1.0009203 0.74972606 0.7486684 0.314569 0.50476086 0.6305479
0.58178025 0.3611034 0.55198914 0.3991809 0.6493042 0.4349241 0.39847374 0.549848
0.41967943 0.40445736 0.62169737 0.959303 0.5960472 1.0583774 0.4092062 1.0093362

bns.2.weight f4 [32]
00000000: acfb 8a3f c28e 843f db2c 8e3f 936d 783f
00000010: edd9 7d3f 3e7c 593f 8e76 8a3f b1f7 783f
00000020: b4c9 893f fc2a 753f 69e4 653f d118 893f
00000030: 2b52 963f 6664 793f 8f98 803f 5ad8 a43f
00000040: f1f9 763f 7fc9 953f b9f4 853f 45a6 3d3f
00000050: 6f8e 883f b7c6 523f 12ad 923f 9f6a 5c3f
00000060: 3439 8a3f 7604 6c3f a651 413f 9881 843f
00000070: 3e55 7a3f 7ba3 8b3f ee51 723f dc25 823f
1.0858054 1.0356066 1.1107439 0.97042197 0.99160653 0.84955204 1.081743 0.9725295
1.076468 0.95768714 0.8980165 1.0710698 1.1743826 0.9741882 1.0046557 1.2878525
0.9647513 1.1702117 1.0465308 0.7408183 1.0668467 0.82334465 1.1459067 0.8610019
1.0798707 0.92194307 0.7551521 1.0352049 0.9778632 1.0909265 0.94656265 1.0167804

bns.2.bias f4 [32]
00000000: 8fcc 7abe 9804 323e f79a 3c3d d7bb 0c3e
00000010: ea5c b23d 053e 033b 0ad2 2f3e ac94 19be
00000020: 1c27 54be 5435 173e cd34 0b3e 4895 7e3e
00000030: 984f 8d3e 7041 783d 8c0e 6a3d 0dd1 3c3d
00000040: f5ec d03c 01cc be3c bf73 963c 34ca 423e
00000050: 8aa0 7c3d e08f 423d 061e 99bd 4731 823e
00000060: 81ca 093d 896d 6abd a4df 4f3d a43f ff3d
00000070: dc29 9b3e b8c4 623e f49b 7d3d 3589 a53e
-0.24492095 0.17384565 0.046046223 0.1374353 0.08709128 0.002002598 0.17169967 -0.1499812
-0.20718044 0.14766437 0.1359436 0.24861634 0.27599788 0.06060928 0.05714278 0.046097804
0.025503615 0.023290636 0.018365739 0.19022447 0.06167654 0.04750049 -0.0747643 0.2542822
0.03364039 -0.057233367 0.05075039 0.1246331 0.30305374 0.22145355 0.061916307 0.32331243

bns.2.running_mean f4 [32]
00000000: 525e 47bf 092d a0be 1ad8 70bf 8dc1 133e
00000010: db8f 83bf 7116 613d 3f1e 0ebf 34a3 c1be
00000020: 40ee 5cbf 0de4 9cbf 5ef5 e83e 4eec e7be
00000030: 7b5c fabe 4f67 9abf a4d0 02bf 0a5e 65bf
00000040: be7a 89bf b4c9 08bf e570 963e 8390 aabe
00000050: a5c4 b7be 5351 51bf aaa2 16bf 6929 35bf
00000060: ea58 b3be a9e4 00bf 0357 50bf 3f39 b23e
00000070: b4f5 8ebe 18f3 95bb 24f6 843e 2945 16bf
-0.77878296 -0.3128436 -0.94079745 0.14429303 -1.0278276 0.054953042 -0.555149 -0.37819827
-0.8630104 -1.2257096 0.454997 -0.45297474 -0.48898682 -1.2062777 -0.5109961 -0.8959662
-1.0740583 -0.53432775 0.29383007 -0.3331338 -0.35892215 -0.81764716 -0.58841956 -0.7076631
-0.35028774 -0.5034891 -0.8138277 0.348093 -0.27921832 -0.004576098 0.2596904 -0.5869928

bns.2.running_var f4 [32]
00000000: 0740 e43e c09f 043f 0298 673f 13a6 1c3f
00000010: 3d5a 853f 182e 623f 9f89 2c3f 939d 343f
00000020: 9a7a d33e 5d0f 973f 4ca6 1d3f 8835 143f
00000030: c864 a83e 76fd 473f 155f 053f a919 2f3f
00000040: b10c 363f cd27 273f 9c27 3c3f acb1 513f
00000050: 48e9 413f a82e 833f 179d 163f 44a4 fc3e
00000060: 4e63 233f e060 6f3f 9099 853f 84d4 503f
00000070: bccc e13e 6b49 3b3f b9ce d83e 4de8 873f
0.445801 0.5180626 0.9046632 0.6119091 1.0418164 0.88351583 0.67397493 0.7055294
0.41304475 1.1801564 0.61581874 0.5789418 0.3288939 0.78121126 0.5209821 0.6839853
0.71113116 0.65295106 0.7349794 0.8191173 0.75746584 1.0248613 0.5883345 0.49344075
0.638234 0.93507195 1.0437489 0.81574273 0.44101512 0.731589 0.42345217 1.0617768

bns.3.weight f4 [32]
00000000: 9d96 b63f 72f8 b63f 094f ca3f 9db6 863f
00000010: 1176 b43f 2982 b33f af40 b33f 638c bf3f
00000020: 8889 c73f 17d4 b83f 50a3 aa3f ff07 c03f
00000030: ff71 b53f bdec b33f cedd b13f 19bd af3f
00000040: 55fe a73f 6b17 ad3f 707f c33f 278d ae3f
00000050: 9fad a63f fff4 b43f f5a8 833f 25f6 a33f
00000060: 50bc a53f 32ee b83f c9cd b93f 1d93 ab3f
00000070: 0010 d73f 3add ae3f da3f 8f3f 4c13 a63f
1.4264714 1.429457 1.580537 1.0524479 1.4098531 1.4024097 1.4004115 1.4964718
1.5588846 1.4439725 1.3331089 1.500244 1.4175414 1.4056622 1.3895814 1.3729583
1.3124491 1.3522772 1.5273266 1.3636826 1.3021735 1.4137267 1.0285937 1.2809492
1.2948093 1.4447691 1.4515926 1.340427 1.6801758 1.3661263 1.1191361 1.2974639

bns.3.bias f4 [32]
00000000: 53f4 af3e 451b ac3e 83b8 e93e 7996 43bc
00000010: a02a b33e 67ce 6f3e 3b37 ad3e 4063 bd3e
00000020: 589e e03e 90b3 633e d57a a33e a35e a83e
00000030: 50a2 c43e 4ab9 d23e 17bd bd3e 6e47 623e
00000040: c517 bd3d 0e45 a03e 3927 aa3e 048d 483e
00000050: ade2 983e 61fc 973e b8cb 89bd ec16 7c3e
00000060: f1eb 9b3e 6992 c43e 5f75 dd3d 271c 693e
00000070: 30be d63e 812f 9a3e 2a86 7abd 8fc1 e63d
0.34366092 0.33614555 0.45648584 -0.011937731 0.34993458 0.2341858 0.338312 0.36989784
0.43870807 0.22236466 0.3192965 0.32884702 0.38405085 0.4115699 0.37058327 0.22097561
0.09233049 0.31302685 0.3323305 0.19585043 0.2986044 0.29684737 -0.067283094 0.24618119
0.30453447 0.38392952 0.108134024 0.22764646 0.41941977 0.30114368 -0.061163105 0.11267387

bns.3.running_mean f4 [32]
00000000: 0136 97bd 13d8 c8bd 13ca 3b3e f2d0 b63e
00000010: 54c4 97be 24f5 a9be 23d2 82be f6dd 903e
00000020: e50c 43be ab9d 813c 8e97 003f 54ec e43d
00000030: b7a8 9d3d 0905 cd3d 10ba 773e 0eec 893e
00000040: e4d5 7e3e 1787 883e 08b4 bc3d 8aa9 403d
00000050: d3f2 103f 2984 ec3d ab3f 9e3f b54d 9b3d
00000060: 1f73 883d bda8 923e bfa8 fc3d b1b8 af3c
00000070: 4572 943e 58b8 133e 5915 413d b22a 693e
-0.07383347 -0.09806838 0.18338804 0.35706288 -0.29641974 -0.3319484 -0.25550947 0.28294343
-0.19047888 0.015822252 0.50231254 0.111778885 0.076981954 0.10010726 0.24192071 0.26937908
0.2488628 0.26665565 0.09214026 0.047036685 0.5662052 0.11548645 1.236318 0.07583181
0.066625826 0.28644362 0.12336873 0.021450372 0.2899343 0.1442579 0.0471395 0.22770193

bns.3.running_var f4 [32]
00000000: dbb2 563f ae72 6a3f 6c2c ba3e cee9 7f3f
00000010: 3f1b bb3e 47ef 333f 6447 de3e b6fb ce3e
00000020: e13b ce3e cb5c 213f 1419 243f 6ac5 453e
00000030: c1de 8d3e 93b5 6d3f 96ca 453f 9132 d53e
00000040: e070 883e 66bb db3e 6e05 473e 264e c63e
00000050: fcc5 fd3e d77b 193f b911 313f f0e9 5a3f
00000060: 5877 833f 63f6 ef3e dc1a d33e 1623 2f3f
00000070: 2b01 373e af16 803f 1c27 8c3e b8cc 003f
0.8386666 0.9158124 0.36362016 0.9996613 0.36544225 0.70286983 0.43413842 0.40426415
0.4028006 0.63032216 0.64100766 0.19313589 0.2770901 0.92855185 0.77262247 0.41640142
0.26648617 0.4291641 0.19435665 0.38731498 0.49565113 0.5995459 0.6916767 0.8551321
1.0270796 0.46867666 0.4123143 0.6841291 0.1787154 1.0006922 0.27373588 0.50312376
