saved/twitch-e_GCN_s1.pt (torch, 410019 bytes, 8 tensors)

layers.0.bias f4 [32]
0	0xbd19b631	-0.037527267
1	0xbd55e41b	-0.05221949
2	0xbc7ca908	-0.01542116
3	0x3b696756	0.0035614572
4	0xbc8f8454	-0.017519154
5	0x3c0f518c	0.00874747
6	0xbc910214	-0.017701186
7	0x3d07417b	0.03302143
8	0xbcef6ac9	-0.029225724
9	0x3d1cb8c4	0.038262144
10	0xbd544e70	-0.051832616
11	0xbd16b556	-0.03679403
12	0x3c427343	0.011868301
13	0x3c7e5d71	0.015525208
14	0x3cf2b32a	0.029626448
15	0x3ba04e04	0.0048921127
16	0x3d153966	0.036431693
17	0x3b8a4498	0.004219603
18	0xbbf110bf	-0.0073567326
19	0xbcda6a10	-0.026661903
20	0x3b69380b	0.0035586383
21	0x3c9e4594	0.019320287
22	0x3cb8fd59	0.022581743
23	0x3ce0060d	0.027346635
24	0x3d0ac6db	0.03388105
25	0x3bcd0e74	0.0062578265
26	0x3cf5a424	0.029985495
27	0x3cb9bc7a	0.02267288
28	0xbcc49f6a	-0.024001796
29	0x3ca39501	0.019968512
30	0xbd386dc6	-0.045026563
31	0x3cf98bb6	0.030462127

layers.0.lin.weight f4 [32, 3170]
0	0x3d0a5ade	0.033778064
1	0xbd27872e	-0.0409004
2	0xbe0c51bd	-0.13703056
3	0xbe7166cc	-0.2357437
4	0xbd53807c	-0.051636204
5	0xbc96eeab	-0.018424353
6	0xbe00d73d	-0.12582107
7	0xbe67717c	-0.22601885
8	0x3ceaaa06	0.028645527
9	0xbde7fd31	-0.11327589
10	0x3d18b59a	0.037282564
11	0x3dab5248	0.08365303
12	0xbd67409e	-0.056458108
13	0xbd7962d1	-0.060885254
14	0x3c921635	0.017832855
15	0xbdbae7df	-0.09126257
16	0xbde14bb9	-0.11000771
17	0xbdff8fd6	-0.124786064
18	0x3d81184c	0.063034624
19	0x3c8873f3	0.016656851
20	0x3cd47c8c	0.025938295
21	0xbd58f6ea	-0.05296985
22	0xbbc5b39a	-0.006033373
23	0xbd0dfc50	-0.034664452
24	0x3d1a64ca	0.037693776
25	0x3dd663c1	0.10468245
26	0xbdf3bb74	-0.11900988
27	0xbc4dda61	-0.012564273
28	0x3e2b0683	0.16701703
29	0xbc024523	-0.007951054
30	0xbce7356b	-0.028223714
31	0x3cb08a31	0.02155027
32	0xbc7e351e	-0.015515594
33	0xbda3ba64	-0.079945356
34	0xbdb2e622	-0.087353006
35	0x3e3a22c8	0.1817733
36	0x3de0a105	0.10968212
37	0x3d11f90a	0.035637893
38	0xbcb49016	-0.022041362
39	0xbe0bc1fd	-0.1364822
40	0x3dbaba98	0.09117621
41	0x3d2a574d	0.041587163
42	0x3d2ac879	0.041695092
43	0xbcb636b3	-0.02224288
44	0x3c1c02de	0.009522168
45	0xbdaf9f7b	-0.0857534
46	0x3d2d836f	0.042361673
47	0xbbcddbdb	-0.0062823123
48	0xbda9973b	-0.08280798
49	0xbe1b6eba	-0.15178958
50	0x3d1e2372	0.038608022
51	0xbd38ddce	-0.045133404
52	0x3dc3b51a	0.09556027
53	0x3db55d71	0.08855713
54	0x3d63511b	0.05549727
55	0xbdd770c1	-0.10519553
56	0x3e475b07	0.19468318
57	0xbe4b46ab	-0.19851176
58	0x3e0a7854	0.13522464
59	0xbcd6aafe	-0.026204582
60	0x3d3408c5	0.043953676
61	0xbdc644cc	-0.09681091
62	0xbe2fdd6a	-0.17174307
63	0xbc3784c6	-0.011201089
64	0x3e05be53	0.13060884
65	0xbd403fea	-0.046935953
66	0xbdbebb1c	-0.09313032
67	0x3d10b61d	0.035329927
68	0x3db7fc97	0.089837246
69	0xbbf8da68	-0.0075943954
70	0x3e128780	0.14309502
71	0x3da22671	0.07917488
72	0xbc490929	-0.01227025
73	0xbe11579a	-0.14193574
74	0x3dfc84ce	0.12330018
75	0x3e355cff	0.17711256
76	0x3d040cc0	0.03223872
77	0xbd5441fa	-0.051820733
78	0xbd91ff96	-0.07128827
79	0x3d47701a	0.048690893
80	0xbdc180f9	-0.09448428
81	0x3d850891	0.064957745
82	0x3d1f0e65	0.038832087
83	0xbceb0b59	-0.028691934
84	0x3bf9362f	0.007605336
85	0x3cd413fc	0.025888436
86	0x3d9268f0	0.071489215
87	0xbde8565b	-0.11344596
88	0xbd288257	-0.041139927
89	0xbd668226	-0.056276463
90	0xbcbeb5f0	-0.023280114
91	0x3d3651ed	0.044511724
92	0x3e120bc5	0.14262302
93	0x3c6ca000	0.014442444
94	0xbcfd8597	-0.03094749
95	0xbddf3e1d	-0.10900519
96	0x3d114f30	0.03547591
97	0x3cb32501	0.02186823
98	0x3e1adcdd	0.15123315
99	0x3d86801d	0.065674044
100	0xbd931100	-0.07180977
101	0xbde850a5	-0.11343507
102	0xbe366e9b	-0.1781563
103	0xbdd6a5c5	-0.10480837
104	0xbddd3803	-0.10801699
105	0xbc5636ba	-0.013074571
106	0xbdc6541d	-0.09684012
107	0x3e0731c6	0.13202581
108	0xbc27b39b	-0.010235692
109	0xbd828046	-0.063721225
110	0xbbf2b45a	-0.0074067535
111	0x3d8fc561	0.07020069
112	0xbe1c89e7	-0.1528698
113	0xba2eaee9	-0.0006663637
114	0xbcb5eb0e	-0.02220681
115	0xbd4179a6	-0.047235154
116	0xbc9e0f6a	-0.01929446
117	0xbd21fc32	-0.039547153
118	0xbcf3edb9	-0.029776441
119	0x3c5a4c06	0.013323789
120	0x3d999117	0.07498377
121	0x3e3a5c5c	0.18199295
122	0x3da170d7	0.078828506
123	0xbca64510	-0.020296603
124	0x3d9b27f6	0.07575981
125	0x3d0fda42	0.035120256
126	0x3dabe19c	0.08392641
127	0xbd727a05	-0.0591984
128	0x3c9ddf54	0.01927153
129	0x3d16671a	0.03671942
130	0x3ad28acc	0.0016063093
131	0x3de15b7d	0.11003778
132	0xbc1eb02c	-0.009685557
133	0xbc3a3999	-0.011366271
134	0x3e24aea9	0.16082253
135	0xbca67b01	-0.020322325
136	0x39848e4c	0.0002528302
137	0xbd666111	-0.056244913
138	0xbcbbdeb0	-0.022933334
139	0x3d25c7d3	0.04047377
140	0xbc819d83	-0.015822178
141	0xbc61351c	-0.013745572
142	0x3d029a5d	0.031885494
143	0xbe24c0c5	-0.1608916
144	0x3e6f04b0	0.23341632
145	0xbdbd156c	-0.092326015
146	0xbdc00eab	-0.09377798
147	0xbe0b7349	-0.13618197
148	0x3de35ba1	0.11101461
149	0x3c517dab	0.012786309
150	0x3e0f1c32	0.139756
151	0x3dbb9a9f	0.09160351
152	0xbd956787	-0.07295137
153	0xbd53b18c	-0.051682994
154	0x3e167fef	0.1469724
155	0x3ded4d50	0.11587012
156	0x3db5d3b8	0.08878273
157	0x3d352d46	0.04423263
158	0xbd22084e	-0.0395587
159	0xbdf70ed6	-0.120633766
160	0xbde89b8a	-0.11357792
161	0xbdee47fe	-0.11634825
162	0xbd9daafd	-0.07698629
163	0x3caef603	0.021357542
164	0x3d116496	0.035496317
165	0xbbf39c0a	-0.007434373
166	0xbc4e7181	-0.012600304
167	0x3d54f44c	0.051990792
168	0xbd101f8e	-0.035186343
169	0x3dccd182	0.10000898
170	0xbd76e626	-0.06027808
171	0x3d1a95e6	0.03774061
172	0xbd12dfb9	-0.03585789
173	0xbda4cdda	-0.080470756
174	0xbd52bf68	-0.05145207
175	0xbd881bb0	-0.06645906
176	0x3d84f662	0.06492306
177	0x3d5d7653	0.05406792
178	0xbd82f0f0	-0.063936114
179	0xbd3d3bba	-0.046199538
180	0xbde4d3f8	-0.11173242
181	0xbd8f6f5d	-0.07003663
182	0x3d2aa34e	0.041659646
183	0x3d6f8767	0.05847874
184	0x3e34bcde	0.17650172
185	0xbd9ca5c1	-0.076488025
186	0xbdbd9392	-0.092566624
187	0xbdd1facd	-0.102529146
188	0x3e0d9f8a	0.1383039
189	0xbd84e3e0	-0.06488776
190	0xbe089037	-0.13336264
191	0xbd89ea1c	-0.06734106
192	0x3e2bfc3b	0.16795437
193	0xbde13b7e	-0.10997675
194	0xbd07cb17	-0.033152666
195	0x3c9f8748	0.019473687
196	0xbddd3025	-0.108001985
197	0x3e461df8	0.1934737
198	0xbc7fdfb4	-0.0156173
199	0xbc79f0c1	-0.015255154
200	0xbd9c5148	-0.07632691
201	0x3dd48789	0.10377414
202	0xbcb94e62	-0.022620384
203	0x3dfe6fe8	0.12423688
204	0x3d046485	0.032322425
205	0x3dc32092	0.09527697
206	0xbe0c5e56	-0.13707861
207	0xbdd5473f	-0.1041398
208	0xbd93a1ee	-0.0720862
209	0xbbf135bf	-0.0073611434
210	0xbdf780a2	-0.12085082
211	0x3e2c169d	0.16805501
212	0xbcfbf209	-0.03075506
213	0x3cc317b5	0.023815015
214	0xbc4d2493	-0.012520927
215	0xbd16bbd1	-0.03680021
216	0xbd6b80e4	-0.057495967
217	0xbe3517b5	-0.17684825
218	0xbde2a761	-0.11067081
219	0x3d3217d7	0.043479767
220	0xbe2e3f51	-0.17016341
221	0x3b2fe0ca	0.0026836866
222	0x3db7dc09	0.08977515
223	0xbd726ade	-0.059183948
224	0xbb53cd5a	-0.0032318444
225	0x3e520e7b	0.20513336
226	0xbdc8fa6f	-0.098133914
227	0xbc0957aa	-0.008382717
228	0xbd586971	-0.05283493
229	0xbd42ba8a	-0.04754118
230	0xbe1a66d7	-0.15078293
231	0xbe0b86c9	-0.13625635
232	0xbde7ef87	-0.11324983
233	0xbe1752d8	-0.14777696
234	0x3d15422b	0.036440056
235	0xbdb4938a	-0.08817203
236	0xbe31eff5	-0.17376693
237	0xbd10c489	-0.03534368
238	0xbdf4c715	-0.119520344
239	0x3cbca022	0.023025576
240	0x3ce0c214	0.027436294
241	0x3cc3d48a	0.023905057
242	0xbe09d7ab	-0.13461177
243	0xbd81c632	-0.06336631
244	0x3c36d41e	0.011158971
245	0xbdbe875c	-0.093031615
246	0x3e251801	0.16122438
247	0xbe03dea6	-0.12877902
248	0x3dbb9cce	0.091607675
249	0x3df90147	0.12158447
250	0x3d14e115	0.036347467
251	0x3d857edd	0.06518338
252	0x3d0f0735	0.034918983
253	0x3ccf4105	0.025299558
254	0xbcdeaf28	-0.02718313
255	0xbcfae453	-0.030626452

layers.1.bias f4 [2]
0	0xbc58f12a	-0.013241092
1	0x3ca6814b	0.020325324

layers.1.lin.weight f4 [2, 32]
0	0xbd014396	-0.031558596
1	0xbea39403	-0.3194886
2	0x3e01aa8b	0.12662713
3	0xbeaaa016	-0.3332526
4	0x3eb7770b	0.3583301
5	0x3db1d2c9	0.08682782
6	0xbe8b3d3e	-0.27195162
7	0xbcd51b8c	-0.026014112
8	0x3bca665b	0.0061767525
9	0x3e9c2735	0.30498663
10	0x3e64dc09	0.22349562
11	0xbef3f677	-0.47648975
12	0xbe7015f0	-0.23445868
13	0x3e58cbb4	0.21171457
14	0xbd86978f	-0.06571876
15	0xbe7f1e32	-0.24913862
16	0x3e6c6cad	0.23088332
17	0xbe9714dc	-0.29508102
18	0xbe03aa2e	-0.12857887
19	0x3dcce6a1	0.100049265
20	0xbe7883e7	-0.24269067
21	0x3ea47780	0.3212242
22	0x3eb9fcd8	0.36325717
23	0x3ea9779c	0.33099067
24	0xbe15a428	-0.14613402
25	0x3d9cffe9	0.076659985
26	0xbcd89b74	-0.026441313
27	0x3e6c66b3	0.23086052
28	0x3df320fd	0.118715264
29	0x3ee002a6	0.4375202
30	0x3e8572e1	0.26064208
31	0x3e324014	0.17407256
32	0x3ed99937	0.42499706
33	0x3ec960d9	0.393317
34	0x3e462a9e	0.19352195
35	0x3e473104	0.19452292
36	0x3ec17329	0.37783173
37	0x3d61dc5d	0.055141795
38	0xbdb7f34f	-0.08981954
39	0xbeb22fac	-0.34801996
40	0xbd8b3a74	-0.067982584
41	0xbebbb5b2	-0.3666206
42	0xbeb93b33	-0.36177978
43	0x3d9c06da	0.07618494
44	0xbd448074	-0.047974065
45	0x3e2d6b99	0.16935576
46	0x3dca47a6	0.09876947
47	0xbd2d3b82	-0.04229308
48	0xbe37aaf6	-0.1793631
49	0xbeb7e3f2	-0.35916096
50	0xbe8fa977	-0.2805898
51	0x3e9ee5fc	0.3103484
52	0xbc0658f0	-0.008199915
53	0x3e0094a8	0.12556708
54	0xbd13b4fe	-0.03606128
55	0x3df54011	0.1197511
56	0xbe95b7d3	-0.2924181
57	0xbe4773ae	-0.19477722
58	0xbeaec6fc	-0.34136188
59	0xbe1c64ea	-0.1527287
60	0x3e006d59	0.12541713
61	0xbd53bd9c	-0.051694497
62	0xbe3e9ead	-0.18615218
63	0xbd12752b	-0.03575627

bns.0.weight f4 [32]
0	0x3f864465	1.0489622
1	0x3f892528	1.0714464
2	0x3f6bbfab	0.9208934
3	0x3f99bfed	1.2011696
4	0x3f728e2b	0.9474818
5	0x3f68a986	0.9088367
6	0x3f6a7950	0.9159136
7	0x3f7bb9ee	0.9833058
8	0x3f7314bd	0.9495352
9	0x3f7b17a1	0.9808293
10	0x3f7697c3	0.9632532
11	0x3f92e055	1.1474711
12	0x3f6fb1b5	0.93630534
13	0x3f6d84ef	0.92780966
14	0x3f7bd670	0.9837408
15	0x3f70bce7	0.9403824
16	0x3f7d4e16	0.98947275
17	0x3f78b2a0	0.9714756
18	0x3f77dc12	0.96820176
19	0x3f75d61e	0.9602984
20	0x3f72bf3c	0.9482305
21	0x3f711a84	0.94181085
22	0x3f73e8f6	0.95277345
23	0x3f72d9ec	0.9486377
24	0x3f7b6b78	0.9821086
25	0x3f74f121	0.95680434
26	0x3f7db404	0.9910281
27	0x3f879b0f	1.0594195
28	0x3f6e5a50	0.93106556
29	0x3f871189	1.0552226
30	0x3f74f6ed	0.9568928
31	0x3f74b4e3	0.9558851

bns.0.bias f4 [32]
0	0x3e1a224d	0.15052147
1	0x3e279406	0.1636506
2	0xbda54fa8	-0.08071834
3	0x3e7b5ece	0.24547884
4	0xbc7fae0e	-0.015605463
5	0xbdb40711	-0.0879041
6	0x3db3c072	0.087769404
7	0xbd64c7ff	-0.055854794
8	0xbd8828ae	-0.06648384
9	0xbd851ee2	-0.06500031
10	0xbd347337	-0.04405519
11	0x3e5a45e2	0.2131572
12	0x3dc25fc9	0.09490926
13	0xbdaea2d2	-0.08527149
14	0x3dcfcd67	0.10146599
15	0x3db50739	0.08839268
16	0xbd84e957	-0.064898185
17	0xbcef0c0c	-0.02918055
18	0xbd575701	-0.052573208
19	0x3dbd8bdf	0.09255194
20	0x3dc63122	0.0967734
21	0xbd9e9c2d	-0.07744632
22	0xbd9bde26	-0.07610731
23	0xbda92ab4	-0.08260098
24	0xbd39fcc6	-0.04540708
25	0xbd81b07a	-0.06332488
26	0xbd69878e	-0.05701404
27	0xbd09a041	-0.033600096
28	0xbda10b3f	-0.07863473
29	0xbd12c2ad	-0.03583019
30	0xbd65188f	-0.055931624
31	0xbd956f1d	-0.07296584

bns.0.running_mean f4 [32]
0	0x3d9d6f52	0.07687248
1	0x3ba2a4f0	0.0049635097
2	0xbf364bc4	-0.7120936
3	0x3d7b888b	0.061409514
4	0x3eb436c7	0.35198042
5	0xbf29a79f	-0.66271394
6	0x3f19206a	0.59815085
7	0xbf0fe57d	-0.56209546
8	0xbf235f3b	-0.63817185
9	0xbf094fe3	-0.5363752
10	0xbeb7a3b8	-0.35867095
11	0x3d665411	0.056232516
12	0x3f1d0c87	0.6134724
13	0xbf209149	-0.6272169
14	0x3f12d0c8	0.57349825
15	0x3f1fcc78	0.6242137
16	0xbf0073ea	-0.5017687
17	0xbf1887fb	-0.5958249
18	0xbf1d09cc	-0.61343074
19	0x3f0f0059	0.55859905
20	0x3f19c2d5	0.60062915
21	0xbf15643e	-0.5835608
22	0xbf1ad30f	-0.604783
23	0xbf08aba3	-0.53386897
24	0xbf088ef9	-0.5334316
25	0xbf22d1eb	-0.6360156
26	0xbf0c76e5	-0.5486892
27	0xbe01ee61	-0.1268859
28	0xbf19b5f8	-0.6004329
29	0xbb8713ef	-0.0041222493
30	0xbef613c2	-0.4806195
31	0xbf148b34	-0.5802491

bns.0.running_var f4 [32]
0	0x3dcac1ac	0.09900221
1	0x3ddd398b	0.10801991
2	0x3ebc16cc	0.36736143
3	0x3da0055b	0.078135215
4	0x3e3e5bbc	0.18589681
5	0x3eb858c5	0.36005226
6	0x3ea62a75	0.32454267
7	0x3e99c668	0.30034184
8	0x3ea67157	0.32508346
9	0x3e93ab2e	0.28841537
10	0x3e11de10	0.14244866
11	0x3db31df5	0.08745948
12	0x3ea43fd2	0.3207994
13	0x3ea9c263	0.33156118
14	0x3e81df31	0.25365594
15	0x3e9e065a	0.3086422
16	0x3e86ffd1	0.26367047
17	0x3e9d8f38	0.3077333
18	0x3ea30034	0.31836092
19	0x3e9c785c	0.30560577
20	0x3e9f001e	0.31054777
21	0x3ea11e65	0.31468502
22	0x3ea3e98f	0.3201413
23	0x3e8d3f6e	0.27587456
24	0x3e962fce	0.29333347
25	0x3ea44949	0.32087162
26	0x3e956feb	0.2918695
27	0x3de92fdf	0.11386084
28	0x3e90d051	0.28283933
29	0x3dd67772	0.10472001
30	0x3e51a68a	0.20473686
31	0x3ea211e7	0.31654283
